PointPillarUpgrades/output_20251129_173411/pointpillars_ModelNet10.pth (torch, 663206 bytes, 40 tensors)

pfn.blocks.0.fc.weight f4 [64, 8]
0	0xbe944645	-0.2895986
1	0x3e3c2673	0.18374042
2	0xbea841fb	-0.3286284
3	0xbe15bb49	-0.14622225
4	0xbe0c6811	-0.13711573
5	0xbdc250ee	-0.09488092
6	0xbd4fc1ab	-0.050721806
7	0xbd8538ff	-0.06505012
8	0xbd81a8df	-0.06331038
9	0xbd5b31d0	-0.0535143
10	0xbd8d2a47	-0.068928294
11	0x3df16832	0.11787452
12	0x3e134fce	0.14385912
13	0x3ebb71f2	0.3661037
14	0xbe4c0a73	-0.19925861
15	0x3e2bfdb2	0.16795996
16	0xbe832a49	-0.256182
17	0x3e464b9a	0.19364777
18	0xbe58c379	-0.21168317
19	0x3d6dd18d	0.05806117
20	0x3dcfbe8e	0.10143767
21	0x3e9ab136	0.30213326
22	0xbc77ef06	-0.015132671
23	0xbe97fabd	-0.29683486
24	0x3e074942	0.1321154
25	0xbd68e590	-0.056859553
26	0xbeab316f	-0.33436152
27	0xbcb8c8d1	-0.022556694
28	0x3cff9e6c	0.031203471
29	0x3e81accd	0.2532715
30	0xbe719c47	-0.23594771
31	0x3eb155c2	0.3463574
32	0x3eb440bf	0.35205647
33	0xbdbc8b99	-0.09206314
34	0x3ea392af	0.31947848
35	0x3e183436	0.14863667
36	0x3c8b4cf4	0.017004468
37	0x3a9d709b	0.0012011708
38	0x3e762d64	0.24040753
39	0x3e47a7e9	0.19497646
40	0x3db03ec7	0.08605724
41	0x3e6d0685	0.23147018
42	0xbe0afb58	-0.13572443
43	0xbdace629	-0.08442337
44	0x3d5544c9	0.05206755
45	0x3e853d1e	0.2602319
46	0x3e54cc0f	0.20780967
47	0x3e1d6984	0.15372282
48	0x3e2382f5	0.15967925
49	0x3e8feee3	0.28111944
50	0xbe2f0ce9	-0.17094769
51	0x3c8e6063	0.017379945
52	0xbd4425bc	-0.04788755
53	0xbea1cebd	-0.3160304
54	0xbe5b6939	-0.21426858
55	0xbd9af9a4	-0.075671464
56	0xbe2ab60f	-0.16671012
57	0x3db60d64	0.08889273
58	0xbe9fea8e	-0.3123364
59	0x3e048651	0.12941863
60	0xbe3e16fe	-0.18563458
61	0x3e8c7f0f	0.27440688
62	0xbe5320aa	-0.20617929
63	0x3e9d6922	0.30744272
64	0xbd8aa725	-0.067701615
65	0x3ca984fa	0.020693291
66	0xbe8f794b	-0.28022227
67	0xbea080d2	-0.31348282
68	0xbce04905	-0.027378568
69	0xbeb46dc2	-0.3523999
70	0xbea8c340	-0.32961464
71	0xbded8f19	-0.11599559
72	0xbe919eef	-0.2844157
73	0x3cb24d26	0.021765303
74	0x3ccba047	0.0248567
75	0x3e134d8c	0.1438505
76	0xbe8e5fff	-0.27807614
77	0xbe4ccee6	-0.200008
78	0xbea8daaf	-0.32979342
79	0x3e9dc1cb	0.30811915
80	0xbe9a4bb0	-0.3013587
81	0xbe564821	-0.20925952
82	0x3e8c2eba	0.273794
83	0xbd1049bf	-0.03522658
84	0xbd391545	-0.0451863
85	0xbebe2f48	-0.37145448
86	0x3d964e0c	0.07339105
87	0xbd9fc32f	-0.078009
88	0xbe54b72b	-0.20772998
89	0x3e6e774a	0.23287693
90	0x3e060e61	0.13091423
91	0xbea36a3d	-0.3191699
92	0xbe4a201f	-0.19738816
93	0x3d22e6eb	0.039771
94	0x3e9d9c0c	0.30783117
95	0x3ea100fd	0.31446066
96	0x3dba22ad	0.09088645
97	0x3d812ab8	0.06306976
98	0x3ec479e7	0.38374254
99	0x3e57d3a3	0.21076827
100	0xbe149d34	-0.14513093
101	0x3d00ffff	0.031494137
102	0xbe70c2b5	-0.23511775
103	0xbd35d85e	-0.044395797
104	0xbe729259	-0.2368864
105	0x3ead3119	0.3382652
106	0x3c015a12	0.00789501
107	0x3e55ef99	0.2089218
108	0xbe6624c2	-0.2247496
109	0x3e455c61	0.19273521
110	0x3e421e69	0.18956913
111	0xbe71040f	-0.23536704
112	0xbe1902ea	-0.14942518
113	0x3e91b844	0.28460896
114	0xbdd52988	-0.10408312
115	0xbc549866	-0.012975788
116	0x3d7c2b63	0.061564814
117	0xbd27abc3	-0.04093529
118	0x3e3f2fd8	0.18670595
119	0xbd7d9045	-0.061905164
120	0xbe8e670d	-0.27812997
121	0xbcea5cde	-0.028608736
122	0xbe0a5e31	-0.13512494
123	0x3d8bbaed	0.06822763
124	0x3e1df73c	0.15426344
125	0x3e7e6f3a	0.24847117
126	0x3ded26f6	0.11579697
127	0xbcd9c27f	-0.026582
128	0x3eaf1854	0.34198248
129	0x3e764345	0.24049099
130	0x3dc45d26	0.09588079
131	0xbd52d81a	-0.05147562
132	0xb9d12180	-0.00039888546
133	0xbea45bfc	-0.32101429
134	0x3dcadd4e	0.09905492
135	0xbe9bf742	-0.3046208
136	0x3e1928b7	0.14956938
137	0xbe38a79b	-0.18032686
138	0x3d05f409	0.032703433
139	0x3cda7a3a	0.02666961
140	0xbd09aee7	-0.033614065
141	0x3e3151e5	0.17316397
142	0x3d616e32	0.05503673
143	0xbe53fdfc	-0.20702356
144	0x3e993177	0.2992055
145	0x3e95401b	0.2915047
146	0xbe88de5e	-0.26732153
147	0xbe06f7b5	-0.1318043
148	0x3e8bb2bc	0.272848
149	0x3d8b33af	0.06796967
150	0x3deba7cb	0.11506613
151	0x3e5bb875	0.21457084
152	0xbe7623b6	-0.2403706
153	0x3d8beb03	0.06831934
154	0xbe6bdecf	-0.23034213
155	0xbd93093a	-0.07179494
156	0x3e1d7da9	0.15379967
157	0x3e7d2cc6	0.24724111
158	0xbea28d3c	-0.31748378
159	0xbda53f89	-0.08068759
160	0xbe87dfa3	-0.2653781
161	0xbcfe7478	-0.031061396
162	0x3e9a4cca	0.3013671
163	0xbe729e26	-0.23693141
164	0x3dc1d2a1	0.094640024
165	0x3eb5f25a	0.35536462
166	0xbe85e22d	-0.2614912
167	0x3e1864d7	0.14882217
168	0x3e8e377f	0.27776715
169	0xbd786a79	-0.060648415
170	0x3e7b09c1	0.2451544
171	0x3e826d19	0.2547386
172	0x3e420c40	0.18949986
173	0x3ca0d6c5	0.01963366
174	0x3e66aef9	0.22527684
175	0x3e81f701	0.25383762
176	0x3e3ad42f	0.18245004
177	0x3e3683ec	0.17823762
178	0x3e0ce656	0.13759741
179	0xbd549477	-0.0518994
180	0x3ea42ec7	0.32066938
181	0x3e3fb715	0.18722184
182	0x3e323666	0.17403564
183	0xbe12a3a7	-0.14320241
184	0x3de847a1	0.11341787
185	0xbbe54f24	-0.0069979597
186	0x3ec4f53b	0.38468346
187	0x3d80e8d1	0.06294406
188	0xbab23f16	-0.0013599123
189	0xbd9de532	-0.07709731
190	0xbe915bdd	-0.283904
191	0x3e919fc9	0.2844222
192	0xbdb97894	-0.090562016
193	0xbe3fc2a5	-0.18726595
194	0xbea1150a	-0.31461364
195	0xbe6171fc	-0.22016138
196	0x3d99e32d	0.075140335
197	0xbe06b241	-0.13153936
198	0xbe861176	-0.26185197
199	0xbd9b9783	-0.07597258
200	0x3bb604bb	0.005554763
201	0xbe370cf3	-0.17876033
202	0xbdcc842b	-0.099861465
203	0x3eaaf1e1	0.33387664
204	0xbd1f70d0	-0.038925946
205	0xbe8b91ab	-0.27259573
206	0x3dc2a885	0.09504799
207	0x3e8d8bdd	0.2764577
208	0x3ebbd121	0.3668299
209	0x3dbb35c0	0.091411114
210	0xbce40414	-0.027833976
211	0xbc86bd36	-0.016447645
212	0x3e2306ee	0.15920612
213	0xbdda18fe	-0.10649298
214	0xbe100e50	-0.1406796
215	0x3e5bb5f6	0.21456131
216	0x3e0dbc22	0.13841298
217	0x3ea8a2a5	0.32936588
218	0x3e762400	0.2403717
219	0x3d9714b9	0.073769994
220	0x3ce2f8f4	0.0277066
221	0xbcea0d9b	-0.02857094
222	0x3dcc0eb1	0.0996374
223	0x3bb15480	0.0054116845
224	0xbdab14d5	-0.08353583
225	0xbea27ccf	-0.31735846
226	0xbe252748	-0.16128266
227	0xbdd38515	-0.10328118
228	0xbd59be6f	-0.053160127
229	0x3d3012d4	0.042986706
230	0x3e8ca640	0.2747059
231	0x3e82b56e	0.25529045
232	0x3e86db8b	0.26339373
233	0xbd3f2cbd	-0.046673525
234	0x3e27ebe2	0.16398576
235	0xbdb32d7e	-0.08748911
236	0x3dd7e118	0.1054098
237	0x3e9b4df7	0.3033292
238	0x3ea938c0	0.3305111
239	0xbe16196e	-0.14658138
240	0xbe87cadd	-0.2652196
241	0xbd86ba78	-0.06578535
242	0x3e1ef5bc	0.15523428
243	0xbe03c4c0	-0.12868023
244	0xbc84f20a	-0.016228694
245	0x3bd1feb2	0.006408536
246	0xbe8ab9a0	-0.27094746
247	0x3e097623	0.13423972
248	0x3e90ec4f	0.2830529
249	0xbe5a4e72	-0.21318987
250	0x3e5c1d52	0.2149556
251	0xbdbc613b	-0.09198233
252	0xbe4b45fb	-0.19850914
253	0xbe182238	-0.14856803
254	0xbd3786bd	-0.04480623
255	0xbe2f458e	-0.17116377

pfn.blocks.0.bn.weight f4 [64]
0	0x3f7b0967	0.9806122
1	0x3f7fca9f	0.9991855
2	0x3f7a956e	0.9788426
3	0x3f823122	1.0171244
4	0x3f811e60	1.0087395
5	0x3f7ba18a	0.98293364
6	0x3f7f5c6b	0.99750394
7	0x3f7e8ad5	0.9943059
8	0x3f85f53c	1.0465465
9	0x3f818c28	1.0120897
10	0x3f824ee6	1.0180328
11	0x3f7e7d16	0.99409616
12	0x3f84cd94	1.0375237
13	0x3f80b923	1.0056499
14	0x3f7aa049	0.97900826
15	0x3f7d06be	0.9883841
16	0x3f769912	0.96327317
17	0x3f80bf03	1.0058292
18	0x3f7b28ed	0.9810932
19	0x3f79104b	0.97290486
20	0x3f83a37a	1.0284264
21	0x3f7a91ed	0.97878915
22	0x3f7a7e59	0.9784904
23	0x3f855b8b	1.0418562
24	0x3f7d11da	0.98855364
25	0x3f78945e	0.9710139
26	0x3f7b5747	0.9818005
27	0x3f804a97	1.0022763
28	0x3f782a2a	0.9693934
29	0x3f7c3d05	0.9853061
30	0x3f80f797	1.0075558
31	0x3f7d5ed6	0.98972833
32	0x3f78eb73	0.97234267
33	0x3f827f3f	1.0195082
34	0x3f78d534	0.9720032
35	0x3f760fca	0.9611784
36	0x3f7d503f	0.9895057
37	0x3f812a68	1.0091066
38	0x3f83b163	1.0288509
39	0x3f868aca	1.0511105
40	0x3f7496b2	0.9554244
41	0x3f842665	1.0324217
42	0x3f76c2a9	0.9639078
43	0x3f7cf466	0.9881042
44	0x3f839591	1.0280019
45	0x3f7b8c67	0.9826111
46	0x3f7c3d61	0.98531157
47	0x3f811387	1.0084084
48	0x3f801ca0	1.0008736
49	0x3f7b98fa	0.982803
50	0x3f7deb57	0.99187225
51	0x3f784676	0.96982515
52	0x3f86bc64	1.0526242
53	0x3f7f9d15	0.99849063
54	0x3f7cab94	0.9869931
55	0x3f811fd4	1.0087838
56	0x3f79fed7	0.9765448
57	0x3f77dfec	0.9682605
58	0x3f7b61ae	0.9819592
59	0x3f7ea4c6	0.99470174
60	0x3f78481b	0.96985024
61	0x3f7d98a4	0.99061036
62	0x3f7e825a	0.9941765
63	0x3f7b0c09	0.9806524

pfn.blocks.0.bn.bias f4 [64]
0	0xbd0ad8ef	-0.03389829
1	0xbd0e2ea5	-0.034712452
2	0xbbe65b2d	-0.007029912
3	0x3d046eb3	0.032332134
4	0xbc80e352	-0.015733395
5	0xbc36f6c9	-0.011167237
6	0xb989a236	-0.00026251533
7	0xbd43ac85	-0.04777195
8	0x3b8cb30d	0.0042938055
9	0x3d92d4ed	0.071695186
10	0xbbd78c13	-0.0065779774
11	0xbc562c77	-0.013072125
12	0xbd845898	-0.064622104
13	0x3c524000	0.012832642
14	0x3c5e040c	0.01355077
15	0x3d832c16	0.06404893
16	0xbc2f4f07	-0.010699994
17	0x3bec5f5d	0.0072135166
18	0x3b2e3752	0.0026583266
19	0xbc6a8147	-0.014313049
20	0xbcbff0fe	-0.023430344
21	0xbcb46266	-0.022019576
22	0xbd4b9658	-0.049703926
23	0xbd85ea80	-0.06538868
24	0x3bac53ab	0.0052589974
25	0x3cebcee2	0.028785173
26	0x3c3f8108	0.011688478
27	0x3b92cabc	0.004479734
28	0xbc9624d6	-0.018328112
29	0xbbc42a1d	-0.0059864656
30	0xbc2e83c5	-0.0106515335
31	0x3c4a0ad2	0.012331681
32	0xbd23f01b	-0.040023904
33	0xbc7b5c4b	-0.015341829
34	0x3c0a365a	0.00843581
35	0xbcc181cd	-0.023621464
36	0x3c14cffa	0.009082789
37	0xbc9d24be	-0.01918256
38	0x3d2a1a34	0.041528895
39	0xbc92e26b	-0.01793023
40	0xbc7494ec	-0.014928084
41	0xbc226e22	-0.009913953
42	0xbd03a1bb	-0.03213666
43	0xbb9bd172	-0.0047551924
44	0x3c35b41f	0.0110903075
45	0xbd1a6c06	-0.037700675
46	0xbd1b7d3c	-0.03796123
47	0xbcc6637f	-0.024217365
48	0xbd0f7ada	-0.03502927
49	0xbd1204f5	-0.03564926
50	0xbd52ad30	-0.051434696
51	0xbd0f9d8e	-0.035062365
52	0xbb07a124	-0.0020695413
53	0xbc0da881	-0.0086461315
54	0xbd249566	-0.04018154
55	0xbc5aea72	-0.01336156
56	0xbc22fcbb	-0.009947951
57	0xbb0641c7	-0.0020485984
58	0x3ce7299d	0.028218085
59	0xbbd07191	-0.0063611944
60	0xbcb6aeed	-0.022300208
61	0xbd0832f7	-0.03325173
62	0xbc3a4ca7	-0.011370814
63	0x3c9e1ba2	0.019300286

pfn.blocks.0.bn.running_mean f4 [64]
0	0xb3910389	-6.752732e-08
1	0xb33faed9	-4.4629676e-08
2	0xb308a003	-3.1810497e-08
3	0xb3b098a1	-8.223402e-08
4	0x33dae10d	1.01923526e-07
5	0x334c7467	4.760332e-08
6	0x335c6929	5.1318384e-08
7	0xb3a3c081	-7.625295e-08
8	0xb3a70a5b	-7.778427e-08
9	0xb30742ac	-3.1492775e-08
10	0xb3055a5b	-3.1048653e-08
11	0x33a0c7a5	7.486896e-08
12	0x33f1d5f2	1.12613534e-07
13	0x339084ef	6.729703e-08
14	0x331e850c	3.6908247e-08
15	0xb399b963	-7.158339e-08
16	0x340fbdcc	1.338696e-07
17	0xb2b8342b	-2.1444142e-08
18	0x3379e41f	5.8182305e-08
19	0xb39db4ba	-7.343756e-08
20	0x32b04b16	2.0523242e-08
21	0x33b445c7	8.3945956e-08
22	0x33e773e9	1.077786e-07
23	0x33d046ba	9.69862e-08
24	0xb4183d7e	-1.4178474e-07
25	0xb390aaa9	-6.7365654e-08
26	0x33873b0a	6.2971665e-08
27	0x34332067	1.6682462e-07
28	0xb407dc5d	-1.2653022e-07
29	0x33921a41	6.80343e-08
30	0xb2bfe6e2	-2.234032e-08
31	0x32f561e1	2.8566264e-08
32	0x3409c69f	1.2831377e-07
33	0x340ac2a5	1.2923063e-07
34	0xb2db8ed5	-2.5559908e-08
35	0xb41b5b31	-1.4468675e-07
36	0x342c6fe4	1.6059454e-07
37	0x34086d3f	1.270573e-07
38	0x33dfcc6e	1.0421432e-07
39	0xb36ec039	-5.558852e-08
40	0x32bf368a	2.2260128e-08
41	0x32be870d	2.2180325e-08
42	0xb39a56ee	-7.186996e-08
43	0x33d897cc	1.00858955e-07
44	0xb395f979	-6.983732e-08
45	0x34025754	1.2138963e-07
46	0x3265a77d	1.3367637e-08
47	0x33cce0d4	9.540386e-08
48	0x3444e7bf	1.8338231e-07
49	0x3407b28e	1.2637813e-07
50	0x33708873	5.6003454e-08
51	0xb3c044a2	-8.953181e-08
52	0x3334aa74	4.2064542e-08
53	0x32d6165c	2.4923047e-08
54	0x33cfdf93	9.6798566e-08
55	0x3249b384	1.1740557e-08
56	0xb37215f1	-5.636497e-08
57	0xb323a2d1	-3.8099476e-08
58	0xb193326d	-4.283996e-09
59	0xb3c30518	-9.081322e-08
60	0xb3bc92ce	-8.781136e-08
61	0xb31ddb5c	-3.6753917e-08
62	0xb3a8a49e	-7.853053e-08
63	0xb3d3f442	-9.8698834e-08

pfn.blocks.0.bn.running_var f4 [64]
0	0x37042d0b	7.8783005e-06
1	0x352cfb0a	6.4440303e-07
2	0x36b701f8	5.454054e-06
3	0x36a0ea32	4.7956355e-06
4	0x36fbb652	7.501608e-06
5	0x368462a5	3.9453903e-06
6	0x36da91cc	6.5138793e-06
7	0x36901e02	4.295028e-06
8	0x36565911	3.1940328e-06
9	0x36287011	2.5099182e-06
10	0x36f4ac53	7.291828e-06
11	0x36c8a47a	5.979612e-06
12	0x36cb551c	6.0597795e-06
13	0x371e3350	9.429481e-06
14	0x36cb5be9	6.060571e-06
15	0x364ac493	3.0214767e-06
16	0x370668c9	8.01142e-06
17	0x363d0fbb	2.817235e-06
18	0x3720c7db	9.583276e-06
19	0x367591a4	3.659262e-06
20	0x36b92e4b	5.518819e-06
21	0x36980055	4.5299917e-06
22	0x368cd0f4	4.1966505e-06
23	0x36baad33	5.563395e-06
24	0x36ed12e4	7.0653496e-06
25	0x3641ea7c	2.889573e-06
26	0x36989340	4.547095e-06
27	0x3737b570	1.0949894e-05
28	0x370ed739	8.51397e-06
29	0x365dbb4d	3.304059e-06
30	0x364e5537	3.0745994e-06
31	0x36d65718	6.387836e-06
32	0x36e79bf7	6.902493e-06
33	0x36e90468	6.944454e-06
34	0x365d5a3a	3.2984085e-06
35	0x3707fb27	8.105103e-06
36	0x37170ec7	9.003742e-06
37	0x370df7b2	8.461926e-06
38	0x37502545	1.2406444e-05
39	0x3673246b	3.623102e-06
40	0x3635f249	2.711213e-06
41	0x3518a775	5.6868095e-07
42	0x3609fa84	2.056041e-06
43	0x3702d7c2	7.798839e-06
44	0x36e3fed5	6.7947935e-06
45	0x36ca32bd	6.025976e-06
46	0x3682a0cd	3.8930216e-06
47	0x36f0f129	7.180632e-06
48	0x3744dd2e	1.1734008e-05
49	0x36fc7fbf	7.525057e-06
50	0x37007814	7.657352e-06
51	0x36e04d42	6.684714e-06
52	0x36aefad1	5.214803e-06
53	0x369b6b4f	4.6318523e-06
54	0x370d71d1	8.430755e-06
55	0x3707b317	8.088325e-06
56	0x362a7516	2.5400127e-06
57	0x371499c8	8.857292e-06
58	0x360e647c	2.1218138e-06
59	0x368fc386	4.284494e-06
60	0x3680588d	3.825006e-06
61	0x36369c28	2.7211008e-06
62	0x36aa410e	5.073968e-06
63	0x36749619	3.6446202e-06

pfn.blocks.0.proj.weight f4 [64, 8]
0	0xbe3b6807	-0.18301402
1	0x3e0b1460	0.13581991
2	0x3e607b12	0.21921948
3	0xbcb5bac4	-0.022183783
4	0xbbf1963a	-0.0073726447
5	0xbcdbfab3	-0.026852941
6	0xbabb81a3	-0.0014305603
7	0xbc28d664	-0.010305021
8	0xbe2d6e9b	-0.16936724
9	0xbdf8058d	-0.12110434
10	0xbd991a6f	-0.07475745
11	0x3ddc4a44	0.107563525
12	0xbacbcaca	-0.0015548107
13	0xbe061919	-0.13095511
14	0xba9a71c4	-0.0011783172
15	0xbc6ca4dd	-0.014443603
16	0xbe0a4275	-0.13501914
17	0xbc99d2f1	-0.018777343
18	0x3e0ad9d9	0.13559665
19	0x39d26c69	0.00040135093
20	0xbd4fda8d	-0.050745536
21	0x3d8d833a	0.06909795
22	0x3c1f3464	0.009717081
23	0x3d86e006	0.06585698
24	0x3e852f3f	0.26012608
25	0x3dfc5c55	0.123222984
26	0x3d9860da	0.07440348
27	0x3da1c005	0.07897953
28	0xbd39d678	-0.04537055
29	0xbd93dec7	-0.07220226
30	0xbcfe1f1d	-0.031020695
31	0xbd06fa01	-0.032953266
32	0x3d96e01d	0.07366965
33	0x3ddf5c12	0.10906233
34	0x3e6264cb	0.22108762
35	0x3d91dbea	0.071220234
36	0xba8074e3	-0.000980046
37	0xbb6038c2	-0.0034213518
38	0x3d948b8e	0.072531804
39	0xbd4bd39f	-0.049762364
40	0x3e09351f	0.1339917
41	0xbe38a30a	-0.18030944
42	0x3e72880c	0.2368471
43	0x3ce0d732	0.027446363
44	0xbcecd7f1	-0.028911563
45	0x3cbdf6cb	0.02318897
46	0xbd96e74d	-0.07368336
47	0x3d00b528	0.031422764
48	0x3e0dd6ff	0.13851546
49	0x3e354865	0.17703398
50	0x3d647334	0.05577393
51	0x3dac7e47	0.08422523
52	0x3d75d19a	0.060014345
53	0x3b020cf9	0.0019844158
54	0xbd07e20d	-0.033174563
55	0xbe130edd	-0.14361139
56	0x3d8904ca	0.066903666
57	0xbcb69950	-0.022289902
58	0x3dc5a355	0.09650294
59	0xba19b500	-0.0005863458
60	0xbaec32e5	-0.0018020539
61	0xbc972576	-0.01845048
62	0x3dfd4e15	0.123684086
63	0x3ab90140	0.0014114752
64	0xbde2a442	-0.11066486
65	0x3e81f542	0.2538243
66	0x3e5615cb	0.20906751
67	0x39e2f50e	0.0004328866
68	0x3da99e46	0.082821414
69	0xbe1daa22	-0.15396932
70	0xbde3f164	-0.11130026
71	0xbd84d9a2	-0.06486823
72	0xbdbd3e3e	-0.092403874
73	0x3dea32e5	0.114354886
74	0xbe82eca8	-0.2557118
75	0x3b17ca3d	0.0023161315
76	0xbae2911c	-0.0017285678
77	0xbe19329b	-0.1496071
78	0xbc64264a	-0.013925144
79	0xbc9e763d	-0.01934349
80	0xbb32033d	-0.0027162575
81	0x3e46ca83	0.1941319
82	0x3d8820e9	0.06646902
83	0xbbbfb663	-0.0058505996
84	0x3b77e2f8	0.0037824493
85	0x3b451261	0.003007077
86	0x3c8e1dc3	0.017348176
87	0x3e049e76	0.12951073
88	0x3cea98b4	0.028637268
89	0xbd9a2067	-0.075257115
90	0xbe1ca245	-0.15296276
91	0xbaa6a404	-0.0012713675
92	0xbabcb311	-0.0014396628
93	0x3cc9829e	0.024598416
94	0x3aa4eb75	0.0012582379
95	0x3d68aa39	0.056802962
96	0xbe10e86b	-0.1415116
97	0x3e302eaa	0.17205301
98	0x3c4b7e67	0.012420273
99	0x3aae8432	0.0013314544
100	0x3deacf13	0.114652775
101	0x3b71cb8a	0.0036895
102	0x3cafa61a	0.021441508
103	0xbde1f683	-0.110333465
104	0xbe5e5274	-0.21711141
105	0xbd2f3f69	-0.042785082
106	0x3c33c546	0.010972327
107	0xbb1752e6	-0.0023090183
108	0xbdf39cf7	-0.11895173
109	0xbde74122	-0.1129172
110	0xbd33cb79	-0.04389522
111	0x3c3c987a	0.011510963
112	0xbe0783dc	-0.13233894
113	0xbe3482dc	-0.17628044
114	0xbde0eeac	-0.10983023
115	0x3daeea14	0.085407406
116	0x3dff3b0c	0.12462434
117	0x3d81b556	0.06333415
118	0xbe10fc2c	-0.14158696
119	0xbbbd6522	-0.0057798782
120	0xbdd52c73	-0.10408869
121	0x3d096af4	0.033549264
122	0x3e34465e	0.17604968
123	0xbe0f63f5	-0.14002974
124	0xb94c7338	-0.00019497878
125	0xbe22b1e6	-0.15888175
126	0xbcd5dd23	-0.026106423
127	0xbe11a1fd	-0.1422195
128	0xbb99689d	-0.0046816603
129	0xbdff603b	-0.124695264
130	0xbd724ad1	-0.05915338
131	0x3aa7d8a4	0.0012805653
132	0xbd03326c	-0.032030508
133	0xbb80cf28	-0.003930945
134	0x3d896e91	0.06710542
135	0xbd4d12c0	-0.05006671
136	0x3e2f7ff1	0.1713865
137	0xbe79351e	-0.24336669
138	0x3e216bbc	0.15763754
139	0xbc0a06af	-0.008424445
140	0xbc9e7501	-0.019342901
141	0x3d9df43c	0.077126
142	0x3e1d9b4a	0.1539127
143	0x3bb2d931	0.00545802
144	0xbd4029e6	-0.046914957
145	0x3e5cabcb	0.21549909
146	0x3dfbc558	0.122935
147	0x3d33fbb8	0.04394123
148	0xbd8d9af0	-0.069143176
149	0xbe1cf9a3	-0.15329604
150	0x3c993807	0.018703474
151	0xb9ceb229	-0.00039424121
152	0x3d7359a2	0.059411652
153	0x3d0c89bd	0.034311045
154	0xbd58908e	-0.052872233
155	0x3cb2c846	0.021824013
156	0x38dde880	0.00010581408
157	0xbe009bff	-0.12559508
158	0xbde2fa8c	-0.11082944
159	0xbc5fce1a	-0.013659978
160	0x3e87c741	0.26519206
161	0xbe1b32a4	-0.15156037
162	0x3ddfe270	0.109318614
163	0x3bd49a21	0.0064881
164	0x3c35f4e0	0.011105746
165	0x3d80a770	0.06281936
166	0x3d447572	0.047963567
167	0x3d9e6463	0.07733991
168	0xbdd6547f	-0.10465335
169	0xbdf8d704	-0.12150386
170	0xbd6d316e	-0.057908468
171	0xbd210759	-0.039313648
172	0x3d88a37e	0.06671809
173	0x3d163df8	0.03668019
174	0x3e208a3d	0.15677734
175	0xbc321b44	-0.010870758
176	0x3dd8500a	0.10562141
177	0xbd740743	-0.059577238
178	0xbe8016d1	-0.25017408
179	0x3a8ba00e	0.0010652558
180	0x3b7a02c9	0.0038148633
181	0xbdc233b6	-0.09482519
182	0xbde8a0db	-0.11358806
183	0x3b853502	0.004065157
184	0xbdff5304	-0.12467006
185	0x3d0d9cab	0.03457324
186	0x3bc1deda	0.0059164586
187	0x3e13c0ca	0.14429012
188	0x3c1d4354	0.009598572
189	0x3dbe78bf	0.09300374
190	0x3aaf5f1f	0.0013379789
191	0xbc9193ea	-0.017770726
192	0xbc502fb7	-0.012706689
193	0xbe880cf9	-0.26572397
194	0xbdef9b5a	-0.11699553
195	0xbacea90e	-0.0015766935
196	0xbbcd3793	-0.0062627285
197	0x3b5cb7e6	0.0033678948
198	0xbdccb831	-0.09996069
199	0x3d240789	0.04004625
200	0xbd20fca1	-0.039303426
201	0xbe20c202	-0.15699008
202	0xbdfc3800	-0.12315369
203	0xbc3355fd	-0.010945794
204	0x3e100101	0.14062883
205	0xbca727e8	-0.020404771
206	0xbdeeb758	-0.11656064
207	0xbca87028	-0.020561293
208	0xbd4b5146	-0.049638055
209	0x3e26a269	0.16272892
210	0x3d8a65bc	0.067576855
211	0xbd296ef0	-0.041365564
212	0x3b916325	0.004436868
213	0xbe0c8786	-0.13723573
214	0xbd5b1fe6	-0.053497218
215	0xbbd51300	-0.006502509
216	0xbe40e234	-0.1883629
217	0x3cc36348	0.023851052
218	0xbd0db9aa	-0.03460089
219	0xbb15797c	-0.0022808006
220	0x3e077c19	0.13230933
221	0xbd82b2a3	-0.063817285
222	0xbd95a801	-0.07307435
223	0xbd2c5c29	-0.04208008
224	0xbe887c33	-0.26657256
225	0x3e8a2405	0.26980606
226	0xbe0e2cce	-0.13884279
227	0xbaf510b5	-0.0018696996
228	0x3dfb6ae3	0.122762464
229	0x3d86daf4	0.06584731
230	0xbdf40355	-0.11914698
231	0xbc4a4b4e	-0.012347056
232	0xbda84d26	-0.0821784
233	0xbc957aea	-0.018247087
234	0x3e1c9739	0.15292062
235	0xbd7336a5	-0.059378285
236	0xbd22dc5f	-0.039760944
237	0xbd5944f2	-0.053044267
238	0x3d90dcac	0.0707334
239	0x3de56213	0.11200347
240	0x3e02de67	0.12780152
241	0x3e328226	0.1743246
242	0x3e54a2cb	0.20765226
243	0xbc879ffc	-0.016555779
244	0xbd1cf3be	-0.03831839
245	0xbb2b58af	-0.002614539
246	0x3dbfee97	0.09371679
247	0x3d850561	0.064951666
248	0x3d04cfe0	0.032424808
249	0x3df3eced	0.119104244
250	0x3e011b0d	0.12607975
251	0x3d36ac3c	0.04459785
252	0xbd00daf8	-0.031458825
253	0xbc6abe8e	-0.014327658
254	0x3c629c32	0.013831185
255	0xbafe0eb8	-0.0019383049

backbone.conv1.weight f4 [32, 64, 3, 3]
0	0x3d5a4864	0.053291693
1	0xbd2ba88b	-0.041908782
2	0x3d3ad330	0.04561156
3	0x3c827837	0.015926464
4	0xbb8fe28f	-0.0043910216
5	0x3ccf36d7	0.025294704
6	0xbc9deeff	-0.019279001
7	0xbccf55da	-0.025309492
8	0xbccd4725	-0.025058338
9	0x3c3ae63d	0.011407432
10	0xbcbfbe6f	-0.023406236
11	0xbcfb5b4f	-0.030683188
12	0x3d27b492	0.04094369
13	0xbd33eede	-0.043928973
14	0xbb2c9ddb	-0.0026339206
15	0xbccc4479	-0.024934994
16	0xbbd38d8b	-0.006456082
17	0xbbc93142	-0.006139905
18	0x3cc857d6	0.024455946
19	0x3cb0a375	0.021562317
20	0x3c938f1c	0.018012576
21	0x3d335f9c	0.043792352
22	0x3bcd3a22	0.0062630335
23	0x3c0aa09c	0.008461144
24	0x3ce9eb5e	0.028554615
25	0xbd75d4a5	-0.060017247
26	0x3cbe99ff	0.02326679
27	0x3c80c60e	0.01571944
28	0xbd5f917a	-0.054582097
29	0x3d828868	0.06373674
30	0xbc2d2424	-0.010567699
31	0x3d1b86c7	0.03797033
32	0xbca680a5	-0.020325014
33	0xbd390f2e	-0.045180492
34	0x3c7f2c40	0.015574515
35	0x3cafe32b	0.021470627
36	0xbd6c83a7	-0.05774274
37	0xbac4b57c	-0.00150077
38	0xbd152ed5	-0.036421616
39	0xbd6f0a77	-0.05835959
40	0x3cfc8326	0.030824255
41	0xbc795904	-0.015218977
42	0x3c6f5d07	0.014609582
43	0xbc459311	-0.012058989
44	0x3c46791c	0.012113836
45	0x3d432c17	0.04764947
46	0x3c8f29c4	0.01747597
47	0x3d73906f	0.059463914
48	0xbd029318	-0.03187856
49	0xbcb81454	-0.02247063
50	0x3b587501	0.0033028724
51	0xbba9183a	-0.0051603587
52	0xbd239a9a	-0.03994236
53	0xba8c90f9	-0.0010724358
54	0x3d2290fc	0.03968905
55	0xbcac1bdf	-0.021009384
56	0xbb7020dc	-0.003664068
57	0xbd4276aa	-0.047476448
58	0xbd3fce78	-0.046827763
59	0x3c7b144c	0.015324663
60	0x3d465aa6	0.048426293
61	0x3c38e41f	0.011284857
62	0x3cf851fe	0.030312534
63	0xbc300b40	-0.01074487
64	0xbd088832	-0.03333301
65	0x3cdf17d5	0.027233044
66	0x3c93c34e	0.018037464
67	0xbd338fe6	-0.043838404
68	0xbcb137e6	-0.0216331
69	0x3a0743dd	0.0005159954
70	0xbc74b63f	-0.014936029
71	0xbd24dbee	-0.040248804
72	0x3b0005e5	0.0019534763
73	0xbd1bc75f	-0.038031932
74	0xbc7ba49a	-0.015359068
75	0x3d19a86b	0.03751413
76	0x3cb4ee0c	0.022086166
77	0x3bbf7da0	0.005843833
78	0x3d07a0f7	0.033112492
79	0x3c735b78	0.014853351
80	0xbd02a2b8	-0.031893462
81	0xbb87d9c7	-0.004145834
82	0xbcc7739b	-0.024347117
83	0xbbee88d9	-0.007279497
84	0xbcf2b9cb	-0.029629609
85	0xbc40c1ee	-0.011764986
86	0xbb96157e	-0.004580199
87	0x3d4989d8	0.049203724
88	0xbd43ab50	-0.0477708
89	0x3c8e17ef	0.017345397
90	0xbd8dfaf2	-0.0693263
91	0xbcc2d9e8	-0.023785546
92	0x3c869d87	0.016432537
93	0xbc846ebb	-0.016166082
94	0x3c5f66c4	0.013635341
95	0xbc82e680	-0.015979052
96	0x3c06763c	0.0082069
97	0xbd11d934	-0.03560753
98	0x3cf3db72	0.029767726
99	0x3d02b096	0.031906687
100	0xbd36206b	-0.04446451
101	0x3c7fa099	0.015602254
102	0xbc862b56	-0.016378086
103	0x3d00bfb4	0.031432822
104	0xb951c1d1	-0.00020003995
105	0x3cea295a	0.028584171
106	0xbcb8869b	-0.022525122
107	0x3b4e3ac9	0.0031468144
108	0xbc8b394e	-0.016995098
109	0xbca43d20	-0.020048678
110	0x3d180cee	0.037121706
111	0x3c508786	0.012727624
112	0x3d5186b2	0.051153846
113	0xbd23b5c0	-0.039968252
114	0xbc79242c	-0.015206378
115	0xbba71b4d	-0.00509969
116	0xbb78b2f4	-0.0037948461
117	0x3d64cbe5	0.05585851
118	0x3d0afb7b	0.033931237
119	0x3c86b39d	0.016443068
120	0x3bac196d	0.0052520544
121	0xbd24e889	-0.040260825
122	0x3c9e2b1a	0.019307662
123	0x3d4b0803	0.049568187
124	0xbd69dcc9	-0.057095323
125	0x3d0880ca	0.033325948
126	0x3cedaead	0.029013956
127	0x3cb4734d	0.022027636
128	0x3bbd5153	0.005777517
129	0x3cde79bc	0.027157657
130	0xbd09d44b	-0.033649724
131	0xbcd27664	-0.025691219
132	0x3cdeb9c8	0.027188197
133	0xbce8eaec	-0.028432332
134	0xbd054295	-0.0325342
135	0x3b42ed98	0.0029743668
136	0x3b5e325f	0.0033904535
137	0xbce25d6f	-0.027632443
138	0x3d466772	0.048438497
139	0xbd32c404	-0.043643966
140	0xbcc72ffe	-0.024314877
141	0xbb5ac495	-0.0033381332
142	0x3bc85453	0.006113568
143	0xbbbc0291	-0.0057376106
144	0xbc4e7344	-0.012600724
145	0xbd10f67d	-0.03539132
146	0xbcce4f9e	-0.025184449
147	0xbc1fa6a9	-0.009744325
148	0x3d286ed4	0.04112132
149	0xbd452036	-0.048126422
150	0x3ce7c861	0.02829379
151	0xba9923d5	-0.0011683652
152	0xbd4f9ec3	-0.050688516
153	0xbc78e4f2	-0.015191304
154	0xbd53dc18	-0.05172357
155	0xbc16a19f	-0.009193807
156	0x3b38fd74	0.0028227242
157	0xb9fddd2d	-0.0004842071
158	0xbd05b0b0	-0.032639205
159	0x3c2b3b51	0.010451154
160	0xb9a6c140	-0.0003180597
161	0xbc030708	-0.007997282
162	0x3d3c0e85	0.045912284
163	0xbd325a93	-0.04354341
164	0xba2cd0f8	-0.0006592418
165	0xbd3d3b3c	-0.04619907
166	0xb9ba1e3b	-0.00035499208
167	0xbd2904e9	-0.04126445
168	0x3cc38fd8	0.023872301
169	0xbbe20ae9	-0.0068982732
170	0x3ab5beb2	0.0013866036
171	0x3cb4cb6c	0.022069655
172	0x3c71b31e	0.0147521775
173	0xbc817af0	-0.015805691
174	0x3b5e12df	0.003388576
175	0xbd450930	-0.048104465
176	0xbd2265b6	-0.03964778
177	0x3b115313	0.002217476
178	0x3bf957e6	0.0076093553
179	0xbd192fc6	-0.037399076
180	0xbc0e5eb2	-0.008689569
181	0xbcfd052a	-0.030886251
182	0x3ca8e2a5	0.020615885
183	0xbd3704db	-0.044682365
184	0x3cfd0a46	0.030888688
185	0xbca9c323	-0.020722931
186	0x3d37cec1	0.04487491
187	0xbcd4b264	-0.02596397
188	0x3ce83bdd	0.028348858
189	0xbcb95c64	-0.022627063
190	0xbd65ffe6	-0.056152247
191	0x3c94e225	0.01817424
192	0xbad93fef	-0.001657484
193	0xbd02ce2c	-0.031934902
194	0xbceae54a	-0.028673787
195	0xbc854a1d	-0.016270692
196	0x3c622289	0.013802179
197	0xbb9465df	-0.0045287455
198	0xbbf54ab2	-0.007485711
199	0xbb8f2563	-0.0043684705
200	0xbc808baa	-0.015691597
201	0xbcd16b76	-0.025563937
202	0x3c9fed23	0.019522255
203	0x3c955c0d	0.01823237
204	0xbcd5c9fe	-0.026097294
205	0xbccd4ccc	-0.025061034
206	0xbd528745	-0.051398534
207	0xbcdc3e16	-0.026885074
208	0x3cd7b9a2	0.026333634
209	0xbd280e10	-0.041029036
210	0xbcf167fb	-0.029468527
211	0xbc253f12	-0.010085838
212	0xbd0c6f5e	-0.034285896
213	0xbc533593	-0.012891191
214	0xbd31ba85	-0.04339077
215	0x3c155e27	0.009116686
216	0x3d4878e0	0.0489434
217	0x3b0d4abc	0.0021559438
218	0xbc16f625	-0.009213959
219	0x3d16e0df	0.036835548
220	0x3b05f473	0.0020439893
221	0xbd09bfc4	-0.033630148
222	0x3cfbadab	0.03072246
223	0xbd0935ba	-0.033498503
224	0xbd728ea6	-0.05921807
225	0xbc6cb827	-0.014448202
226	0xbcec02c3	-0.02880991
227	0x3d025703	0.031821262
228	0x3cc21c66	0.023695182
229	0x3c8d026c	0.017213069
230	0xbc0fcdc6	-0.008777088
231	0xbb92cb29	-0.004479785
232	0xbba2ad96	-0.0049645407
233	0x3c7355f7	0.014852039
234	0x3c2afd6b	0.010436396
235	0xbc03c201	-0.00804186
236	0xbbd325ba	-0.0064437063
237	0xbca8f72f	-0.020625679
238	0xbc8f0c6f	-0.017461983
239	0x3c132271	0.008980379
240	0x3c68d696	0.0142113175
241	0x3c5af11a	0.013363147
242	0x3cf873d0	0.030328661
243	0xbc3f6880	-0.01168263
244	0xbcefa5ac	-0.029253803
245	0x3d0213c4	0.03175713
246	0x3cc6650b	0.024218103
247	0xbc715bff	-0.014731406
248	0xbd1357cd	-0.035972405
249	0x3d29bd60	0.041440368
250	0xbd2cfac4	-0.042231336
251	0xbd2ef06e	-0.04270976
252	0x3cec099a	0.028813172
253	0xbce359e3	-0.027752822
254	0xbba003d8	-0.0048832707
255	0x3c201a21	0.009771855

backbone.bn1.weight f4 [32]
0	0x3f78af85	0.9714282
1	0x3f7b2e79	0.98117787
2	0x3f793210	0.97342014
3	0x3f7afdb7	0.9804339
4	0x3f7baccd	0.9831055
5	0x3f762d15	0.9616254
6	0x3f77e40c	0.96832347
7	0x3f83f890	1.031023
8	0x3f784b70	0.9699011
9	0x3f833219	1.0249664
10	0x3f830b90	1.0237904
11	0x3f7df400	0.9920044
12	0x3f77d757	0.9681296
13	0x3f7aefd3	0.9802219
14	0x3f80d0aa	1.0063679
15	0x3f7a4c88	0.9777303
16	0x3f767f93	0.9628841
17	0x3f80ca14	1.0061669
18	0x3f7cad72	0.98702157
19	0x3f7cdbef	0.9877309
20	0x3f7bbed9	0.98338085
21	0x3f715c9c	0.94281936
22	0x3f7d380c	0.98913646
23	0x3f715df5	0.9428399
24	0x3f8187c4	1.0119557
25	0x3f7bf5b9	0.9842182
26	0x3f8300be	1.0234601
27	0x3f7d278d	0.98888475
28	0x3f7a683e	0.9781531
29	0x3f73c3cc	0.9522064
30	0x3f830c4d	1.0238129
31	0x3f7a67a4	0.97814393

backbone.bn1.bias f4 [32]
0	0xbca942e6	-0.020661782
1	0x3cb73182	0.022362474
2	0xbc4437de	-0.01197621
3	0xbd128e4c	-0.035780236
4	0x3b8a4f97	0.0042209136
5	0xbb88c2d3	-0.0041736155
6	0xbd7a455a	-0.061101295
7	0xbc21fcf6	-0.009886971
8	0x3d258d53	0.04041798
9	0xbc7002ea	-0.014649132
10	0xbd5bba40	-0.05364442
11	0xbc6c653f	-0.014428436
12	0xba5d7af0	-0.00084488
13	0xbc14bdb7	-0.009078435
14	0x3c85b9ae	0.01632389
15	0xbcf1af33	-0.029502487
16	0xbc2e9d6c	-0.0106576495
17	0xbd7aa80d	-0.061195422
18	0x3b005c0f	0.0019586121
19	0xbd5e8da0	-0.054334283
20	0x3ba032a3	0.004888849
21	0xbd0fdf66	-0.03512516
22	0xbd87b86d	-0.06626973
23	0xbd9cdf5a	-0.076597884
24	0x3b2e6aa9	0.0026613867
25	0xbc605a0e	-0.013693346
26	0xbd98ebd3	-0.07466855
27	0xbb9ef942	-0.004851491
28	0xbd3a6826	-0.04550948
29	0xbb9aca4c	-0.0047238227
30	0xbbbcd263	-0.0057623847
31	0xbd2a3b85	-0.04156067

backbone.bn1.running_mean f4 [32]
0	0xbf268ebc	-0.65061545
1	0xbf08567d	-0.5325697
2	0xbf15620e	-0.58352745
3	0xbea7d84e	-0.32782215
4	0xbf16d092	-0.58912003
5	0xbf8d4718	-1.1037321
6	0x3ee9790c	0.45600164
7	0x3d488b2d	0.048960853
8	0xbf9bb029	-1.2163135
9	0xbda90cb9	-0.0825438
10	0xbdac602c	-0.08416781
11	0xbee903e4	-0.4551078
12	0xbf93c657	-1.1544904
13	0xbde08f49	-0.109648295
14	0xbd428300	-0.047488213
15	0x3e615a73	0.2200716
16	0xbfacf105	-1.3511053
17	0x3f19aa50	0.600255
18	0xbf23eb14	-0.64030576
19	0x3e7e58a4	0.24838501
20	0xbf12654e	-0.5718583
21	0xbce0bd92	-0.027434144
22	0x3e6fcfb4	0.23419076
23	0xbe5e43cf	-0.21705554
24	0xbe887833	-0.26654205
25	0xbeb3db4b	-0.35128245
26	0xbde7326d	-0.11288915
27	0xbd284315	-0.0410796
28	0x3f0b591a	0.54432833
29	0xbf380108	-0.71876574
30	0x3e022d9d	0.12712713
31	0xbf10b2d2	-0.5652286

backbone.bn1.running_var f4 [32]
0	0x41bcda55	23.606607
1	0x415c6bcd	13.776319
2	0x418376f5	16.433084
3	0x41c0d8c1	24.105837
4	0x41ad1c7c	21.638908
5	0x42138d05	36.887714
6	0x41a4bb65	20.591501
7	0x413f5ac3	11.959659
8	0x41f36df0	30.42868
9	0x412bcec0	10.737976
10	0x412bab99	10.729394
11	0x418d60e0	17.672302
12	0x42144727	37.069485
13	0x41ac24f4	21.518044
14	0x4139cf4d	11.613111
15	0x41957f58	18.68718
16	0x42216335	40.34688
17	0x41605395	14.020406
18	0x4154f20b	13.3090925
19	0x4166db6e	14.428572
20	0x4174ced5	15.300496
21	0x41a8123c	21.008904
22	0x4181663a	16.174915
23	0x41f15468	30.166214
24	0x4147bc2f	12.483443
25	0x41977a6e	18.93478
26	0x416d14c3	14.817569
27	0x41828696	16.315716
28	0x418e49bc	17.786003
29	0x41f64671	30.784395
30	0x416624c8	14.38398
31	0x4175cc7d	15.362424

backbone.conv2.weight f4 [64, 32, 3, 3]
0	0x3cacde7b	0.02110218
1	0xbbe8b2ae	-0.0071013784
2	0x3d3c9a36	0.046045505
3	0x3c1f35c5	0.0097174095
4	0xbad8ec12	-0.0016549847
5	0x3b5df9cd	0.0033870817
6	0x3c37d18d	0.011219394
7	0xbd63c1ce	-0.05560475
8	0x3cfc482e	0.030796137
9	0xbd6e6e3b	-0.058210593
10	0xbd9416bb	-0.07230898
11	0xbd3afe8c	-0.04565291
12	0x3b9924af	0.0046735625
13	0xbd2a93aa	-0.04164473
14	0xbc6656e5	-0.014058803
15	0x3b6712d7	0.0035259032
16	0x3ced1bcf	0.028943924
17	0x3c58a0e4	0.013221953
18	0x3c1a4903	0.009416821
19	0x3d510212	0.051027365
20	0xbdadd632	-0.0848812
21	0x3d8756fe	0.06608389
22	0x3d379599	0.0448204
23	0x3d03e844	0.032203928
24	0xbc21ccf2	-0.009875523
25	0x3d134962	0.035958655
26	0x3de12eba	0.109952405
27	0xbd396085	-0.045258064
28	0x3d7c92f8	0.061663598
29	0x3c59a6ec	0.013284426
30	0xbd591ac1	-0.05300403
31	0xbd80782d	-0.06272922
32	0xbce2bd2e	-0.027678099
33	0xbd045ec0	-0.032316923
34	0x3c0131cd	0.007885409
35	0xbce02388	-0.027360693
36	0x3cd31c81	0.025770428
37	0xbcf1ebd5	-0.029531399
38	0x3cd0699b	0.025440982
39	0x3d54324e	0.051805787
40	0x3d18e8e5	0.03733148
41	0x3d478478	0.048710316
42	0x3adf1040	0.0017018393
43	0x3d4b6ce1	0.049664382
44	0x3cc4a087	0.024002327
45	0xbc4a84ef	-0.012360795
46	0x3b999c1c	0.004687799
47	0xbd2c9c4e	-0.04214125
48	0xbd685dfe	-0.056730263
49	0x3acd43d2	0.0015660471
50	0xbd02e0ad	-0.03195255
51	0xbcfcf83d	-0.030880088
52	0xbb8741e0	-0.004127726
53	0xbca68995	-0.020329276
54	0xbd559324	-0.052142277
55	0xbd68043f	-0.056644674
56	0x3cde74c0	0.02715528
57	0xbd03fb5e	-0.032222144
58	0xbd70f1a8	-0.05882421
59	0xbd8c9d43	-0.06865933
60	0xbd4de5a7	-0.05026784
61	0x3ce64c01	0.028112413
62	0x3d53c1d4	0.05169852
63	0xbcd7617f	-0.026291607
64	0xbce6f3ea	-0.02819248
65	0x3d62ee9e	0.055403344
66	0xbcc9bbb5	-0.024625638
67	0xbd84ff68	-0.064940274
68	0xbd1e74dd	-0.03868567
69	0x3ca13090	0.019676477
70	0x3c647ed2	0.013946252
71	0x3c9da749	0.019244807
72	0xbb12d83c	-0.0022406718
73	0x3ba22c44	0.0049491245
74	0xbcaec176	-0.021332484
75	0x3ababc12	0.0014246723
76	0x3d5a2c6c	0.05326502
77	0x3c4389f1	0.011934743
78	0xbcc8d672	-0.024516318
79	0xbbbc53df	-0.005747303
80	0xbd280e75	-0.041029412
81	0x3bec6138	0.007213738
82	0xbd55f158	-0.052232116
83	0x3c3a8aad	0.011385602
84	0x398c4fce	0.0002676234
85	0xbccd5a47	-0.025067462
86	0x3cc7a50e	0.024370696
87	0xbd5a8250	-0.053346932
88	0x3c1ac52b	0.009446423
89	0xba853937	-0.0010164146
90	0xbd226f9d	-0.039657224
91	0x3b9255e2	0.0044658044
92	0xbd2e79cb	-0.04259662
93	0x3d7f5e45	0.06234576
94	0xbc881dfb	-0.016615858
95	0x3d6d005e	0.05786168
96	0x3d46b802	0.048515327
97	0x3c831f33	0.016006088
98	0x3daf81f0	0.085697055
99	0xbd5d9022	-0.054092534
100	0xbcd21aad	-0.025647486
101	0xbd264ac5	-0.04059865
102	0x3d48224b	0.04886083
103	0xbcff9c1f	-0.031202374
104	0x3d929670	0.071576
105	0x3b0dbafe	0.0021626349
106	0x3d043b5d	0.032283176
107	0xbbcd74df	-0.0062700356
108	0xbd8334d0	-0.064065576
109	0xbd6b3443	-0.057422888
110	0xbcc2553e	-0.023722287
111	0x3d935a25	0.07194928
112	0xbc97bb19	-0.018521832
113	0xbc42eac1	-0.01189679
114	0x3cb7965d	0.022410566
115	0x3a6067a0	0.0008560363
116	0xbd06c985	-0.032907028
117	0xbd15a1ab	-0.03653113
118	0x3d2014e9	0.03908244
119	0xbc90d4f4	-0.017679669
120	0x3d568d84	0.052381054
121	0x3d804561	0.06263233
122	0xbcd82d69	-0.02638884
123	0xbc99139c	-0.018686108
124	0x3ca15deb	0.019698104
125	0x3cef47c1	0.02920902
126	0xbcea361d	-0.028590256
127	0x3d29b24a	0.041429795
128	0x3d1cb518	0.038258642
129	0x3cc687a9	0.02423461
130	0x3cc60e35	0.024176696
131	0x3cf89075	0.03034232
132	0x3b1ed402	0.0024235253
133	0xbd5716e9	-0.052512083
134	0xbd29279a	-0.041297533
135	0x3c8efb57	0.017453833
136	0x3d1efc0d	0.038814593
137	0xba5a52ec	-0.00083283964
138	0xbd2e991b	-0.04262648
139	0xbcc06eac	-0.023490272
140	0x3d061c18	0.032741636
141	0xbd002ef5	-0.03129478
142	0x3d3c97d1	0.04604322
143	0x3adbe918	0.0016777841
144	0xbbb046c3	-0.005379529
145	0x3c823079	0.015892254
146	0xbcaad036	-0.020851236
147	0x3d1e17dc	0.038596973
148	0xbd054fba	-0.032546736
149	0xbc66f069	-0.014095404
150	0xbcfb04bf	-0.030641912
151	0xbd086c11	-0.033306185
152	0x3caef46e	0.021356788
153	0xbbad6e66	-0.0052927015
154	0xbcd01c55	-0.025404135
155	0xbb55ab11	-0.0032603184
156	0x3af941bc	0.0019016783
157	0xbd455a0e	-0.048181586
158	0xbd073409	-0.03300861
159	0xbd8ddf28	-0.06927329
160	0x3d03379e	0.032035463
161	0x3cf965af	0.030443994
162	0x3c1b46c1	0.009477318
163	0xbc23c6bf	-0.009996115
164	0xbd85e40b	-0.06537636
165	0xbd32ba8a	-0.04363493
166	0xbc0586b6	-0.008149793
167	0xbd55dcfc	-0.0522127
168	0x3d74c4db	0.05975805
169	0x3ba36469	0.004986335
170	0x3d8ca444	0.06867269
171	0xbd71a230	-0.058992565
172	0xbcb12448	-0.021623746
173	0xbd67b658	-0.05657038
174	0xbcb87b2b	-0.022519669
175	0xbd1cedac	-0.0383126
176	0x3d816b23	0.06319263
177	0xbd0ed4c2	-0.03487087
178	0x3d635e00	0.055509567
179	0x3d0c15a6	0.034200333
180	0x3d25efc8	0.040511876
181	0xbc2f4c96	-0.010699412
182	0xbb805a7d	-0.003917037
183	0x3c1f0a0d	0.009706986
184	0xbd4aacf2	-0.04948134
185	0x3a5871b7	0.0008256691
186	0xbc54eaa5	-0.012995397
187	0xbcdf9b8b	-0.027295848
188	0x3d4721c7	0.048616197
189	0xbca1a27b	-0.019730797
190	0x3d1c60bc	0.03817819
191	0x3b5586cf	0.0032581573
192	0x3d6f2beb	0.058391493
193	0x3d4ae987	0.049539115
194	0xbc209c49	-0.009802886
195	0xbd4bf467	-0.049793627
196	0xbccb791b	-0.024838021
197	0x3cd2743b	0.025690189
198	0x3ce808a3	0.02832443
199	0xbc9ed958	-0.019390747
200	0xbd518fc0	-0.05116248
201	0xbcc16965	-0.023609826
202	0xbcadff03	-0.021239763
203	0xbc373150	-0.011181191
204	0x3cf88e5f	0.030341325
205	0xbc5e8a67	-0.013582802
206	0xbcfc496e	-0.030796733
207	0xbd02a7e1	-0.031898383
208	0x3d0492fb	0.032366734
209	0x3d17620e	0.036958747
210	0xbd01b530	-0.031666934
211	0x3d1c9700	0.038229942
212	0xb9a358df	-0.00031155997
213	0x3cbd489e	0.023105916
214	0xbacded98	-0.0015711067
215	0x3b9d3dea	0.0047986405
216	0x3c8252e5	0.015908668
217	0x3c51d58e	0.012807263
218	0x3d794ba5	0.060863156
219	0xbd710559	-0.05884299
220	0x3cad9a0c	0.02119162
221	0x3bdffe83	0.00683576
222	0xbb93e5e4	-0.004513489
223	0xbd089f37	-0.033354964
224	0xbd2c3826	-0.042045735
225	0xbd0b98b2	-0.03408117
226	0x3d3e2780	0.04642439
227	0x3d008006	0.031372093
228	0x3d1f6539	0.038914893
229	0xbd678c14	-0.056530073
230	0x3cf2d359	0.029641794
231	0xbd224f32	-0.039626308
232	0x3b6c3ba8	0.00360463
233	0x3c9ef83e	0.01940548
234	0x3cc8865c	0.02447813
235	0xbc2bed32	-0.0104935635
236	0x3cccb3c8	0.02498807
237	0xbd67363d	-0.05644821
238	0xbc8fab02	-0.017537598
239	0xbd136299	-0.035982702
240	0xbd1003c9	-0.03515986
241	0x3d34fbf9	0.044185612
242	0x3d1856a0	0.037191987
243	0x3c7b3fb0	0.0153350085
244	0x3a84dcc8	0.0010136599
245	0xbd90da82	-0.07072927
246	0x3b5fc529	0.0034144616
247	0xbd103390	-0.035205424
248	0xbc18d9ea	-0.0093292985
249	0x3cab4542	0.020907048
250	0x3d4eecca	0.05051879
251	0x3da8b5ee	0.08237825
252	0xbc6fa6ad	-0.014627141
253	0xbaa23574	-0.0012375549
254	0x3bb336cb	0.0054691783
255	0x3d171af7	0.03689095

backbone.bn2.weight f4 [64]
0	0x3f8158b8	1.01052
1	0x3f72f641	0.94907004
2	0x3f7b5a43	0.98184603
3	0x3f7c47e5	0.985472
4	0x3f84a308	1.0362253
5	0x3f7b6b65	0.98210746
6	0x3f816048	1.0107508
7	0x3f7cb970	0.98720455
8	0x3f77130e	0.9651345
9	0x3f7aadec	0.97921634
10	0x3f7f949a	0.99836123
11	0x3f7d0592	0.98836625
12	0x3f7f8b66	0.9982208
13	0x3f7c49e9	0.9855028
14	0x3f7e0646	0.9922832
15	0x3f763044	0.961674
16	0x3f752247	0.9575543
17	0x3f804e48	1.002389
18	0x3f825799	1.0182983
19	0x3f826f33	1.0190185
20	0x3f7fc453	0.9990894
21	0x3f824fd8	1.0180616
22	0x3f81d7ce	1.0143983
23	0x3f8109cd	1.0081116
24	0x3f7cb31c	0.987108
25	0x3f74cdf8	0.95626783
26	0x3f79ba4b	0.97549886
27	0x3f7f8d3b	0.99824876
28	0x3f7f51ae	0.9973401
29	0x3f8511a7	1.0396012
30	0x3f820d36	1.0160282
31	0x3f74b581	0.95589453
32	0x3f7c1415	0.9846814
33	0x3f813172	1.0093215
34	0x3f74e356	0.9565939
35	0x3f7adc75	0.9799264
36	0x3f7b0072	0.98047554
37	0x3f81d37f	1.0142668
38	0x3f78e0d0	0.97218037
39	0x3f824549	1.0177394
40	0x3f81c2bb	1.0137552
41	0x3f7cbded	0.98727304
42	0x3f858ce6	1.0433624
43	0x3f765e82	0.9623796
44	0x3f80d38b	1.0064558
45	0x3f78da7e	0.9720839
46	0x3f78b87c	0.971565
47	0x3f7828d9	0.9693733
48	0x3f79c35a	0.9756371
49	0x3f7e9f1d	0.9946154
50	0x3f81294c	1.0090728
51	0x3f72cea7	0.94846576
52	0x3f7e1684	0.99253106
53	0x3f794de5	0.9738448
54	0x3f7761ad	0.96633416
55	0x3f7f58ad	0.99744684
56	0x3f83f913	1.0310386
57	0x3f7a75c8	0.9783597
58	0x3f7df5de	0.9920329
59	0x3f8489b1	1.035452
60	0x3f855d9d	1.0419194
61	0x3f7d1fbb	0.9887654
62	0x3f7af772	0.9803382
63	0x3f812d21	1.0091897

backbone.bn2.bias f4 [64]
0	0xbcfaa313	-0.030595338
1	0xbd79c7bb	-0.060981493
2	0xbcf1ab3a	-0.029500592
3	0xbd1d8730	-0.038459003
4	0x3ceadfbb	0.028671136
5	0xbd415c04	-0.047206894
6	0x3b994b61	0.0046781753
7	0x3da57058	0.080780685
8	0x3a0c75f6	0.0005358154
9	0x3c70e160	0.014702171
10	0xba56f501	-0.00081999606
11	0x3da5dc54	0.08098665
12	0xbd717869	-0.058952723
13	0x3abd679c	0.0014450434
14	0xbc7fac94	-0.015605111
15	0xbcb07f58	-0.021545097
16	0xbd2565fb	-0.04038046
17	0xbd3fb3ac	-0.046802208
18	0x3d9c322b	0.07626756
19	0x3ba7e4a2	0.0051236907
20	0x3bdce3fc	0.006741045
21	0x3c88107c	0.016609423
22	0xbd50fa8c	-0.05102019
23	0xbc6fd8ec	-0.014639121
24	0x3d458d34	0.048230365
25	0xbb85eddf	-0.0040871943
26	0xbd185e65	-0.037199397
27	0x3ca01c27	0.019544674
28	0x3d1181e9	0.035524283
29	0xbb69fd03	-0.0035703785
30	0xbab2485b	-0.0013601886
31	0xbcef03c0	-0.029176593
32	0xbd28ca88	-0.041208774
33	0x3d831b0e	0.06401645
34	0xbd75b64d	-0.05998831
35	0x3c08be7e	0.008346198
36	0xbd3b1b47	-0.04568031
37	0x3d2217ff	0.039573666
38	0x3cca5e0f	0.024703054
39	0x3d6b4990	0.0574432
40	0x3b0df502	0.0021660929
41	0xbce712e3	-0.028207248
42	0x3dd171cc	0.10226783
43	0xbd17ab44	-0.037028566
44	0x3b8c2517	0.0042768824
45	0x3c3a00de	0.011352746
46	0xbce345c7	-0.027743233
47	0xbb04b56a	-0.0020249733
48	0xbcaeb535	-0.02132664
49	0x3c91c58a	0.01779439
50	0xbcc6eb08	-0.024281994
51	0x3b8937b7	0.00418755
52	0xbd432680	-0.04764414
53	0x3c4739a8	0.012159742
54	0x3cc131b3	0.023583269
55	0xbd81eda2	-0.06344153
56	0xbcc14436	-0.023592096
57	0x3d6dd9c7	0.058069017
58	0xbcdc10f6	-0.026863556
59	0xba54a9c0	-0.0008112453
60	0xbcec7d2a	-0.028868277
61	0x3c608815	0.0137043195
62	0xbbaaac2c	-0.005208513
63	0x3d64e63a	0.055883624

backbone.bn2.running_mean f4 [64]
0	0xbe8d7359	-0.27627066
1	0xbfafbc50	-1.3729343
2	0xbe3f2f17	-0.18670307
3	0xbe9bea40	-0.30452156
4	0x3f2ca4d4	0.6743901
5	0xbee3dd09	-0.44504574
6	0x3e5a9997	0.21347652
7	0xbf9682e6	-1.1758697
8	0xbfdbfed9	-1.7187148
9	0xbe15f359	-0.14643611
10	0x3e8d79f3	0.27632102
11	0xbf880659	-1.0626937
12	0x3dc9e303	0.09857752
13	0xbf01e7c4	-0.5074427
14	0x3e5b9737	0.21444403
15	0xbf81c7c9	-1.0139095
16	0xbf0526fd	-0.52012616
17	0x3ea5eda5	0.3240787
18	0xbe96414b	-0.2934669
19	0xbef33444	-0.47500813
20	0xbe221a0c	-0.15830249
21	0xbeaaecb5	-0.33383718
22	0x3cfc88d0	0.030826956
23	0xbe2f809b	-0.17138903
24	0xbf8f3849	-1.1189052
25	0xbf50bc77	-0.81537575
26	0xbf43d498	-0.7649627
27	0xbff3e8ec	-1.9055457
28	0xc000b51d	-2.0110543
29	0x3d93e397	0.07221144
30	0x3b653111	0.0034971873
31	0xbf54665f	-0.82968706
32	0xbd7b1f67	-0.061309244
33	0xbf4a28a1	-0.78968245
34	0xbec21f03	-0.37914285
35	0xbf35221e	-0.70755184
36	0x3f275c7f	0.6537551
37	0xbd7433fe	-0.059619896
38	0xbfceadb2	-1.6146758
39	0xbf3b339a	-0.7312561
40	0xbf299e55	-0.6625722
41	0x3e8fddd2	0.28098923
42	0xbffbc45b	-1.9669298
43	0x3daee78e	0.08540259
44	0xbcf806b3	-0.030276632
45	0xbe69d072	-0.22833422
46	0xbf075700	-0.52867126
47	0xbd66c7bf	-0.056342836
48	0xbf770f4a	-0.96507704
49	0xbf4fe13d	-0.8120306
50	0xbe15b7aa	-0.14620844
51	0x3f2f8ef8	0.6857753
52	0x3d27f5e8	0.041006
53	0xbf63f8e9	-0.8905168
54	0xbf5b43f4	-0.85650563
55	0x3f0c5ca4	0.5482886
56	0xbf196f42	-0.5993539
57	0xbfaca5ac	-1.3488059
58	0x3e83d819	0.25750807
59	0xbf4d5659	-0.8020988
60	0xbe517f93	-0.20458822
61	0xbeca2425	-0.394807
62	0xbc4c77c9	-0.012479731
63	0xbfb8cbaa	-1.4437153

backbone.bn2.running_var f4 [64]
0	0x401120b8	2.267622
1	0x40a8fd14	5.2808933
2	0x40394a9f	2.8951795
3	0x4096a67d	4.7078233
4	0x40061482	2.0950017
5	0x402dce7d	2.715728
6	0x401919d4	2.3922014
7	0x405d017d	3.4532158
8	0x4113f481	9.247193
9	0x4081a92d	4.0519013
10	0x3fffef49	1.9994899
11	0x4021b0b6	2.5264106
12	0x401f5095	2.4892933
13	0x401afbab	2.4216106
14	0x406ece40	3.7313385
15	0x40471632	3.1107297
16	0x406b6c29	3.6784766
17	0x40035c05	2.0524914
18	0x400098eb	2.0093334
19	0x4019c54b	2.4026668
20	0x3fdea522	1.7394145
21	0x4025b251	2.5890086
22	0x408f0b37	4.470119
23	0x4013ae07	2.3074968
24	0x406cd69b	3.7005985
25	0x4048ef59	3.1396086
26	0x401f9898	2.4936886
27	0x40b67c85	5.7027
28	0x4105c3d4	8.36031
29	0x401667f4	2.3500948
30	0x400d62c3	2.209153
31	0x4070839a	3.7580323
32	0x40382259	2.8770964
33	0x408edf3b	4.46475
34	0x404528d1	3.0806162
35	0x403c3f6a	2.9413705
36	0x4018f5e7	2.3900087
37	0x3fa65ec8	1.2997675
38	0x40c42720	6.129776
39	0x403ad370	2.9191551
40	0x407355e5	3.8021176
41	0x406ed7c2	3.7319188
42	0x40ec75d3	7.389383
43	0x40ae3e72	5.4451227
44	0x40144e7c	2.3172903
45	0x400a605a	2.1621308
46	0x402f89ea	2.7427926
47	0x3fe722cc	1.8057494
48	0x407398da	3.8062043
49	0x404528ef	3.0806234
50	0x40373789	2.8627646
51	0x4010c5b8	2.2620678
52	0x40622c26	3.5339446
53	0x405bf9ec	3.437129
54	0x40507897	3.2573602
55	0x402e3c81	2.7224429
56	0x400edc77	2.232206
57	0x40aa7156	5.326335
58	0x402c00bd	2.687545
59	0x40934034	4.6015873
60	0x407df86f	3.9682882
61	0x4042ba61	3.0426257
62	0x400ece42	2.231339
63	0x408c8b46	4.392001
