PointPillarUpgrades/output_20251124_202257/pointpillars_ModelNet10.pth (torch, 601647 bytes, 24 tensors)

pfn.linear.weight f4 [64, 8]
0	0x3e492b7c	0.19645494
1	0x3e8abbd1	0.27096418
2	0xbe236ce5	-0.15959509
3	0x3dfdf337	0.12399905
4	0x3cb87d54	0.022520699
5	0x3dabe662	0.083935514
6	0xbdff712b	-0.12472757
7	0x3e67250c	0.22572726
8	0x3ea198c8	0.31561875
9	0xbe8619d0	-0.26191568
10	0x3eae323c	0.340227
11	0x3d2f5c58	0.042812675
12	0x3e247d4b	0.1606342
13	0x3d974a77	0.0738725
14	0x3df0f90c	0.11766252
15	0xb795f35d	-1.7875509e-05
16	0x3e8c48a0	0.27399158
17	0x3d402c9e	0.04691755
18	0xbdf40608	-0.11915213
19	0x3d97cb8a	0.07411869
20	0xbd7afc85	-0.061275978
21	0xbd101658	-0.03517756
22	0xbda1d561	-0.07902027
23	0x3e6a3c96	0.22874674
24	0xbe811087	-0.25207922
25	0xbe2a912d	-0.16656943
26	0xbe166807	-0.14688121
27	0xbe1cd826	-0.15316829
28	0x3c76e536	0.015069297
29	0xbeb2ee84	-0.34947598
30	0x3eaf6846	0.34259242
31	0xbe982d82	-0.2972222
32	0x3e57ac27	0.21061765
33	0x3d5cb173	0.053880166
34	0xbdbfde6b	-0.09368595
35	0x3e0f8f20	0.14019442
36	0x3cea75cc	0.028620623
37	0x3e9b85c7	0.30375502
38	0x3dba55aa	0.090983704
39	0xbdb7f70a	-0.08982666
40	0x3de3af09	0.1111737
41	0xbe044fd3	-0.12921076
42	0x3e229fff	0.15881346
43	0x3e37e394	0.17957908
44	0x3e0759a9	0.13217796
45	0xbe66a18c	-0.22522563
46	0x3e0ba1d6	0.13635954
47	0x3d819bb8	0.06328529
48	0x3e03483d	0.12820525
49	0xbe1dc8f8	-0.15408695
50	0xbee40037	-0.44531414
51	0xbd90005f	-0.07031321
52	0xbdff4a6f	-0.12465369
53	0x3e86c327	0.26320764
54	0x3e3265bd	0.17421623
55	0x3dd39461	0.103310354
56	0x3d59e6d9	0.05319867
57	0xbcd7aded	-0.026328051
58	0x3ec07cb3	0.37595138
59	0xbe24e5bc	-0.16103262
60	0x3d43f4f0	0.047841012
61	0xbe016709	-0.12636961
62	0x3d4004cc	0.046879575
63	0xbd7d9468	-0.06190911
64	0x3d876c38	0.06612438
65	0xbd67a902	-0.056557663
66	0x3ebf48fe	0.37360376
67	0xbe2766ed	-0.16347857
68	0xbe1de7f4	-0.15420514
69	0xbdec543e	-0.115395054
70	0x3e82ba07	0.25532553
71	0x3e2962bb	0.16541569
72	0x3e97d1e8	0.29652333
73	0xbe9622bd	-0.29323378
74	0xbebe18d0	-0.37128305
75	0xbe0489a9	-0.12943138
76	0xbdaa3833	-0.083115004
77	0x3de5c9d8	0.11220139
78	0x3e2c6feb	0.16839568
79	0x3e69e3ba	0.22840777
80	0xbdfe38a1	-0.12413145
81	0xbe8c0c0c	-0.2735294
82	0x3e5be914	0.21475631
83	0xbd8abd21	-0.06774355
84	0x3e345e48	0.1761409
85	0xbd9bf108	-0.076143324
86	0x3df6b577	0.120463304
87	0xbe6b4d69	-0.22978748
88	0xbe6460d4	-0.22302562
89	0x3cffcbbe	0.031225082
90	0x3d63e5a5	0.055638928
91	0xbda5bed3	-0.080930375
92	0x3e2e8074	0.17041188
93	0x3e3452a8	0.17609656
94	0xbe8f4fd2	-0.27990586
95	0xbe0a1d1f	-0.13487671
96	0x3eb76a3b	0.35823235
97	0xbddd2399	-0.10797805
98	0xbd9087ad	-0.07057128
99	0xbe5c9f69	-0.21545185
100	0xbdafbca0	-0.08580899
101	0x3dbdabb6	0.09261267
102	0xbd88adbb	-0.066737615
103	0xbe5a08c2	-0.21292403
104	0x3b44a3ed	0.0030004934
105	0xbe31ad01	-0.17351152
106	0xbec05a29	-0.37568787
107	0xbdd3ed92	-0.10348047
108	0xbe41ba6d	-0.18918772
109	0xbe72a417	-0.23695408
110	0x3ecac03f	0.39599797
111	0x3c200ba3	0.009768399
112	0x3e0de163	0.1385551
113	0xbe828ed0	-0.25499582
114	0xbe9393a2	-0.28823572
115	0xbdafc65d	-0.08582757
116	0x3cbce49e	0.023058232
117	0xbe9daee4	-0.30797493
118	0xbdcdea94	-0.10054508
119	0xbe7daa93	-0.247721
120	0xbbe39e4d	-0.006946361
121	0xbd825018	-0.06362933
122	0x3cd07025	0.0254441
123	0xbe48f316	-0.1962398
124	0xbe2a5c4a	-0.16636768
125	0xbe5094de	-0.20369288
126	0xbd8bd51d	-0.068277575
127	0xbe8a2791	-0.26983312
128	0x3e596ae6	0.21232185
129	0xbdc48ec7	-0.09597545
130	0x3eb71f37	0.35766003
131	0x3d8b5929	0.06804115
132	0xbe3abba1	-0.18235637
133	0x3e9021a5	0.2815067
134	0xbe08bf6d	-0.13354273
135	0xbd96e8d8	-0.0736863
136	0xbe63782e	-0.22213814
137	0xbeb8b11d	-0.36072627
138	0x3e37b0e0	0.17938566
139	0xbd4878d5	-0.04894336
140	0x3c4df024	0.012569461
141	0xbe836295	-0.2566115
142	0x3e15048b	0.14552514
143	0xbe5ef68c	-0.21773738
144	0xbd7ce29a	-0.06173954
145	0x3d199e49	0.037504468
146	0x3e418937	0.189
147	0x3e46614a	0.1937305
148	0x3e67db89	0.2264234
149	0xbeb7d6b2	-0.35905987
150	0x3d11e426	0.03561797
151	0xbe002d38	-0.1251725
152	0xbcf8fe29	-0.03039463
153	0xbe8d9c9a	-0.2765854
154	0x3eabd65a	0.33561975
155	0xbdb56455	-0.088570274
156	0x3e2b6185	0.1673642
157	0x3dd06e13	0.10177245
158	0xbc86da68	-0.016461566
159	0xbe191471	-0.14949204
160	0x3ec71ee6	0.3889076
161	0x3c959588	0.018259779
162	0x3d13dcd3	0.036099266
163	0xbe0ef1a3	-0.13959365
164	0x3daaee5a	0.08346243
165	0xbda49721	-0.08036638
166	0xbdd36a51	-0.103230126
167	0x3e8739e5	0.26411358
168	0x3d899e7a	0.0671968
169	0xbe1bbd71	-0.15208985
170	0xbe848e01	-0.2588959
171	0xba1a182e	-0.0005878237
172	0x3e16335f	0.14668034
173	0xbe1315f4	-0.14363843
174	0xbdd5760f	-0.104229085
175	0xbe21e9ac	-0.15811795
176	0xbe814c20	-0.2525339
177	0x3d91a351	0.07111228
178	0x3e9b9385	0.30385986
179	0xbe7833ba	-0.24238482
180	0x3dae8c5a	0.08522864
181	0x3e797d59	0.24364223
182	0x3c7a0c8b	0.01526178
183	0xbdccb48b	-0.09995373
184	0x3e092bf3	0.13395672
185	0x3e3d9c86	0.1851674
186	0x3df8cd00	0.12148476
187	0xbdaa1f96	-0.08306806
188	0xbd83f244	-0.06442693
189	0x3da951cf	0.08267557
190	0x3bcb9de2	0.0062138895
191	0xbd980633	-0.074230574
192	0x3e48de9a	0.19616166
193	0x3ea62375	0.32448927
194	0xbd140931	-0.036141578
195	0xbd66fdbd	-0.056394327
196	0xbc364df9	-0.011126989
197	0xbd1e2788	-0.03861192
198	0x3dfc6b8d	0.12325201
199	0x3df6ce4a	0.12051065
200	0xbe9e40cd	-0.30908814
201	0xbe08c862	-0.1335769
202	0x3e93fb7a	0.289028
203	0x3db2ea78	0.087361276
204	0x3c877a52	0.016537819
205	0xbe238720	-0.15969515
206	0xbe944168	-0.2895615
207	0xbe7dc630	-0.24782634
208	0xbdff2bc5	-0.1245952
209	0x3dc92dc2	0.09823181
210	0x3e703e84	0.23461348
211	0x3dc4c268	0.096073925
212	0xbe5fc32f	-0.218518
213	0xbe384900	-0.17996597
214	0xbdb2025a	-0.08691855
215	0x3ea96e6a	0.33092052
216	0x3c77aa70	0.015116319
217	0xbcfcedc8	-0.030875102
218	0x3e816bd0	0.25277567
219	0xbd246d5d	-0.04014336
220	0xbe06fd08	-0.13182461
221	0x3eaf3afe	0.34224695
222	0xbe43b02f	-0.19110177
223	0xbc5554ca	-0.013020704
224	0xbeb70aaf	-0.35750338
225	0x3e55b796	0.20870814
226	0x3e8b90b7	0.27258846
227	0x3cce74b9	0.025202142
228	0xbe111390	-0.14167619
229	0xbeac4c7c	-0.33652103
230	0xbe842d19	-0.25815657
231	0x3e82d09b	0.25549778
232	0x3e0bb096	0.13641581
233	0x3e9c2156	0.30494183
234	0x3e3f075c	0.18655151
235	0x3dd24dee	0.1026877
236	0x3d6d1fcd	0.057891656
237	0xbe8c5a05	-0.2741243
238	0xbe4b4f6e	-0.19854519
239	0xbe78d2a9	-0.2429911
240	0x3e134c11	0.14384486
241	0xbe344ab5	-0.17606623
242	0x3d84aeb8	0.064786375
243	0xbe23c0ff	-0.15991591
244	0xbddaedfc	-0.10689923
245	0xbe456b90	-0.19279313
246	0xbe8215d4	-0.2540728
247	0x3de1befd	0.11022756
248	0xbdcee14f	-0.10101568
249	0x3e678ad7	0.22611557
250	0xbe15fbd2	-0.14646843
251	0xbe00081a	-0.1250309
252	0xbd82144f	-0.0635153
253	0xbe291e43	-0.1651545
254	0xbd19a3d8	-0.03750977
255	0xbea1421c	-0.3149575

pfn.bn.weight f4 [64]
0	0x3f6dadbb	0.92843217
1	0x3f841aab	1.0320638
2	0x3f6f2d94	0.9342892
3	0x3f7d5082	0.9895097
4	0x3f645b96	0.8920225
5	0x3f843303	1.0328068
6	0x3f7e3de8	0.9931321
7	0x3f859a5d	1.0437733
8	0x3f8443b1	1.0333158
9	0x3f77009b	0.964853
10	0x3f808c16	1.0042751
11	0x3f730f84	0.9494555
12	0x3f78a6cd	0.9712952
13	0x3f7e81c8	0.9941678
14	0x3f760c9f	0.9611301
15	0x3f664d2d	0.8996151
16	0x3f80fa2f	1.007635
17	0x3f762f59	0.96165997
18	0x3f7b8455	0.982488
19	0x3f81ceb3	1.0141205
20	0x3f81e2ae	1.0147302
21	0x3f7ccfd5	0.98754627
22	0x3f7f12d3	0.996381
23	0x3f71fe1d	0.9452837
24	0x3f77403a	0.96582377
25	0x3f791b9d	0.9730776
26	0x3f7b3821	0.9813252
27	0x3f89769b	1.073932
28	0x3f777489	0.96662194
29	0x3f75705f	0.9587459
30	0x3f74ad57	0.95576996
31	0x3f80cf89	1.0063335
32	0x3f862cef	1.0482463
33	0x3f72ca39	0.9483982
34	0x3f74af6f	0.9558019
35	0x3f670c88	0.90253496
36	0x3f78ae71	0.97141176
37	0x3f7eea98	0.9957671
38	0x3f7bc082	0.9834062
39	0x3f820997	1.0159177
40	0x3f7728f3	0.9654686
41	0x3f77b10e	0.9675454
42	0x3f842658	1.0324202
43	0x3f7c1654	0.9847157
44	0x3f818ce0	1.0121117
45	0x3f83196c	1.0242133
46	0x3f7bc56a	0.98348105
47	0x3f809740	1.0046158
48	0x3f880090	1.0625172
49	0x3f73f73d	0.9529913
50	0x3f6f7e77	0.93552345
51	0x3f791d0d	0.9730995
52	0x3f7dd963	0.9915983
53	0x3f827b69	1.0193912
54	0x3f80df65	1.0068175
55	0x3f752ebd	0.9577444
56	0x3f7a7c29	0.97845703
57	0x3f6895cc	0.9085357
58	0x3f7f75ac	0.9978893
59	0x3f7cadce	0.98702705
60	0x3f7deebb	0.991924
61	0x3f77afd1	0.9675265
62	0x3f7b8844	0.982548
63	0x3f818f42	1.0121844

pfn.bn.bias f4 [64]
0	0xbdbbde23	-0.091732286
1	0xbc382f6d	-0.011241776
2	0xbcbcd027	-0.023048474
3	0x3c70fe53	0.014709073
4	0xbd40601c	-0.046966657
5	0xbcf2e0b6	-0.029648166
6	0xbd189787	-0.037253883
7	0xbd6b3474	-0.05742307
8	0xbd9950ab	-0.07486089
9	0xbb1caaef	-0.0023905595
10	0xbd8ccacf	-0.0687462
11	0x3c69a92b	0.014261524
12	0x3d3f0e59	0.046644542
13	0xbb8129a0	-0.0039417297
14	0xbd373282	-0.044725902
15	0xbd1debf8	-0.038555115
16	0xbcc674f5	-0.024225691
17	0xbd0776cb	-0.033072274
18	0xbd7d7092	-0.061874934
19	0xbd8ec6a0	-0.069714785
20	0x3d48eb49	0.04905251
21	0x3b1c963c	0.0023893258
22	0xbcc3a149	-0.023880618
23	0xbdfa57db	-0.12223788
24	0xbd9a6762	-0.0753925
25	0x3c035f6c	0.008018356
26	0xbcf18130	-0.029480547
27	0xbda220e4	-0.0791643
28	0xbd0996c7	-0.033591058
29	0xbd8f30d4	-0.06991735
30	0xbc315725	-0.0108239995
31	0xbd787f0a	-0.06066803
32	0xbd3eaa23	-0.046548974
33	0xbdc83278	-0.09775251
34	0xbd9c376b	-0.07627758
35	0xbd1ae88a	-0.037819423
36	0x3d29a9b0	0.041421592
37	0x3c598179	0.013275498
38	0xbd188328	-0.037234455
39	0xbd54f22b	-0.051988762
40	0xbc303c99	-0.010756635
41	0x3c436ac8	0.011927314
42	0xbcd60792	-0.026126657
43	0xbd17c5b4	-0.03705378
44	0xbd005fe4	-0.03134145
45	0xba948765	-0.0011331855
46	0xbc413f09	-0.011794814
47	0xbd3e077a	-0.04639385
48	0xbc7238b8	-0.014784031
49	0xbde6637e	-0.112494454
50	0xbda0b112	-0.078462735
51	0x3c8b76b5	0.017024377
52	0xbd60bf41	-0.054869894
53	0x3d810673	0.06300058
54	0xbce9cbf7	-0.02853964
55	0xbdb4bab5	-0.08824674
56	0x3c0ab949	0.008467027
57	0xbdd1adea	-0.102382496
58	0xbcc8d13c	-0.024513833
59	0xbd349a19	-0.04409227
60	0x3b2af1ae	0.0026083994
61	0xbde8d9ac	-0.113696426
62	0xbda72a97	-0.0816242
63	0xbd2b648c	-0.041843936

pfn.bn.running_mean f4 [64]
0	0xb37b661c	-5.853336e-08
1	0x33084a3b	3.173248e-08
2	0xb348f191	-4.6785832e-08
3	0x3405db1a	1.2466299e-07
4	0x3312ee44	3.4209975e-08
5	0x3300f911	3.0028847e-08
6	0x3315b885	3.4859585e-08
7	0x32aedbf5	2.035629e-08
8	0x335c4fff	5.1295498e-08
9	0x32a578f9	1.926354e-08
10	0x3377d437	5.7702177e-08
11	0xb380dbbe	-6.000435e-08
12	0x31a50fba	4.80392e-09
13	0x33e0b457	1.04636165e-07
14	0xb05f4315	-8.1222257e-10
15	0x32445b74	1.1429496e-08
16	0xb2e5fda1	-2.6774446e-08
17	0x3388003c	6.333036e-08
18	0x32cf88f2	2.4160247e-08
19	0x3254b210	1.2380511e-08
20	0xb3744e09	-5.688165e-08
21	0xb2487db7	-1.1670116e-08
22	0x32889271	1.5899078e-08
23	0x32323c07	1.0374612e-08
24	0x32ad7d92	2.0196953e-08
25	0xb35634e6	-4.987387e-08
26	0xb37cd218	-5.88644e-08
27	0xb3526dda	-4.8994345e-08
28	0xb3d0967b	-9.713127e-08
29	0xb2e05839	-2.6117151e-08
30	0xb3ad1ce9	-8.061199e-08
31	0x32cb99fb	2.3702333e-08
32	0x3389d834	6.418887e-08
33	0x33b95145	8.629517e-08
34	0x33c0f376	8.984982e-08
35	0xb3f63f73	-1.1466809e-07
36	0x33651531	5.333749e-08
37	0xb16cbcad	-3.444977e-09
38	0x33af0c2d	8.151287e-08
39	0xb31c34c8	-3.6369585e-08
40	0xb34c91ef	-4.7630177e-08
41	0x3331416a	4.1270518e-08
42	0x3227cce6	9.767268e-09
43	0xb298d301	-1.7791082e-08
44	0xb38fc10d	-6.694072e-08
45	0x33980c9d	7.080346e-08
46	0xb38c2179	-6.525347e-08
47	0x31c6d189	5.78638e-09
48	0x32822dda	1.5154843e-08
49	0x3383e06e	6.1409864e-08
50	0xb3731aa9	-5.6602094e-08
51	0x33b3ded2	8.375868e-08
52	0xb390a3d2	-6.735321e-08
53	0x338315a3	6.1040986e-08
54	0xb1828e21	-3.799656e-09
55	0xb3a869b4	-7.842337e-08
56	0xb1043f14	-1.9244384e-09
57	0x33822de3	6.0619435e-08
58	0x33b69c6e	8.50349e-08
59	0xb205aa50	-7.7803435e-09
60	0x33a84b71	7.836832e-08
61	0x322f6f0f	1.02115925e-08
62	0x315fe5d7	3.258142e-09
63	0x336b916c	5.484746e-08

pfn.bn.running_var f4 [64]
0	0x36e7fb61	6.913601e-06
1	0x372ef156	1.0427399e-05
2	0x361e7204	2.36102e-06
3	0x36ae2cc5	5.190816e-06
4	0x35d0b2d5	1.5549255e-06
5	0x360d7fdf	2.1085068e-06
6	0x370decb5	8.459368e-06
7	0x3699bf45	4.582022e-06
8	0x369d8833	4.6948203e-06
9	0x37520d09	1.252001e-05
10	0x36e3f4c3	6.793621e-06
11	0x35b584f6	1.3524248e-06
12	0x36845e48	3.9448823e-06
13	0x36f9e69c	7.4476247e-06
14	0x3709ec6d	8.2208835e-06
15	0x34b0909a	3.2887766e-07
16	0x36cc4161	6.087285e-06
17	0x373e67df	1.1349067e-05
18	0x35b3d50f	1.3398547e-06
19	0x370c72cb	8.371378e-06
20	0x36867f96	4.008364e-06
21	0x368b9509	4.159873e-06
22	0x36a018ab	4.7712433e-06
23	0x3680da2d	3.8400963e-06
24	0x37158716	8.912544e-06
25	0x36c06415	5.733697e-06
26	0x363bce07	2.7985095e-06
27	0x361a7959	2.3018422e-06
28	0x37093b8a	8.179699e-06
29	0x37196d84	9.145009e-06
30	0x36342364	2.684269e-06
31	0x36942b51	4.4157864e-06
32	0x36fd3ac1	7.5468274e-06
33	0x36fe6686	7.581725e-06
34	0x37245445	9.794782e-06
35	0x35c86993	1.4931887e-06
36	0x36401b6e	2.8626196e-06
37	0x362eec34	2.6065509e-06
38	0x3701e4d9	7.742282e-06
39	0x36eb5600	7.0135575e-06
40	0x3666d91d	3.4399047e-06
41	0x3684ac64	3.9539755e-06
42	0x3672c7d8	3.6177134e-06
43	0x36fc7a5a	7.524429e-06
44	0x370e54cb	8.483602e-06
45	0x3707aeeb	8.087353e-06
46	0x36b7ffd9	5.4836096e-06
47	0x36cf97f6	6.1867713e-06
48	0x3739444f	1.1042764e-05
49	0x36934cf9	4.389902e-06
50	0x3686d0b4	4.0178074e-06
51	0x35f92027	1.8561303e-06
52	0x3682e208	3.9006154e-06
53	0x3656e2a6	3.2020412e-06
54	0x36c293e8	5.798869e-06
55	0x36aabee2	5.0886165e-06
56	0x36e3bb9c	6.786968e-06
57	0x36ab36a2	5.102557e-06
58	0x36c87c7c	5.9749564e-06
59	0x365052fa	3.1042714e-06
60	0x367604e8	3.6659712e-06
61	0x37610e17	1.3414326e-05
62	0x36e38049	6.7800615e-06
63	0x36d9c242	6.4897185e-06

backbone.conv1.weight f4 [32, 64, 3, 3]
0	0x3ba06911	0.0048953374
1	0xbc1584f6	-0.009125939
2	0xbc918f30	-0.017768472
3	0xbd0cb097	-0.034348097
4	0x3cda2481	0.026628735
5	0xbd2766dc	-0.04086958
6	0xbcec5efb	-0.028853884
7	0xbcdf18d7	-0.027233524
8	0xbd6ab36f	-0.057300027
9	0x3cded565	0.027201364
10	0xbc51b079	-0.012798422
11	0x3d4099ce	0.04702168
12	0x3ce0f8b7	0.027462346
13	0xbd5554b6	-0.05208274
14	0x3d2b4e2a	0.04182259
15	0xbd7bfff0	-0.061523378
16	0x3cc658d8	0.024212286
17	0xbd9a745c	-0.07541725
18	0x3c5239f3	0.012831199
19	0xbc32f055	-0.010921557
20	0x3d77efd0	0.060531437
21	0x3d93c29d	0.07214854
22	0x3c8e92dd	0.017404014
23	0x3c6a38af	0.014295741
24	0xbd785205	-0.060625095
25	0xbcb36a51	-0.021901282
26	0xbd9a67bc	-0.07539317
27	0x3c596c34	0.013270427
28	0xbcb4fca5	-0.022093127
29	0x3d2b5575	0.041829545
30	0x3af4ef14	0.0018686973
31	0x3ceb907b	0.028755417
32	0xbc900f68	-0.017585471
33	0x3daa2938	0.08308643
34	0x3cd165bb	0.025561204
35	0x3dd78f9b	0.105254374
36	0x3cfbe3f7	0.03074835
37	0x3b47b6ad	0.0030473873
38	0x3d243f10	0.040099204
39	0x3d2e199f	0.042504903
40	0xbca37f13	-0.019958055
41	0x3d0bf98a	0.034173526
42	0xbcf3cf42	-0.029761914
43	0xbd3c1b44	-0.04592444
44	0xbcf994f1	-0.030466529
45	0x3b75826b	0.0037461768
46	0x3be79e89	0.0070684594
47	0x3d4d356f	0.050099786
48	0x3ca774b5	0.020441392
49	0x3ca7828d	0.020447994
50	0x3ca2051e	0.01977783
51	0xbdb02ccc	-0.08602294
52	0xbc0729de	-0.008249728
53	0xbdc1ec49	-0.09468896
54	0xbd2c0733	-0.041999053
55	0xbc91fc15	-0.017820397
56	0xbccdbad4	-0.0251135
57	0xbcca2d50	-0.02467981
58	0xbd035d02	-0.03207112
59	0xbd6b1e77	-0.0574021
60	0xbd0e5184	-0.034745708
61	0x3b7d03f7	0.00386071
62	0x3c499fec	0.012306195
63	0x39a6c4f4	0.0003180873
64	0xbd36a8fd	-0.044594754
65	0xbc9f81f4	-0.019471146
66	0xbd3cd912	-0.046105452
67	0xbd0040bc	-0.031311736
68	0x3c5511eb	0.01300476
69	0xbd926c0f	-0.07149517
70	0x3cbadf45	0.022811541
71	0xbd10d3bd	-0.03535818
72	0x3cb8a2cf	0.02253857
73	0xbc822f6b	-0.015891751
74	0xbd77a609	-0.060461078
75	0xbd017d8f	-0.031613883
76	0xbc3a3942	-0.01136619
77	0x3ab44793	0.0013754241
78	0xbca4194d	-0.020031596
79	0x3d5a7463	0.05333365
80	0xbde2a2aa	-0.11066182
81	0xbc3f09ca	-0.011660049
82	0xbd021696	-0.03175982
83	0x3cb07235	0.021538833
84	0x3b120992	0.0022283536
85	0xbd3a8aaa	-0.045542397
86	0x3cec7ff7	0.028869612
87	0xbc9fa006	-0.019485485
88	0xbd38d53a	-0.045125224
89	0xbcd3ab1d	-0.02583843
90	0xbd812168	-0.063052
91	0xbca773a2	-0.02044088
92	0x3b87b796	0.004141758
93	0xbda1370c	-0.078718275
94	0xbd050d8a	-0.032483615
95	0xbd1fb7fa	-0.038993813
96	0x3d94b143	0.072603725
97	0x3cc2ce8e	0.023780134
98	0x3d44769b	0.047964673
99	0xbd03d3db	-0.032184463
100	0xbd3fb670	-0.046804845
101	0x3da16036	0.07879679
102	0x3cb90e60	0.022589862
103	0x3c3e1adc	0.011603083
104	0xbccc748b	-0.024957916
105	0x3d11866c	0.035528585
106	0xbd1c4278	-0.038149327
107	0x3db39972	0.08769502
108	0xbc987455	-0.018610159
109	0xbc776e67	-0.015102006
110	0x3d667364	0.05626239
111	0x3bbf961f	0.0058467533
112	0xbc18ae73	-0.009318936
113	0x3b7c56ae	0.0038503814
114	0xbd5fafcb	-0.05461101
115	0xbcbe4dc1	-0.023230435
116	0xbde9175a	-0.11381407
117	0xbc1736b0	-0.009229347
118	0xbc87bddf	-0.01657003
119	0x3c7f9a51	0.015600757
120	0x3d0b42fa	0.03399942
121	0x3ce37e9d	0.027770335
122	0xbd26d7a7	-0.040733006
123	0x3c7f4155	0.015579541
124	0xbd160a07	-0.036630657
125	0xbbbfbe96	-0.005851577
126	0xbd802d26	-0.062586114
127	0xbc41edd5	-0.011836489
128	0x3d873cb7	0.06603377
129	0xbd24389f	-0.04009306
130	0x3cc3d7a2	0.023906533
131	0x3c16bf82	0.009200932
132	0xbccd84b8	-0.0250877
133	0xbd08cb61	-0.033397082
134	0x3bbe7465	0.005812215
135	0xbd146901	-0.036232952
136	0x3b4e117b	0.0031443525
137	0x3cdca534	0.026934244
138	0x3c90c736	0.017673116
139	0xbce237ca	-0.027614493
140	0x3c22946c	0.009923082
141	0x3d06e97c	0.03293751
142	0x39ddf3e3	0.00042334115
143	0x3d0fe867	0.035133746
144	0x3b868312	0.0041049803
145	0xbd0fb85a	-0.03508792
146	0xbb9d22aa	-0.004795392
147	0x3cb54519	0.022127675
148	0xbd2b01c0	-0.041749716
149	0x3d145d92	0.036222048
150	0xbdba1142	-0.09085323
151	0x3d1c151d	0.038106073
152	0xbd89d170	-0.067294
153	0xbce1c51c	-0.02755981
154	0x3c988609	0.0186186
155	0x3cc11786	0.023570787
156	0xbc8a3bb0	-0.016874164
157	0xbca535fb	-0.020167341
158	0xbd4df4d3	-0.05028231
159	0x3d87365b	0.06602164
160	0x3c90f55e	0.017695125
161	0x3d7aac4e	0.06119948
162	0xbc7597f8	-0.014989845
163	0x3b19c309	0.0023462197
164	0xbc8e4385	-0.01736618
165	0xbc1ffd1d	-0.009764937
166	0xbd1d0bbe	-0.038341276
167	0xbce1d328	-0.027566507
168	0x3d2d7234	0.04234524
169	0x3cc24cd4	0.023718275
170	0xbd0c8ade	-0.03431212
171	0xbae5b077	-0.0017523904
172	0xbc8b303e	-0.016990777
173	0x3d1622f6	0.036654435
174	0xbd8c94a2	-0.06864287
175	0xbd02c829	-0.03192917
176	0xbd87a2b2	-0.066228285
177	0xbb9f198d	-0.004855341
178	0x3ce2ea23	0.027699536
179	0x3c9416c1	0.018077256
180	0x3c8a60e1	0.016891899
181	0x3d2c73b7	0.04210254
182	0x3ddf40ac	0.10901007
183	0x3d92b291	0.07162965
184	0x3cf32732	0.029681776
185	0x3d95b23e	0.073093876
186	0xbd87e309	-0.066351004
187	0x3ce25dba	0.027632583
188	0x3b281985	0.0025649976
189	0xbd1b9f2c	-0.037993595
190	0xbc9d1a7a	-0.019177664
191	0x3c6594f0	0.01401256
192	0x3c80439a	0.015657235
193	0xbd286466	-0.041111372
194	0xbb4a1167	-0.0030833127
195	0x3d01013d	0.03149532
196	0xbd3d9674	-0.04628606
197	0x3c0b49c0	0.00850147
198	0x3c03867b	0.008027668
199	0xbc363c6e	-0.011122806
200	0x3d0e6894	0.034767702
201	0xbd425f98	-0.047454447
202	0x3d1502dd	0.036379684
203	0x3b7407c5	0.0037236076
204	0x3d655214	0.05598648
205	0xbcdbd04c	-0.026832722
206	0xbb531e38	-0.0032214057
207	0xba41f14e	-0.0007398323
208	0xbaa3099e	-0.0012438779
209	0x3d800f1e	0.062528834
210	0x3d0e7600	0.034780502
211	0x3ccb566c	0.024821483
212	0xbbbb00a4	-0.0057068635
213	0xbc205172	-0.009785043
214	0x3c99ae14	0.018759765
215	0xbd83c648	-0.064343035
216	0xbd3cb4d6	-0.046070896
217	0xbadb992f	-0.0016754026
218	0x3d65907c	0.056045994
219	0xbcd6ca6b	-0.026219567
220	0xbd3e06d0	-0.046393216
221	0x3cbf2a62	0.02333564
222	0xbd07bc5e	-0.033138625
223	0x3c578c94	0.013156075
224	0xbda5d48c	-0.08097181
225	0xbd188e2a	-0.037244953
226	0x3c30aad7	0.010782919
227	0x3d5bd792	0.05367238
228	0x3c22cb04	0.009936098
229	0x3c191c53	0.009345132
230	0xbcb3868d	-0.021914745
231	0x3dc9443a	0.09827466
232	0xbcce22b1	-0.025163027
233	0x3cb07ccf	0.021543888
234	0x3d4788d1	0.048714463
235	0xbd878430	-0.0661701
236	0xbc1bc8ac	-0.009508293
237	0x3d05af16	0.032637678
238	0x3c952f1b	0.018210938
239	0xbc093111	-0.008373515
240	0x3931e3df	0.00016964924
241	0x3be07aa5	0.006850558
242	0x3d20c062	0.03924597
243	0xbc4112c4	-0.011784259
244	0xbc83cfec	-0.016090356
245	0xbc92dd55	-0.017927805
246	0xbd6b4af7	-0.05744454
247	0x3c893302	0.016747955
248	0xbd1deabf	-0.03855395
249	0xbcb83dad	-0.022490347
250	0x3c87f183	0.016594654
251	0xbdcda579	-0.10041327
252	0xbce44ac5	-0.027867684
253	0xbcadb842	-0.021206025
254	0x3d2056ac	0.039145157
255	0xbd0ba0fe	-0.03408908

backbone.bn1.weight f4 [32]
0	0x3f820e95	1.01607
1	0x3f7ca85b	0.9869439
2	0x3f6f2792	0.93419755
3	0x3f80399b	1.001758
4	0x3f6b9867	0.9202942
5	0x3f7e6945	0.9937938
6	0x3f78d453	0.9719898
7	0x3f7dc871	0.99133974
8	0x3f80a3a3	1.0049938
9	0x3f836230	1.026434
10	0x3f7b2270	0.9809942
11	0x3f6eec10	0.9332895
12	0x3f7ba720	0.9830189
13	0x3f71a889	0.9439779
14	0x3f7c4168	0.985373
15	0x3f81c8ff	1.0139464
16	0x3f80c8a2	1.0061228
17	0x3f80c45f	1.0059928
18	0x3f769ab7	0.96329826
19	0x3f79de75	0.9760507
20	0x3f8153ae	1.0103662
21	0x3f78daa4	0.9720862
22	0x3f8bd1aa	1.0923359
23	0x3f8305ae	1.0236108
24	0x3f86ef9f	1.0541877
25	0x3f711ec7	0.9418759
26	0x3f783dd1	0.96969324
27	0x3f72f865	0.9491027
28	0x3f856030	1.0419979
29	0x3f79c9df	0.97573656
30	0x3f6f9b78	0.935966
31	0x3f822692	1.0168021

backbone.bn1.bias f4 [32]
0	0x3d624c72	0.055248685
1	0xbe0f8248	-0.14014542
2	0xbd6e6989	-0.058206115
3	0xbd1c491d	-0.038155664
4	0xbd15345c	-0.036426887
5	0xbd9966ce	-0.074903116
6	0x3cf79a34	0.030224897
7	0x3d4cd2dd	0.050005782
8	0xbb15a38a	-0.0022833073
9	0x3dccd87b	0.10002228
10	0xbd9c2e3d	-0.07626007
11	0xbdcdeff1	-0.10055531
12	0x3cb3f85d	0.021969015
13	0xbe1d9bc4	-0.15391451
14	0xbca4cc86	-0.020117056
15	0xbe11fa2c	-0.14255589
16	0xbc19d30c	-0.009388696
17	0x3cbfe9be	0.023426887
18	0xbdc4e7ec	-0.09614548
19	0xbd9ae741	-0.075636394
20	0x3c46678b	0.0121096475
21	0xbd080c23	-0.0332147
22	0xbc61e583	-0.01378763
23	0xbe05cdc1	-0.1306677
24	0xbdf6ed90	-0.1205703
25	0x3d079c51	0.03310806
26	0x3db0c7fe	0.086318955
27	0x3a1e5486	0.00060398167
28	0xbd82c1fe	-0.06384657
29	0xbdb35547	-0.087565
30	0xbd2fd34c	-0.042926118
31	0xbca213ec	-0.01978489

backbone.bn1.running_mean f4 [32]
0	0xbef9ceef	-0.4879069
1	0xbf18fee6	-0.59763944
2	0xbeffafd9	-0.4993885
3	0xbf908c04	-1.1292729
4	0xbf6b2c6a	-0.91864645
5	0x3e8ae7c2	0.27129942
6	0xbfac0c4f	-1.3441256
7	0xbf7e6427	-0.9937157
8	0xbf4f8d45	-0.81074935
9	0xbe190ffd	-0.14947505
10	0xbd55f240	-0.05223298
11	0xbedbee39	-0.42955187
12	0xbf8961aa	-1.073293
13	0xbeb91724	-0.36150467
14	0xbf74af94	-0.9558041
15	0xbe9432ed	-0.28945103
16	0xbe9fff54	-0.31249487
17	0xbe1b3e71	-0.15160538
18	0xbf213531	-0.6297179
19	0xbfd967a2	-1.6984751
20	0xbf48f940	-0.78505325
21	0xbe5b498a	-0.21414772
22	0xbec9f99d	-0.39448252
23	0x3e8942f6	0.268089
24	0x3d1fe424	0.03903593
25	0xbf911f0b	-1.1337599
26	0xbf3444b7	-0.7041735
27	0xbe99e4c5	-0.3005735
28	0xbd8f4f94	-0.069976
29	0x3eccca5f	0.39998147
30	0xbf8a68d0	-1.0813236
31	0xbf8d0c83	-1.1019443

backbone.bn1.running_var f4 [32]
0	0x41ef6ccd	29.928125
1	0x42607486	56.113792
2	0x4251a632	52.4123
3	0x429c07e1	78.01539
4	0x428a7faa	69.249344
5	0x4247a9df	49.91589
6	0x42985a0b	76.175865
7	0x42746db7	61.107143
8	0x425aba78	54.6821
9	0x41eb9b5c	29.45086
10	0x422ba2ab	42.908855
11	0x424b8e52	50.888985
12	0x425a407e	54.56298
13	0x4240d2ea	48.20597
14	0x4247d44e	49.95733
15	0x42057739	33.36643
16	0x4233f0ac	44.98503
17	0x42220cad	40.51238
18	0x427ea13b	63.65745
19	0x4269a6d0	58.412903
20	0x425b88c9	54.88358
21	0x422b8212	42.87702
22	0x42507b7c	52.12059
23	0x4233aa8d	44.916553
24	0x42688875	58.13326
25	0x42764abb	61.57298
26	0x424b1d34	50.77852
27	0x4263cfda	56.95298
28	0x4252ff5d	52.74938
29	0x422d3c45	43.308857
30	0x4258e43b	54.22288
31	0x422a68df	42.602413

backbone.conv2.weight f4 [64, 32, 3, 3]
0	0xbdb626cd	-0.088941194
1	0xbd9687fd	-0.073501565
2	0x3d00c404	0.031436935
3	0x3ca26ddf	0.019827781
4	0xbda817c3	-0.08207657
5	0xbd649a13	-0.055811
6	0xbda4b33f	-0.08042001
7	0xbd477ed5	-0.04870494
8	0xbd62ea47	-0.055399206
9	0x3cd7b1a2	0.02632982
10	0xbd59368c	-0.053030536
11	0xbba33696	-0.0049808724
12	0x3d5b4d30	0.05354041
13	0xbd3400ef	-0.043946203
14	0xbcd9061d	-0.026492173
15	0xbd0bf94d	-0.0341733
16	0xbbde19b0	-0.0067779645
17	0x3c5eae5f	0.013591378
18	0x3d4d6a16	0.05015
19	0xbe00217d	-0.12512775
20	0xbd88aec7	-0.06673961
21	0x3dce213b	0.10064932
22	0xbc9b08da	-0.01892512
23	0x3cc232c5	0.02370585
24	0xbcdf3fab	-0.027252039
25	0xbd4a2aa6	-0.04935708
26	0x3ba6320e	0.005071885
27	0xbd9e9181	-0.077425964
28	0xbd97d913	-0.074144505
29	0x3cd22096	0.025650304
30	0x3d4839f2	0.048883386
31	0xbcd961e3	-0.026535934
32	0x3cab8e64	0.02094192
33	0x3d11e31b	0.035616975
34	0xbdb99429	-0.090614624
35	0xbd1b4785	-0.037910003
36	0xbca95f35	-0.020675281
37	0xbcb169bd	-0.021656865
38	0xbd5bb84f	-0.053642567
39	0x3d509cfa	0.050930955
40	0xbd525ef9	-0.051360104
41	0xbcb4c265	-0.02206535
42	0x3c401464	0.0117236115
43	0xbb9c3a83	-0.0047677173
44	0x3cb26483	0.021776443
45	0x3c217727	0.009855068
46	0x3bd23a2f	0.0064156274
47	0x3bb8b109	0.0056363386
48	0x3c631900	0.013860941
49	0xbcc6fed7	-0.024291439
50	0x3d014e38	0.031568736
51	0x3d4b852f	0.04968756
52	0xbcb6ceae	-0.02231535
53	0x3d329972	0.043603368
54	0x3d9944a6	0.07483797
55	0xbd4bb06e	-0.049728803
56	0xbda2eeda	-0.079557136
57	0x3d183b16	0.037165724
58	0xbd31e63a	-0.04343245
59	0xbcfafbb8	-0.030637607
60	0x3ba80aa4	0.0051282216
61	0x3c9a4e72	0.018836234
62	0x3d8f18bd	0.0698714
63	0xbbd968b2	-0.006634795
64	0xbcad70c5	-0.021171937
65	0xbd7c3c3b	-0.061580878
66	0x3d5a1e60	0.053251624
67	0xbd1b0e96	-0.037855707
68	0x3c98db35	0.018659214
69	0x3cd3ba2f	0.025845615
70	0x3ce40fc2	0.027839545
71	0xbcf71b64	-0.030164428
72	0x3d8b389e	0.06797908
73	0xbd1d92b3	-0.03846998
74	0xbda881fd	-0.08227918
75	0x3dd248d5	0.10267798
76	0xbd95364a	-0.072857454
77	0xbd539f45	-0.051665563
78	0xbcc16f16	-0.02361254
79	0xbd776a1d	-0.060403932
80	0x3bf2c32a	0.0074085193
81	0xbdca2ee5	-0.09872226
82	0xbd1ca958	-0.038247436
83	0xbbbcb75b	-0.0057591624
84	0x3c0a44d7	0.008439264
85	0x3c6d9ea6	0.014503157
86	0xbcc54f0d	-0.024085546
87	0xbd2acab5	-0.041697223
88	0xbe0061ce	-0.1253731
89	0xbc63d044	-0.013904635
90	0xbbf0e553	-0.0073515563
91	0xbc2de628	-0.010613956
92	0xbbc3907d	-0.005968152
93	0x3cac0b77	0.02100156
94	0xbdb99302	-0.09061243
95	0xbd749132	-0.05970878
96	0x3c607ee9	0.013702133
97	0xbd0d4e9b	-0.034498792
98	0x3b8f5518	0.0043741576
99	0xbc376526	-0.011193549
100	0xbd863f5e	-0.06555055
101	0xbda2e4e9	-0.079538174
102	0x3db9b418	0.09067553
103	0xbcead73d	-0.028667087
104	0xbd41a953	-0.04728062
105	0xbd4b11d8	-0.049577564
106	0x3bae8533	0.005325937
107	0x3c8c7941	0.017147662
108	0xbdd19918	-0.102342784
109	0xbc7708ed	-0.015077812
110	0xbd4f0fed	-0.050552297
111	0xbdd355da	-0.10319109
112	0xbd8cc84f	-0.06874143
113	0x3c2a43e7	0.010392166
114	0xbc702beb	-0.014658908
115	0x3c92ae81	0.017905476
116	0xbd82abb6	-0.063804075
117	0x3cbe0a0a	0.023198146
118	0x3c07c91b	0.008287693
119	0x3d3b522e	0.04573267
120	0x3db780d4	0.08960119
121	0xbdb338dc	-0.087510794
122	0xbd4e537d	-0.05037259
123	0x3d24db5f	0.04024827
124	0xbd492951	-0.049111668
125	0x3bbb55a8	0.005716998
126	0x3db2c6b3	0.08729305
127	0x3c237aaa	0.009977976
128	0xbda859e5	-0.08220271
129	0x3d92a11a	0.07159634
130	0xbc314600	-0.010819912
131	0x3bfb5672	0.007670217
132	0x3d0ac07e	0.03387498
133	0xbd0f4dd3	-0.03498633
134	0x3d0b0a28	0.033945233
135	0x3a2e2815	0.0006643546
136	0x3c8d6edc	0.017264776
137	0x3db3bd35	0.08776323
138	0x3b37ee07	0.002806546
139	0xbd045921	-0.032311562
140	0xbd36876f	-0.044562753
141	0xbb89ad4b	-0.0042015663
142	0xbd2db3aa	-0.04240767
143	0x3d6a2fb2	0.057174392
144	0x3d24e82c	0.04026048
145	0xbd5e3097	-0.054245558
146	0xbd243845	-0.040092725
147	0x3d1a897d	0.037728775
148	0xbd90ce98	-0.07070655
149	0xbc3afcc8	-0.011412807
150	0x3a78c53f	0.0009489841
151	0x3cae8f5b	0.021308592
152	0xbd4dced9	-0.050246093
153	0xbc2d30e5	-0.010570739
154	0xbd6b05fa	-0.057378747
155	0x3c1ffdb6	0.009765079
156	0xbca23212	-0.019799266
157	0xbd301d27	-0.04299655
158	0x3d2e551f	0.042561647
159	0x3d12dbf3	0.03585429
160	0x3d2444dc	0.040104732
161	0xbbd2675c	-0.006421013
162	0xbd1e0b41	-0.03858495
163	0xbb36505d	-0.0027818896
164	0x3c224d94	0.009906191
165	0x3c3a5c1f	0.011374502
166	0xbb64850c	-0.0034869341
167	0x3ba71301	0.005098701
168	0xbd1c0b54	-0.03809674
169	0xbcaca6df	-0.021075664
170	0xbc3b9420	-0.01144889
171	0x3c5db94b	0.013532947
172	0xbc7d73e2	-0.015469523
173	0xbd9cfe2a	-0.076656654
174	0x3d266413	0.040622782
175	0x3d2c77da	0.042106487
176	0xbd2e6e82	-0.042585857
177	0x3d65f1f8	0.056138963
178	0xbc49c8f5	-0.012315978
179	0xbdb76e59	-0.08956594
180	0xbbcc1a30	-0.0062287077
181	0xbbad0076	-0.005279596
182	0xbc8cd0cd	-0.017189408
183	0xbd6b51b5	-0.05745097
184	0xbdb6c152	-0.08923592
185	0x3d1ac3ea	0.037784494
186	0xbd2a8aa1	-0.041636113
187	0x3cc31d44	0.023817666
188	0x3ca1f673	0.019770836
189	0x3aacf681	0.0013196022
190	0xbdb2031a	-0.08691998
191	0x3d7a6c7d	0.06113862
192	0xbd833a93	-0.064076565
193	0xbd526742	-0.051368006
194	0xbd86cd4c	-0.06582126
195	0xbc380af4	-0.01123308
196	0x3d25f2dd	0.040514816
197	0x3bb9478c	0.005654281
198	0xbbe54306	-0.006996515
199	0x3cf74e41	0.030188682
200	0xbc673bad	-0.014113349
201	0x3dd04ffd	0.101715066
202	0xbd711ef8	-0.058867425
203	0x3daf490d	0.08558855
204	0x3c388b04	0.011263613
205	0xbdc39eb8	-0.095517576
206	0xbd55cd4b	-0.052197736
207	0xbc54e91a	-0.012995029
208	0xbcf01cf8	-0.029310688
209	0x3c821ff4	0.015884377
210	0xbda1465c	-0.07874748
211	0xbcb3f8dc	-0.021969251
212	0xbd8fa22c	-0.07013354
213	0xbce3528b	-0.02774932
214	0xbd424d68	-0.0474371
215	0x3ddee5b4	0.10883656
216	0xbc7f61ad	-0.015587253
217	0xbcf9322c	-0.030419432
218	0xbdb3295b	-0.08748122
219	0x3d350319	0.044192407
220	0x3cdc5ab9	0.026898729
221	0x3d12141e	0.035663716
222	0xbb9a62da	-0.004711491
223	0xbdb27eb2	-0.087155715
224	0xbc353cbd	-0.011061844
225	0x3db31aaf	0.08745324
226	0xbc64f35b	-0.013974036
227	0xbd820dc2	-0.0635028
228	0xbc659968	-0.014013626
229	0x3adc3bc5	0.0016802481
230	0xbd898b7b	-0.06716057
231	0x3d28feb1	0.041258518
232	0xbdba9e76	-0.09112255
233	0xbd500be0	-0.050792575
234	0xbd153750	-0.036429703
235	0xbc97abce	-0.01851454
236	0xbcdd2456	-0.026994865
237	0xbd0a69a3	-0.03379215
238	0xbc995da7	-0.018721415
239	0xbc74ee21	-0.0149493525
240	0xbdb4260f	-0.087963216
241	0xbd94b84d	-0.07261715
242	0xbab8d83d	-0.001410253
243	0xbd7493c0	-0.059711218
244	0xbdb99d38	-0.0906319
245	0xbc070027	-0.008239782
246	0xbda26937	-0.079302244
247	0xbd757a7d	-0.059931267
248	0x3bf5d67e	0.007502376
249	0xbce0be41	-0.02743447
250	0xbca41314	-0.020028628
251	0xbd8e0a34	-0.0693554
252	0x3d7164ba	0.05893395
253	0x3d05fc91	0.03271157
254	0xbd6ae791	-0.057349745
255	0x3d551b7d	0.052028168

backbone.bn2.weight f4 [64]
0	0x3f8593df	1.0435752
1	0x3f7fb9e0	0.99893
2	0x3f8815db	1.063167
3	0x3f83c4af	1.0294398
4	0x3f70795e	0.9393519
5	0x3f885e42	1.0653765
6	0x3f651ef8	0.8950038
7	0x3f7749b6	0.9659685
8	0x3f743559	0.953939
9	0x3f66de26	0.9018272
10	0x3f75c605	0.9600528
11	0x3f662723	0.8990347
12	0x3f825912	1.0183432
13	0x3f71edbd	0.94503385
14	0x3f8551f7	1.0415639
15	0x3f87f4bc	1.0621562
16	0x3f8631b7	1.0483922
17	0x3f7ab233	0.9792816
18	0x3f6ffc87	0.937447
19	0x3f8648f8	1.0491018
20	0x3f816264	1.0108151
21	0x3f6e76e5	0.9315017
22	0x3f80662f	1.0031184
23	0x3f85bb70	1.0447826
24	0x3f6f3505	0.93440276
25	0x3f73ef18	0.95286703
26	0x3f82c491	1.0216237
27	0x3f735b6b	0.9506137
28	0x3f61af16	0.88157785
29	0x3f7a0cde	0.97675884
30	0x3f7e00ce	0.9921998
31	0x3f7704df	0.9649181
32	0x3f8443ae	1.0333154
33	0x3f6d1f42	0.9262582
34	0x3f768952	0.96303284
35	0x3f6ed156	0.9328817
36	0x3f81abca	1.0130551
37	0x3f680187	0.9062733
38	0x3f804f69	1.0024234
39	0x3f7898c1	0.97108084
40	0x3f72c886	0.94837224
41	0x3f5ed33b	0.8704106
42	0x3f6dd6de	0.92905986
43	0x3f7d9406	0.9905399
44	0x3f72e1a5	0.94875556
45	0x3f846352	1.034281
46	0x3f73c7c2	0.9522668
47	0x3f84b758	1.0368452
48	0x3f6f7681	0.935402
49	0x3f74fdb4	0.9569962
50	0x3f6dd416	0.9290174
51	0x3f7ab50c	0.97932506
52	0x3f75c5ac	0.9600475
53	0x3f7acb7f	0.9796676
54	0x3f7c2946	0.9850048
55	0x3f7bc855	0.9835256
56	0x3f778188	0.96682024
57	0x3f77e0d5	0.9682744
58	0x3f806e6f	1.0033702
59	0x3f8480c1	1.0351793
60	0x3f89e9f9	1.0774528
61	0x3f821b34	1.0164552
62	0x3f86007b	1.0468897
63	0x3f8fdbe7	1.1238984

backbone.bn2.bias f4 [64]
0	0x3c63a9ca	0.013895461
1	0xbd4be3a7	-0.049777653
2	0x3e08642c	0.13319463
3	0xbdbb852c	-0.0915626
4	0xbc456abd	-0.012049374
5	0x3dbbfbf4	0.091789156
6	0xbd98bec8	-0.07458264
7	0xbdd0a9b3	-0.101886176
8	0xbda38437	-0.07984202
9	0xbdba9fdf	-0.09112524
10	0xbbc603e8	-0.006042946
11	0xbdafabe3	-0.08577707
12	0xbd909f9b	-0.07061692
13	0xbde8f06f	-0.11373984
14	0x3da2af3d	0.0794358
15	0x3e01cb0e	0.12675115
16	0x3e01cd99	0.12676086
17	0xbdd45da4	-0.10369423
18	0xbd17ea4d	-0.03708868
19	0xbca7ede9	-0.020499187
20	0xbd574690	-0.052557528
21	0xbe0106ea	-0.12600294
22	0x3a98ec3b	0.0011667082
23	0x3cace446	0.021104943
24	0xbdaaae8d	-0.08334074
25	0xbd9234f1	-0.07139004
26	0xbd2f676e	-0.042823248
27	0xbdf01ba7	-0.11724024
28	0xbd7098d7	-0.05873951
29	0x3b346569	0.0027526265
30	0xb9fa3514	-0.00047723262
31	0xbdf19e55	-0.117977776
32	0x3e1cd464	0.15315396
33	0xbdd82def	-0.10555636
34	0xbc81875d	-0.015811617
35	0xbd8ac028	-0.06774932
36	0x3d1c12d5	0.038103897
37	0xbd8d99b9	-0.06914086
38	0x3d890c47	0.06691795
39	0xbd3e9e00	-0.0465374
40	0xbd56f6f7	-0.052481618
41	0xbdaa5373	-0.08316698
42	0xbdcc21dd	-0.099673964
43	0xbd817888	-0.06321818
44	0xbd3620ce	-0.04446488
45	0x3d46c0b8	0.048523635
46	0xbc8e645d	-0.017381841
47	0xbd11a5d0	-0.03555852
48	0xbcbae1de	-0.02281278
49	0xbe29077d	-0.16506763
50	0xbd5718b4	-0.052513793
51	0xbd84dbd8	-0.06487244
52	0x3c8af5cf	0.016962914
53	0x3c56451b	0.013077999
54	0xbdbf536d	-0.09342084
55	0xbcddb1a9	-0.027062254
56	0xbdd87d50	-0.105707765
57	0xbd22f2a8	-0.039782196
58	0xbcf7aa33	-0.030232524
59	0x3db4c4ad	0.088265754
60	0x3d70d91a	0.058800794
61	0x3aec3816	0.0018022086
62	0xba24c3a8	-0.00062852586
63	0x3ca05940	0.019573808

backbone.bn2.running_mean f4 [64]
0	0xbfa82bfa	-1.313842
1	0x3f0e7dbf	0.55660623
2	0xbfc7cc37	-1.5609196
3	0x3c75864c	0.014985632
4	0xbe83ef34	-0.25768435
5	0xbea5bce6	-0.3237068
6	0x3f424727	0.7588982
7	0x3e546509	0.20741667
8	0x3e10b140	0.14130116
9	0x3ed7c5c7	0.4214308
10	0xbe4390fe	-0.19098279
11	0x3f8aaeda	1.083461
12	0xbf864257	-1.0488995
13	0x3cce090a	0.025150795
14	0x3e6468b4	0.22305566
15	0xbfbd9852	-1.481211
16	0xbf3452fc	-0.70439124
17	0x3da85447	0.082192
18	0xbeda6004	-0.4265138
19	0xbee3b31f	-0.44472596
20	0xbf49e818	-0.7886977
21	0xbf7bf52d	-0.98420984
22	0x3d478e6c	0.04871981
23	0xbf88dce0	-1.0692406
24	0x3fc058d1	1.5027105
25	0x3ed0a15f	0.40748116
26	0x3f02ac18	0.51043844
27	0xbf7d0c09	-0.9884649
28	0x3dbf5fbc	0.09344432
29	0xbf9c8a20	-1.2229652
30	0xbf68871b	-0.90831155
31	0xbecf5ae0	-0.4049902
32	0xbfa94185	-1.322312
33	0xbea17f40	-0.31542397
34	0xbf82787b	-1.0193018
35	0xbfb3dade	-1.4051168
36	0xbf8945f5	-1.0724474
37	0x3f4fc60b	0.81161565
38	0xbfe8dbda	-1.8192093
39	0xbef50b69	-0.47860268
40	0x3fba2c43	1.4544758
41	0x3e398dc0	0.1812048
42	0xbf0a472c	-0.5401485
43	0xbf4e5698	-0.8060088
44	0xbf238648	-0.6387677
45	0xbf8b301b	-1.0874056
46	0x3f4d22f8	0.80131483
47	0xbf537279	-0.82596546
48	0xbe54b7d9	-0.20773257
49	0xbd6389e7	-0.055551436
50	0xbf07805c	-0.52930236
51	0xbeca99a4	-0.39570343
52	0xbfc5414a	-1.541055
53	0xbde0890d	-0.1096364
54	0x3f8b132e	1.0865228
55	0x3f3a619e	0.728052
56	0xbeda3ed1	-0.4262605
57	0x3e0c5bf6	0.13706955
58	0xbf34bc59	-0.70599896
59	0xbfc7ce4d	-1.5609833
60	0x3e4c0b7d	0.19926257
61	0xbe00c157	-0.12573753
62	0x3edeb5f0	0.43498182
63	0x3f1a9ef4	0.60398793

backbone.bn2.running_var f4 [64]
0	0x408462d0	4.137062
1	0x4045674b	3.0844295
2	0x40b28c45	5.5796227
3	0x400881ed	2.13293
4	0x400e3e82	2.2225652
5	0x40522a2a	3.2838235
6	0x40398dd9	2.8992827
7	0x401b3f98	2.4257565
8	0x405e9c09	3.4782736
9	0x404bb853	3.1831253
10	0x40558078	3.335966
11	0x4069a451	3.650654
12	0x407f0d48	3.9851856
13	0x40014251	2.0196726
14	0x3fd2441a	1.6427033
15	0x40980c99	4.751538
16	0x40862dd9	4.1930966
17	0x401d8828	2.4614353
18	0x401148a3	2.2700584
19	0x4030e865	2.7641842
20	0x4050cbe2	3.262444
21	0x407cf748	3.9525928
22	0x40208472	2.5080838
23	0x40548b62	3.3210073
24	0x40a15661	5.0417943
25	0x4046042d	3.0940049
26	0x401633c5	2.3469098
27	0x4088b52f	4.272117
28	0x401304ec	2.2971754
29	0x40a65c04	5.1987324
30	0x408009ce	4.001197
31	0x407af871	3.9214137
32	0x408f0f8e	4.470649
33	0x402cef07	2.702089
34	0x405a6e61	3.412987
35	0x40ab087d	5.344786
36	0x408c9259	4.3928647
37	0x40865a7f	4.198547
38	0x40a8866a	5.266408
39	0x402c0586	2.6878371
40	0x409bb6dd	4.866072
41	0x40564935	3.3482182
42	0x404cc36d	3.1994278
43	0x409651ab	4.697469
44	0x40419c61	3.0251696
45	0x405cd0f3	3.4502532
46	0x402d20bb	2.7051227
47	0x4072fcb8	3.7966747
48	0x3fe48664	1.7853513
49	0x405979d7	3.3980615
50	0x4043a073	3.056668
51	0x404cdd36	3.2010016
52	0x40c84179	6.2579923
53	0x40106e78	2.2567425
54	0x409d1fb9	4.9101224
55	0x402fb173	2.7452056
56	0x402cac80	2.6980286
57	0x4007626f	2.115383
58	0x4045993f	3.0874784
59	0x40a7e9de	5.2472982
60	0x3fbabdb2	1.458914
61	0x3ff2acd0	1.8958988
62	0x40113c14	2.2692919
63	0x401a6476	2.4123816

backbone.conv3.weight f4 [128, 64, 3, 3]
0	0x3c080fc9	0.008304545
1	0xbc91dd44	-0.017805703
2	0xbd09184c	-0.033470437
3	0xbcc990c1	-0.024605157
4	0x3d31eb67	0.043437388
5	0xbc84308f	-0.016136436
6	0x3c8daf83	0.017295605
7	0xbce7acad	-0.02828058
8	0xbcac69a3	-0.021046465
9	0xbc319911	-0.0108397165
10	0x3d41125f	0.04713666
11	0xbd2f436f	-0.04278892
12	0x3c269c08	0.010169037
13	0x3d6fab54	0.058513
14	0x3cc70ae8	0.024297193
15	0xbcb84dae	-0.022497978
16	0x3ccc6003	0.024948126
17	0xbacd1776	-0.0015647251
18	0x3d6af52e	0.057362728
19	0xbc40ec69	-0.011775115
20	0x3d84896a	0.06471522
21	0x3d3d1ca9	0.04616991
22	0xbcb0e6b8	-0.02159439
23	0x3d5c5021	0.053787354
24	0xbc2bf54c	-0.010495495
25	0xbc32d570	-0.010915145
26	0x3d8c294e	0.06843816
27	0x3cc56b6f	0.02409908
28	0x3c89876e	0.01678821
29	0xbd06228b	-0.032747786
30	0x3b83c047	0.004020724
31	0xbd46368b	-0.04839186
32	0xbc3af9cc	-0.011412095
33	0xbdb81df3	-0.08990087
34	0xbd505c95	-0.050869543
35	0xbd61ec7a	-0.055157162
36	0x3d34439b	0.044009786
37	0x3d6de3bc	0.058078513
38	0x3da523bb	0.08063456
39	0xbc3b4655	-0.011430343
40	0x3d0e2f71	0.034713212
41	0x3d1ddd77	0.038541283
42	0x3d1563fc	0.036472306
43	0x3d881af7	0.06645768
44	0xbc8ab2f8	-0.016931042
45	0x3b1053fc	0.0022022715
46	0xbd0bfada	-0.034174778
47	0x3c62b021	0.013835938
48	0x3d8950a6	0.067048356
49	0x3d53668a	0.05161146
50	0x3d88c1be	0.066775784
51	0x3dd92448	0.10602623
52	0x3d9d7043	0.07687428
53	0x3dd06076	0.101746485
54	0xbbc02a1a	-0.005864394
55	0x3cf0baab	0.029385885
56	0xbc626b28	-0.013819493
57	0xbcb3d549	-0.021952288
58	0xbd48498a	-0.048898257
59	0x3ba9e52a	0.005184789
60	0xbc8f8374	-0.017518736
61	0xbd0a98e4	-0.033837214
62	0x3cf77e99	0.030211734
63	0xbc685622	-0.014180692
64	0xbd0ed0ae	-0.03486698
65	0x3c901a0a	0.017590541
66	0x3c55391c	0.013014104
67	0x3ac11589	0.001473115
68	0xbb3cb385	-0.0028793525
69	0x3a27c849	0.0006400389
70	0xbbe60469	-0.0070195687
71	0xbd08580e	-0.0332871
72	0x3d642557	0.055699673
73	0x3d0d57c6	0.034507535
74	0x3da12e87	0.078702025
75	0x3cae27e1	0.02125925
76	0x3d7cbcad	0.061703373
77	0x3d6f5b00	0.058436394
78	0xbd067f64	-0.032836333
79	0xbca5456c	-0.020174704
80	0xbc5ff1c1	-0.0136684785
81	0xbcfc89ef	-0.03082749
82	0x3ca6756c	0.020319663
83	0x3ca06413	0.01957897
84	0x3ce6cf76	0.028175097
85	0xbca021b0	-0.019547313
86	0x3cc1503d	0.02359783
87	0x3c0f2a04	0.008738045
88	0x3d26c8a0	0.040718675
89	0x3c8b8c83	0.017034775
90	0xbced27c8	-0.028949633
91	0xbcc0720d	-0.023491884
92	0xbd0b7999	-0.03405151
93	0xbcbda345	-0.023149142
94	0x3c85b3aa	0.016321022
95	0x3cf38c61	0.029730024
96	0xbcad8504	-0.02118159
97	0x3cea352d	0.02858981
98	0x3d4b6d5b	0.049664836
99	0xbd9a8767	-0.07545357
100	0x3aa5aa39	0.0012639231
101	0x38f28069	0.000115633775
102	0xbcde56b7	-0.027140958
103	0xbc4d8938	-0.0125449225
104	0x3a4de10b	0.00078536634
105	0xbd1ed1c9	-0.038774285
106	0xbcd64312	-0.026155028
107	0xbd0bd818	-0.03414163
108	0x3d5d07b1	0.053962413
109	0x3bc2e537	0.0059477347
110	0x3d39138e	0.045184664
111	0xbd4532ab	-0.048144024
112	0x3ca443e5	0.020051906
113	0x3c6c765e	0.014432518
114	0xbd863c2b	-0.06554445
115	0xbc70fd8e	-0.01470889
116	0xbd985d6d	-0.074396946
117	0x3c00853f	0.007844268
118	0xbd292846	-0.041298173
119	0xbcde3615	-0.027125398
120	0xbd111d94	-0.0354286
121	0xbc97eabf	-0.018544553
122	0x3cbb3ba6	0.022855591
123	0xbd340c51	-0.04395706
124	0x3c6df13d	0.014522848
125	0xbdb523ef	-0.088447444
126	0x3d35077b	0.044196587
127	0x3d5043a1	0.050845746
128	0x3d97e755	0.0741717
129	0x3dc6d978	0.097094476
130	0x3ce68d05	0.028143415
131	0x3dbe14dc	0.09281322
132	0x3d0026ce	0.031287007
133	0x3d3a05b2	0.045415588
134	0x3dc4593b	0.09587332
135	0x3d196809	0.03745273
136	0xbd4509d9	-0.048105095
137	0x3b3d7303	0.0028907664
138	0xbc945d10	-0.018110782
139	0xbd6e22a3	-0.0581385
140	0xbc8d26d4	-0.017230429
141	0x3d84ae3f	0.06478547
142	0x3ca0bb8e	0.019620683
143	0x3d0cd499	0.034382436
144	0x3c7a6c83	0.01528466
145	0x3ce1c8dd	0.0275616
146	0x3d8bdcf4	0.06829253
147	0x3cb508de	0.022098955
148	0x3b89fba5	0.0042109066
149	0x3d9fe6fc	0.07807729
150	0x3dfdad02	0.12386514
151	0x3d6ab398	0.05730018
152	0x3d4498b1	0.04799718
153	0xbd88c1a0	-0.06677556
154	0xbcb62a6c	-0.022237025
155	0xbcdd61d9	-0.027024196
156	0xbd075d54	-0.03304799
157	0xbd6f81ff	-0.058473583
158	0x3896c94d	7.1900526e-05
159	0x3d1a468e	0.037664942
160	0xbca1ed07	-0.019766344
161	0x3bffcb7b	0.007806239
162	0x3d1234a2	0.035694726
163	0x3c381683	0.011235836
164	0xbb943521	-0.004522935
165	0x3c99e219	0.01878457
166	0x3d42fef3	0.04760642
167	0xbcd92ddd	-0.026511127
168	0x3d0a67d4	0.033790424
169	0x3c5eb00b	0.013591777
170	0xbcbb0893	-0.022831237
171	0x3cad7538	0.021174058
172	0x3d64f6ff	0.055899616
173	0x3d1654ef	0.036702093
174	0x3d8bc50b	0.06824692
175	0x3d4b5595	0.049642164
176	0x3d44dfdc	0.04806505
177	0x3d1d4bbf	0.038402315
178	0x3c5d522d	0.013508362
179	0x3bf80658	0.0075691156
180	0x3d875f29	0.06609947
181	0x3d77e14e	0.0605176
182	0x3c8191fc	0.015816681
183	0x3cf9a43a	0.030473817
184	0xbc514c17	-0.012774489
185	0x3d28c273	0.041201066
186	0xbc082e96	-0.008311888
187	0xbc1f72af	-0.009731933
188	0xbc20a399	-0.00980463
189	0xbd235f12	-0.039885588
190	0xbca7955e	-0.020456966
191	0xbbf77091	-0.0075512608
192	0x3cff5846	0.031170022
193	0xbb28899f	-0.0025716794
194	0xbb6e1dc6	-0.0036333664
195	0x3cb855c2	0.02250183
196	0x3c953f65	0.018218705
197	0xbd26c0d9	-0.040711258
198	0xbd15107b	-0.03639267
199	0xbd90559e	-0.0704758
200	0xbc9e3754	-0.019313492
201	0x3d5d92f4	0.054095224
202	0x3cb6d09e	0.022316273
203	0x3d4a9d2f	0.04946631
204	0xbc53f36d	-0.012936455
205	0xbc83137f	-0.016000507
206	0x3d0167fe	0.031593315
207	0xbd1afa50	-0.037836373
208	0xbca1961b	-0.019724896
209	0x3d550898	0.05201015
210	0x3c900a5d	0.017583067
211	0x3cedd46e	0.029031958
212	0x3cca9298	0.024728104
213	0x3d679b4a	0.05654458
214	0x3cfd596a	0.030926425
215	0x3c17a000	0.009254456
216	0xbd4e6d53	-0.05039723
217	0xbc9d9088	-0.019233957
218	0x3c32fcb0	0.010924503
219	0x3d153a52	0.03643257
220	0x3ab06b31	0.001345968
221	0xbcb37d53	-0.021910345
222	0xbd468bf0	-0.0484733
223	0xbc0d33a4	-0.008618269
224	0xbd7a1cf2	-0.06106276
225	0xbca843cc	-0.02054014
226	0x3ced46c2	0.028964404
227	0xbcd65194	-0.026161946
228	0xbc51edd9	-0.012813055
229	0x3cee0531	0.02905521
230	0xbd83cec0	-0.06435919
231	0xbce9bb71	-0.028531762
232	0xbb894da7	-0.004190165
233	0xbd03a93c	-0.032143816
234	0xbc130326	-0.008972919
235	0x3cf4cb69	0.02988215
236	0xbc846c0c	-0.016164802
237	0x3c0bd9bc	0.008535799
238	0x3c98b103	0.018639093
239	0xbc10c593	-0.008836168
240	0xbd574a17	-0.052560892
241	0xbbd7474a	-0.0065697776
242	0xbb715614	-0.0036824988
243	0xbc7629dc	-0.0150246285
244	0xbbf99b25	-0.0076173716
245	0xbccff3b6	-0.025384765
246	0x3d6a27e9	0.057166968
247	0x3c526129	0.012840548
248	0x3d97f954	0.074206024
249	0x3da44ebb	0.08022829
250	0xbbefd962	-0.007319615
251	0x3d563adf	0.052302238
252	0xbd422f6d	-0.04740851
253	0x3cca0dad	0.024664724
254	0x3d2a2489	0.04153875
255	0xbca13d99	-0.019682692

backbone.bn3.weight f4 [128]
0	0x3f82737f	1.0191497
1	0x3f7b7bf2	0.98236
2	0x3f837e1c	1.027286
3	0x3f8318cf	1.0241946
4	0x3f7f47ca	0.99718916
5	0x3f800d93	1.0004143
6	0x3f808b51	1.0042516
7	0x3f815977	1.0105428
8	0x3f767968	0.96279
9	0x3f7bee71	0.9841071
10	0x3f733b78	0.9501262
11	0x3f80a22b	1.004949
12	0x3f7d212d	0.9887875
13	0x3f79fbbf	0.9764976
14	0x3f7a8ab9	0.97867924
15	0x3f7b15cc	0.98080134
16	0x3f809cb0	1.0047817
17	0x3f7a2bc1	0.97723013
18	0x3f839bd9	1.0281936
19	0x3f78c14e	0.9716996
20	0x3f7c41b3	0.9853775
21	0x3f805391	1.0025502
22	0x3f7ca4b2	0.98688805
23	0x3f7b1781	0.9808274
24	0x3f7f9c22	0.99847615
25	0x3f847fad	1.0351464
26	0x3f7b2f17	0.9811873
27	0x3f8473bd	1.034782
28	0x3f81715a	1.0112717
29	0x3f7a3a59	0.9774528
30	0x3f7b98c8	0.9828
31	0x3f814596	1.0099361
32	0x3f6c1dec	0.9223316
33	0x3f7726aa	0.9654337
34	0x3f81d316	1.0142543
35	0x3f81af6a	1.0131657
36	0x3f82f16d	1.0229927
37	0x3f7e9d5e	0.99458873
38	0x3f7d4be3	0.9894392
39	0x3f8135d4	1.0094552
40	0x3f7c5b7c	0.98577094
41	0x3f830c13	1.023806
42	0x3f824bd0	1.0179386
43	0x3f8098b0	1.0046597
44	0x3f754ce7	0.9582047
45	0x3f7b068f	0.9805688
46	0x3f84bc2b	1.0369924
47	0x3f7dfcfa	0.99214137
48	0x3f7ebc7e	0.99506366
49	0x3f811a1d	1.0086094
50	0x3f78d1d3	0.97195166
51	0x3f726bc3	0.9469568
52	0x3f73f2c2	0.95292294
53	0x3f835b4c	1.0262237
54	0x3f85517f	1.0415496
55	0x3f6fd313	0.9368145
56	0x3f8332f2	1.0249922
57	0x3f81fa65	1.0154539
58	0x3f7d162a	0.98861945
59	0x3f808d53	1.0043129
60	0x3f7672c1	0.9626885
61	0x3f790fbd	0.9728964
62	0x3f810b3a	1.0081551
63	0x3f82ac92	1.0208914
64	0x3f82ffd8	1.0234327
65	0x3f731ac1	0.949627
66	0x3f8232fe	1.0171812
67	0x3f78de39	0.97214085
68	0x3f7c4fcc	0.9855926
69	0x3f79613e	0.97414005
70	0x3f8128da	1.0090592
71	0x3f76ba49	0.96378
72	0x3f79de77	0.9760508
73	0x3f80b8ac	1.0056357
74	0x3f86718c	1.0503402
75	0x3f7ca176	0.9868387
76	0x3f7a97a6	0.9788765
77	0x3f8624d7	1.0479993
78	0x3f82bc7d	1.0213772
79	0x3f7a6700	0.97813416
80	0x3f7f7171	0.9978247
81	0x3f71c250	0.9443712
82	0x3f84ca9b	1.037433
83	0x3f814147	1.0098046
84	0x3f82ed70	1.022871
85	0x3f804c15	1.0023218
86	0x3f7a9d84	0.978966
87	0x3f82273f	1.0168227
88	0x3f829b3c	1.0203624
89	0x3f7e26b6	0.9927782
90	0x3f81d4b5	1.0143038
91	0x3f83208d	1.0244309
92	0x3f786d41	0.9704171
93	0x3f8212d0	1.0161991
94	0x3f767b9d	0.9628237
95	0x3f8081c9	1.0039607
96	0x3f799392	0.974908
97	0x3f83f805	1.0310065
98	0x3f790319	0.9727035
99	0x3f7d3ac9	0.98917824
100	0x3f79984e	0.97498024
101	0x3f811ff5	1.0087878
102	0x3f7f16b6	0.9964403
103	0x3f707c50	0.93939686
104	0x3f840c20	1.03162
105	0x3f813c97	1.0096616
106	0x3f735b13	0.95060843
107	0x3f824263	1.017651
108	0x3f7e1e6f	0.9926519
109	0x3f829f72	1.0204909
110	0x3f8013ac	1.0006003
111	0x3f81eda0	1.0150642
112	0x3f7f59a7	0.99746174
113	0x3f80336f	1.0015696
114	0x3f81c0bc	1.0136943
115	0x3f85246b	1.0401739
116	0x3f70cf17	0.94065994
117	0x3f7fb9e9	0.9989305
118	0x3f7f53b3	0.9973709
119	0x3f7b0505	0.98054534
120	0x3f7f8c07	0.9982304
121	0x3f84978e	1.0358751
122	0x3f6cc0c7	0.92481655
123	0x3f7be6ef	0.9839925
124	0x3f800e0f	1.000429
125	0x3f831f0a	1.0243847
126	0x3f80613b	1.0029672
127	0x3f858125	1.0430037
