PointPillarUpgrades/output_20251129_215603/pointpillars_ModelNet10.pth (torch, 663206 bytes, 40 tensors)

pfn.blocks.0.fc.weight f4 [64, 8]
0	0x3e5b17bb	0.21395771
1	0x3ea4ea07	0.322098
2	0xbdd7fdbb	-0.10546442
3	0x3e2f5e1a	0.1712574
4	0xbdabc552	-0.08387245
5	0x3da9d217	0.082920246
6	0xbe0eb12a	-0.1393477
7	0x3e5a3321	0.21308567
8	0x3e95f099	0.29285124
9	0xbe777567	-0.24165879
10	0x3ea964dc	0.33084762
11	0x3df041cb	0.11731299
12	0x3e0ad431	0.13557507
13	0x3d4c81b3	0.04992838
14	0x3e925c8b	0.2858623
15	0xbdf0dbe4	-0.11760691
16	0x3e9db4da	0.3080204
17	0x3d71b5ea	0.059011377
18	0xbe048e86	-0.12944993
19	0x3c6b867c	0.014375325
20	0xbdb2a172	-0.087221995
21	0x3d874bcc	0.06606254
22	0xbde18414	-0.1101152
23	0x3e805cd9	0.25070837
24	0xbe797ab6	-0.24363217
25	0xbe03a46d	-0.12855692
26	0xbe1d564c	-0.15364951
27	0xbd999296	-0.07498662
28	0x3e497a7b	0.19675629
29	0xbed176a4	-0.40910828
30	0x3ec9fd79	0.39451197
31	0xbe4b0660	-0.1982665
32	0x3e83ce2a	0.25743228
33	0x3d1353cf	0.035968598
34	0xbe80a799	-0.25127867
35	0x3dcd4b37	0.10024112
36	0x3ba73f4a	0.00510398
37	0x3e66ed65	0.22551496
38	0x3c903dad	0.017607534
39	0xbd8ffaab	-0.07030233
40	0x3d8e2d34	0.069422156
41	0xbdb2e993	-0.08735957
42	0x3e5a5a1f	0.21323441
43	0x3ebc1a4d	0.36738816
44	0x3e49fa03	0.19724278
45	0xbdf8eb52	-0.12154259
46	0x3e68036f	0.2265756
47	0x3d8f56e5	0.06998996
48	0x3e3b6c65	0.18303068
49	0xbe0247c6	-0.12722692
50	0xbecd5ab7	-0.40108272
51	0xbd53ecb7	-0.05173942
52	0xbe65233a	-0.22376719
53	0x3e9b5c10	0.30343676
54	0x3e1f6292	0.15564945
55	0x3d9d639b	0.07685014
56	0x3d69724f	0.05699378
57	0x3ae9d7c2	0.001784079
58	0x3ecdd970	0.40204954
59	0xbe79fb4f	-0.24412273
60	0x3db4052f	0.08790051
61	0xbe026434	-0.12733537
62	0x3e4e88b2	0.20169333
63	0xbdae19f8	-0.08501047
64	0x3d818e3d	0.06325958
65	0xbd9f6515	-0.07782952
66	0x3eafdd87	0.343487
67	0xbd678ea6	-0.056532525
68	0xbe207575	-0.15669806
69	0xbe5fa640	-0.21840763
70	0x3e9b5600	0.3033905
71	0x3da0ec7b	0.07857605
72	0x3eb50944	0.35358632
73	0xbe952fd3	-0.2913805
74	0xbeae9529	-0.34098175
75	0xbe1a8890	-0.15091157
76	0xbe849d9e	-0.25901502
77	0x3e26cd66	0.16289291
78	0x3e01932e	0.12653801
79	0x3e6dcffb	0.2322387
80	0xbe25d230	-0.16193461
81	0xbe5335a4	-0.20625931
82	0x3e8b5e27	0.2722027
83	0xbdb69e2f	-0.0891689
84	0x3e2c6b72	0.16837862
85	0xbad6722e	-0.0016360932
86	0x3e7bf4a3	0.2460504
87	0xbe86b088	-0.26306558
88	0xbe01496e	-0.12625667
89	0x3da7a6c3	0.08186104
90	0x3e08fad0	0.13376927
91	0xbea68707	-0.32524893
92	0x3e7ea593	0.24867849
93	0x3e8ae946	0.27131099
94	0xbecffc90	-0.40622377
95	0xbdee4bae	-0.116355285
96	0x3ea923b1	0.33035043
97	0xbdd5f317	-0.10446756
98	0xbdf7ea66	-0.12105255
99	0xbe69ca67	-0.22831117
100	0xbe3470a8	-0.176211
101	0x3dc29fd1	0.09503139
102	0x3cc690a8	0.0242389
103	0xbe89e011	-0.26928762
104	0xbce80996	-0.028324883
105	0xbe963ee2	-0.2934485
106	0xbe63ce2b	-0.22246616
107	0xbe259b39	-0.16172494
108	0xbe7c354e	-0.24629709
109	0xbe80fd63	-0.2519332
110	0x3e7841e8	0.24243891
111	0x3da3c39a	0.079962924
112	0x3d66aa2a	0.056314625
113	0xbeb278fb	-0.34857926
114	0xbe622ad1	-0.22086646
115	0xbc137aaf	-0.009001418
116	0x3d8467ff	0.06465148
117	0xbea7ff8d	-0.32812157
118	0xbc0edb02	-0.008719208
119	0xbe26c63f	-0.16286562
120	0xbd2bbf1d	-0.041930307
121	0xbe21f0e4	-0.15814549
122	0xbd81aedf	-0.06332182
123	0xbe003726	-0.12521037
124	0xbe6f46f1	-0.23366906
125	0xbe7d024d	-0.24707909
126	0xbd0c5b73	-0.0342669
127	0xbe4b298f	-0.19840072
128	0x3e3166de	0.17324397
129	0x3c94ef8d	0.018180633
130	0x3edd2e47	0.4319937
131	0x3b25ac19	0.002527958
132	0xbe888e8a	-0.2667125
133	0x3ea73138	0.32654738
134	0x3d1af240	0.037828684
135	0xbdfd02d9	-0.12354059
136	0xbe87db49	-0.2653449
137	0xbe9b0112	-0.30274254
138	0x3db959fd	0.09050367
139	0x3ac35325	0.0014902098
140	0x3e5995b1	0.21248509
141	0xbeb5d70f	-0.3551564
142	0x3e91f617	0.28508064
143	0xbe545ead	-0.20739241
144	0xbd01f3b4	-0.031726554
145	0x3d2f89bc	0.042855963
146	0x3e417e28	0.18895781
147	0x3e212c3f	0.15739535
148	0x3e8fcae5	0.28084484
149	0xbeae5bc2	-0.3405438
150	0x3e25165b	0.16121809
151	0xbde00e8f	-0.10940277
152	0xbd036304	-0.03207685
153	0xbe874156	-0.26417035
154	0x3ea39252	0.3194757
155	0xbea5e0e1	-0.3239813
156	0x3cbe8358	0.023255989
157	0x3e08cafb	0.13358681
158	0x3e12b717	0.14327656
159	0xbe6db893	-0.2321494
160	0x3eb3c5fb	0.35111985
161	0x3d5c3090	0.05375725
162	0x3d9dda53	0.07707658
163	0xbe19f73d	-0.1503572
164	0x3e05a65b	0.13051741
165	0xbd141472	-0.03615231
166	0xbe8e4533	-0.2778717
167	0x3e88c21b	0.2671059
168	0x3cc7948c	0.024362825
169	0xbd8cf005	-0.068817176
170	0xbe9ac91e	-0.30231565
171	0x3b341e62	0.002748393
172	0x3e71ef2c	0.23626393
173	0xbe1a2950	-0.15054822
174	0xbd51318d	-0.051072646
175	0xbe0d64e6	-0.13808021
176	0xbe3b40cc	-0.18286437
177	0x3e084a18	0.13309515
178	0x3eb4aa8f	0.35286376
179	0xbdb24654	-0.0870482
180	0x3dc07d40	0.093988895
181	0x3e7e7423	0.2484899
182	0x3d8ef166	0.06979637
183	0xbde11633	-0.10990562
184	0x3e2cccab	0.1687495
185	0x3e137580	0.14400291
186	0x3e555210	0.20832086
187	0xbd66e246	-0.056368135
188	0xbd820e2d	-0.0635036
189	0x3da94071	0.08264244
190	0xbdf21591	-0.1182052
191	0xbd97a859	-0.07405157
192	0x3e3aebd9	0.18254031
193	0x3ea0f876	0.3143956
194	0xbd067704	-0.032828346
195	0x3d0827b2	0.03324098
196	0xbd1b5623	-0.037923943
197	0xbdd3b91c	-0.10338041
198	0x3e206453	0.1566327
199	0x3dc25adf	0.094899885
200	0xbe8de9ca	-0.2771743
201	0xbe0b2906	-0.13589868
202	0x3eb3f546	0.35148066
203	0xbd0d5d4b	-0.0345128
204	0xbc880db3	-0.016608095
205	0xbe69159d	-0.22762151
206	0xbea5db41	-0.3239384
207	0xbe7c49f4	-0.24637586
208	0xbd569787	-0.0523906
209	0x3da7e918	0.08198756
210	0x3eaa2101	0.33228305
211	0x3e074800	0.1321106
212	0xbeb07254	-0.34462225
213	0xbe3fabd6	-0.18717894
214	0xbda31065	-0.079621114
215	0x3e8f1e4d	0.27952805
216	0x3d9305d9	0.0717885
217	0x3c169e87	0.009193069
218	0x3e972474	0.2952
219	0xbd896f9a	-0.067107394
220	0xbcef866d	-0.029238904
221	0x3e8e93a7	0.27847025
222	0x3c3a2f29	0.011363783
223	0xbc6ee4f7	-0.014580957
224	0xbeaae503	-0.33377847
225	0x3e731ee8	0.23742259
226	0x3e94ef61	0.29088882
227	0x3d35611b	0.04428206
228	0xbe618b88	-0.22025883
229	0xbeb812b8	-0.3595178
230	0xbeacf184	-0.33778012
231	0x3e539abb	0.20664494
232	0x3de64eb8	0.11245483
233	0x3e91385a	0.28363305
234	0x3e31f2a8	0.17377722
235	0xbdfaa2d8	-0.12238091
236	0xbdc02f54	-0.09384027
237	0xbe93f7a1	-0.28899863
238	0xbeffa5f4	-0.499313
239	0xbe957515	-0.2919089
240	0x3d8be5bb	0.06830927
241	0xbe380ef3	-0.17974453
242	0xbd236f29	-0.039900932
243	0x3d0b67bc	0.034034476
244	0x3cf7a658	0.030230686
245	0xbe9a64f5	-0.3015515
246	0xbe3c4e10	-0.18389153
247	0x3e1b825f	0.15186451
248	0xbdc7fc24	-0.09764889
249	0x3e2a4050	0.16626096
250	0xbe2d58ff	-0.1692848
251	0xbe8ea46c	-0.2785982
252	0xbe2766ea	-0.16347852
253	0xbdb2418d	-0.08703909
254	0xbe0e9663	-0.13924555
255	0xbec6332e	-0.38710922

pfn.blocks.0.bn.weight f4 [64]
0	0x3f673a9a	0.90323794
1	0x3f824019	1.0175811
2	0x3f7574f1	0.95881563
3	0x3f7d9dad	0.9906872
4	0x3f77e0f6	0.9682764
5	0x3f823dc0	1.0175095
6	0x3f7f1f15	0.996568
7	0x3f8951ce	1.072809
8	0x3f87215c	1.0557055
9	0x3f747bb3	0.9550125
10	0x3f61d95c	0.8822229
11	0x3f843762	1.0329401
12	0x3f7596eb	0.9593341
13	0x3f75e4ae	0.9605206
14	0x3f670e08	0.90255785
15	0x3f717ba4	0.94329286
16	0x3f89637e	1.0733488
17	0x3f5f9529	0.87336975
18	0x3f828a4e	1.0198457
19	0x3f7d552e	0.989581
20	0x3f7a8de4	0.9787276
21	0x3f723666	0.94614255
22	0x3f7f0d65	0.99629813
23	0x3f771bad	0.96526605
24	0x3f609287	0.87723583
25	0x3f6d3749	0.92662483
26	0x3f6d5f11	0.92723185
27	0x3f8cca8c	1.0999312
28	0x3f68a95d	0.9088343
29	0x3f64f07c	0.8942945
30	0x3f765c5b	0.96234673
31	0x3f5dfcc4	0.86713815
32	0x3f7a8245	0.97855026
33	0x3f6767d4	0.90392804
34	0x3f85bc48	1.0448084
35	0x3f66082c	0.8985622
36	0x3f69fb4e	0.91399086
37	0x3f80015f	1.0000418
38	0x3f80cc96	1.0062435
39	0x3f8aa9ff	1.0833129
40	0x3f6a8489	0.9160848
41	0x3f7819e2	0.96914494
42	0x3f69e72c	0.91368365
43	0x3f7d6cac	0.98993945
44	0x3f70ebaf	0.94109625
45	0x3f82f564	1.0231137
46	0x3f7f0801	0.9962159
47	0x3f82435e	1.0176809
48	0x3f71ab9a	0.9440247
49	0x3f6a471b	0.9151475
50	0x3f6cd510	0.9251261
51	0x3f804c2f	1.0023249
52	0x3f85d99b	1.0457033
53	0x3f6044f7	0.8760523
54	0x3f7dd4b1	0.99152666
55	0x3f62b5b2	0.88558495
56	0x3f73e4d3	0.95271033
57	0x3f7038c2	0.93836606
58	0x3f73c30c	0.9521949
59	0x3f6dbf27	0.928698
60	0x3f77b4f2	0.96760476
61	0x3f5f4e27	0.87228626
62	0x3f5fea5b	0.87466973
63	0x3f68259c	0.9068239

pfn.blocks.0.bn.bias f4 [64]
0	0xbc940789	-0.01807
1	0xbd4cb3fd	-0.049976338
2	0x3c2334f2	0.009961354
3	0xbc1fcb13	-0.0097530065
4	0xbd31ba2e	-0.043390445
5	0xbc92ff9f	-0.017944155
6	0x3c8f432e	0.017488088
7	0x3ad26d25	0.0016054256
8	0x3c71ccb8	0.014758281
9	0xbcc35b38	-0.023847207
10	0xbd857b80	-0.065176964
11	0xbda03dd2	-0.07824291
12	0x3b6ee26b	0.0036450874
13	0xbca02acf	-0.019551663
14	0xbcd88745	-0.026431689
15	0xbc87fd5f	-0.016600309
16	0x3c1208cb	0.008913229
17	0xbc8c0ca3	-0.01709587
18	0xbd5c44d8	-0.053776592
19	0xbda96254	-0.08270708
20	0x3c7e7b5d	0.015532342
21	0xba0efb45	-0.0005454312
22	0x3b181374	0.0023204954
23	0xbd5f37f0	-0.054496706
24	0xbdbf8be4	-0.09352854
25	0x3cb1293f	0.021626113
26	0xbd22189d	-0.039574254
27	0xbcb558fb	-0.022137156
28	0xbd08c285	-0.033388633
29	0xbdbac6c6	-0.09119944
30	0xbd37d2aa	-0.04487864
31	0xbe082e04	-0.13298804
32	0xbd1b823b	-0.037965994
33	0xbdf40de5	-0.11916713
34	0xbcbafd08	-0.022825733
35	0xbdb34720	-0.087538004
36	0x3c262913	0.010141629
37	0xbd75159d	-0.059835065
38	0xbd20a62d	-0.039220978
39	0x3c0af854	0.008482058
40	0xbd564156	-0.052308403
41	0xbd2488f7	-0.040169682
42	0xbccee5b8	-0.025256023
43	0xbacae8a5	-0.001548071
44	0xbb858365	-0.0040745013
45	0xbc5175a7	-0.012784398
46	0xbc35571a	-0.01106813
47	0x3bf3d5c1	0.007441253
48	0xbda784eb	-0.08179649
49	0x3d64eaaf	0.055887874
50	0xbdb48abf	-0.08815526
51	0xbc1351df	-0.008991688
52	0x3cc4b06a	0.024009902
53	0xbcdd53bd	-0.027017469
54	0xbc3f1804	-0.011663441
55	0xbcb7514c	-0.022377633
56	0xbc876c75	-0.016531209
57	0xbd45f7c6	-0.048332
58	0xbc9e46e5	-0.019320915
59	0xbd4fe9fd	-0.050760258
60	0xbd6e8299	-0.058230016
61	0xbdc3ace4	-0.09554461
62	0xbdc92c9f	-0.09822964
63	0xbdca95db	-0.09891864

pfn.blocks.0.bn.running_mean f4 [64]
0	0xb77b81f7	-1.4991026e-05
1	0xb84504b5	-4.6972844e-05
2	0xb7da1665	-2.5998053e-05
3	0xb82356e2	-3.8943144e-05
4	0xb85cc9a0	-5.2639865e-05
5	0xb7b1e2c9	-2.120565e-05
6	0xb8900bc8	-6.8686495e-05
7	0xb6ce9bde	-6.1574237e-06
8	0xb7b2513d	-2.1257083e-05
9	0xb89b77f2	-7.4133175e-05
10	0x365d3049	3.2959672e-06
11	0x38a1d9c3	7.7176395e-05
12	0xb8604147	-5.3466556e-05
13	0xb828245b	-4.008818e-05
14	0xb7987939	-1.817626e-05
15	0x3699156b	4.5622487e-06
16	0x3696b188	4.4910157e-06
17	0xb53a82db	-6.948082e-07
18	0xb6fa7a54	-7.4648215e-06
19	0x36fee79a	7.596752e-06
20	0x36f141fe	7.190042e-06
21	0xb7a2d060	-1.9408937e-05
22	0x380ae0c4	3.3111093e-05
23	0x37106f8b	8.6090395e-06
24	0xb84e0076	-4.9114657e-05
25	0x38d289ed	0.00010039271
26	0x383e6ab1	4.5398894e-05
27	0x3747cb5f	1.1908675e-05
28	0x38de7f1f	0.00010609463
29	0x38762aed	5.869095e-05
30	0x37ade557	2.0730002e-05
31	0x3702734b	7.775448e-06
32	0xb8100c20	-3.4343568e-05
33	0xb8276c5b	-3.9916817e-05
34	0xb84c8f0f	-4.8770624e-05
35	0x38ab98ce	8.1823775e-05
36	0xb8765cfe	-5.8737576e-05
37	0x377b3b37	1.4974553e-05
38	0xb7a179eb	-1.9249468e-05
39	0x383a1a8a	4.4370572e-05
40	0x38870c53	6.439597e-05
41	0x37909cd9	1.7239176e-05
42	0x37b1ce46	2.1196098e-05
43	0x384b344f	4.8447688e-05
44	0xb7fc4cca	-3.0076499e-05
45	0xb7b224d2	-2.12364e-05
46	0x38c224c5	9.25749e-05
47	0x37938292	1.7584567e-05
48	0xb82a4402	-4.0594496e-05
49	0xb8246e3a	-3.9203303e-05
50	0x37f39131	2.9035467e-05
51	0xb7dce725	-2.6333679e-05
52	0x372a8fb5	1.0166249e-05
53	0xb86466ed	-5.4455293e-05
54	0x35cc1f8f	1.5208369e-06
55	0x3833eab3	4.2895506e-05
56	0xb801061a	-3.076168e-05
57	0xb6d0b103	-6.21949e-06
58	0xb876064b	-5.865683e-05
59	0xb7cb3517	-2.4224208e-05
60	0xb888367d	-6.4951346e-05
61	0xb80a267e	-3.2937613e-05
62	0xb7e795a2	-2.7607024e-05
63	0xb89365f1	-7.028494e-05

pfn.blocks.0.bn.running_var f4 [64]
0	0x3a4161eb	0.00073769566
1	0x3a5c6037	0.0008406671
2	0x399fd401	0.00030484798
3	0x3a5ca477	0.0008416841
4	0x39717b93	0.00023029586
5	0x38e83c32	0.00011073834
6	0x39d8960c	0.00041310524
7	0x39aa5e1e	0.0003249505
8	0x39448aaa	0.00018743673
9	0x3a84934b	0.0010114698
10	0x3a06926b	0.00051335123
11	0x39caff94	0.00038718863
12	0x39ec5607	0.00045077523
13	0x3a80128f	0.0009771156
14	0x3ab2c0a8	0.0013637738
15	0x39d1edae	0.00040040672
16	0x3aa1d58b	0.0012346966
17	0x3a5bc55e	0.0008383597
18	0x38dc1812	0.00010494901
19	0x3a571c20	0.000820579
20	0x39d8e251	0.0004136735
21	0x3a0372c3	0.0005014354
22	0x3a73c4f1	0.0009299061
23	0x39ceed00	0.0003946796
24	0x3a2cfe0b	0.00065991346
25	0x39e7e487	0.0004423002
26	0x39a26d3b	0.0003098043
27	0x3a298903	0.0006467255
28	0x3a54b40f	0.0008113989
29	0x3a1792bf	0.000578206
30	0x39c7b75d	0.00038092854
31	0x39c5eef9	0.00037752817
32	0x39e1946a	0.0004302592
33	0x3a589a1f	0.0008262712
34	0x3a85e8a3	0.0010216426
35	0x39aa546a	0.0003248782
36	0x3a0c0293	0.000534096
37	0x39a9281a	0.0003226407
38	0x3a356108	0.0006919061
39	0x3ad70b0e	0.0016406493
40	0x39a3b6cd	0.0003122598
41	0x39937857	0.00028127685
42	0x398aa522	0.00026444445
43	0x3a368b63	0.0006963519
44	0x3a523f3e	0.0008020288
45	0x39f964da	0.0004756812
46	0x3a0537a6	0.00050818396
47	0x39d034e2	0.00039712252
48	0x3a4b85cf	0.00077637745
49	0x39c9463c	0.00038390036
50	0x39d537b5	0.0004066803
51	0x392f570e	0.00016721731
52	0x3a214253	0.00061515457
53	0x394f2955	0.00019756456
54	0x39c11154	0.0003682474
55	0x3a1cca0f	0.0005981037
56	0x3a0fea6b	0.0005489948
57	0x3a2ce972	0.00065960654
58	0x39a2380e	0.00030940812
59	0x3a2cec9b	0.0006596536
60	0x3a37c34f	0.0007009999
61	0x3a6bd1a9	0.00089957804
62	0x3a58c20f	0.0008268663
63	0x3a1b0af2	0.0005914412

pfn.blocks.0.proj.weight f4 [64, 8]
0	0x3d55d8c2	0.05220867
1	0xbe69f0f4	-0.22845823
2	0xbe380b60	-0.17973089
3	0xbc610c8f	-0.013735904
4	0x3cd64bb6	0.026159149
5	0xbe31b62d	-0.17354651
6	0x3be28d2f	0.006913803
7	0xbcaf745e	-0.021417793
8	0xbd044eec	-0.03230183
9	0x3e470e46	0.19439039
10	0x3d82b404	0.063819915
11	0x3bab80ff	0.0052338834
12	0x3c169daf	0.009192868
13	0xbe0cf8e5	-0.1376682
14	0x3c2785fa	0.010224814
15	0x3d7259b8	0.059167594
16	0x3d9f5034	0.077789694
17	0x3d999223	0.074985765
18	0x3d89e587	0.06733232
19	0xbc8f91f4	-0.01752565
20	0xbc2389f6	-0.009981623
21	0x3e73b448	0.2379924
22	0x3c948c1f	0.018133221
23	0x3c2f8fd7	0.010715446
24	0xbe3d6c12	-0.18498257
25	0x3a3273b0	0.00068074
26	0xbe49efc9	-0.19720377
27	0x3c18e43d	0.00933176
28	0x3c7123f3	0.014718044
29	0xbd97b078	-0.074067056
30	0x3c8992c3	0.016793614
31	0x3dbbc46c	0.09168324
32	0x3e4e85a9	0.20168175
33	0x3cfe86bf	0.031070111
34	0x3bd76f9d	0.0065745846
35	0xbbbed4c9	-0.005823706
36	0x3c2a2f69	0.01038728
37	0xbdc32072	-0.09527673
38	0xbc7cc127	-0.0154269105
39	0x3dc3613a	0.09540029
40	0xbddba16c	-0.10724148
41	0x3e0851da	0.13312474
42	0xbc000f72	-0.007816182
43	0x3bb218b2	0.005435073
44	0x3ccecf09	0.025245206
45	0x3d2bfbde	0.041988246
46	0x3af51615	0.0018698598
47	0x3e396052	0.1810315
48	0x3e25b780	0.16183281
49	0x3e838fe5	0.2569572
50	0x3c88e59e	0.016711053
51	0xbc151431	-0.009099052
52	0xbb0b4bdc	-0.0021254933
53	0xbd23559a	-0.039876558
54	0xbbce2583	-0.006291093
55	0xbda12a0d	-0.07869349
56	0xbe935517	-0.28775856
57	0xbe8253f8	-0.25454688
58	0xbd884d42	-0.06655361
59	0x3c3dc17a	0.011581773
60	0xbc175ed3	-0.009238916
61	0x3e22c433	0.15895157
62	0x3d452c7c	0.048138127
63	0xbd2952d3	-0.041338753
64	0xbe070eb2	-0.131892
65	0x3e2f8fe8	0.1714474
66	0xbc8dedd7	-0.017325325
67	0x3c30864f	0.010774209
68	0x3cd4c1d9	0.02597134
69	0xbe151b47	-0.14561187
70	0x39b6f2cb	0.0003489464
71	0x3e2a5ace	0.16636202
72	0x3b2715a8	0.0025495086
73	0x3dddf477	0.108376436
74	0xbe0a67cd	-0.1351616
75	0x3a28dad7	0.0006441301
76	0xbb8b28e3	-0.0042468174
77	0x3dd14367	0.10217934
78	0x3bba16c6	0.0056789843
79	0x3dfd6dd5	0.123744644
80	0xbe344a66	-0.17606506
81	0x3d8d34b4	0.06894818
82	0xbd2e51df	-0.042558547
83	0x3b267a5e	0.0025402526
84	0xbc330c10	-0.010928169
85	0xbdb3da6e	-0.087818965
86	0x3c765833	0.015035677
87	0x3cf14a8b	0.02945449
88	0xbde38a89	-0.11110408
89	0x3deeeddd	0.116664626
90	0xbe148f46	-0.1450778
91	0xbd4bb38b	-0.049731772
92	0x3c8756ea	0.016520936
93	0xbdf322e9	-0.11871893
94	0xbd870a62	-0.06593777
95	0x3c9e6e73	0.019339776
96	0x3e2b322f	0.16718362
97	0x3e41e36d	0.18934412
98	0x3e16ee34	0.14739305
99	0xbb2df0a4	-0.0026541138
100	0xbc44beb0	-0.012008354
101	0x3e15ae8d	0.14617367
102	0x3bc30ff0	0.0059528276
103	0x3b5272b6	0.003211183
104	0x3beac27e	0.0071642986
105	0xbe423826	-0.18966731
106	0xbd965b36	-0.07341616
107	0x3c3e5e91	0.011619226
108	0xbc04ca80	-0.00810492
109	0xbcc65c0e	-0.024213817
110	0xbc2fd6f8	-0.010732405
111	0xbd93516e	-0.07193266
112	0xbcaed740	-0.021342874
113	0xbdbea837	-0.09309428
114	0xbce8849b	-0.028383544
115	0x37427be0	1.1592143e-05
116	0xbbdf76ce	-0.0068195825
117	0x3d3873d7	0.04503235
118	0x393dfd2b	0.00018118757
119	0xbcd58f53	-0.026069319
120	0x3da4b90f	0.080431096
121	0x3e5dae22	0.21648458
122	0xbdfa765f	-0.12229609
123	0xba071bb5	-0.000515397
124	0xbd8a8b24	-0.0676482
125	0xbe39bd0e	-0.18138525
126	0xbc35262b	-0.011056463
127	0x3bd442e6	0.0064777015
128	0x3ccac001	0.024749758
129	0xbe3a9a06	-0.18222818
130	0x3eb52b69	0.35384682
131	0xbcce4136	-0.02517758
132	0xbda50cc1	-0.08059073
133	0x3c578a15	0.01315548
134	0x3ca89504	0.020578869
135	0xbd603fcc	-0.05474834
136	0xbc62c67f	-0.0138412705
137	0xbccf6d15	-0.025320569
138	0x3e13ffcc	0.14453048
139	0x3b644c47	0.0034835504
140	0x3cfe9c2e	0.031080332
141	0xbc0b42ed	-0.008499843
142	0x3c86d138	0.016457185
143	0x3df2c37f	0.11853694
144	0xbd29589a	-0.041344263
145	0xbe3514a7	-0.1768366
146	0xbd24450f	-0.040104922
147	0x3b28e5bf	0.0025771705
148	0xbd5d97e2	-0.054099925
149	0x3bacbf7a	0.005271849
150	0xbbe25f26	-0.0069083152
151	0x3dfc9a7a	0.123341516
152	0x3d9f159a	0.07767792
153	0x3d502453	0.05081589
154	0x3e030ee0	0.12798643
155	0xbb0149ac	-0.001972775
156	0xbcb15740	-0.02164805
157	0xbe0ceb56	-0.13761649
158	0x38b46c66	8.6032596e-05
159	0x3d8c9597	0.068644695
160	0x3e81169c	0.25212562
161	0x3e1077b4	0.14108163
162	0xbdfff821	-0.12498499
163	0x3ab6a365	0.0013934193
164	0xbbf76d3c	-0.0075508635
165	0xbc274776	-0.010209909
166	0xbcd1ef0e	-0.025626685
167	0xbcc39d85	-0.023878822
168	0x3dbccc0f	0.092186086
169	0x3d90c021	0.07067896
170	0xbe257b22	-0.16160253
171	0xbbc52d69	-0.006017376
172	0xbc4e82b3	-0.012604403
173	0x3e299ee8	0.16564524
174	0x3bd2e1ad	0.006435594
175	0xbcf58b7e	-0.029973742
176	0xbe3d79c7	-0.18503486
177	0xbe01e45c	-0.12684768
178	0x3e24c490	0.16090608
179	0x3c80027e	0.015626188
180	0x3c938d3d	0.018011684
181	0x3e924d02	0.28574377
182	0x3c49b882	0.0123120565
183	0x3ded45c9	0.11585576
184	0x3e1d6cd8	0.15373552
185	0x3e27b6c3	0.16378312
186	0xbd3ee7a5	-0.046607632
187	0x3b1c8cf5	0.0023887728
188	0x3d03e3d2	0.03219969
189	0xbd5f9c46	-0.054592393
190	0xbcb9790b	-0.022640726
191	0xbe1159a3	-0.1419435
192	0x3d2e783c	0.042595133
193	0xbe6c5458	-0.2307905
194	0x3d20ff6f	0.0393061
195	0x3c6dd1fc	0.014515396
196	0xbcad3225	-0.021142075
197	0xbc5a7812	-0.013334291
198	0x3c2fc31f	0.010727673
199	0x3d3b3d63	0.04571284
200	0x3dfeee99	0.12447853
201	0xbe2ae6bc	-0.1668958
202	0x3e45dd19	0.19322623
203	0xbc32e410	-0.010918632
204	0x3cebae28	0.028769568
205	0xbe2db242	-0.16962531
206	0xbca50cdd	-0.020147735
207	0x3cbef85c	0.023311786
208	0xbbc8de1d	-0.0061299936
209	0x3dbe4d1f	0.092920534
210	0x3e00ab4b	0.12565343
211	0xba9a8f89	-0.0011792044
212	0xbce1979c	-0.027538113
213	0x3d6bad71	0.057538453
214	0xbb9846ef	-0.004647128
215	0xbe3d10f8	-0.18463504
216	0xbe88f946	-0.2675268
217	0xbdf28aa4	-0.1184285
218	0x3ea19a26	0.31562918
219	0xbc84dfee	-0.01622006
220	0x3beb880c	0.007187849
221	0x3e761bfb	0.24034111
222	0x3ced8c53	0.028997576
223	0x3e703350	0.23457074
224	0xbdfa98cd	-0.12236176
225	0xbe6eea81	-0.23331644
226	0x3db4d94b	0.08830508
227	0xbc4382fb	-0.011933084
228	0x3cc283e8	0.023744538
229	0xbc224660	-0.009904474
230	0xbce128f7	-0.027485354
231	0x3dc6b9ee	0.09703432
232	0xbdf69f2f	-0.120420806
233	0xbe2d2a01	-0.16910554
234	0x3dc29968	0.09501916
235	0xbd2110ba	-0.039322592
236	0xbd19f00f	-0.037582453
237	0x3dc4bef8	0.09606737
238	0xbd749df9	-0.059720967
239	0x3d2397bf	0.03993964
240	0xbd32bbb4	-0.04363604
241	0x3c90f9a5	0.017697165
242	0x3e8858f7	0.26630375
243	0x3bb2efa4	0.0054606963
244	0x3c20eea6	0.009822523
245	0x3e01fb60	0.12693548
246	0xbb11805d	-0.0022201755
247	0x3e22f344	0.15913111
248	0xbd81271e	-0.06306289
249	0xbde342fe	-0.11096762
250	0xbd856471	-0.06513298
251	0xbc8ca428	-0.01716812
252	0xbce4347f	-0.027857063
253	0x3e094fa3	0.13409285
254	0xbcc5914f	-0.02411714
255	0xbdfe4602	-0.12415697

backbone.conv1.weight f4 [32, 64, 3, 3]
0	0x3d068fa2	0.032851823
1	0xbcba79d6	-0.022763174
2	0x3cce2140	0.02516234
3	0x3bf06750	0.0073365346
4	0xbd4db775	-0.050223786
5	0xbb86f8fa	-0.004119036
6	0x3c73adb1	0.014872954
7	0xbd8e1f2f	-0.069395415
8	0xbd317ef5	-0.043333966
9	0x3d23c7b4	0.039985374
10	0x3c2d75c5	0.0105871605
11	0x3d714620	0.058904767
12	0x3daa71e0	0.08322501
13	0x3c87e08c	0.016586564
14	0x3d0b3f89	0.03399614
15	0x3d85effd	0.06539915
16	0xbc7f6528	-0.015588082
17	0x3cd0fd6e	0.02551147
18	0x3d1fa162	0.038972266
19	0x3c6b1892	0.01434912
20	0xbb9831de	-0.0046446165
21	0x3c7020d6	0.014656266
22	0xbcd0e1a0	-0.025498211
23	0x3c19efe2	0.009395571
24	0x3bf59763	0.0074948533
25	0xbd41e452	-0.047336884
26	0xba4d8fd2	-0.00078415603
27	0xbd0ad926	-0.033898495
28	0xbda6ca32	-0.081440344
29	0xbdb78bf9	-0.089622445
30	0x3cacf91f	0.021114884
31	0xbc7fc33c	-0.015610512
32	0xbd3db417	-0.046314325
33	0xbd2cdcd0	-0.04220277
34	0xbd107f40	-0.035277605
35	0xbda58188	-0.08081347
36	0x3c3ae8ef	0.011408075
37	0x3d004376	0.031314336
38	0x3d636489	0.0555158
39	0x3d892131	0.06695784
40	0xbd8b8250	-0.068119645
41	0xbc320702	-0.010865929
42	0xbbdaa172	-0.006672078
43	0x3ce785e0	0.028262079
44	0x3bd8177f	0.006594598
45	0x3d7ffda8	0.062497765
46	0x3d26b61a	0.04070101
47	0x3cda6cf1	0.026663275
48	0x3bc788fa	0.006089327
49	0x3d3c21f4	0.045930818
50	0x3c9151b4	0.017739154
51	0x3bfb4f37	0.0076693553
52	0xbd564ee6	-0.052321337
53	0xbccc7bc7	-0.024961365
54	0xbc9fc983	-0.019505268
55	0xbcd1eb52	-0.025624905
56	0xbd5eca75	-0.054392297
57	0xbcb7ab3d	-0.02242052
58	0xbd8663c5	-0.06561998
59	0xbdf36390	-0.118842244
60	0xbbd2a0b8	-0.0064278506
61	0x3c9662cf	0.018357662
62	0xbc6926bc	-0.014230426
63	0x3d26c5e3	0.040716063
64	0xbd4c6aa8	-0.049906403
65	0x3c98eeab	0.018668493
66	0x3e101c8c	0.1407339
67	0x3dfd0fcc	0.12356529
68	0x3e05cb7a	0.13065901
69	0x3d80e61c	0.0629389
70	0x3c75e221	0.015007527
71	0x3b75e1ba	0.0037518577
72	0xbbdbbc7b	-0.006705818
73	0x3c8f2a58	0.017476246
74	0x3d196f43	0.037459623
75	0x3d998b43	0.07497265
76	0x3cb8af97	0.022544665
77	0x3dfe18e8	0.12407094
78	0xbcc11f69	-0.023574548
79	0xbcba530b	-0.022744676
80	0xbcf0bfb9	-0.029388295
81	0x3d5757cf	0.052573975
82	0x3c2798ea	0.010229329
83	0xbcb19ac2	-0.02168024
84	0xbc3b4d03	-0.011431935
85	0xbbc06449	-0.00587133
86	0xbdae5cbf	-0.08513784
87	0xbcf19d5f	-0.029493986
88	0xbcb8608a	-0.02250697
89	0xbc5e1980	-0.013555884
90	0xbce19ebd	-0.027541513
91	0xbd12a6f7	-0.03580376
92	0xbda50a3f	-0.08058595
93	0xbd01e80e	-0.031715445
94	0xbb923c00	-0.004462719
95	0xbca3bda5	-0.01998789
96	0xbda1341a	-0.07871266
97	0xbd789de6	-0.06069746
98	0xbca6b367	-0.020349218
99	0xbd50bf06	-0.050963424
100	0xbcb5ae76	-0.022177916
101	0xbd9c7d88	-0.07641131
102	0x3da43b90	0.08019173
103	0x3d57946d	0.052631784
104	0x3d84819c	0.064700335
105	0x3d036cf8	0.032086343
106	0xbd4b332d	-0.049609352
107	0xbc809356	-0.015695255
108	0x3cb24e4c	0.02176585
109	0xbcbf4249	-0.023347037
110	0x3d4fb33a	0.050708033
111	0x3a92295a	0.001115124
112	0xb9302b5f	-0.00016800825
113	0x3cae535b	0.021279981
114	0xbcf555dc	-0.029948168
115	0xbc5bc4e8	-0.013413645
116	0x3c27ea6a	0.01024876
117	0x3c5cab30	0.013468549
118	0xbc2c9abc	-0.010534938
119	0xbda9361c	-0.08262274
120	0x3bbaac87	0.0056968364
121	0xbcb22865	-0.021747777
122	0xbd885beb	-0.06658157
123	0xbcfa86cc	-0.030581854
124	0x3ce371cb	0.027764222
125	0xbc9b7bc8	-0.018979922
126	0xbc17be48	-0.009261675
127	0x3c81b808	0.015834823
128	0xbc55ea58	-0.01305636
129	0x3c118f61	0.008884282
130	0xbc0a28b0	-0.008432552
131	0xbcfc4172	-0.030792926
132	0x3d225bd8	0.03963837
133	0x3d460d34	0.048352435
134	0xbd15bf1e	-0.036559217
135	0x3d34869b	0.044073682
136	0xbc252ace	-0.010081006
137	0x3bf43146	0.007452163
138	0x3d4bc9a4	0.049752846
139	0x3d6a8a8a	0.057261027
140	0xbd1bc5c7	-0.038030412
141	0x3cb347a7	0.021884752
142	0x3b2e8602	0.0026630168
143	0x3c05b59b	0.008160974
144	0x3d3df948	0.04638031
145	0xbd1796d4	-0.037009075
146	0x3d01492c	0.031563923
147	0x3e1d7835	0.15377887
148	0x3d80d24a	0.062901095
149	0x3dd78ca1	0.1052487
150	0x3e0fd4f7	0.14046083
151	0x3ce3eac1	0.0278219
152	0x3b496a93	0.003073369
153	0xbc936fd7	-0.017997665
154	0xbca4dd43	-0.020125037
155	0xbd95cb91	-0.07314218
156	0xbd6c00af	-0.05761784
157	0xbc804f60	-0.015662849
158	0xbda0ea6d	-0.07857213
159	0xbdc723ed	-0.09723649
160	0xbce4d9e0	-0.027935922
161	0xbd1c9632	-0.038229175
162	0xbd1ded4b	-0.03855638
163	0xbd77973a	-0.060446955
164	0x3b837498	0.004011702
165	0x3d728eab	0.05921809
166	0x3d4cb986	0.049981616
167	0x3df1a4e8	0.117990315
168	0xbc9f8fc2	-0.019477729
169	0xbdba3ac8	-0.09093243
170	0xbd8bddae	-0.068293914
171	0xb99e6e44	-0.00030218263
172	0xbd4aec8f	-0.049542006
173	0xbc8bdc5b	-0.017072847
174	0x3c9dd510	0.019266635
175	0xbb000f17	-0.0019540244
176	0xbbaee945	-0.0053378665
177	0x3c00d936	0.007864287
178	0xbc11d34d	-0.008900476
179	0x3d0b912a	0.034073986
180	0x3c1cc27b	0.009567852
181	0xbce0ebff	-0.027456282
182	0x3d1332e7	0.035937216
183	0x3c0a7c01	0.008452416
184	0x3b70a45d	0.0036719062
185	0x3d3743d6	0.044742428
186	0x3cf498fa	0.029858101
187	0xbd86b8b9	-0.06578202
188	0xbc55c4e1	-0.013047428
189	0x3d6785f7	0.056524243
190	0xbceba1da	-0.0287637
191	0x3ce2e11f	0.027695237
192	0x3d1e0c1f	0.03858578
193	0x3c3f8c56	0.011691174
194	0xbb9a7fb5	-0.004714931
195	0x3c315f3a	0.010825926
196	0xbbc7ff3a	-0.0061034234
197	0xba80059a	-0.0009767294
198	0xbc9ddd7e	-0.019270655
199	0xbdb2db53	-0.08733239
200	0xbca67582	-0.020319704
201	0x3d202723	0.039099824
202	0x3d777edc	0.060423717
203	0x3dbdb5a3	0.0926316
204	0x3d099b5a	0.03359542
205	0xbd31e952	-0.043435402
206	0xbcda3b64	-0.026639648
207	0x3cebf37c	0.028802626
208	0xbd49ff42	-0.0493157
209	0x3d2eb45d	0.042652477
210	0x3e27e5cb	0.16396253
211	0x3bf2c442	0.0074086497
212	0x3daf05d5	0.08546034
213	0x3d8261ed	0.06366334
214	0xbc971ba1	-0.018445792
215	0xbb5a5249	-0.0033313206
216	0xbc85b01b	-0.016319325
217	0xbce37777	-0.027766926
218	0x3c99b8b0	0.018764824
219	0x3cd8864b	0.026431223
220	0xbcb3f8fa	-0.021969307
221	0x3d287124	0.041123524
222	0xbd43a4d0	-0.0477646
223	0xbd7d4e7f	-0.061842438
224	0xbd4c2a3b	-0.04984496
225	0xbd6c9067	-0.0577549
226	0xbd814ab1	-0.063130744
227	0xbddaf006	-0.10690312
228	0xbd88c3fa	-0.066780046
229	0xbd431327	-0.047625687
230	0xbd6123a9	-0.05496565
231	0xbd82450b	-0.06360825
232	0xbd9f7bb3	-0.07787266
233	0xbd05dfd8	-0.032684177
234	0xbcca4249	-0.02468981
235	0xbdc6c7cb	-0.09706076
236	0xbc0d59db	-0.00862738
237	0x3da81715	0.082075275
238	0xbbaa4d25	-0.0051971846
239	0x3d7b4b75	0.06135126
240	0x3d0ec8ba	0.034859397
241	0xbd41c13c	-0.047303423
242	0xbd47e6e8	-0.048804194
243	0x3d94073e	0.07227944
244	0xbcf82e1b	-0.030295422
245	0xbc49ecca	-0.012324521
246	0x3e0f3587	0.13985263
247	0x3daee21d	0.085392214
248	0x3db09a01	0.08623124
249	0x3dd3f199	0.103488155
250	0xbc989612	-0.018626247
251	0x3ca98913	0.020695245
252	0x3b9697ed	0.0045957477
253	0xbcb16197	-0.02165298
254	0xbc1ad4f5	-0.009450187
255	0x3d1ffb33	0.03905792

backbone.bn1.weight f4 [32]
0	0x3f6d1680	0.9261246
1	0x3f7f7d15	0.99800235
2	0x3f82c057	1.0214947
3	0x3f73faf1	0.9530478
4	0x3f6d071b	0.9258897
5	0x3f770f4f	0.96507734
6	0x3f61c565	0.88191825
7	0x3f801654	1.0006814
8	0x3f83ddb3	1.0302032
9	0x3f6b23b7	0.9185137
10	0x3f87cbbf	1.0609053
11	0x3f7967b6	0.97423875
12	0x3f7f035b	0.99614495
13	0x3f6ee2c7	0.93314785
14	0x3f6f9659	0.9358879
15	0x3f770ff9	0.9650875
16	0x3f89df3b	1.077125
17	0x3f79a714	0.97520566
18	0x3f781395	0.9690488
19	0x3f6c1f37	0.9223513
20	0x3f7dc41a	0.9912735
21	0x3f6e7d35	0.931598
22	0x3f6405a5	0.8907111
23	0x3f7a04ea	0.9766375
24	0x3f7fe542	0.99959195
25	0x3f87abb6	1.0599277
26	0x3f828ccc	1.0199218
27	0x3f723142	0.9460641
28	0x3f8103c8	1.0079279
29	0x3f7cb075	0.9870675
30	0x3f7512f9	0.95732075
31	0x3f8730a6	1.0561721

backbone.bn1.bias f4 [32]
0	0xbdcf9b96	-0.101370975
1	0xbd5530b1	-0.05204839
2	0x3d9b715b	0.0758998
3	0xbbc8bbdf	-0.0061259116
4	0x3d447e0b	0.047971766
5	0x3dbe9d34	0.09307328
6	0xbc902ec1	-0.017600419
7	0xbc75ad84	-0.014994983
8	0xbd1341fa	-0.035951592
9	0xbdb43194	-0.08798519
10	0x3d315690	0.043295443
11	0x3c1dad87	0.009623892
12	0x3d2d7422	0.04234708
13	0x3d16b4aa	0.03679339
14	0x3d4119e6	0.04714384
15	0x3cadbc96	0.021208089
16	0x3e0335a0	0.12813425
17	0x3cc7e60d	0.024401689
18	0x3b33e1b6	0.0027447767
19	0xbdb81940	-0.08989191
20	0xbcf789d2	-0.030217085
21	0x3a8e5cf0	0.0010861438
22	0xbd11bab0	-0.03557843
23	0xbc933d74	-0.01797364
24	0xbd9611a0	-0.073275805
25	0x3db777ee	0.08958422
26	0xbd875a1b	-0.06608983
27	0x3ca94fed	0.020667994
28	0x3c4e1679	0.0125786
29	0x3d39dfef	0.045379575
30	0x3c971172	0.018440936
31	0x3e0a2d4f	0.13493846

backbone.bn1.running_mean f4 [32]
0	0xbf0bf49a	-0.5467011
1	0xc022b963	-2.542565
2	0xc0eedb4a	-7.4642687
3	0xc00edab4	-2.2320986
4	0xc0866c5f	-4.200729
5	0xc0e79218	-7.2365837
6	0x3e47cd99	0.19512023
7	0xbff8516f	-1.9399852
8	0x3dc4799f	0.0959351
9	0x3e3fc87a	0.1872882
10	0xc0a6dc7d	-5.214415
11	0xc097dda8	-4.7458076
12	0xc0ccace6	-6.396106
13	0xc0ae192a	-5.440572
14	0xc040a208	-3.0098896
15	0x40f06e9c	7.513502
16	0xc08ea690	-4.4578323
17	0xc084163c	-4.127714
18	0xbfdbc15b	-1.7168382
19	0x4066d938	3.607008
20	0x3ec2d808	0.38055444
21	0xc0c0e362	-6.0277567
22	0x400d185a	2.2046113
23	0x3f2982eb	0.6621539
24	0xbf3ca763	-0.7369291
25	0xc0f19eae	-7.55062
26	0x404969d3	3.147084
27	0xc1174f4e	-9.4568615
28	0xc09fb6f4	-4.991083
29	0xc0fa329e	-7.818679
30	0xc0bd57f1	-5.916985
31	0xc0e58fbb	-7.173795

backbone.bn1.running_var f4 [32]
0	0x42b94aa5	92.64579
1	0x428960fb	68.689415
2	0x432c65e4	172.39801
3	0x42c193b9	96.78852
4	0x42a864ef	84.197136
5	0x4360d4a9	224.8307
6	0x42b2eb0f	89.4591
7	0x42b49769	90.29572
8	0x42b4b698	90.35663
9	0x42a26ad2	81.20863
10	0x42ed89bf	118.769035
11	0x429e1552	79.04164
12	0x42d08931	104.26795
13	0x4310b343	144.70024
14	0x42b75d8b	91.6827
15	0x432aafc1	170.68654
16	0x42e85147	116.158745
17	0x431be8aa	155.90884
18	0x42361b19	45.526463
19	0x428e5280	71.16113
20	0x42a3478c	81.63974
21	0x43302a6d	176.16573
22	0x42a552a1	82.661385
23	0x423de79a	47.476173
24	0x4289a9f2	68.831924
25	0x43390238	185.00867
26	0x42d472c0	106.22412
27	0x4367d122	231.81693
28	0x42c14819	96.640816
29	0x433e97b3	190.59258
30	0x431aa871	154.65797
31	0x435a22ce	218.13596

backbone.conv2.weight f4 [64, 32, 3, 3]
0	0xbdcd7ae3	-0.100332044
1	0x3c429fa8	0.011878885
2	0x3cbf9499	0.023386287
3	0xbd683772	-0.0566935
4	0x3cf3db5d	0.029767687
5	0x3d1dc645	0.038519163
6	0xbc78ddcb	-0.015189598
7	0xba11376f	-0.0005539571
8	0xbd82a8b7	-0.06379836
9	0xbda80ff4	-0.08206168
10	0x3be3b25f	0.0069487537
11	0x3b5bd014	0.0033540772
12	0xbd9a572f	-0.0753616
13	0x3d008822	0.031379826
14	0xbcacf286	-0.021111738
15	0xbd72f5c4	-0.05931641
16	0x3c90be9b	0.017669013
17	0xbcdaa787	-0.026691211
18	0xbcbbbad5	-0.022916237
19	0xbd6920d7	-0.056916084
20	0x3d9dead3	0.07710805
21	0xbd1c2256	-0.038118683
22	0xbc805e4c	-0.015669964
23	0x3cb41032	0.021980379
24	0xbd5f58e4	-0.054528132
25	0x3ca53168	0.02016516
26	0xbcb0ae95	-0.021567622
27	0xbdf3e737	-0.11909335
28	0xbdb94725	-0.09046773
29	0x3d07862a	0.033086933
30	0xbd05df41	-0.032683615
31	0x3d191e2e	0.037382297
32	0x3bf833ef	0.0075745503
33	0x3d922bc4	0.07137254
34	0xbc9b483c	-0.018955342
35	0xbd4eb2ba	-0.050463416
36	0xbb8e685d	-0.004345937
37	0xbd12f6be	-0.035879843
38	0xbcc7ef8e	-0.02440622
39	0xbbec90f8	-0.00721943
40	0xbd14c11b	-0.036316972
41	0xbd2c75b6	-0.042104445
42	0x3d828693	0.06373324
43	0xbc4e72c9	-0.012600609
44	0xbd7f61ed	-0.06234925
45	0x3cfbd780	0.030742407
46	0xbce927f5	-0.028461436
47	0xbcec975b	-0.028880766
48	0x3d44a4f1	0.048008863
49	0x3d136333	0.035983276
50	0x3d04b5d6	0.032399975
51	0xbd37bc4c	-0.04485731
52	0x3ccc33cb	0.02492704
53	0xbcd7d6e5	-0.026347587
54	0x3db0cab1	0.0863241
55	0xbd5f1a15	-0.054468233
56	0xbd4021a8	-0.046907097
57	0xbcbb515d	-0.022865945
58	0x3cb5eb38	0.022206888
59	0x3d882f0e	0.066496
60	0xba24f8d3	-0.0006293181
61	0x3d80f562	0.06296803
62	0x3d58d77d	0.05293988
63	0xbd10e3be	-0.035373442
64	0x3d83507a	0.06411834
65	0x3b97506e	0.0046177423
66	0xbcc7434c	-0.024324082
67	0x3d80a0d3	0.06280675
68	0xb9806df5	-0.00024495987
69	0xbd992b5b	-0.074789725
70	0x3b8c3d02	0.0042797336
71	0xbc965f60	-0.018356025
72	0xbd1933df	-0.037402984
73	0x3c661079	0.014042013
74	0x3d38b79e	0.045096986
75	0xbdf8fcbd	-0.12157581
76	0xbd48d24a	-0.049028672
77	0x3d4ae447	0.04953411
78	0xbc6234aa	-0.013806501
79	0xbd28a8cf	-0.041176613
80	0xbc2ec83b	-0.010667856
81	0xbdb7ec54	-0.08980623
82	0xbdc25bf8	-0.09490198
83	0xbdd3bd16	-0.103388
84	0xbdaae5e4	-0.083446294
85	0xbcc930ea	-0.024559457
86	0x39332d0a	0.00017087549
87	0x3d358783	0.044318687
88	0x3db58441	0.08863116
89	0xbb63243b	-0.0034659046
90	0xbcd114dd	-0.025522644
91	0xbd8b661e	-0.06806587
92	0xbdaaf92c	-0.08348307
93	0xbbdc291a	-0.006718767
94	0xbdae6026	-0.085144326
95	0xbd054cd9	-0.03254399
96	0x3e07ba43	0.13254647
97	0x3d6d3b07	0.05791762
98	0x3d114d7f	0.035474297
99	0xbd0017a1	-0.031272534
100	0xbd49c8f7	-0.04926392
101	0xbce660ea	-0.028122384
102	0x3cb57454	0.022150196
103	0x3c822daf	0.015890924
104	0x3c95bc3f	0.01827824
105	0x3dba3a2e	0.09093128
106	0x3d72f356	0.059314094
107	0xbcaba9a3	-0.020954913
108	0xbd3d4abe	-0.046213858
109	0x3b90284e	0.004399336
110	0xbd489574	-0.048970655
111	0xbbb825da	-0.0056197466
112	0x3d989346	0.07449965
113	0x3c96493d	0.01834547
114	0xbc311ee9	-0.010810592
115	0x3c287209	0.010281094
116	0x3cef6890	0.029224664
117	0x3c35675c	0.011072006
118	0xbd6c1c23	-0.05764402
119	0x3b0c3c92	0.0021398407
120	0x3c91eb31	0.017812343
121	0xbcdda7ec	-0.02705761
122	0xbd1783d8	-0.03699097
123	0x3e03d018	0.1287235
124	0x3e1931df	0.1496043
125	0x3dbd222e	0.09235035
126	0xbc5b3b08	-0.013380773
127	0x3cb4e7f3	0.022083258
128	0xbc9664f6	-0.018358689
129	0x3d1f6116	0.038910948
130	0xbc744cac	-0.014910858
131	0x3d02bae0	0.0319165
132	0x3ca55b6b	0.020185193
133	0x3cad74cf	0.021173863
134	0x3d07bb6e	0.03313773
135	0xbd16f13e	-0.03685116
136	0x3c8aa203	0.016922956
137	0xbd63b104	-0.055588737
138	0xbdd06cd9	-0.10177011
139	0xbbda54cf	-0.006662942
140	0xbd1a565d	-0.03768002
141	0x3ba90044	0.0051575024
142	0xbdc481df	-0.095950834
143	0x3ca39010	0.019966155
144	0x3d80ddaf	0.06292283
145	0x3d297d6d	0.04137938
146	0x3c7e4bd6	0.01552101
147	0xbd66c058	-0.056335777
148	0xbddb6d5e	-0.107142195
149	0x3b29d0c5	0.002591179
150	0xbda98e2a	-0.08279069
151	0xbd74853e	-0.059697382
152	0x3d56ce46	0.05244281
153	0xbd1c7e22	-0.038206227
154	0xbd3ebd78	-0.04656741
155	0xbd03aebe	-0.03214907
156	0xbdfa3982	-0.12218
157	0x3bd45707	0.006480101
158	0xbde603e9	-0.112312146
159	0xbd9bb80e	-0.07603465
160	0xbc8f4c9b	-0.017492583
161	0xbd86a0c6	-0.06573634
162	0x3d4f6e8c	0.050642535
163	0x3d03dcd1	0.03219301
164	0x3c7305f8	0.014832966
165	0x3c91e3be	0.017808791
166	0xbcdc838e	-0.026918199
167	0xbc6f7ace	-0.014616681
168	0xbc35837a	-0.01107871
169	0x3d276dc7	0.040876176
170	0x3d92383b	0.07139631
171	0xbe02f6de	-0.12789485
172	0xbdc03ad2	-0.09386219
173	0xbc8a1074	-0.016853549
174	0xbd8ee1d6	-0.069766685
175	0x3b22095d	0.002472482
176	0xbd8a829d	-0.06763194
177	0xbaf926ae	-0.001900872
178	0x3cfb8a48	0.030705586
179	0xbcb5baf4	-0.022183873
180	0xbbf84967	-0.0075771096
181	0xbc39efab	-0.011348645
182	0x3c0b7da3	0.008513841
183	0xbc4125a1	-0.011788757
184	0x3d52e9d6	0.051492535
185	0x3da6085d	0.08107064
186	0x3c7889b9	0.015169554
187	0x3da0467d	0.078259446
188	0x3d868408	0.06568152
189	0x3c1a7833	0.009428072
190	0x3bba614c	0.005687868
191	0x3bcd3dbd	0.0062634633
192	0xbc95d526	-0.018290114
193	0x3d00628f	0.031343993
194	0x3c97131a	0.018441726
195	0xbc9969d1	-0.018727215
196	0xbad4a17c	-0.0016222443
197	0xbd087a9f	-0.033320066
198	0xbdf874ed	-0.12131677
199	0x3d62667b	0.055273514
200	0x3d02b411	0.031910006
201	0xbd09b4c0	-0.033619642
202	0x3b7d588f	0.0038657521
203	0xbd816fe2	-0.06320168
204	0x3d7d6d65	0.061871905
205	0x3d7e0f3d	0.06202625
206	0xbd877b53	-0.06615319
207	0xbddc341d	-0.10752127
208	0xbd56e118	-0.05246076
209	0x3b98d0a0	0.004663542
210	0x3a8d34ab	0.0010773143
211	0xbb8c403d	-0.0042801187
212	0xbcb8ba46	-0.02254976
213	0x3dcd438e	0.10022651
214	0x3dab20a6	0.083558366
215	0x3d3ba267	0.045809176
216	0x3dd07a8e	0.101796255
217	0x3cf23897	0.029568
218	0x3cad988b	0.021190902
219	0x3d456070	0.048187673
220	0xbc831e62	-0.016005699
221	0xbd63e14f	-0.055634793
222	0xbcc31567	-0.023813916
223	0xbd893b54	-0.06700769
224	0x3dada068	0.08477861
225	0x3da45a75	0.08025066
226	0x3d35c8c6	0.044380926
227	0x3d96b75c	0.07359192
228	0xbda7177e	-0.08158778
229	0xbd99e81e	-0.07514976
230	0x3d504a32	0.05085201
231	0xbda2a756	-0.07942073
232	0xbcd879c8	-0.026425257
233	0xbc6e793a	-0.01455527
234	0xbd58f183	-0.0529647
235	0x3ac6b528	0.001516019
236	0xbdcc49f8	-0.09975046
237	0xbad126fd	-0.0015957054
238	0xbd3abffe	-0.045593254
239	0xbd51333e	-0.05107426
240	0xbad2e2b5	-0.0016089292
241	0x3d39103a	0.04518149
242	0x3d529448	0.051410943
243	0xbd51b535	-0.051198203
244	0xbd207820	-0.03917706
245	0xbd9f16b0	-0.07767999
246	0x3ab0f223	0.0013499897
247	0xba9f59f9	-0.0012157551
248	0xbd13516d	-0.035966326
249	0x3e17d519	0.14827384
250	0x3e1878b2	0.14889792
251	0x3dba6956	0.091021225
252	0x3b51e047	0.003202455
253	0xbd882931	-0.06648482
254	0xbcb0d8a1	-0.021587672
255	0xbd9a3043	-0.075287364

backbone.bn2.weight f4 [64]
0	0x3f8d39e5	1.1033293
1	0x3f7928f1	0.97328097
2	0x3f8499d3	1.0359443
3	0x3f824da3	1.0179943
4	0x3f8b4849	1.0881435
5	0x3f8842f0	1.0645428
6	0x3f844aa5	1.033528
7	0x3f74e0cb	0.95655507
8	0x3f7d1817	0.98864883
9	0x3f7c61ec	0.98586917
10	0x3f8cd3cc	1.1002135
11	0x3f803cf2	1.0018599
12	0x3f8a2055	1.0791117
13	0x3f7af7a9	0.9803415
14	0x3f8cac14	1.0990014
15	0x3f6338fc	0.88758826
16	0x3f570442	0.8399087
17	0x3f74611d	0.95460683
18	0x3f61cbd0	0.8820162
19	0x3f7b8e55	0.98264056
20	0x3f80ea67	1.0071534
21	0x3f5978d4	0.84949994
22	0x3f847c60	1.0350456
23	0x3f6c8f43	0.924061
24	0x3f819033	1.0122131
25	0x3f85cb77	1.0452718
26	0x3f748ffc	0.955322
27	0x3f711891	0.9417811
28	0x3f841398	1.031848
29	0x3f66cdfc	0.9015806
30	0x3f8f4715	1.1193568
31	0x3f6169d5	0.8805211
32	0x3f73f252	0.95291626
33	0x3f864108	1.0488596
34	0x3f7c7df5	0.98629695
35	0x3f9557c8	1.1667414
36	0x3f750887	0.95716137
37	0x3f70b976	0.9403299
38	0x3f7f6895	0.99768955
39	0x3f8dc5f4	1.1076035
40	0x3f69990f	0.91249174
41	0x3f87b26a	1.0601323
42	0x3f864dda	1.0492508
43	0x3f7d1425	0.98858863
44	0x3f8d5b53	1.1043495
45	0x3f81da9b	1.0144838
46	0x3f60d874	0.8783028
47	0x3f8b0b9f	1.0862921
48	0x3f9959e5	1.1980559
49	0x3f81d3ae	1.0142725
50	0x3f9d7e11	1.2304097
51	0x3f8cd162	1.1001399
52	0x3f771959	0.9652305
53	0x3f88eee2	1.0697901
54	0x3f7fb486	0.9988483
55	0x3f87fdce	1.062433
56	0x3f7b7bed	0.9823597
57	0x3f86ed10	1.0541096
58	0x3f7716c3	0.96519107
59	0x3f823f6b	1.0175604
60	0x3f6c5409	0.9231573
61	0x3f8cfaba	1.1014016
62	0x3f7c8e2b	0.9865443
63	0x3f815377	1.0103596

backbone.bn2.bias f4 [64]
0	0xbb861185	-0.004091444
1	0xbd5c5868	-0.05379525
2	0x3c2f20b3	0.010688948
3	0xbbdec1a8	-0.006797988
4	0xbe01a5b0	-0.12660861
5	0xbdce3346	-0.100683734
6	0xbbf16db7	-0.0073678154
7	0xbc2e0bbc	-0.010622915
8	0xbdf69403	-0.1203995
9	0xbb72aad1	-0.0037028084
10	0xbd4ed378	-0.05049464
11	0xbc29700d	-0.010341656
12	0x3d82cd3e	0.06386803
13	0xbaa7656b	-0.0012771314
14	0x3dadb0fd	0.084810235
15	0xbdd3d7d1	-0.10343898
16	0xbe44ffd3	-0.19238214
17	0xbcfdd007	-0.030982984
18	0xbe10f76c	-0.14156884
19	0xbdd3e1ef	-0.10345828
20	0xbd5a13f1	-0.053241674
21	0xbdf67adb	-0.120351516
22	0xbdc3ce6c	-0.09560856
23	0xbc7cc4f4	-0.015427817
24	0x3d246e93	0.040144514
25	0xbde0ae6a	-0.10970767
26	0xbd8bc1d7	-0.068240814
27	0x3cd90505	0.026491651
28	0xbd5f6872	-0.054542966
29	0xbe63224e	-0.22181055
30	0x3c95097c	0.018192999
31	0xbe0bd600	-0.13655853
32	0x3d166e13	0.03672607
33	0x3df81fb7	0.12115424
34	0xbd18ef43	-0.037337553
35	0x3cda4d63	0.026648229
36	0xbdc8ef8f	-0.09811317
37	0xbe1eadb7	-0.15495954
38	0xbdc37f5d	-0.09545777
39	0x3de11c96	0.109917805
40	0x3c8ed7da	0.01743691
41	0xbce43edc	-0.027862005
42	0x3caeca5a	0.021336723
43	0x3d74fa5a	0.059809066
44	0xbe39164c	-0.18074912
45	0xbdda98c0	-0.10673666
46	0xbddcadee	-0.10775362
47	0x3de9f553	0.11423745
48	0xbdf6058a	-0.12012775
49	0xbdad29aa	-0.084552124
50	0xbad36ff8	-0.0016131392
51	0x3d33f86d	0.04393809
52	0xbd9e1d82	-0.07720472
53	0xbd5bcdc8	-0.053663045
54	0x3d8a8917	0.06764429
55	0xbdc324c4	-0.09528497
56	0xbe23b2ef	-0.15986226
57	0xbdd99751	-0.106245644
58	0x3bf384e6	0.007431614
59	0x3c44a7f4	0.012002934
60	0xbd9aa266	-0.07550506
61	0xbd6ac80d	-0.05731969
62	0xbdfe50e4	-0.124177724
63	0xbcb08e69	-0.021552281

backbone.bn2.running_mean f4 [64]
0	0xbfb5b9fa	-1.419738
1	0xbf7c2f35	-0.9850953
2	0x3e63f6d8	0.22262132
3	0xc081032f	-4.0316386
4	0xbe80dd8e	-0.25169033
5	0xbf567235	-0.83768016
6	0xc004bebc	-2.0741415
7	0xbf7ed2b1	-0.9954024
8	0xbfe85c69	-1.8153201
9	0xc023e4ee	-2.5608478
10	0x3d98cca0	0.07460904
11	0x401a8ff7	2.415037
12	0xbee7aa5b	-0.45247158
13	0xc016752a	-2.3509011
14	0xc0884487	-4.258365
15	0x3e8e6cf5	0.27817503
16	0x3ee9bb9c	0.45650947
17	0xc07cb618	-3.9486141
18	0x3d45b7a0	0.04827082
19	0x3f6b8074	0.9199288
20	0xbe9032da	-0.28163797
21	0x3fecacec	1.8490272
22	0x3f341adc	0.70353484
23	0x3e416aae	0.18888351
24	0xc0315710	-2.7709389
25	0xc004e95d	-2.0767434
26	0x3f98ac14	1.1927514
27	0x403767a0	2.8656998
28	0xc03e4224	-2.972787
29	0x3eeed9d4	0.46650565
30	0xbf2dda72	-0.67911446
31	0xbfb1d554	-1.3893228
32	0xbfc418c5	-1.5320059
33	0xc02b46bc	-2.6761923
34	0x3f913b4b	1.134622
35	0x3ca61513	0.02027372
36	0xbf87d33a	-1.0611336
37	0xbcea79f8	-0.028622612
38	0xbffe12a7	-1.9849442
39	0xc00028de	-2.0024943
40	0xc057a9a0	-3.369728
41	0xc05e2a69	-3.4713385
42	0xc00ca216	-2.197393
43	0xbfc847d2	-1.5646918
44	0xbd272322	-0.04080499
45	0x401abdf2	2.4178433
46	0xbf9b7f81	-1.2148286
47	0x3e97a0c6	0.29614848
48	0x3e9120d9	0.28345373
49	0xbc495b05	-0.012289767
50	0xbf5b334c	-0.8562515
51	0xc044b6d0	-3.073658
52	0x4014ff3f	2.328079
53	0x3eb946e7	0.36186907
54	0xc02312de	-2.5480266
55	0xbfa560eb	-1.2920202
56	0x3f447a7e	0.7674941
57	0xbf8eb30e	-1.1148393
58	0x3faa16f6	1.3288257
59	0xbe15d597	-0.1463226
60	0x3db4fd89	0.088374205
61	0x3d2a2e68	0.041548163
62	0x3e529081	0.20562936
63	0xbfce2d60	-1.6107597

backbone.bn2.running_var f4 [64]
0	0x4024ccdd	2.5750039
1	0x3fef9d72	1.8719923
2	0x407a7a2d	3.913707
3	0x40911d82	4.534852
4	0x404d9da5	3.2127469
5	0x3fed8a43	1.8557819
6	0x4091b5ff	4.5534663
7	0x402300e0	2.5469284
8	0x40429b36	3.0407233
9	0x40323d30	2.7849846
10	0x3fe4a93d	1.7864147
11	0x40048dab	2.0711467
12	0x405c5a56	3.4430137
13	0x4090a000	4.5195312
14	0x40aac2a0	5.336258
15	0x4013191e	2.298408
16	0x407e87bb	3.9770343
17	0x407fc420	3.9963455
18	0x40461811	3.095219
19	0x403fb182	2.9952092
20	0x4029e58a	2.654635
21	0x40420e46	3.0321212
22	0x4040c89a	3.0122437
23	0x406b2d04	3.6746225
24	0x406e7f95	3.726537
25	0x4018c882	2.387238
26	0x3fb90d79	1.4457237
27	0x4094408c	4.6328793
28	0x404adb3d	3.1696312
29	0x401832bf	2.3780973
30	0x404a1d2a	3.15803
31	0x4080e0da	4.0274477
32	0x40e33b7c	7.1010113
33	0x40f57709	7.6707807
34	0x403d11f7	2.9542215
35	0x404bfa29	3.1871436
36	0x4023156e	2.548183
37	0x40014807	2.0200212
38	0x405bf888	3.4370441
39	0x40795cb0	3.8962822
40	0x40995d4b	4.7926383
41	0x404c0811	3.1879923
42	0x4083f3a2	4.1234903
43	0x40883a5b	4.2571235
44	0x4083d7c8	4.1200905
45	0x402eaf78	2.7294598
46	0x3fe83238	1.8140326
47	0x4006f998	2.108984
48	0x4045b998	3.0894527
49	0x403f7b63	2.991906
50	0x4094fff4	4.6562443
51	0x4099043f	4.7817683
52	0x401ea981	2.4790957
53	0x4010dade	2.2633586
54	0x4093dcb6	4.6206923
55	0x4039069e	2.891029
56	0x3feb9077	1.8403462
57	0x4016e9cc	2.3580198
58	0x402c4ccc	2.6921873
59	0x40500cb6	3.2507758
60	0x401d1eeb	2.455012
61	0x40517a41	3.2730868
62	0x404459bc	3.067977
63	0x40731d8f	3.798679
