PointPillarUpgrades/output_20251130_025935/pointpillars_ModelNet10.pth (torch, 663206 bytes, 40 tensors)

pfn.blocks.0.fc.weight f4 [64, 8]
00000000: 5013 8f3e 5140 843e 443a 0cbe 6afa 6e3e
00000010: 6980 eabd 257a b23d 0338 3ebe 4064 563e
00000020: 0910 9d3e fc00 73be eee6 b63e 23f5 8f3d
00000030: aeef 493e 8479 503b f330 fb3d 535c 77bc
00000040: 88b8 8f3e b562 723d 8c4f 4dbe e165 3b3d
00000050: c248 fdbd 8c53 a2bc 5e5a 1abe e250 5d3e
00000060: a452 7cbe 2eaf 79bd e44e 14be cd07 07be
00000070: 8bea 663e 405a d7be bebe ca3e f830 62be
00000080: 8ef3 5f3e 0eec b33c 09ee ddbd 45b3 573e
00000090: bde0 ba3d d375 a73e 61b7 a63c dcac 0cbe
000000a0: acde 983d 2ffa 96bd 6191 3a3e 7d55 f23e
000000b0: a1b1 1c3e bc98 2dbe f103 813e 8aa6 6c3d
000000c0: 7bdd 263e 6f35 12be c492 c2be 5ed2 f6bd
000000d0: deca 63be e79c b23e 01b9 d13d 0351 d93d
000000e0: a21c 853d 36b4 b53c 5df9 c83e 88b4 88be
000000f0: 5651 9f3d 7b20 06be 6254 553e ad5a a0bd
00000100: 0d76 983d 465c 9bbd 84fb b13e e265 eabd
00000110: 7124 44be 8041 3fbe 4213 aa3e bbd0 d63d
00000120: c88e ad3e b8f5 8ebe 46d2 b6be 9286 3cbe
00000130: 7585 81be 0197 2d3e d28a 1e3e 1a63 813e
00000140: ddb3 44be 6455 47be 9527 4c3e d66a 85bd
00000150: 462b 653e 4732 10be 311a 5e3e bf8f 8cbe
00000160: 5f4c 1abe a041 f83d 4891 243e 6636 32be
00000170: 7095 4b3e 7f6d 823e 1489 87be 32e3 0bbe
00000180: 414e 923e 9d24 abbd e278 39be e4de 53be
00000190: 19e8 6fbe c765 9d3d 7676 b9bd 9d1f 99be
000001a0: d6c9 d83b 4724 50be c865 91be 02cb 82be
000001b0: d839 38be 0e74 aabe e1de 9b3e a911 143e
000001c0: 4850 193e fa66 b2be ebf4 49be 7ea9 e4bd
000001d0: e60e c63d 13c3 99be fb13 a1bd dacf 16be
000001e0: 622e c2bc 3d44 10be 6c03 54bd 362a 7cbe
000001f0: 596f 2dbe 9efe 84be 438e 11bd b74d 71be
00000200: ca04 7f3e e9c2 15bd 2a81 bd3e 4880 393c
00000210: 2713 96be 7d9b 8d3e d1a6 47bd 8dab 03be
00000220: 8ec1 87be e4e8 a0be 6d9f 2e3d 8f8e 01bd
00000230: 454b ce3d 01e2 b7be 1576 5f3e 1b01 88be
00000240: 5474 5abd dae3 a03d 8013 5b3e 8136 7a3e
00000250: 372a 893e 7888 9fbe f2f6 f53d 23ce a4bd
00000260: 13c4 89bc 7a63 7abe 4a88 a63e c236 19be
00000270: 2b46 d23c fa6c 313e 5dbf 6a3e b505 71be
00000280: 0e9f 9e3e eedf 933d 7ea7 bc3d 0553 94be
00000290: b82f a53d 1a20 9bbc 5eef 91be ef6a 9b3e
000002a0: 3cbe c43d 43e8 17be 322d 70be bafe 4f3b
000002b0: 45ba 803e 95af d6bd 84b1 a4bd b2ef c9bd
000002c0: 6079 0ebe aafa e63d ac6a ca3e c092 a8bd
000002d0: e64b 9c3d 0667 873e 8ec4 373e bca2 f5bd
000002e0: 49a4 2a3e 0489 2c3e f643 4a3e 88c9 15bd
000002f0: 3b6f e8bd 2984 8f3d 57f3 03be cb8a 5cbd
00000300: 9066 873e dfd1 803e f647 b3bd 1456 12be
00000310: d344 c2bc fc51 2bbd 24ff 6e3d c5c8 be3d
00000320: 8cfa 9abe 662a d2bd 96db b33e 00d4 c33d
00000330: d886 123d 5b67 62be a5e2 7dbe 680a 82be
00000340: 85b1 7ebd 34aa c73d 79cd b03e ce8d b23d
00000350: 53ee b2be 3e33 34be 526c bfbc e1ad 833e
00000360: df73 9d3d f221 85bb 9737 813e 952a 133c
00000370: dfb4 4bbe 8769 8e3e 6496 f2bc 822d 13bd
00000380: 0b45 abbe 525c 5b3e e4c9 a83e b638 8fbc
00000390: 23b0 a6be ed2a a9be 6304 a6be 1921 523e
000003a0: ee7f 363e 0c38 863e 3a65 763e 227f 2e3d
000003b0: 0883 05bd e198 82be e20e e0be 8dbd 96be
000003c0: d12e ee3d 49a7 0bbe 9d1d fbbd 615f c4bc
000003d0: 398b ce3b db30 b1be 834e 91bd 8f6d cd3d
000003e0: c324 d9bd 81ea 653e 038d 97bd c702 8ebe
000003f0: 6724 87bd 280b 66bd 414c 2cbe 5215 c7be
0.27944422 0.2583032 -0.13694102 0.23337713 -0.114502735 0.087147035 -0.18576054 0.2093668
0.30676296 -0.23730844 0.3572306 0.07029178 0.19720337 0.003181071 0.12265196 -0.015097695
0.28070474 0.059176166 -0.20049876 0.045751456 -0.12367393 -0.019815229 -0.15073535 0.21612886
-0.246409 -0.06095808 -0.1448322 -0.1318657 0.22550409 -0.42061043 0.3959865 -0.22088993
0.21870252 0.021963146 -0.10836417 0.2106448 0.09124897 0.3270708 0.020351114 -0.13737816
0.07464346 -0.073719375 0.1821952 0.47330847 0.15302135 -0.16952795 0.2519832 0.05777601
0.16295426 -0.14278196 -0.38002598 -0.12051843 -0.22245356 0.34885332 0.10240365 0.10611155
0.06499602 0.022180658 0.3925275 -0.26700234 0.077791855 -0.13098328 0.2083297 -0.07829795
0.074443914 -0.07585959 0.34762204 -0.11445214 -0.19154526 -0.1867733 0.33217818 0.10489031
0.33897996 -0.27921844 -0.357073 -0.1841071 -0.25297132 0.16952135 0.15482643 0.2527092
-0.19209237 -0.19466168 0.19936974 -0.06514518 0.22379789 -0.1408168 0.21689679 -0.2745342
-0.15068196 0.12121892 0.16071045 -0.17403564 0.19881225 0.25474164 -0.2647177 -0.13660887
0.28575328 -0.08356593 -0.1811252 -0.20690495 -0.23428382 0.07685428 -0.09055798 -0.29906932
0.0066158576 -0.20326339 -0.28397965 -0.25545508 -0.17990816 -0.33291668 0.3044348 0.14459862
0.14972031 -0.3484419 -0.19722335 -0.111651406 0.096708104 -0.30031642 -0.07865139 -0.14727727
-0.023703758 -0.14088531 -0.051761076 -0.24625477 -0.16937007 -0.25975507 -0.035536062 -0.23564802
0.2490417 -0.036562834 0.37012607 0.011322089 -0.29311487 0.2765769 -0.048743073 -0.1285841
-0.26514858 -0.3142768 0.04263251 -0.031630095 0.1007295 -0.35914615 0.21822388 -0.26563343
-0.053333595 0.07855959 0.21394157 0.24434854 0.2679002 -0.31158805 0.12009992 -0.0804713
-0.016817128 -0.2445201 0.32525855 -0.14962295 0.025668224 0.17326728 0.22924562 -0.23537333
0.30980724 0.072204456 0.09211634 -0.2896959 0.08065742 -0.018936206 -0.28502935 0.3035502
0.09606597 -0.14834695 -0.2345474 0.0031737522 0.25142112 -0.10482708 -0.08041671 -0.098601714
-0.13913488 0.11278279 0.3953451 -0.08231115 0.07631664 0.26445788 0.17946073 -0.1199393
0.16664232 0.16849142 0.19752488 -0.03656915 -0.113493405 0.070076294 -0.12885796 -0.0538433
0.26445436 0.2516012 -0.0875396 -0.14290649 -0.023714459 -0.041826233 0.05834879 0.093156375
-0.30269277 -0.10261993 0.35128468 0.0956192 0.03577313 -0.2210974 -0.2479349 -0.25398564
-0.062181015 0.097492605 0.34531763 0.08718453 -0.34947452 -0.17597672 -0.02336708 0.25718597
0.07688116 -0.0040628845 0.25237724 0.00898232 -0.19893216 0.27814886 -0.029612727 -0.03593207
-0.33451113 0.21421936 0.3296653 -0.017483097 -0.32556257 -0.33040562 -0.32425222 0.20520438
0.17822239 0.26214635 0.24062052 0.042601712 -0.032595664 -0.25507262 -0.43761355 -0.2944149
0.11630023 -0.13638033 -0.12261508 -0.023971261 0.0063032177 -0.34607586 -0.07095053 0.10030662
-0.10602715 0.22452737 -0.07399943 -0.27736494 -0.0659874 -0.056162983 -0.16825964 -0.38883454

pfn.blocks.0.bn.weight f4 [64]
00000000: 4dcb 743f 2c7a 7d3f 1433 753f 55e6 803f
00000010: 2b7a 7a3f 84dd 823f 58ed 783f 4709 893f
00000020: f82c 883f ba8f 6e3f 59ba 653f 96e2 753f
00000030: 4fef 813f aa0a 7c3f 8446 5d3f 7a90 6d3f
00000040: daaa 873f 9bda 643f f3c3 823f 762c 813f
00000050: dc0f 743f 7253 773f b69f 863f c02f 793f
00000060: c4ec 683f 2920 7a3f a2b1 733f e048 863f
00000070: c2a0 7c3f 707d 7e3f 8ef1 763f d9e4 6e3f
00000080: e078 7d3f 85af 733f b7da 843f 2d6c 733f
00000090: 2da9 703f 8939 7a3f 0f7b 773f b4da 8e3f
000000a0: 39a6 783f 0729 6d3f 3e63 783f 9856 7c3f
000000b0: c12b 6f3f f9cc 823f 15ce 773f bb33 7a3f
000000c0: be72 713f 0d94 6c3f 973f 803f a04c 843f
000000d0: 4b5a 803f 8a0c 723f e019 803f 70b0 633f
000000e0: 0b1e 743f d053 793f a24c 783f 0afa 7b3f
000000f0: 0057 713f 5d76 733f 8d87 5e3f 6165 6e3f
0.9562271 0.99014544 0.95781064 1.0070292 0.97842664 1.0223851 0.9723716 1.0705956
1.0638723 0.9318806 0.8973747 0.9604887 1.0151156 0.9845377 0.86435723 0.9279858
1.0599015 0.89396065 1.0216049 1.0091693 0.953367 0.966117 1.051749 0.97338486
0.90986276 0.9770532 0.9519292 1.049099 0.98682797 0.9941015 0.96462333 0.93317944
0.99012566 0.95189697 1.0379246 0.9508694 0.9400814 0.9774404 0.9667215 1.1160493
0.97128636 0.9264073 0.9702643 0.9856963 0.9342614 1.0218803 0.9679883 0.97735184
0.9431571 0.9241341 1.0019406 1.0335884 1.0027555 0.94550383 1.0007896 0.889411
0.9535834 0.9739351 0.9699193 0.98428404 0.94273376 0.95102483 0.86925584 0.9312344

pfn.blocks.0.bn.bias f4 [64]
00000000: a4c5 debc 6729 51bd c0a2 cd3c 4f3a 77bc
00000010: 7e03 e0bc cde3 1abc 6538 23bc 8631 e13c
00000020: dbda 343c 424b 4bbd 1aa2 4ebd 620b e0bb
00000030: eb1d d13c bb19 3dbc cf99 07bd f56d 25bd
00000040: e4ea 4a3c ca95 bdbc f27e 38bd 6e4b ddbd
00000050: 89b0 963d cd0b bebd 5589 913b b450 c9bd
00000060: 26af 53bd fb47 cabc d687 be3c da72 ddbc
00000070: 5ee8 0cbc f9bc b1bc cb91 3abd d483 89bd
00000080: 4914 f83c 50bd 84bd 7a9e 86bb 8e8c 0cbe
00000090: 024d 8bbd 2f5c a3bc a7e2 a4bc 6253 7e3b
000000a0: a37f 17bd 72b9 c8bc 7223 25bd 63f5 37bc
000000b0: cf80 203b 2151 e5ba c7ad 8bbc 829c ffbb
000000c0: d38d 9c3c adb7 3b3d fb83 42bc a72e 78bc
000000d0: 70b2 6a3b b796 1ebd dad3 e2bb 4bcf 17bc
000000e0: 93c8 4ebc 88b4 75bd 1c7e 483d 74e3 7dbb
000000f0: ef04 fbbd ffdc fdbc dd14 f2bd 61ae 0abd
-0.027193852 -0.051064875 0.02510202 -0.015089585 -0.027345415 -0.009453726 -0.009962176 0.027489435
0.011038507 -0.04963232 -0.05044756 -0.0068372944 0.025526961 -0.011541779 -0.033105668 -0.040388066
0.012385104 -0.023142714 -0.04504294 -0.10805403 0.0735789 -0.092795946 0.00444142 -0.09829846
-0.051680706 -0.024692526 0.023258131 -0.027032305 -0.0086003225 -0.021696554 -0.045549195 -0.06714597
0.03028311 -0.06481421 -0.0041082473 -0.13725492 -0.068017974 -0.019941418 -0.020127608 0.0038807024
-0.03698696 -0.02450249 -0.040317006 -0.011227938 0.0024490838 -0.0017495492 -0.017050637 -0.0078006396
0.019110596 0.045829464 -0.011872287 -0.015147842 0.0035811923 -0.03871795 -0.0069222273 -0.009265731
-0.012621063 -0.05998662 0.048948392 -0.003874031 -0.122568004 -0.030989168 -0.118203856 -0.033857707

pfn.blocks.0.bn.running_mean f4 [64]
00000000: 493d 83b8 3b48 9fb8 6aa2 65b8 ec73 22b8
00000010: 02a6 a5b8 d76b 8db8 741d a5b8 f29f 5db8
00000020: ec8b a4b8 3e22 04b9 3c89 d337 3398 df38
00000030: a8ac 87b8 024f 9bb8 3e43 83b5 1dd8 c137
00000040: 8e37 17b8 6b0f 4b38 0c06 5ab7 a95a 8bb7
00000050: 60d6 46b7 6db8 dcb6 08c3 7336 3b0b a5b7
00000060: f279 fbb8 b0bc 3939 7753 2238 eddc c7b4
00000070: 704c 3e39 4e76 3f38 d5eb c4b6 e626 2d38
00000080: da8e a9b8 f1c4 eeb8 04e5 fcb8 cda5 1839
00000090: 07b6 05b9 0a39 4838 52aa b9b7 7136 5538
000000a0: 9c46 0839 db1a 8138 c0df 4e38 813d 0139
000000b0: 2fb2 c5b8 e196 41b7 9d05 2f39 3f7d b8b7
000000c0: 3c96 75b7 018d cfb8 4f6e 0339 4543 cab7
000000d0: 370f 9038 7386 ddb8 42d8 da37 7a6a 5138
000000e0: c210 05b8 233c 41b8 b477 eab8 a987 0cb8
000000f0: f421 cbb8 6bc8 e9b8 3a31 82b8 7cc6 0bb9
-6.257982e-05 -7.595165e-05 -5.4749114e-05 -3.873177e-05 -7.8987345e-05 -6.743491e-05 -7.873299e-05 -5.2839467e-05
-7.846192e-05 -0.00012601257 2.5217065e-05 0.00010661818 -6.4694614e-05 -7.405692e-05 -9.779831e-07 2.3108028e-05
-3.6052945e-05 4.841333e-05 -1.29952205e-05 -1.6612308e-05 -1.1851633e-05 -6.577981e-06 3.6323345e-06 -1.9674762e-05
-0.00011991327 0.00017713266 3.8701543e-05 -3.7227383e-07 0.00018148287 4.564813e-05 -5.8687096e-06 4.128264e-05
-8.085156e-05 -0.000113854076 -0.00012058954 0.00014557615 -0.00012751679 4.7736838e-05 -2.213303e-05 5.083386e-05
0.00012996275 6.1562016e-05 4.932261e-05 0.0001232531 -9.426881e-05 -1.1538826e-05 0.00016691392 -2.1992832e-05
-1.4638117e-05 -9.896793e-05 0.00012534227 -2.4111601e-05 6.869289e-05 -0.00010563144 2.6088328e-05 4.9928647e-05
-3.1725278e-05 -4.6070792e-05 -0.00011180286 -3.3504944e-05 -9.6861186e-05 -0.000111476365 -6.208052e-05 -0.00013330014

pfn.blocks.0.bn.running_var f4 [64]
00000000: 35b0 2f3a a153 553a f14f c239 5e9e 603a
00000010: 2bb8 7339 3c5c a938 39ef b739 fee0 9739
00000020: 98ff 5339 6b1e 713a f1d2 f439 38b8 fc39
00000030: 0747 0d3a 5cf3 833a 133f b23a c512 f939
00000040: f04e 873a 6fcc 923a ccf2 fe38 6799 753a
00000050: 2cfd 043a 78fa e839 5a3a 863a 9d03 d439
00000060: 2fd5 123a 8ae4 ed39 3d0c cf39 0dcc 103a
00000070: 78b0 553a 20ef 163a a779 083a 9d5a e439
00000080: 9a1d 103a f518 663a ffd3 953a 99cf cd39
00000090: a9ab 363a 104f b039 3df1 383a 15a7 eb3a
000000a0: 3cc7 cf39 949d bb39 9ea8 ae39 61ad 4f3a
000000b0: 0ac9 863a ed13 263a b8fb fe39 f5cf 2a3a
000000c0: f91c 483a 11d2 ba39 3d8d b239 0fe5 3639
000000d0: 6071 233a e25f 4f39 6bac b539 eb18 613a
000000e0: 3f66 0f3a dc14 233a 0b1d a339 7b56 4b3a
000000f0: 9d6b 363a 290d 733a 9f1f 663a 6c56 353a
0.0006701977 0.0008137767 0.00037062124 0.00085685204 0.00023242894 8.075728e-05 0.00035082715 0.00028968597
0.00020217744 0.0009197953 0.0004669647 0.0004820244 0.0005389307 0.0010067034 0.001359912 0.00047506965
0.0010323208 0.0011199842 0.00012156888 0.0009368867 0.0005073126 0.00044437102 0.0010240779 0.00040438483
0.0005601225 0.00045374437 0.00039491235 0.000552357 0.0008151601 0.00057576783 0.0005206116 0.0004355506
0.0005497575 0.00087775226 0.0011430978 0.0003925532 0.00069683284 0.00033628242 0.000705499 0.0017978871
0.00039630558 0.00035784824 0.00033313496 0.0007922259 0.0010283303 0.00063353666 0.000486342 0.00065159734
0.0007633712 0.00035633196 0.00034056036 0.00017442204 0.0006234851 0.00019776777 0.00034651472 0.0008586782
0.0005470253 0.0006221065 0.0003111142 0.0007756722 0.00069587847 0.00092716754 0.00087785156 0.000691748

pfn.blocks.0.proj.weight f4 [64, 8]
00000000: fdce 843d 0d22 86be 1109 50be eb8f 243b
00000010: 5944 f23d c824 80be 169c 883d 8d50 fabc
00000020: 58ab 08bd 79cc 473e f812 e53c f871 933c
00000030: 58b3 113d 75cc 75be 2245 80bb cff0 ab3d
00000040: c3e8 b73d d4cc 393c 132e 243c 0c48 95bc
00000050: 56c1 0fbd a85e 5f3e 4bc2 a63c 12ae 81bd
00000060: f048 6cbe 32ec 793d 4047 58be 2835 733b
00000070: e218 d23c 140d afbd 5fde 193c 95e0 be3d
00000080: 6e6e 363e 3e0b 0c3c 89e6 0c3e 418a 373c
00000090: ddfa 4c3d 9ae4 72bd f91e e0bc 4f87 f93d
000000a0: 1d54 dcbd b474 093e 1b91 5dbc 3548 8d3c
000000b0: 05bb 133d 18b9 5b3c 5163 dc3c d73d 793e
000000c0: c83a 4b3e 755a a03e 741f 1d3d 793a 8239
000000d0: 16bc 85bd c32a 6fbd 8cfe 18bd a32d 0fbe
000000e0: 403a 8abe 2b19 83be 6e0e 82bd ea5e bdbc
000000f0: f2ba 37bd 7190 3a3e 5dab df3d 9a0f 2dbd
00000100: 5f31 d4bd d309 2f3e dcda 05bd 1202 003d
00000110: d9d7 973d 8590 35be 443f 8e3c bdb0 6d3e
00000120: 111b 993c 128a 023e 610d 0bbe 2a08 203c
00000130: 8a9f 593b 5083 f03d 05be 743c 90e9 2c3e
00000140: 5eb8 31be b5d0 a03d dcac dbbd e16f 363c
00000150: d068 d33b 6fc8 58be ffd7 e53a acbb dd3c
00000160: 8991 ebbd 0844 0e3e 962b 27be 2f6d d7bc
00000170: d93c 4cbc 7e36 43be 5fec 44bd 3667 1fbb
00000180: 3428 643e 7ac3 843e 53d5 e43d c601 7e3c
00000190: bdb3 d8bd 194c 3d3e 652e 84bb 5f79 d9bc
000001a0: 81dd bd3c 0fca 2bbe f5c1 ebbd c461 dabb
000001b0: 3dfa 213d aa05 7fbd 0ca3 08bd 5e6d 6abd
000001c0: 05b3 1e3c ef25 aabd d808 ea3b 9035 893b
000001d0: d302 12bd 0eb6 a33d b5cd f13c 04d9 dfbc
000001e0: 14ce c73d c50d 833e 46ae 9bbd 169a 4fbc
000001f0: a672 a0bd 19ee 20be c2a9 63bc 8a2f dc3b
00000200: 41ee 4d3d 13a3 7ebe c0a0 b43e 180d 33bc
00000210: b615 3fbe dd0f 8cbd 662d 4c3d 8f4f 76bd
00000220: 5bf5 5cbb 6101 85bd a10e 123e 48f5 293c
00000230: 6c2b 603d 13e7 a5bc 3123 1dbb 1c5a 2a3e
00000240: 0d22 11bd 5f04 28be 57a9 43bc 0bff 2a3c
00000250: e1ea 15be 3417 9b3c 40d2 a7bd 1985 153e
00000260: 3e03 d23d b210 2b3d 6a4f 253e 8669 4e3c
00000270: f609 e0bc 9508 08be 9b36 f0ba ebe2 db3d
00000280: 915f 823e 610a e93d 443b 02be 6091 caba
00000290: b81c 85bd 9e25 d7bb 45f4 9abd 8147 2abd
000002a0: 9212 203e 8a44 d33d 30be 46be e1e1 85bb
000002b0: 0d42 6bbc 114c 693e c5ca d9bc 0de3 5fbb
000002c0: 604a 4dbe dd2b 15be c75f 4d3e 0cd0 b93d
000002d0: 5e30 cc3c a43a b23e 279f d63d c9b5 233e
000002e0: 15fb 3a3e b826 5b3e 038f cbbd b23c 0e3b
000002f0: c226 543d 5a39 a3bd 56b4 0dbd 3abd 15be
00000300: 3efc d13c 5965 82be 99c7 d93d a1ee 57bc
00000310: cf3c dbbd da27 2e3d 77fd c7bc b524 a23d
00000320: 47a0 133e 1d9c 5abe 72d9 8a3e e080 b03c
00000330: 6418 9b3d f381 4bbe 6c4b cfbc b859 9cbc
00000340: 7313 bcbc 337c 113e 57dc 103e ee74 2bbc
00000350: f7b0 f8bc ea54 8f3d 95c9 093d 7cd8 54be
00000360: 9f1e 8cbe 0c2d 02be cdb9 953e 022f 6fbb
00000370: 5aa7 1bbe 7616 713e d550 b83d 069e 6d3e
00000380: fbc8 47be d5a3 84be 8e6d 1a3e ac54 a0bc
00000390: 8939 e03c 81e7 933c ae98 233c 22c8 5f3e
000003a0: 92ea 2abe 7fcc 21be 42a5 303e ddf1 8abd
000003b0: 8245 b7bd fe7c e53d 9336 61bd c222 ae3d
000003c0: 0d54 8fbd 401c 163d e2a9 6f3e 2ff9 863c
000003d0: ffb4 15bc e6af de3d 95fa 053d e7f9 3c3e
000003e0: 40dc febd 4504 ddbd 7a26 21bd 751e d8bb
000003f0: f00f 5bbd 81c7 3a3e 6193 88bc be1f 44be
0.064847924 -0.26197854 -0.20315959 0.0025110196 0.118294425 -0.25028062 0.06670396 -0.030555988
-0.03336653 0.19511594 0.027963147 0.01799868 0.035571426 -0.24003775 -0.0039144913 0.0839554
0.08979943 0.011340339 0.010020751 -0.018222831 -0.03509649 0.21813452 0.020356318 -0.063320294
-0.23074698 0.06101627 -0.2112093 0.003711054 0.02564663 -0.08547416 0.009391396 0.093201794
0.17815563 0.008547602 0.13759817 0.011202396 0.05004393 -0.059300043 -0.027358519 0.12184011
-0.10758231 0.13423425 -0.013523365 0.017246345 0.036067028 0.013410829 0.026902827 0.24339996
0.19846642 0.31319013 0.038360074 0.00024839098 -0.06530015 -0.05839039 -0.03735213 -0.13982253
-0.26997566 -0.2560514 -0.063504085 -0.023116548 -0.04485602 0.18219163 0.10921357 -0.042251207
-0.10360979 0.17093591 -0.032679424 0.031251974 0.074142165 -0.17730911 0.017364152 0.23211952
0.018689664 0.12747982 -0.13579322 0.009767571 0.0033206665 0.11743796 0.014937882 0.16885972
-0.17355487 0.07852308 -0.1072633 0.011135072 0.0064517036 -0.2117021 0.0017535685 0.027067028
-0.11502368 0.1389314 -0.1632522 -0.02629718 -0.012465679 -0.19063756 -0.048076984 -0.0024322993
0.22280961 0.25930387 0.11173501 0.0155033525 -0.10581157 0.1848606 -0.004033851 -0.026547132
0.02317691 -0.16776298 -0.11511604 -0.0066644866 0.039545286 -0.06226126 -0.03335862 -0.057233207
0.009686236 -0.083080165 0.0071421675 0.0041872934 -0.035647225 0.079937086 0.029517034 -0.02732516
0.09756103 0.25596443 -0.076015994 -0.012671014 -0.078343675 -0.15715827 -0.013895454 0.0067195343
0.050276045 -0.24866895 0.35278893 -0.010928415 -0.18660626 -0.06838963 0.049847983 -0.060134467
-0.003371558 -0.06494404 0.14263393 0.010373421 0.05472891 -0.020251786 -0.0023977275 0.16635936
-0.035432864 -0.16407917 -0.011942229 0.010436784 -0.1464038 0.018931963 -0.08194399 0.14601554
0.10254525 0.04176397 0.16143575 0.012598401 -0.0273485 -0.13284524 -0.001832682 0.107366405
0.25463536 0.11378933 -0.1271792 -0.0015454702 -0.06499618 -0.0065657636 -0.07566122 -0.041572098
0.15632084 0.10315807 -0.19408488 -0.0040857648 -0.014359009 0.22782923 -0.026585946 -0.0034162432
-0.20047903 -0.14567514 0.20056067 0.09072885 0.024925407 0.34810364 0.10479575 0.15987314
0.18259843 0.21401489 -0.09939387 0.0021703658 0.051794775 -0.07969923 -0.03459581 -0.14622965
0.025632974 -0.25467947 0.10633773 -0.013179452 -0.10704958 0.042518474 -0.024412854 0.079171576
0.1441661 -0.21348615 0.27119023 0.021545827 0.075730115 -0.1987379 -0.025304519 -0.01908575
-0.022958493 0.14207534 0.14146553 -0.01046489 -0.03035782 0.06998618 0.03363951 -0.20785707
-0.27367112 -0.12712497 0.29243317 -0.0036496525 -0.15200558 0.23543724 0.089997925 0.23204812
-0.19510262 -0.25906244 0.15080854 -0.019571625 0.027371185 0.018054726 0.009985132 0.21853688
-0.16691044 -0.15800665 0.17250541 -0.06784413 -0.089488044 0.11205481 -0.054983687 0.08502723
-0.06998453 0.036648035 0.23404649 0.016476242 -0.009137391 0.10873394 0.032709677 0.18454705
-0.12444353 -0.1079183 -0.039343335 -0.0065954276 -0.053481996 0.18240167 -0.016671838 -0.19152734

backbone.conv1.weight f4 [32, 64, 3, 3]
00000000: 8e94 8d3d 21e1 0e3d 9585 883c 99fe 6c3c
00000010: dd7c a73b a1dc 20bd 0f19 2e3d 047d 6cbc
00000020: 36bd 263b c63d efbc d8dc e538 c908 083d
00000030: ddc4 eabb a4cf 70bd 47b5 3e3a b99e 06bd
00000040: ce8b 06bd 6831 ea3c 650e 013d 5a6f 543d
00000050: 109f 99bc 7af7 7f3b 1340 803c 23db 043c
00000060: ff80 9a3c fe53 1e3c 3ad6 3b3d f9a4 78bc
00000070: 5ccc 02bd 4846 1abd 1c16 323d db07 0c3c
00000080: bbc3 0e3d 7e53 a8bc 69c6 0d3c 1371 33bd
00000090: 57cc 13bd 72fb 643d 23f3 ed3c 8822 623d
000000a0: abfa 5fbc d7b1 2c3d c15f c1bb a8b0 a03d
000000b0: b295 793d 230d 8d3d 8761 423c e523 cd3c
000000c0: 12f9 f4bc 4ed6 2cbd e939 6ebd 5cb0 5dbb
000000d0: b26e 47bd 62cf 06bd 8ad1 3abd 341f 7d3c
000000e0: 8b69 c6bc 4bad 69bd 272d 59bd aa00 a9bd
000000f0: 8b6e 1ebd 546c ea3b 70d5 82bd 2e99 ee3c
00000100: 5858 49bd 502e 9abd a80d 49bc ce52 913c
00000110: 4166 33bd babf 023b 4249 c03c 1f47 ec3c
00000120: 7ffe dcba 9a13 d73c 7ca6 a2bc 517b 43bc
00000130: b391 85bd 6f38 98bc d7a2 1dbd a7bc 8939
00000140: 8fa9 febc 9a23 e43c bd3c 293d 1252 823c
00000150: 3450 11bd defb 17bc 8cda 4ebd 212e 7cbd
00000160: 18f7 9bbc 8ab6 bfbc db3d 283c f36c a93c
00000170: 8bd9 733b 8872 44bc 3ab4 80bb 0373 b43c
00000180: 74fa 71bd 496c 87bd cb06 24bd 6757 02bd
00000190: ecb9 833d 6e12 aebc 051c 303d 904c ca3d
000001a0: 5145 9f3d beef 233d 682a b2bc 7892 e63d
000001b0: ed2b bd39 cfb7 0abd 52a2 0c3d 33bf b9bc
000001c0: 1ef0 abbc 1450 dc3c addd 5cbd dbf0 00bd
000001d0: fae2 5cbd 4f29 89bc e383 853c 387a 91bd
000001e0: dc3a 9abc da2a 29bd 6429 dabc 419c 87bd
000001f0: 04ad 003d 02e0 ebbc 3c1f 1cbd 8ebe 193d
00000200: 71a0 1dbc 8ca2 61bb ab55 2fbd b603 2fbb
00000210: f84e 063c 8c45 de3c 4911 97bd 7282 0c3d
00000220: ad5f a6bb bb12 473b b323 a23c e71c 6d3c
00000230: ec37 8dbc 3d74 af3c 67a6 a7bc 79de 0fbd
00000240: 9d0c 27bc 3680 cf3c a089 53bc 8ed3 fa3a
00000250: 83d5 823c a3a8 993c f8b2 8e3d c360 923d
00000260: 7884 a63d 7708 e83a d3b1 873c 7c5f 1cbc
00000270: c9fa 00bd 7bd0 b0bc fa4a 8dbc 1701 78bd
00000280: 8f0d e5bc 9e67 81bd 68ce 193c e6ab fdbc
00000290: ec47 c6bc 9978 b8bc b10e 72bc 37e5 95ba
000002a0: e5d0 d23b 02d1 76bd 2b11 67bd b462 94bc
000002b0: d812 5e3b cc11 0ebc 265a a6bc cbfd 7fbc
000002c0: 29e9 79bb 76c2 debc 70ba 98bc 8925 3b3d
000002d0: 4e53 e53c 4c33 53bc ec7c 863b 03a1 ad3a
000002e0: f99f ae3a d41e c5bc cff8 373d 5b0c 64bd
000002f0: 5fbc 563c 4700 b43c a5ea adbb 052c 6d3c
00000300: f7a3 a53c c809 9fbc 3617 853b ff62 0fbd
00000310: 603a 60bc 6f0f c6bc 7501 3b3c 19c6 3a3c
00000320: fb1c d63c ab07 1cbc e202 d33d f084 bd3d
00000330: cf1f 3c3d d896 1e3b ddcd da3d 833f d73c
00000340: 3d3a f53c d845 cebb 3a9d 893d bb74 c63c
00000350: ee4a 263c a40b 583d 0a77 c23c 15b9 bf3d
00000360: 2b74 903c 7985 fa3c 573b e23b a848 c33c
00000370: 4c25 143d abe9 7d3b 96c5 29bc c2d9 8a3b
00000380: 446f 8eba e63a 8dba 026a 81bc e123 36bd
00000390: 58ab adbd dbd3 52bd ffa5 80bd 288b d9bc
000003a0: 08f5 e4bd 2951 45bd e5d8 4f3d 77a7 a4bc
000003b0: ed54 16bc 7ac1 2a3d 6e03 73bc deea 51bd
000003c0: b3ee 5c3d 411c 7fbc 8992 4e3c 3cdd fc3c
000003d0: 4e1f 053d d0be 4cbd 7ff8 823c 4bbd 333d
000003e0: c485 0a3c e693 3c3d a469 673c ba78 b73d
000003f0: cefc 803d 482e cf3c 1eca 513c d8ab e7ba
0.069131 0.03488267 0.01666526 0.014464998 0.0051113204 -0.039272908 0.042504366 -0.014434103
0.0025442368 -0.02920426 0.00010960706 0.033211503 -0.007164581 -0.05879177 0.0007274937 -0.032866213
-0.032848172 0.028588012 0.03150787 0.051864006 -0.018752605 0.003905742 0.015655553 0.008108887
0.018860338 0.00966358 0.0458586 -0.015176051 -0.031933174 -0.03766468 0.043478116 0.008546795
0.034854632 -0.020547625 0.008653262 -0.043809008 -0.036083546 0.05590386 0.0290466 0.055208713
-0.013670604 0.04216179 -0.0059013073 0.078461945 0.060933776 0.06887271 0.011864073 0.02504153
-0.029903922 -0.042196564 -0.058160696 -0.0033827042 -0.04868955 -0.03291262 -0.04560999 0.015449334
-0.024220249 -0.05705003 -0.053021576 -0.0825208 -0.03867964 0.007154027 -0.06388366 0.029125776
-0.049156517 -0.07528365 -0.012271322 0.01773968 -0.04379869 0.0019950704 0.023472432 0.028842507
-0.0016860514 0.026254464 -0.019854777 -0.011931256 -0.065219305 -0.018581597 -0.038485374 0.00026271233
-0.031086711 0.027849007 0.04131769 0.015908275 -0.03547688 -0.009276358 -0.05050139 -0.06156743
-0.019038722 -0.023402471 0.010268654 0.020681834 0.0037208523 -0.011990197 -0.0039277347 0.022027498
-0.05907674 -0.06612451 -0.04004554 -0.031821635 0.06431946 -0.021249022 0.04299547 0.098778844
0.07776893 0.040023558 -0.021748737 0.112584054 0.00036081616 -0.0338667 0.03433449 -0.022674179
-0.02098852 0.026893653 -0.053922344 -0.031479698 -0.0539274 -0.01674333 0.01629824 -0.071033895
-0.018826894 -0.041300632 -0.026631065 -0.066216 0.031415 -0.028793339 -0.038115725 0.037535243
-0.009620772 -0.003442916 -0.04280631 -0.0026705093 0.008197539 0.027132772 -0.07376344 0.03430409
-0.0050773234 0.0030376154 0.019792413 0.014472223 -0.01723858 0.021417731 -0.020465089 -0.035124276
-0.010195878 0.02532969 -0.01291123 0.0019136535 0.015970951 0.01875717 0.06967729 0.07147362
0.08130735 0.0017702718 0.016564285 -0.00954425 -0.031489167 -0.021583786 -0.017247666 -0.060547914
-0.027960567 -0.063185915 0.00938759 -0.030965757 -0.024204217 -0.022518443 -0.0147740105 -0.0011436109
0.0064335936 -0.06025792 -0.056412857 -0.018113472 0.0033885743 -0.008671235 -0.020306658 -0.015624474
-0.003813336 -0.027192336 -0.018643588 0.045690093 0.027993824 -0.012890648 0.0041042473 0.0013246838
0.0013322822 -0.024062552 0.044915017 -0.055675846 0.013106435 0.021972788 -0.005307513 0.014475827
0.020219786 -0.019413844 0.004061605 -0.03500652 -0.013685793 -0.024177281 0.011413922 0.011399769
0.026136866 -0.009523313 0.10303284 0.092538714 0.045928773 0.0024198797 0.106837966 0.026275402
0.029934997 -0.006294947 0.06719442 0.024225583 0.010149701 0.052745476 0.023738403 0.093614735
0.017633518 0.030581223 0.0069040465 0.023838356 0.03616838 0.0038744013 -0.01036205 0.0042373845
-0.00108669 -0.0010774999 -0.015797619 -0.04446781 -0.08479947 -0.051471572 -0.06281661 -0.026555613
-0.111795485 -0.048173103 0.050743956 -0.020099385 -0.009175521 0.04168842 -0.014832361 -0.051249377
0.05393858 -0.015570701 0.012608179 0.030867212 0.032500558 -0.04998666 0.015987633 0.043881696
0.008454744 0.046039484 0.014124308 0.08958574 0.06298219 0.025290623 0.012804536 -0.0017675115

backbone.bn1.weight f4 [32]
00000000: bbca 723f 823f 7c3f e5b9 7b3f f110 803f
00000010: 18e1 713f 66d6 863f bdf5 763f ef9c 6b3f
00000020: 5895 753f 8a81 863f 5016 753f fb33 7f3f
00000030: c0d3 813f 8d30 793f 9b0b 7e3f 1db3 753f
00000040: 076e 813f 0661 853f 22f3 833f 889c 803f
00000050: 86f6 7f3f 4e64 6b3f eb4b 773f 6380 773f
00000060: 9726 793f 55e4 813f bb86 763f 5672 773f
00000070: a8f6 8a3f e902 793f b7b6 7b3f d154 703f
0.9484059 0.98534405 0.9833053 1.000517 0.9448409 1.0534179 0.96468717 0.92036337
0.95931005 1.0508282 0.9573717 0.9968869 1.0142746 0.9733971 0.9923646 0.9597643
1.0111703 1.0420234 1.0308573 1.004777 0.9998554 0.9194993 0.96600217 0.9668028
0.9732451 1.0147806 0.9629933 0.9665884 1.0856524 0.97270066 0.98325676 0.9387942

backbone.bn1.bias f4 [32]
00000000: bf83 91bd 14e8 9c3d 104a 093d 0686 28bd
00000010: c9d9 1cbd 758c de3d 6226 ee3c 6092 efbd
00000020: 6c22 933c 60d2 31bd 1454 96bc 0771 ebbc
00000030: 1a79 77bc 4929 e6bc 4709 6c3d cb47 41bd
00000040: 411d 953c 2f7e 643d 9452 9f3d f6e3 813d
00000050: 30c5 103b 614e 55bd b5ec 2f3d 8e64 56bc
00000060: dc26 24bc 6f7b 0b3d 5dbd 20bc 1b17 bf3d
00000070: 4d56 e63d a5d6 a53c fa7e 1e3d 006e 793c
-0.07105207 0.07661453 0.033517897 -0.04114344 -0.038293634 0.10866634 0.029071037 -0.11697841
0.01796075 -0.04341352 -0.018350638 -0.02874042 -0.015104556 -0.028095858 0.057626035 -0.047187608
0.018202426 0.0557844 0.077794224 0.06342308 0.002209019 -0.0520767 0.04295035 -0.013085498
-0.01001903 0.034053262 -0.009810773 0.09330579 0.11246929 0.020243952 0.038695313 0.01522398

backbone.bn1.running_mean f4 [32]
00000000: 448f 3040 bf42 09c1 6cac 16c1 683e 1340
00000010: c327 c5bf ba27 0bc1 54c6 a8c0 6dc9 1941
00000020: 3d5b 5f40 fe83 0d40 4435 d6c0 6529 b1bd
00000030: 4124 95bf 6c77 d63e 9fb9 bf3f 2849 923f
00000040: 298b ecbf aff9 75c0 8c88 a7c0 7f5e acc0
00000050: 7940 b2c0 bb5e c4bf 10d8 5440 902f 1940
00000060: 132c a53f 4639 31c1 c575 5340 16d7 49c0
00000070: 92cc b7c0 7430 3140 b165 bbc0 e79a 96c0
2.7587442 -8.578795 -9.417095 2.300684 -1.5402759 -8.697199 -5.27421 9.611676
3.4899437 2.2111812 -6.694002 -0.086504735 -1.1651689 0.41887987 1.4978522 1.1428576
-1.8479968 -3.8433645 -5.2354183 -5.386535 -5.57037 -1.534141 3.3256874 2.393528
1.2904075 -11.076483 3.304063 -3.1537528 -5.743722 2.7685823 -5.8561635 -4.706409

backbone.bn1.running_var f4 [32]
00000000: 1438 c342 acfd 4343 4eea 3443 7952 9142
00000010: ae00 0542 5092 4543 efea b142 b85a 5743
00000020: 0428 9e42 c607 c242 2fcd e142 d915 5542
00000030: f9c2 8042 c088 3542 2e67 3c42 df6f 6642
00000040: 6fa5 5342 5bdb d642 907b f842 0f3c 1043
00000050: 7615 cd42 071a 0243 0f28 e842 9818 4142
00000060: 3083 6b42 cce8 7643 2cea dc42 2483 8142
00000070: 1545 bc42 8cc5 af42 d33f f142 e2a0 f542
97.60953 195.9909 180.91525 72.66108 33.250664 197.57153 88.958855 215.35437
79.078156 97.01518 112.90075 53.271336 64.380806 45.383545 47.10076 57.60925
52.911556 107.42843 124.24133 144.2346 102.541916 130.10167 116.07824 48.274017
58.878113 246.90936 110.45737 64.756134 94.134926 87.88583 120.62466 122.814224

backbone.conv2.weight f4 [64, 32, 3, 3]
00000000: 0f44 68bd bea0 15bd 4517 8cbd beac 84bd
00000010: 88fd c8bb f7b7 9e3b 6e09 4e3d 2eac 2f3d
00000020: 7a0d 6bba 5a53 6d3c 0f5c 1f3d 250a 473d
00000030: 68a2 69bd c392 6dbb 9c2d d23c 5a72 b9bd
00000040: 2e4b 07bd 9bf3 1dbc b8ce 71bb c4dd f1ba
00000050: 2a7d 2fbd bc06 7ebd ae4e 80bc 354e c4bc
00000060: e583 febb 1a8c bb3d 4e2c e73c 4f3f c7bd
00000070: e662 9abd 580f 80bd 3da6 2abd 304b 633d
00000080: c66f fd3c c2b2 c53d e36e 893d c5e2 be3d
00000090: a076 a63c 9afb 7f3c a2a7 43bd ba60 0fbd
000000a0: c8bd 42bd 50e6 19bd a0a8 e63c 6600 c4bb
000000b0: af42 da3c 44ab 813c 2274 c9bc da45 f8bc
000000c0: 1dec 053d 679a 84ba d7f2 2f3d aeab 21bd
000000d0: 12b6 b13c 0b3c 00bd f3fa 4d3d 30cc c6bc
000000e0: 433a c9bd d5cf 9abc c582 0f3d ce2d ebbc
000000f0: c812 303d 095d a43d 76a0 9fbd b35b 283c
00000100: f894 6c3d a6ad 80bb e9de f03c 1b35 3d3d
00000110: a147 3d3c b3e6 1dbd 0575 97bc 2dbb 4fbc
00000120: 549b 2e3c feb2 eb3d cef0 ea3c 0f68 8fbd
00000130: 4bbb abbc 65b3 2cbd 1fb7 efbc 32ea 0b3d
00000140: 4351 eebc df31 89bd 50e2 43bd ad94 b2bd
00000150: 78b8 3f3c 837a 613d 608b 463d 4a22 963c
00000160: 132c 123e 3e05 d73d e251 ad3a a5ba 05bd
00000170: f351 b3bc c8d9 1ebd 3818 9fbd bb22 caba
00000180: 82c0 0ebd 9d33 023d 88e5 843c 52fa babc
00000190: 7ed2 94bd 0f5e 13be 1db1 1bbd 1405 e0bc
000001a0: a619 28bd 3603 aa3d 1f0b a73d 0368 ec3d
000001b0: 58db 48bd a431 a83c 2229 d8bd e124 0dbd
000001c0: 8576 dc3c d3fd fdbc e277 153d 60a0 363d
000001d0: 6da8 263d 2dd3 663d b514 5f3b 6745 223d
000001e0: 15db 403d 5b30 083b e063 343a 0735 9dbd
000001f0: eb06 bbbc 00b8 02bd d17d 763b 0c35 723d
00000200: 26f3 453d 7ca5 353d 675a 373d d82c 783d
00000210: 8fd1 37bc f760 68bc f526 543c 930f 1c3d
00000220: b786 7c3d d3c9 ddbc e8b1 04bd 4db5 803c
00000230: 00cd 24bd b317 973b 786f 9cbd 4863 b73c
00000240: d344 003e 4bf0 ca3d 6379 003d e35a 693d
00000250: 3592 423c ab30 123c 8825 01bd f911 d5bc
00000260: f72b e5bc 5533 d53d 942e 163d 2155 21bd
00000270: 2e35 bdbb fccd 593c a970 2dbd e772 42bd
00000280: 6467 babc 2df4 a5bd 97fe 873d 21a2 9b3c
00000290: 7f03 2c3d 3bab 2e3c 5942 13bd ac80 05bc
000002a0: 1e03 e0bc 5fc4 bbbc de0b 263d a8c9 283c
000002b0: e700 81bd ba1f 883d 17a3 283d 1b6e 41bc
000002c0: d4a7 1f39 c9dc 44bd 94ef 21bd 5a5d 4abd
000002d0: 95f0 853d af9f 03bb b6a9 88bc 0a33 973b
000002e0: 9eac bf3d f1d8 4e3d ba52 343d 91ef e23d
000002f0: 282f a43d bf3a 903c d5a5 1d3d c01e cdbb
00000300: e4d5 b6bc 1922 e03c 78c2 3e3d 5944 883c
00000310: 434f 3c3d 2295 8abc f489 53bd aa65 03bb
00000320: 2764 a8bd 5699 4bbd 3b8b 57bd c53c b3bd
00000330: f49d a63d c208 ce3d 3e12 953d eaf0 babc
00000340: 421c 7b3d fb74 203c 1942 bf3c 766a 123d
00000350: a50a 00bd ddbc dc39 1af1 013d 4024 253d
00000360: 1482 aa3d a1c5 1e3c 4a77 a93d fae1 8a3d
00000370: 09be 0e3d a501 cbbc 341c 28bc 3d07 ccbd
00000380: 3c6b 14bc bec4 4dbc 466c 1b3d fb69 ab3c
00000390: f16d 16bd c648 943c 5762 553c 088b bdbd
000003a0: e3d2 d5bc e2a3 7ebd 2108 893c 83b3 703d
000003b0: 98c5 23bd 729e a13c 97dd 58bd 69c0 9abc
000003c0: c220 01bd b3a9 c5bb 5475 d33c 3966 f3ba
000003d0: a2d8 983c ab59 bdbb 778f 1abc c3d0 ffbc
000003e0: 27c7 d5ba e9a9 0cbd a281 743d dec3 833c
000003f0: 6366 523d d066 27bd 611a 91bd 17b8 71bd
-0.05670553 -0.03653025 -0.06840376 -0.064782605 -0.006133739 0.0048437077 0.05030196 0.042888813
-0.0008966547 0.014485205 0.038906153 0.04859366 -0.05703965 -0.0036250807 0.025656514 -0.09055014
-0.03303068 -0.0096406 -0.0036896896 -0.0018452932 -0.042843975 -0.06201814 -0.015662517 -0.023963073
-0.007767188 0.091575816 0.028219368 -0.09728872 -0.07538395 -0.062529266 -0.041662443 0.055491626
0.030937087 0.09653236 0.06710603 0.093205966 0.020320237 0.015623951 -0.04776729 -0.035004355
-0.04754427 -0.03757316 0.028156579 -0.005981493 0.026643125 0.015828736 -0.02459151 -0.030306745
0.03269588 -0.0010116816 0.0429562 -0.039470367 0.021693263 -0.03130726 0.050288152 -0.024267286
-0.09825566 -0.01889793 0.03503682 -0.028708365 0.04298666 0.080255575 -0.07794277 0.010275769
0.057759255 -0.0039269505 0.029403167 0.046193223 0.011552722 -0.03855009 -0.018488416 -0.0126789035
0.01065715 0.115087494 0.028679278 -0.070022695 -0.020963332 -0.04216327 -0.029262124 0.034158893
-0.029091483 -0.06698965 -0.04782325 -0.08719764 0.011701696 0.055048477 0.048472762 0.018326897
0.14274625 0.10499047 0.0013223256 -0.0326487 -0.021889662 -0.03878191 -0.07768291 -0.0015421727
-0.03485156 0.031787504 0.01622273 -0.02282444 -0.07266711 -0.1439135 -0.038010705 -0.027346171
-0.041040085 0.08301394 0.08156418 0.11543276 -0.049037308 0.020531483 -0.105547205 -0.034459
0.026911983 -0.031004822 0.036491282 0.04458654 0.040687967 0.056353737 0.0034039442 0.03961697
0.047083933 0.0020780775 0.00068813376 -0.0767613 -0.022830447 -0.031913757 0.0037611614 0.05913262
0.048327588 0.04434727 0.04476395 0.06058964 -0.011219396 -0.0141832745 0.012948741 0.03810079
0.06165191 -0.027073776 -0.032396227 0.015711451 -0.040234566 0.0046109795 -0.076384485 0.022386208
0.12526254 0.099091135 0.031365763 0.056971442 0.011875679 0.008922736 -0.031529933 -0.026009547
-0.027975066 0.104101814 0.036665514 -0.039387826 -0.005774162 0.013293739 -0.04234377 -0.04747286
-0.022754379 -0.081032135 0.06640356 0.018998208 0.04199552 0.010660942 -0.035951946 -0.008148354
-0.027345236 -0.022920785 0.04053866 0.010301985 -0.06299 0.06646676 0.04117116 -0.011806036
0.00015225942 -0.04806212 -0.03953512 -0.049405433 0.06540028 -0.0020084193 -0.016682487 0.0046142386
0.09359096 0.05049986 0.044024207 0.1108085 0.08016807 0.017606137 0.038488228 -0.006259769
-0.022318788 0.027360009 0.04657218 0.016634153 0.045974027 -0.016916815 -0.051645234 -0.002004961
-0.082222275 -0.04970678 -0.052623015 -0.08751825 0.08135596 0.10060264 0.0727887 -0.022819955
0.061306246 0.009793515 0.023346948 0.03574606 -0.03126015 0.00042102384 0.031724073 0.040317774
0.08325592 0.009690673 0.08274706 0.06781383 0.0348492 -0.024781058 -0.01026063 -0.09962318
-0.00905877 -0.012559114 0.037945054 0.020924559 -0.036725942 0.018101107 0.013023934 -0.09255034
-0.026101535 -0.06216801 0.016727509 0.058764946 -0.039983362 0.019728873 -0.0529457 -0.018890576
-0.03152538 -0.0060321926 0.025812782 -0.0018569893 0.018657986 -0.0057785115 -0.009433619 -0.031227475
-0.0016309962 -0.034341726 0.05969394 0.016084608 0.051367175 -0.040869534 -0.070851095 -0.059013452

backbone.bn2.weight f4 [64]
00000000: 19f4 813f ffa1 843f 41cd 6d3f 93a4 813f
00000010: 5ae1 8b3f 439f 813f 80e7 853f 51c4 6f3f
00000020: 4044 813f 6c27 723f 9bb5 873f e9f8 8c3f
00000030: 0bb5 883f bae2 6f3f 9f2c 863f 2f5a 863f
00000040: 3e63 793f 7d4f 803f fd5f 7d3f 0638 6e3f
00000050: 0b8d 773f 5b0e 7d3f 62bf 803f 26c9 803f
00000060: ff45 813f ae2b 6f3f 421f 5f3f 39b7 743f
00000070: dd48 803f 38a7 843f fe2b 8c3f 201c 7f3f
00000080: ce59 793f 50aa 5c3f 2e60 833f e80d 763f
00000090: 686f 843f a5f0 693f 8ec8 7d3f c387 7d3f
000000a0: cb35 7b3f 474c 6d3f 34da 7d3f 8a27 773f
000000b0: 2f0b 833f ea1c 813f 61f9 763f 3122 6b3f
000000c0: 52c2 933f 1ce4 673f 8b7d 893f ab25 7a3f
000000d0: eff9 7a3f 83a3 883f 29c5 7f3f 6a16 873f
000000e0: e7f5 823f 6367 723f e0b7 853f d4a7 753f
000000f0: a6de 773f 9d32 843f ccc4 803f aba4 843f
1.0152618 1.0361937 0.9289132 1.0128349 1.0928147 1.0126728 1.0461273 0.9365893
1.0098953 0.94591403 1.0602297 1.1013461 1.068025 0.9370533 1.0482367 1.0496272
0.97417057 1.0024258 0.9897459 0.93054235 0.9669959 0.9885003 1.0058405 1.0061386
1.0099486 0.93426025 0.8715707 0.95592076 1.0022236 1.0363531 1.0950925 0.9965229
0.97402656 0.86197376 1.0263727 0.9611497 1.0346498 0.9138282 0.9913415 0.9903528
0.98128957 0.92694515 0.99161077 0.96544707 1.0237788 1.0086949 0.9647427 0.91849047
1.1543677 0.9058244 1.0741438 0.97713727 0.9803762 1.06749 0.9991022 1.0553715
1.0231293 0.94689006 1.0446739 0.9595921 0.9682411 1.0327946 1.0060058 1.0362753

backbone.bn2.bias f4 [64]
00000000: ad28 6dbd 0d88 e6bd dafa 29bc 1e9c e8bc
00000010: c657 4c3d 600c fabc 3257 e33c 4866 b1bd
00000020: 4df8 99bd 71f3 acbb 6883 b5bd 5649 9fbc
00000030: f897 a43d 7130 aa3b 9320 383c c6eb 563d
00000040: 2e61 2dbd 406a 5bbd 0a73 7b3d 28b2 09be
00000050: e2b0 febc f16b 2bbd 8fd0 803d 7aac d63c
00000060: 51f2 3eba bc06 ac3c 6d5e ffbd be44 63bc
00000070: 87f3 d4bc 670d b2bd 0fc6 ef3d 34c0 303d
00000080: 98d2 953c dde9 e2bc cdee 8dbc 04c9 823d
00000090: 1818 093d 4409 0ebd 9479 a13c e53e 483d
000000a0: 9692 81bc 5ee3 edbc 4361 133d 993e 5a3c
000000b0: 6138 e5bd 7351 89bd 4b70 87bd 801d 1bbe
000000c0: 77ab 6cbd 038d 09be 7ad5 b6bd a7da 7f3c
000000d0: dbae 31bd 6348 d43c 836c f13c 179d d83c
000000e0: 322e 64bd e5af 9ebd b631 9b3d 3f42 333d
000000f0: f8b6 e7bd e8ed eabc e7ee 7bbd a42b 4bbc
-0.05790012 -0.112564184 -0.010374749 -0.028394755 0.049888395 -0.030523479 0.027751539 -0.08662087
-0.07518063 -0.005278044 -0.088629544 -0.019444149 0.08036798 0.005193763 0.011238235 0.052470945
-0.042329006 -0.053568125 0.061389007 -0.13446867 -0.031090204 -0.041850988 0.062897794 0.02620529
-0.0007284033 0.020999305 -0.12469182 -0.01387137 -0.02599503 -0.086939625 0.117076986 0.04315205
0.018288895 -0.027699405 -0.017325783 0.06385997 0.033470243 -0.034676805 0.019711293 0.048888106
-0.015816968 -0.029039081 0.035981428 0.0133205885 -0.11192394 -0.06704988 -0.06613215 -0.15147972
-0.05778071 -0.13432698 -0.08927436 0.015616096 -0.043379646 0.025913423 0.029470688 0.026442094
-0.055708118 -0.07748393 0.07577841 0.04376435 -0.113141954 -0.028677896 -0.061507132 -0.012400541

backbone.bn2.running_mean f4 [64]
00000000: a9ca 45be ffcb eebe 2b9c 60bf 168a a93e
00000010: 3ff5 d43f b184 03c0 72a3 79c0 0292 0640
00000020: 6e87 02bf d86a 99bf 5cd5 733e 2617 a53f
00000030: af92 9abf 4ddb cebe 3538 57bf 1abf e1bf
00000040: 4586 15c0 d208 c1bf 06f9 75bf 6869 c23e
00000050: e89e 7ebe 5068 a8bf b8a8 19c0 1803 46bf
00000060: c245 36bf 64e0 0ec0 b0df 863f f734 16bf
00000070: c2f5 8cbf 120b 8b3f c4e0 37c0 9713 2cc0
00000080: 4a74 333f eb43 edbf 7154 a93f dc4f 1dbf
00000090: 1382 92bf c3f7 1ec0 ccbd 903e 6c10 18bf
000000a0: c33b dbbe 66c1 abbf eb7e 1fc0 9a8c cbbe
000000b0: 97d3 cebe 5f44 223f cac0 fcbf bbc0 6fbf
000000c0: dd04 283f 2857 a7be 46ed 28bd 509d eabf
000000d0: c1cb ce3f ca64 c7be 2c47 bcbf 135b 1f3f
000000e0: 4dd5 7b3e f0fe 8e3e a230 08c0 1913 1ebf
000000f0: d6e3 223f ae21 94bf 7c0b 0840 da5e 11be
-0.1931559 -0.46640012 -0.87738293 0.33113164 1.6637343 -2.0549738 -3.900601 2.1026616
-0.509879 -1.1985731 0.23811859 1.2897689 -1.2076014 -0.40401688 -0.8407014 -1.7636445
-2.3363202 -1.5080817 -0.96083105 0.37971044 -0.24865305 -1.3156834 -2.4009228 -0.7734847
-0.7120019 -2.2324457 1.0537014 -0.5867457 -1.1012499 1.0862753 -2.8730936 -2.6886957
0.7009932 -1.8536352 1.3228894 -0.6144998 -1.1445946 -2.4838722 0.28269804 -0.5940006
-0.42819032 -1.3418396 -2.4921215 -0.39755708 -0.40395805 0.63385576 -1.9746335 -0.9365346
0.6563242 -0.32683682 -0.041241907 -1.8329258 1.6155931 -0.38944083 -1.470922 0.62248343
0.24593087 0.27928877 -2.1279683 -0.6174789 0.636289 -1.1572778 2.125701 -0.14196339

backbone.bn2.running_var f4 [64]
00000000: 665d 1740 d0fa 4f40 3405 a140 bdff 2a40
00000010: 22d9 5640 9434 1740 cc51 0841 019e 6940
00000020: 9eb4 6040 85e4 3a40 7282 e53f eed4 3440
00000030: 25ab 5d40 228a 4d40 4aeb 0640 8edc 7640
00000040: e014 3140 158c ef3f 075a 4c40 7fa6 3740
00000050: f9dd 0740 f194 6f40 28e1 a740 3292 a940
00000060: ca17 0240 1440 a240 6666 5a40 3576 d63f
00000070: 5508 7240 9000 3e40 892c b940 d2e3 8f40
00000080: 1c1d 5f40 eda3 b140 c144 2040 1ac7 6c40
00000090: 2b45 0140 dfcf 9340 eb8c 4f40 4464 5c40
000000a0: 0db3 4c40 774e 1840 89cb 7740 12b7 4140
000000b0: c029 2640 4469 2e40 5a15 8640 19bc 3540
000000c0: 1210 2840 3e7b 8040 2865 f03f 886a 6340
000000d0: 6c65 7340 9327 9940 7070 6940 688e fc3f
000000e0: 6b23 5c40 58c4 3d40 58f7 6940 4757 cb40
000000f0: 9976 8240 f961 4540 8e3b 2e40 6c78 3440
2.3650756 3.2496834 5.031885 2.671859 3.3570027 2.362584 8.51997 3.6502688
3.511024 2.9201977 1.7930434 2.8254962 3.4635708 3.211556 2.108111 3.8572116
2.766899 1.8714625 3.1929948 2.869537 2.1229231 3.7434657 5.246235 5.299096
2.032702 5.070322 3.4125 1.6754824 3.7817585 2.9687843 5.7866864 4.49656
3.4861517 5.5512605 2.5041964 3.6996522 2.0198467 4.619125 3.242976 3.4436197
3.1984284 2.379789 3.8717978 3.0267987 2.5962982 2.725175 4.1901064 2.8396056
2.6259809 4.015044 1.878087 3.5533772 3.8030653 4.786081 3.6474876 1.9730959
3.4396617 2.9651089 3.6557217 6.354404 4.0769773 3.0841048 2.722385 2.81985

backbone.conv3.weight f4 [128, 64, 3, 3]
00000000: 187e 473b 3b8e 813b 47c6 67bc b2e5 343d
00000010: b937 92bc e7dc 373d 3c2b 343d 9436 be3c
00000020: b023 413d 21f4 d6bc e23c 98bc bc66 d8bc
00000030: 01b8 ed3b 0fc3 293d 95dc 4ebd 00a5 a33c
00000040: 031f 6c3d 3e49 6d3d 35b7 5b3c c657 e6bc
00000050: 70de 943c 3f90 dc3c d9af a43b 726e 543d
00000060: 92c4 4f3c 43a4 cdbc e4e9 563d db26 6bbc
00000070: a90c bcbc c90c 8c3c c76a aa3c 4ef7 143d
00000080: 0364 e6ba c0c0 dbbc 0b57 d7bb 3f32 413b
00000090: 598f b2bc 9bca 1bbd 801f 933c eff0 d23c
000000a0: 02e6 fe3c ffcd a2bc 7ce5 b239 0245 15bd
000000b0: a855 36bb cf81 59bd f179 d2bb 3646 9d3c
000000c0: 2bd8 473c 66e3 85bc e8c1 0abd 3813 ae3b
000000d0: 7134 c93c c56b 1c3d 676e d23b b52a 453d
000000e0: 2c5e c5bb 441a efbd 6fe0 3abd 57d0 a6bd
000000f0: 0589 80bd 9e46 7dbd 9aa4 f9bc 427d fcbb
00000100: db69 2e3d b0e5 593d ebf6 f4bc 2625 263d
00000110: 784e 0b3e 9738 26bd d2a2 c4bc 2f25 c03d
00000120: 966d 15bd f229 223d 8dc3 0c3d 26fc 03bc
00000130: d54a e93b 7e1c 1bbd a545 be3c 40f7 2bbd
00000140: 5237 82bd 2ed8 eebb 42f2 4d3d 7c75 c53c
00000150: b0d3 92bd 5599 813d f82f 343d d1cb 9bbd
00000160: d952 2abd 8b8b acbc a9ad 143d 666d cb3b
00000170: 875f c6bb 0775 2d3c cc10 993d d15f 7c3c
00000180: 765f e33c 9022 ebbb 5733 d33c 68f8 bb3c
00000190: f5b8 a43a 70da 413d aff0 8a3d 8dd6 aabc
000001a0: 3b79 48bc 9f32 f13d 46b2 673c 7505 813d
000001b0: 8cb4 d13c 29a6 4cbb 1f20 d5bc 3c71 7d3c
000001c0: 1a64 8d3b 7f9d 01bd f30f ef3c f9a7 c23c
000001d0: 7ed1 bf3c 992d 6eba a9ce e038 c094 f0bb
000001e0: de66 353d dfd1 653d 918e 0b3d 67b0 a8bc
000001f0: f9ee 703d f602 153d d44d 683c 583d 833d
00000200: 919f 143e fb8a a73d f89f 463c ed7c 263e
00000210: db69 703d fa18 27bb 1e3a 893d ef68 5fbd
00000220: 96bb de3c fde7 0a3d 943c 1c3d 2f84 953c
00000230: 25f5 69bb b312 9e3c 716d 4c3c 58a9 273d
00000240: d540 8fbd b954 9138 24bb 063d a9b1 aabc
00000250: 1d5b 62bd 9384 ff3c 1962 63bd 7c49 b4bc
00000260: e189 abbc 86fe f73c cc0c f93c cb94 a03c
00000270: a243 233c eb56 973c 1349 13bc 95c8 51bc
00000280: 8701 373a 0611 58bb 53a8 e0bb 4205 ca3d
00000290: 195c 823c f372 a0bc 0b84 53bc ee7a dabc
000002a0: 0939 82bb 4925 8abb ecb2 c33c 812f 863b
000002b0: 0a12 26bc 1040 ea3c 38d3 5bbc 46b5 293b
000002c0: 2ae4 533d f064 e0bc 3138 563c 94b6 1f3d
000002d0: bc07 953c d739 5ebd 3123 40bc 1808 493d
000002e0: e19a 113d db31 743d 5ff5 423d 53a6 a93d
000002f0: 79a5 d93d 5e52 f839 9a8e 323d 6b0e b13d
00000300: 0807 6fbc 55ff b0bd 5e03 643b 47c2 313b
00000310: cc4f 8dbd 8ce3 c5bc 2ff8 e2bb 2bc7 2e3d
00000320: d5d9 e13c 0e85 1fbd 11fb 8abd 8b2f 0a3c
00000330: f0f9 13bd 95e5 c7bd 2eed a1bc 6b71 25bb
00000340: 180c 803c ea14 4fbd 40ba 8dbc 29d8 b13c
00000350: f1cc dabd 8408 563d 11c7 ce3c a2ec 92bc
00000360: 838d 32bb 078c b9bb 4f7e 3ebd ce94 c93c
00000370: 73b7 c43c 88c2 e0bc bc5a cc3c 492a f3bc
00000380: a0c9 4a3c 96e6 21bd 0e77 063c 4e0b 883c
00000390: 2ac9 a0bd c906 283b 1382 023d 9d01 9bbd
000003a0: fe4a 24bd 2e2f d03b 2af3 123c 684c 42bd
000003b0: 91da 9a3c 8f97 8dbc 132a a2bc eb83 7f3c
000003c0: 507c 4cbd c520 0ebd 5cdd 693c 793e 383d
000003d0: 6c4d 633c 9eb2 ad3d 6570 c53c 4da0 8c3d
000003e0: 758d db3c 58af 46bc 7f07 6ebc 3b16 a3bb
000003f0: f408 293c 032b 693c ce85 65bd b3f4 453d
0.0030440148 0.003953723 -0.014146394 0.044164367 -0.017848836 0.044888403 0.043986544 0.023219384
0.047153175 -0.026239457 -0.018583719 -0.026416175 0.007254601 0.041445788 -0.050503332 0.019976139
0.057646763 0.057931177 0.013410379 -0.028118026 0.018172473 0.02692425 0.0050258455 0.05186314
0.012681143 -0.02510274 0.05246915 -0.014352526 -0.022955256 0.01709594 0.020802869 0.03636866
-0.0017577413 -0.026825309 -0.0065716556 0.0029479412 -0.02179687 -0.038035017 0.017959356 0.025749652
0.031115536 -0.019873617 0.00034121785 -0.036442764 -0.0027822051 -0.05310231 -0.006423228 0.019198518
0.012197535 -0.016343784 -0.03387633 0.0053123496 0.024561139 0.038188715 0.0064218524 0.04813643
-0.006023189 -0.11674932 -0.045624193 -0.081452064 -0.062761344 -0.061834924 -0.030473996 -0.0077053616
0.04258142 0.053197563 -0.029902896 0.04056277 0.13604152 -0.040581312 -0.02400342 0.09382092
-0.036481462 0.039590783 0.03436618 -0.008055722 0.0071195164 -0.03786897 0.023226568 -0.041983843
-0.06358208 -0.007288954 0.050279863 0.024103872 -0.071692824 0.06328074 0.04399106 -0.07607234
-0.041582916 -0.021062633 0.036298428 0.0062081097 -0.006053868 0.0105869835 0.07473907 0.015403704
0.02775548 -0.007175751 0.025781317 0.022945598 0.0012567329 0.04732746 0.06784188 -0.020854259
-0.012235935 0.11777233 0.014141625 0.06299869 0.025598787 -0.003122697 -0.026016293 0.015468892
0.0043149116 -0.03164434 0.02918241 0.023761736 0.023415323 -0.0009085774 0.00010719646 -0.007341951
0.044287555 0.05610835 0.03407151 -0.020591928 0.058821652 0.036379777 0.014178712 0.06408185
0.14513995 0.08180805 0.0121231 0.16258593 0.0586947 -0.0025497065 0.06700538 -0.05454343
0.027189057 0.033912648 0.03814371 0.018251507 -0.0035699096 0.019296026 0.012477265 0.040932983
-0.069947876 6.9299196e-05 0.032893315 -0.020836668 -0.055262674 0.031191146 -0.055513475 -0.022007696
-0.02093977 0.030272733 0.03040161 0.0196022 0.009964855 0.018474063 -0.00898959 -0.01280417
0.00069811236 -0.003296913 -0.0068560033 0.09864284 0.015913056 -0.019586062 -0.0129098995 -0.026669946
-0.0039740843 -0.0042158705 0.023889028 0.0040950184 -0.010136137 0.028595 -0.013417058 0.00258954
0.051731266 -0.02739188 0.0130749205 0.03899248 0.018192165 -0.05425438 -0.01172714 0.049079984
0.035548095 0.05961786 0.047597285 0.08283677 0.106272645 0.00047363614 0.043593027 0.08645328
-0.014589079 -0.08642451 0.0034792046 0.0027123855 -0.06899986 -0.024156354 -0.0069265584 0.04267041
0.02756969 -0.03894525 -0.06786168 0.008434187 -0.03612703 -0.09760586 -0.019766416 -0.0025244604
0.015630767 -0.050557055 -0.017300725 0.021709519 -0.10683621 0.052254215 0.025241407 -0.017935101
-0.0027244992 -0.0056624445 -0.046507176 0.024607088 0.024013257 -0.02743651 0.02494561 -0.02968325
0.012377173 -0.039526545 0.008207096 0.016606953 -0.07850869 0.002563881 0.03186233 -0.07568667
-0.04011058 0.0063532805 0.008969108 -0.047436148 0.018903049 -0.017284183 -0.019795453 0.015595417
-0.04992324 -0.03469922 0.014273968 0.044981454 0.013873439 0.08481334 0.024101445 0.068665124
0.02680085 -0.012126766 -0.014528154 -0.0049770153 0.010317076 0.014231446 -0.05603581 0.048329066

backbone.bn3.weight f4 [128]
00000000: 0830 8a3f b024 793f 6e3e 863f 4eb0 7b3f
00000010: 1436 843f ac2e 883f 25d5 753f 8b9e 803f
00000020: 8fde 863f 4054 813f 35c5 833f 147e 823f
00000030: 55c5 7e3f b10d 7f3f 5e51 723f 4ff1 893f
00000040: cf37 773f 0389 823f 7650 8b3f 4b53 873f
00000050: 244e 823f f7e5 823f fbbc 763f 5df1 833f
00000060: d638 683f 3969 863f ac57 813f 527e 833f
00000070: bb71 873f 27b1 873f f177 763f 4e51 733f
00000080: b8aa 7f3f 7168 7b3f 21ca 783f 2295 823f
00000090: e2e1 863f ca25 873f f94c 7c3f 7863 873f
000000a0: 6a23 813f 55f9 823f b451 863f 0200 803f
000000b0: 2113 813f 30d2 873f 5f45 7e3f 399c 7c3f
000000c0: 6d4d 7b3f 4836 853f 0d3b 813f 27bd 843f
000000d0: ebec 7b3f a5b6 863f ad33 853f 6400 813f
000000e0: db59 7c3f d63e 853f 1234 843f 21e0 863f
000000f0: 84ea 823f 5859 7e3f 6be6 733f a3c6 833f
00000100: f7ad 823f 27e3 803f 1677 863f b238 813f
00000110: bac9 863f dbc5 843f 581d 4b3f 8216 853f
00000120: 45e0 723f 304b 7b3f 5c92 813f 179f 7c3f
00000130: 7411 5b3f 8c18 803f a2fa 7b3f 7a2a 883f
00000140: a53b 8b3f f496 7c3f 13f8 773f 709f 7d3f
00000150: cad3 823f 2328 863f 501b 813f 4df9 793f
00000160: 2915 863f acd3 813f ff0d 7f3f c0f4 883f
00000170: a2b3 813f c51d 843f 3c91 813f 8da9 813f
00000180: 93b8 853f 2f80 8d3f 03f4 7e3f d7ca 673f
00000190: 1e07 7c3f 738d 8a3f d72b 813f 5e15 723f
000001a0: 22f8 813f f185 833f 575c 833f 06e7 873f
000001b0: dceb 643f 0d21 803f 5af1 863f c019 843f
000001c0: 952b 863f e455 873f 90bf 833f fbd8 8a3f
000001d0: 5b97 7b3f e7fa 7f3f 6b65 843f 86b2 853f
000001e0: 157f 863f 92f7 813f 80a7 803f e68c 823f
000001f0: bec3 7d3f 6bf3 7b3f 37b7 803f a174 7b3f
1.0795908 0.97321606 1.0487802 0.98315895 1.0329003 1.0639243 0.9602836 1.0048383
1.053667 1.0103836 1.0294558 1.0194726 0.99519855 0.99630266 0.94655406 1.0776767
0.9656953 1.0198063 1.088393 1.0572294 1.0180097 1.022643 0.9638211 1.0308033
0.90711725 1.0500861 1.010488 1.0272925 1.0581583 1.0600938 0.96276766 0.95045936
0.9986987 0.9820624 0.97183424 1.0201762 1.0537684 1.0558407 0.9855495 1.057723
1.0088933 1.023234 1.0493684 1.0000002 1.0083963 1.0611019 0.993246 0.98675877
0.9816502 1.040719 1.0096146 1.0370225 0.98408383 1.0524489 1.0406395 1.0078244
0.9857461 1.0409801 1.0328391 1.0537149 1.0227818 0.9935508 0.95273465 1.0294994
1.020934 1.0069321 1.0505092 1.0095427 1.0530312 1.0372881 0.7934165 1.0397494
0.9487346 0.981616 1.012279 0.9868025 0.85573506 1.0007491 0.9842931 1.0637963
1.0877577 0.98667836 0.96862906 0.9907141 1.0220883 1.0480999 1.008646 0.9764603
1.0475208 1.0142722 0.9963073 1.0699692 1.0132945 1.0321585 1.0122447 1.0129868
1.0446953 1.1054744 0.9959108 0.90543884 0.9844836 1.0824417 1.0091504 0.94563854
1.0153849 1.0275251 1.0262555 1.0617378 0.8942239 1.0010086 1.0542405 1.0320358
1.048205 1.0573087 1.0292835 1.0847467 0.98277825 0.9999222 1.034345 1.0445106
1.0507532 1.0153677 1.0051117 1.0199249 0.99126804 0.984183 1.0055913 0.98224837
