PointPillarUpgrades/output_20251129_162558/pointpillars_ModelNet10.pth (torch, 663206 bytes, 40 tensors)

pfn.blocks.0.fc.weight f4 [64, 8]
00000000: 76f1 813e 01fe 853e e01f f8bd 94d3 3f3e
00000010: 03ae c2bd 40f1 d83d 4e01 0dbe de2e 643e
00000020: 4c49 9f3e 0f98 90be 2c32 a53e 8f7f 29bd
00000030: a8c5 b23d 4fa4 523d 85c5 d53d 0c65 26bd
00000040: 9805 7e3e 2501 2d3d eb19 4ebe f778 f73d
00000050: ac7f e6bd 1d75 1b3d dfe2 a6bd 8945 683e
00000060: bdfb 89be 1ab0 d9bd d724 98bd 25ef 3cbe
00000070: 0165 6d3d 1674 a7be 60ed 713e fa4e 84be
00000080: 6e28 8f3e 5bf9 453d a5e2 00be 7d8e 733e
00000090: d8bc 353d 3bea 873e 1798 aa3d 2275 0cbe
000000a0: 3481 733d a745 07be ff73 3c3e 518a 133e
000000b0: 6364 9c3d 9b37 dcbd cb97 ee3d 3c7e 6b3d
000000c0: 6c8e 3a3e 845e 44be c51f afbe ff0e 9abd
000000d0: f9b1 9ebd 25ab 963e 8fb5 0e3e 3888 b93d
000000e0: 8daa b53d c1b0 153c ccb3 c63e 00e8 1abe
000000f0: e152 763d 08ee 11be 3f97 8a3d 7d2b 9dbd
00000100: 3270 b23d b4f6 74bd dc16 b73e 992f 39be
00000110: 66c1 51be e44e 14be 86cd 643e 14e6 f53d
00000120: 86fc 993e b4b1 abbe 2e88 a0be f070 26be
00000130: 3d4b bebd 1213 713e 1d5f 2e3e 4918 703e
00000140: ef13 05be a69b 78be fb88 4c3e 8270 dcbd
00000150: a070 943d 2b41 e0ba e0e6 e63d 4831 85be
00000160: b5b7 37be b984 e23d b383 813d 8d4d 3bbd
00000170: f626 783e c92d 523e 1ee4 5dbe 7edd 60be
00000180: 69c8 a93e aca2 a4bd 8d70 14be c874 20be
00000190: 387d c6bd 5bfc a53d 7261 483c b4dc 7bbe
000001a0: 6dd2 373d 393f 0ebe 510b c8be 0256 59be
000001b0: 8a26 74be 2e80 7dbe a1a5 9b3e 1ff8 c83b
000001c0: 266e e63d ee3b 83be 8904 89be 3749 a0bd
000001d0: 11da f33c 651b 9bbe 8932 4dbe 541b 4fbe
000001e0: ce69 b739 f9e0 5cbd 2379 b73b 332b 47be
000001f0: 4578 6fbe fe8d 81be 0efd 21be da67 65be
00000200: 536f 973e 3bde 87bd c2c5 ad3e cf4e 7d3d
00000210: 8e8c 92be f290 883e 847b efbd 981b cbbd
00000220: aa37 8bbe 4a4f a6be 2d83 e93d 886d ebbd
00000230: 7e87 ff3d 16b1 a6be eba6 3c3e effa 73be
00000240: 0fa3 90bd e542 643d 8bc7 3d3e c1f1 323e
00000250: 9b35 0c3e bae2 8cbe 037e aa3d ba20 49be
00000260: 00a7 34bd 3aeb 71be 969a aa3e d822 23be
00000270: cd58 f03d b095 d13d 91b7 b53d 1064 80be
00000280: d604 b83e cd8e 3d3d 7534 9c3d ce6f 82be
00000290: cf8c 563d e622 11bd b2ff febd 7c6f 863e
000002a0: 9ed1 1c3c 5578 5bbe d006 25be 9871 9f3b
000002b0: a8dc 443e 2100 333c e4b1 18be c9ab 12be
000002c0: 0458 51be 5eec 093e a774 a93e 5920 50be
000002d0: 7cb3 1a3e e6af 7e3e 5d74 503d f827 d9bd
000002e0: ad0a 003e 7388 433e 1dd6 183e 5647 96bd
000002f0: bd55 78bd 408a 4e3d ddd7 1cbd 5a7a 80bc
00000300: 2107 423e 3bbe 993e 2144 9f3d 4bc8 833c
00000310: cd73 813d bd32 733d cc9d 1b3e 01e8 ef3d
00000320: 210d 8abe e22e b8bd d7c4 ae3e 0239 d83d
00000330: 48b2 883c a890 14be b2f7 69be 29e3 95be
00000340: b2fa 83bd 6617 743d d3f4 a73e 42f0 3b3e
00000350: b45f 73be bc86 10be 00bc cebd 5a09 973e
00000360: 252a aa3b 8b5b c3bc ccf1 753e 6fcf 39bc
00000370: 9676 febd 8e5e a73e aa03 40be 39d2 8dbc
00000380: 5bac 9dbe 037b 5d3e 8896 9e3e 8fda f33b
00000390: 2d5f 64be ab13 acbe c36a 8abe 5c1e 723e
000003a0: 06f1 eb3d 33ae ad3e 0646 473e 5972 283d
000003b0: 93cb 60bd 5536 91be a183 66be 1d40 b1be
000003c0: da44 3e3e 6fc5 07be f63d 18bd 475c 2cbe
000003d0: e6bf 0a3d df75 59be 509d 61be 512c c73d
000003e0: 5ce9 cabd b8ed 563e 01ec eabd 587f debd
000003f0: 167d de3b 3bfd b0bd 7d41 94bd 2f42 8fbe
0.25379533 0.26170352 -0.12115455 0.18733054 -0.09505846 0.1059289 -0.13770029 0.22283503
0.3111061 -0.28241012 0.3226484 -0.041381415 0.08729106 0.051426228 0.104380645 -0.04062371
0.24806821 0.04223742 -0.20127074 0.12083619 -0.1125482 0.037953485 -0.08148741 0.22682776
-0.26949874 -0.10629292 -0.07428902 -0.18450601 0.057957653 -0.32705754 0.23625708 -0.25841504
0.27960533 0.048333507 -0.12586458 0.23784824 0.04436955 0.2654589 0.0832979 -0.13716558
0.05944939 -0.13210164 0.18403624 0.14408232 0.07636335 -0.107527934 0.11650046 0.057493433
0.18218392 -0.1917668 -0.34203926 -0.075223915 -0.07748789 0.29427448 0.13936447 0.09059185
0.088704206 0.00913638 0.3880905 -0.15127563 0.060137633 -0.14250958 0.06767129 -0.0767431
0.08712806 -0.059805587 0.35759628 -0.18084563 -0.20483932 -0.1448322 0.22344026 0.120067745
0.30075473 -0.33534014 -0.31353897 -0.1625402 -0.09291694 0.23542431 0.1702847 0.23446764
-0.12995885 -0.24278125 0.19974129 -0.10763647 0.07248044 -0.0017109265 0.11274505 -0.2601416
-0.17941172 0.11060471 0.06323948 -0.045728255 0.24233612 0.20525278 -0.21669051 -0.21959493
0.33160713 -0.0803884 -0.1449606 -0.15669549 -0.09691852 0.081047736 0.012230264 -0.2459591
0.044878412 -0.13891305 -0.39071134 -0.21224216 -0.23842826 -0.24755928 0.30399802 0.006133094
0.11251478 -0.2563166 -0.26761273 -0.078264646 0.029767068 -0.30294338 -0.20038809 -0.20225269
0.0003498331 -0.05392549 0.0055991574 -0.19450073 -0.23385723 -0.25303644 -0.15819189 -0.22402897
0.2957712 -0.06634184 0.3393994 0.061842736 -0.2862286 0.26673084 -0.116934806 -0.099173725
-0.27190906 -0.32482368 0.11401973 -0.11495501 0.12477015 -0.3255698 0.18423049 -0.23826192
-0.07062351 0.055727858 0.18533151 0.17475034 0.13692324 -0.2751673 0.08324816 -0.1964139
-0.044104576 -0.23624888 0.33321065 -0.1593126 0.117356874 0.10233629 0.08872903 -0.25076342
0.3594119 0.046278764 0.07627193 -0.25475925 0.05238038 -0.035433672 -0.12451114 0.2625693
0.009571461 -0.21432622 -0.1611588 0.0048658364 0.19224799 0.010925324 -0.1491161 -0.14323343
-0.20443732 0.13469073 0.3309681 -0.2032484 0.1510753 0.24871787 0.050892223 -0.106033266
0.12504072 0.1909502 0.14925428 -0.07337825 -0.06062864 0.050424814 -0.0382918 -0.015683342
0.18948032 0.30027947 0.077766664 0.016086718 0.06320915 0.05937456 0.15196913 0.11714173
-0.26963142 -0.08993317 0.34134552 0.105577484 0.016686574 -0.14508307 -0.22848395 -0.29274872
-0.06444301 0.059592627 0.32803974 0.1835337 -0.23766977 -0.14113897 -0.10094452 0.29499322
0.0051930123 -0.023847362 0.2401802 -0.01134096 -0.12424962 0.32689327 -0.18751398 -0.017312156
-0.3079556 0.21628956 0.3097422 0.0074418257 -0.22301932 -0.33608755 -0.27034578 0.23644394
0.11520581 0.33921966 0.19460306 0.041124675 -0.054881644 -0.28361765 -0.2251115 -0.34619227
0.18580952 -0.13258909 -0.037168466 -0.16832076 0.033874415 -0.2123637 -0.22032666 0.097252496
-0.09907791 0.2098912 -0.114707954 -0.10864133 0.0067898137 -0.0864205 -0.072390534 -0.27980182

pfn.blocks.0.bn.weight f4 [64]
00000000: 8085 733f 0c8c 863f 535d 7b3f 76ab 693f
00000010: 20f7 7a3f a105 813f bbdf 733f 3ab2 883f
00000020: 5487 833f da83 7b3f 8445 713f 3d67 763f
00000030: be63 7a3f f68a 783f cad5 6f3f 9aaf 6a3f
00000040: e85f 873f 55b8 713f 68ea 783f 7b60 753f
00000050: 8093 813f a13f 7b3f 3492 833f c52f 763f
00000060: ddb0 773f 5c71 6e3f 79eb 803f 4ce7 833f
00000070: e99b 743f 9849 813f be10 6f3f 6f76 743f
00000080: 4d8c 853f 191d 7b3f 09f7 813f 8d12 7e3f
00000090: b4e6 7d3f 28e7 843f 4232 803f ebbb 833f
000000a0: 1d27 783f d930 7c3f b26d 7d3f 507a 7c3f
000000b0: 30a5 783f 1936 7c3f 9e01 7c3f 9d63 803f
000000c0: 209f 783f a380 713f b353 753f 98e7 813f
000000d0: 809b 843f 70cf 7b3f 5099 833f 224d 763f
000000e0: 6df8 7a3f f0d0 743f 6635 803f e8d5 753f
000000f0: 2f57 7f3f 30bc 7f3f ee87 6e3f c9ad 703f
0.9512558 1.0511489 0.98189276 0.91277254 0.9803333 1.0079843 0.9526326 1.067939
1.0275674 0.98248065 0.942467 0.9625128 0.97808444 0.9708704 0.9368559 0.91674197
1.0576143 0.94421893 0.97232676 0.9585034 1.0123138 0.98143965 1.0278993 0.9616664
0.96754247 0.9314172 1.007186 1.0304961 0.955504 1.0100584 0.9338492 0.95493215
1.0433441 0.98091274 1.0153514 0.99247056 0.9918015 1.0383043 1.0015337 1.0291723
0.9693468 0.98512036 0.98995507 0.98624134 0.97127056 0.98520046 0.9843997 1.00304
0.97117805 0.9433691 0.9583084 1.0148802 1.0359955 0.983634 1.0281162 0.96211445
0.9803532 0.95631313 1.0016296 0.9602952 0.99742407 0.99896526 0.9317616 0.94015175

pfn.blocks.0.bn.bias f4 [64]
00000000: d8d9 183d 0e2f 9cbc 0f7a e53c 78f9 8dbc
00000010: 1a50 91bc bdfd 25bd 333e d03b 8155 17be
00000020: 31ed b6bd 57c5 fa3d 6ece b9bd ed04 8f3d
00000030: 3eb4 7a3c 9656 c9bd 7014 c7bd ab0c acbd
00000040: 940e 7cbd cc68 013c 4320 2abd e596 ccbd
00000050: 6b9a 133e 7d38 16bc 0615 9fbd dae4 bc3c
00000060: 3008 74bd 6469 2c3d 4af2 d2bc f501 14bd
00000070: 4bae 033e 622d 85bd 9dc5 38bd 266b c73d
00000080: cbed fbba aa28 04be 47df 10be 18e4 c33d
00000090: 3d21 823b f2af debc 93c6 5d3d 2aee a1bd
000000a0: 6fde 8ebc 7c6c 1e3e 14d5 0ebc 413c b03d
000000b0: 9edc 12be be6b f8bc 2d78 223e a060 903b
000000c0: 1e83 61bd 6879 83bb 4c31 823c ad2a 0f3e
000000d0: 63da 24be 3389 813c 5d2f f0bd 4bb1 17bd
000000e0: 2105 d13d ef25 c0bd a9ff acbc b6e2 02be
000000f0: 532e cebd 286f d7bd a6d7 243d fb06 e6bd
0.037317127 -0.019065406 0.028012304 -0.01733087 -0.01773839 -0.040525187 0.006355071 -0.14778711
-0.089319594 0.12244671 -0.090725765 0.069833614 0.015301762 -0.09830968 -0.09720695 -0.08400854
-0.06153734 0.007898521 -0.041534673 -0.09989718 0.14414375 -0.009168741 -0.07767682 0.023058344
-0.05957812 0.042092696 -0.025750298 -0.03613468 0.12859456 -0.06502797 -0.045110334 0.09737234
-0.0019220648 -0.12906137 -0.14147674 0.0956499 0.0039712475 -0.027183507 0.054144453 -0.07906754
-0.017440049 0.15471071 -0.008717794 0.086052425 -0.14341971 -0.030324813 0.15866156 0.00440605
-0.055056684 -0.0040122755 0.015892647 0.13981123 -0.16098933 0.015812492 -0.11727784 -0.037034314
0.102060564 -0.09382235 -0.021118002 -0.12781796 -0.100674294 -0.10519248 0.04024472 -0.112318

pfn.blocks.0.bn.running_mean f4 [64]
00000000: f1ff 6533 5bf1 09b4 11aa 1533 f417 c8b2
00000010: a43b 81b2 23a2 94b3 929d 79b1 0336 b2b3
00000020: 057c f1b3 6df7 20b3 a7e7 97b3 1ba4 6533
00000030: caf5 94b2 3bce 2bb2 afbf 3f33 a764 b532
00000040: df8c 8fb3 0675 8eb3 24b4 20b3 47a5 ccb3
00000050: 98ee 41b2 8089 f932 3d2c 13b3 c088 06b2
00000060: 0fb2 cbb2 7563 97b1 3ee0 afb2 f9bc e9b1
00000070: 307f 5733 0644 0533 d8b9 a732 f9a8 7e33
00000080: b656 06b4 fee6 98b2 84e5 b5b3 76f4 7433
00000090: 84ca 85b3 7bf3 7733 1bdb a232 1796 dbb2
000000a0: 651c 8032 ec6d 81b3 1f86 9533 3f67 8ab3
000000b0: fa00 dc33 bb78 1c33 2ecc b232 1138 82b3
000000c0: deb3 ae33 1158 32b3 e172 9133 a590 aeb1
000000d0: bf15 f633 4429 4bb3 9efc d633 a743 8f33
000000e0: 278b 83b3 42d5 e4b1 6865 ebb1 dd7e 2633
000000f0: 400f 3c2e ea85 80b2 27ae fd32 e9f5 2533
5.3550995e-08 -1.2846924e-07 3.484644e-08 -2.3293957e-08 -1.5044698e-08 -6.9212795e-08 -3.6323837e-09 -8.2985956e-08
-1.1244996e-07 -3.7477935e-08 -7.073623e-08 5.346747e-08 -1.734124e-08 -1.0000401e-08 4.4644988e-08 2.1116945e-08
-6.684581e-08 -6.633677e-08 -3.741674e-08 -9.529554e-08 -1.12883285e-08 2.9049943e-08 -3.426634e-08 -7.83092e-09
-2.3713282e-08 -4.4059854e-09 -2.0474655e-08 -6.802676e-09 5.0174265e-08 3.1028343e-08 1.952587e-08 5.9292663e-08
-1.2511268e-07 -1.7800172e-08 -8.470218e-08 5.7033013e-08 -6.2301325e-08 5.7730613e-08 1.895892e-08 -2.5563208e-08
1.4914074e-08 -6.027025e-08 6.96275e-08 -6.444906e-08 1.0244726e-07 3.6431384e-08 2.0814777e-08 -6.063795e-08
8.135224e-08 -4.152395e-08 6.772985e-08 -5.0805107e-09 1.1459223e-07 -4.730215e-08 1.0011102e-07 6.671262e-08
-6.1254745e-08 -6.659918e-09 -6.8509287e-09 3.876527e-08 4.2759796e-11 -1.4962058e-08 2.9532272e-08 3.864071e-08

pfn.blocks.0.bn.running_var f4 [64]
00000000: 3d16 e136 65d9 3937 b797 6036 40fb 6f36
00000010: d0fd 4d36 8f93 1036 d7ec 0e37 1b3b be36
00000020: d209 a136 c664 8037 597d af36 65bf 1136
00000030: 2fb3 a036 5b64 0837 7319 1237 264e 9d34
00000040: 3fb0 f636 577e 1e37 b770 e535 947c e936
00000050: e08c 9336 3e37 9936 f7fe f936 0914 8d36
00000060: b2b0 0237 71bf db36 f7eb 9636 7831 2536
00000070: cee4 2d37 edf3 2f37 e14e 2736 3d47 6a36
00000080: b252 d236 5bbc fe36 44da 4e37 46aa 5a36
00000090: 6d7e 6f36 d516 4736 6447 1937 f061 3437
000000a0: 2ff8 8b36 c3ee 9336 b600 4f36 cf93 1037
000000b0: 93ff 0937 5d33 f736 de20 ed36 3832 e836
000000c0: c819 1a37 a7b4 7d36 1000 8336 a770 2436
000000d0: bd4e a136 be31 4636 3de6 ca36 efee 9a36
000000e0: 84b6 0037 506d e736 6921 f036 4ff3 7136
000000f0: e348 9e36 9466 6937 9cb8 f636 0ba6 b536
6.7081114e-06 1.1077475e-05 3.346691e-06 3.5760022e-06 3.0695119e-06 2.1543563e-06 8.519003e-06 5.669322e-06
4.799317e-06 1.5305715e-05 5.229999e-06 2.171809e-06 4.7892313e-06 8.1295975e-06 8.7082035e-06 2.930039e-07
7.351889e-06 9.44695e-06 1.7094634e-06 6.958444e-06 4.3973414e-06 4.5661864e-06 7.45046e-06 4.20446e-06
7.789744e-06 6.5489953e-06 4.4978183e-06 2.461571e-06 1.0364876e-05 1.0487606e-05 2.4930853e-06 3.4910183e-06
6.2681147e-06 7.5917173e-06 1.2329376e-05 3.2583644e-06 3.5687365e-06 2.96666e-06 9.136133e-06 1.0751639e-05
4.171415e-06 4.408737e-06 3.0845817e-06 8.617483e-06 8.225342e-06 7.367153e-06 7.0669767e-06 6.919985e-06
9.185118e-06 3.7805091e-06 3.9041115e-06 2.4503477e-06 4.8073402e-06 2.9533253e-06 6.0468724e-06 4.617373e-06
7.67189e-06 6.897062e-06 7.156447e-06 3.6053423e-06 4.717252e-06 1.3911766e-05 7.3528627e-06 5.4135503e-06

pfn.blocks.0.proj.weight f4 [64, 8]
00000000: 6089 5d3d 5207 1dbe 0600 c9bd a771 f839
00000010: ae59 783a 8c7d 06bd 6a34 bc3b 1e93 aa3b
00000020: a585 72bb 2307 f83d 67f0 38bc 6ad2 b2bb
00000030: 29b0 a0bb d939 23bd 917c d7bb 9a0a 37b9
00000040: 7aa7 ea3c e607 9738 4af3 173d 7ff5 063a
00000050: 46c8 fbba d2ab a13c 5ff9 043b 5e0b a6ba
00000060: a36e 98bd 0b4b 9b3c 9307 63bd 431b f0b9
00000070: 1cd7 ec39 c100 633c 8b74 66ba fcac 633b
00000080: daaf f53d 2c94 b23c 1691 783d 9c82 af3b
00000090: 213e 023b 681f 29bc c7a5 05bb 39c5 1dbc
000000a0: d6ca 61bd eded 843d f8ec d7bc 9595 dab9
000000b0: 94a3 0cb7 4ee7 753c 9b87 3c38 69a4 293c
000000c0: 12ae b63d d553 283e 62d6 483d 6096 6cba
000000d0: 6503 863a f226 9f3c dfdf f53a a123 9a39
000000e0: 63d6 40be fa8d 51be 0f73 20bd ddd9 40bb
000000f0: 972c 98bb 20cf 483d 49d2 5f3c c679 1abc
00000100: 0b0c 41bd ec47 d23d 888c 3cbd 105b bfbb
00000110: 876e 9bbb fb03 0cbb fcf8 8c3b 9755 f3ba
00000120: 618c cb3b 804e 3f3d d9ca 33bd ed26 b1ba
00000130: 4141 88bb daa9 d13c 4b43 8e3b 59de ac3b
00000140: 804a a8bd 93b0 da3b b598 9abd e002 c6ba
00000150: 97a2 c1bb 4697 1abc 0065 e0bb de5e d9ba
00000160: 2552 9dbd 0c59 ed3d 1d8c 36be 22f1 b03b
00000170: fec6 d83b e5d1 48bd 17d6 743b b780 2cbc
00000180: 654d 9b3d f185 1f3e adbe 9e3d 5f14 f339
00000190: 5e25 39ba cb59 993c cc7f ccba ba88 4cbc
000001a0: 2d64 0f3d 7870 9ebd adf5 8cbd 9430 b8ba
000001b0: e986 1abb 9e47 86bb 7ee1 3dbc 4f97 67bb
000001c0: 2c03 083c 34fd 3fbd 3dc2 0d3a ea4a 9439
000001d0: fcfc f8ba a985 553b 3295 0cbc 3d23 903b
000001e0: e361 a13d 6fdd 463e f1d2 08bd 713d 12ba
000001f0: a72e edba 07af bebb 7388 be39 ce44 873a
00000200: e87a 753d 0699 47be 9f20 483e 2980 b9bb
00000210: 5857 9abb 5ad9 2cbb d3a6 903b 70a6 ebbb
00000220: 7440 ccba 440d 14bd b5f5 d33d db31 98ba
00000230: 5c0e 0a3b 3089 33bb 2ac9 b33b 50aa b73b
00000240: 9ceb e7bc fdda f3bd 7c0d cebc 29aa b9ba
00000250: 6687 20bb d4b7 adbb c730 f3ba 4823 86bc
00000260: 1c96 0d3d 4ce0 f73c 9472 7b3d f732 073b
00000270: c439 edba ae49 3fbc 5659 953a 720c 60bb
00000280: 381d 213e 7180 883d 01f6 e3bd 28cb 02bb
00000290: 9601 0c3a b19c 003c 06d1 85bb 1f57 0fbc
000002a0: 4fb7 863d 793a 813c a534 9ebd 15fb 20ba
000002b0: 8ba0 5ebb 29c4 fa3c c052 64bb 8e5f c93a
000002c0: bb6c 13be 03ca 91bd 9d43 bd3d 03f5 633b
000002d0: 4a59 9a3a 7416 2e3d aa6b b13b affe 1dbc
000002e0: b18a 923d 2fef b63d 8dc3 c8bd ee31 eab8
000002f0: 6b01 04b9 4ae7 bf3b d34c 603b cac0 433b
00000300: 8c00 0e3d 8eaa e1bd 79c8 9e3d 9b7e 063b
00000310: 8923 bd3a 2584 103b 94d2 eb3b 309a 683b
00000320: f1e3 a83d c498 0ebe c9f3 dc3d 13a7 393a
00000330: f977 ac3a 1574 c4bb a14a 19bc dfd3 923b
00000340: b1ae 83bc 1d33 a23d 781b b13d 6b1e 9f3a
00000350: 39fd 6bbb c40b a03b 012f f1ba 39cb 05bc
00000360: c64c 2cbe 7aa0 adbd 65c6 e03d ec84 4f3a
00000370: 5785 9dba 715d cb3c cc51 273c e8e6 8abb
00000380: f085 82bd 5cd5 c6bd 5380 b63d 0484 163a
00000390: 45c0 3aba 69cc c5bb 9f7b 1cbb e5e1 513a
000003a0: 65c9 f2bd a032 babd c78c e23d e82f f7ba
000003b0: b12a 2abb 67e2 dbbc 5d6d 32bb f256 61bb
000003c0: b4ed 14bd 912a 233c 00e1 0c3e cfa8 91ba
000003d0: 71a8 3b3b 43d1 9a3b 6728 d73b fd0e 7e3a
000003e0: d905 a6bd ae8d 86bd da9f e4bb f947 e43a
000003f0: a5c7 8fba 4abe a03c 60e9 bf3a 982d 1a3b
0.05408609 -0.15334824 -0.098144576 0.00047386924 0.00094738125 -0.032834575 0.005743553 0.005205526
-0.0037005928 0.12110736 -0.011287785 -0.005457212 -0.0049038124 -0.03985009 -0.006576129 -0.0001745619
0.028644312 7.201712e-05 0.037097253 0.0005148276 -0.0019209466 0.01973525 0.0020290238 -0.0012668183
-0.07442977 0.018956682 -0.055427145 -0.0004579668 0.00045173697 0.01385516 -0.000879117 0.0034740558
0.11996432 0.02179917 0.06068524 0.005356146 0.0019873457 -0.010322429 -0.0020393 -0.009629541
-0.05512508 0.06490693 -0.026358113 -0.00041691647 -8.382736e-06 0.015008761 4.4948985e-05 0.01035414
0.0891992 0.1643823 0.049032576 -0.0009025093 0.00102244 0.01942775 0.0018758735 0.00029399715
-0.18831782 -0.20464316 -0.03917223 -0.0029426732 -0.0046439874 0.049025655 0.013660976 -0.009428447
-0.047130626 0.10267624 -0.04603246 -0.005839713 -0.0047434005 -0.0021364677 0.004302142 -0.0018564936
0.006211803 0.046705723 -0.043894622 -0.0013515629 -0.0041581695 0.025593687 0.004341518 0.0052755293
-0.08217335 0.0066738813 -0.07548658 -0.0015107058 -0.005909275 -0.00943548 -0.0068479776 -0.0016584059
-0.076816835 0.1158925 -0.17826886 0.005399839 0.0066155186 -0.049028296 0.0037359053 -0.010528735
0.07583121 0.15578438 0.07751212 0.0004636375 -0.0007062758 0.018719574 -0.0015602051 -0.01248377
0.035007644 -0.077362955 -0.068827964 -0.0014052563 -0.0023578948 -0.004097893 -0.011589406 -0.003533799
0.0083015375 -0.046872333 0.0005407667 0.00028284575 -0.0018996294 0.0032580888 -0.008580493 0.004398732
0.078799985 0.19420408 -0.033404294 -0.00055786135 -0.0018095569 -0.0058192047 0.00036341287 0.0010320188
0.059931666 -0.19491968 0.19543694 -0.00566103 -0.004710119 -0.0026374669 0.0044144182 -0.0071914718
-0.0015583173 -0.036145464 0.10349599 -0.0011611538 0.0021065688 -0.0027395003 0.005486627 0.0056050196
-0.02831059 -0.11907003 -0.025152914 -0.0014165092 -0.0024494766 -0.005301455 -0.0018553965 -0.016374245
0.034566984 0.03025832 0.061388567 0.0020629743 -0.001809888 -0.011675281 0.0011394422 -0.0034187105
0.15733802 0.06665123 -0.11130906 -0.0019957516 0.00053408125 0.007849858 -0.0040837554 -0.008748799
0.06577932 0.015774952 -0.07724885 -0.000614093 -0.0033970203 0.030611115 -0.0034839362 0.001536356
-0.14396946 -0.07118609 0.09241412 0.003478349 0.0011775878 0.04250188 0.005414446 -0.009643241
0.071553595 0.089323394 -0.09802923 -0.000111672896 -0.00012589029 0.005856429 0.0034225478 0.002986955
0.03466849 -0.11018859 0.07753081 0.002052224 0.0014430146 0.002205142 0.0071967337 0.0035492294
0.082466014 -0.13925463 0.10788686 0.0007082086 0.0013158313 -0.0059952834 -0.009356172 0.0044808234
-0.01607451 0.07919905 0.086478174 0.0012139803 -0.0036009087 0.004884215 -0.0018400849 -0.008166128
-0.16826162 -0.08477874 0.10975341 0.000791623 -0.0012017888 0.02482483 0.010212373 -0.004238952
-0.06373203 -0.09708664 0.08911195 0.0005741718 -0.00071239873 -0.0060363305 -0.0023877395 0.0008006378
-0.11854819 -0.09091687 0.110620074 -0.0018858882 -0.0025965387 -0.026841355 -0.002722583 -0.0034384099
-0.036359504 0.009958879 0.13757706 -0.0011112931 0.0028634334 0.004724653 0.0065660956 0.00096915645
-0.08106584 -0.06569992 -0.0069770636 0.0017416469 -0.0010969533 0.019621987 0.0014641695 0.002352571

backbone.conv1.weight f4 [32, 64, 3, 3]
00000000: d880 0e3c 41e6 17bc d7f3 32bc 5133 2ebd
00000010: 60f2 1abd 4ce6 b73b f01a 0abc 02f7 a93c
00000020: f897 35bd 8edd 60bd b80a 73bc 73b1 a33d
00000030: dca1 c53c 36cb 47bd e772 4ebc 8107 d1bc
00000040: 1ae8 c5bc df4b 063d d225 c2bc 3ca4 523c
00000050: ae58 7ebc ae0d 18bd 6965 13bd 4ef9 a43c
00000060: 0559 d7bc a83b d73a 2952 1c3d 28b4 ffbc
00000070: 792d 8ebd 046f 67bd 794e 703d 9e1e a6bc
00000080: b9ee 4fbc 304e 08bd fe1d 12bd 0747 f4bc
00000090: 0d53 4fbd 1103 d63c 4915 093d fbba 9a3c
000000a0: 2881 8bbd c71e 093d 5480 60bd 21c9 603d
000000b0: cc5a ea3c b235 e63b 49b1 e03b 7fb6 653d
000000c0: 5da5 cbbb 894e fc38 5faa 74bc e2eb dbba
000000d0: 8a0b 71bb a9ea a7bc c7ce 91bd f38a 00bd
000000e0: f825 0bbc c63c aa3c d78d 7cbd 5d24 84bd
000000f0: 593d 91bb d5fb bb3c bc07 663d a8e7 5b3b
00000100: deac 21bd b495 14bd e06a 96bc c57c ba3c
00000110: 232e 89bb 95b6 ffbb b8c5 193d 5604 3abd
00000120: a784 3dbd c296 693c 5dcf ce3c ff22 7abc
00000130: fedd cdbc 45ca 4b3d ebb9 4abd af63 373d
00000140: 7399 8dbd 1f70 46bc d537 06bc 6825 163d
00000150: 58bf b93c 5f44 c2bc 5181 20bd 3772 45bd
00000160: 59a0 28bc 6d14 573d 2c9f 53bd 1391 f8bc
00000170: a5ee 38ba aba7 f33c b2e9 b33b cda9 30bd
00000180: 0373 09bd 1479 6fbd ed95 2d3b 5191 1bbc
00000190: 7601 6d3c 3472 03bd b0ab 3c3d 2c26 1d3d
000001a0: 1a72 2f3d 84c6 b7bc ecec 42bd 78f8 0f3d
000001b0: 0d9d f0bc 5cf3 03bd b3d6 943d 12df 8e39
000001c0: c7fe 3dbd 16be 123d 735d 4cbd 691c 92bc
000001d0: 7901 183d 56d0 58bd 3f0c d5bc 14f2 03bd
000001e0: 9eaf 933c a949 30bd 9d7b 82bd 0bab 48bd
000001f0: c04a b03b 9af8 b23c 5539 93bd e32c 883b
00000200: 5089 e83c c0ea f33c 609f 45bd 4643 f3bc
00000210: 613f 093d 7fb2 fe3c d042 0dbc ef2b 70bb
00000220: 167b b0bc 32d0 063d 5ed9 083d 8a2a 483c
00000230: a66f 88bd 6057 093d 6629 5ebc 5abf 533c
00000240: 1273 61bd dd0d afbc ed7c 9a3c b6c1 43bd
00000250: 8751 97bc 588d 033d d881 1d3c 969d 173d
00000260: f73a e43b 3284 cebc e37f 80bc cad9 e5bb
00000270: ff80 2a3c 013d 6fbc 6b2c bbbd 316d 24bd
00000280: 7902 c4bc c4f3 32bc 3197 a1bb 8411 b1bc
00000290: b2c2 623a af31 833c dc39 c2bb 8fe5 1d3d
000002a0: 520d f43b a39f d2bc 9fec a9bd c776 98bd
000002b0: e2ed 6cbd 394e 493c 12b0 37bc 8e0c b4bc
000002c0: 9c8c 38bd 82fd f0bc 1f47 90bc a04a d63c
000002d0: 4583 2abd bbb3 ccbc fb48 d63c 86d1 b1bc
000002e0: dd9c e6bb d8da 6a3d a533 bf3b 1323 f53b
000002f0: 89bd 113d abd4 57bc 83c4 4ebd dd80 393d
00000300: 182b 883d 4acc e1bc 2ca2 01bc 80d2 87bc
00000310: ea7d 12bd cf54 143d da24 fb3b 9c6a 2abd
00000320: 00cb 383c f68a 2abd 5386 233d 2ff9 5c3d
00000330: 3980 a1bc f63c 02bd c9f7 c0bc 70d2 95b9
00000340: cdc5 d73b 2958 3abd 27eb b23a 3e22 ecbc
00000350: 80c6 1a3d 77b7 5ebc 232c 3c3d c0ec b7bc
00000360: 0f91 d9bc c0c4 e4bb c3c4 4fbd 235f c9bc
00000370: 5e85 26ba 1fac 5d3d 43a2 83bd 8984 063d
00000380: 00de 83bd 3108 a9bc 25e5 07bd 144f 20bd
00000390: 6ce6 1ebc e75d 443a ea51 f6bc e64b eb3b
000003a0: 4b1e 23bd bb4d 533c 95c3 41ba 9e1a 55bd
000003b0: 8ced cb3c 5a08 0f3c 7e7f c1bc 50d9 56bc
000003c0: d1ad 363c e154 0d3d 45d4 95bd 1a5e 6ebc
000003d0: 3758 06bd 3c66 4fbc f292 65bd ea7e 443c
000003e0: e1a5 9b39 9084 86bc 5fae 02bd b3de 6ebc
000003f0: 1522 323d 6efe e63b 7d62 78bb 26ad 033d
0.008697711 -0.009271205 -0.010922394 -0.042529408 -0.037828803 0.0056121703 -0.008429274 0.020747665
-0.04433438 -0.05489879 -0.0148340985 0.0799283 0.024125032 -0.04877778 -0.012600637 -0.025516273
-0.024158526 0.0327872 -0.023699675 0.012856539 -0.015524073 -0.03712242 -0.035985384 0.020138409
-0.026287565 0.0016420977 0.03816429 -0.031213835 -0.06942267 -0.056502357 0.058668587 -0.020278271
-0.012691193 -0.03327769 -0.035673134 -0.029819025 -0.050616313 0.026124509 0.033467565 0.018887987
-0.06811744 0.033476617 -0.054809883 0.05487931 0.028607748 0.007025444 0.0068570715 0.056082245
-0.006214781 0.00012030925 -0.014933198 -0.0016778673 -0.003678056 -0.020497637 -0.07119518 -0.031382512
-0.008492939 0.020780932 -0.061658707 -0.06452248 -0.004432362 0.022947231 0.05615972 0.0033554826
-0.0394715 -0.03627558 -0.018361509 0.022764573 -0.004186408 -0.007803748 0.037542075 -0.04541429
-0.046269085 0.014257135 0.025245363 -0.015267133 -0.025130268 0.049753446 -0.04949371 0.0447728
-0.06914034 -0.012111693 -0.008192022 0.036656767 0.022674248 -0.023714243 -0.039185826 -0.048204627
-0.010292136 0.052509714 -0.05166547 -0.030342614 -0.0007054604 0.029743036 0.005490505 -0.043130685
-0.03355695 -0.05846508 0.0026487068 -0.009495095 0.01446568 -0.032091334 0.04606217 0.03836648
0.042833425 -0.022433527 -0.047589228 0.035149068 -0.029371763 -0.032214507 0.07267513 0.0002725055
-0.046385553 0.03582581 -0.049893808 -0.017835813 0.03711078 -0.05293306 -0.026006816 -0.032213286
0.018028077 -0.043038998 -0.063712336 -0.048991244 0.0053800046 0.021847058 -0.071886696 0.0041557415
0.028385788 0.029775023 -0.048247695 -0.029695164 0.03350771 0.031090973 -0.008621886 -0.003664728
-0.021543067 0.032913394 0.033410423 0.012217173 -0.0666192 0.033530593 -0.013559675 0.01292404
-0.05504138 -0.021368915 0.018858397 -0.04779216 -0.018471492 0.032117218 0.009613477 0.03701552
0.006965037 -0.02520952 -0.015685981 -0.007014488 0.010406732 -0.014601947 -0.091393314 -0.040143196
-0.02392696 -0.010922376 -0.0049313535 -0.021614797 0.00086502277 0.016014902 -0.0059273075 0.038549002
0.007447877 -0.025710886 -0.08297085 -0.0744453 -0.05784405 0.012286716 -0.011211412 -0.021978643
-0.04505597 -0.029417757 -0.017612038 0.02615863 -0.041629095 -0.024988046 0.026157847 -0.021706354
-0.0070377425 0.057337612 0.005835014 0.007480988 0.035581145 -0.013173263 -0.050480377 0.04528891
0.066488445 -0.027563233 -0.0079122 -0.016579866 -0.035764612 0.036213692 0.007664305 -0.041605577
0.011278868 -0.04163643 0.039923023 0.053948577 -0.019714462 -0.031796418 -0.023555653 -0.00028576283
0.006584859 -0.045494232 0.0013650403 -0.028824922 0.03778696 -0.013593546 0.04594053 -0.022451758
-0.026558427 -0.0069814622 -0.050724756 -0.024581498 -0.0006352271 0.054119226 -0.06427433 0.03284124
-0.064388275 -0.020633789 -0.033177514 -0.039137915 -0.009698492 0.0007490799 -0.030068357 0.0071806787
-0.03982381 0.01289695 -0.000739151 -0.052027337 0.024893545 0.0087300185 -0.023620363 -0.013113335
0.0111498395 0.034504775 -0.07315878 -0.014548803 -0.032798972 -0.012658652 -0.05604834 0.011993149
0.00029687493 -0.016420633 -0.031904574 -0.014579463 0.043489534 0.0070493734 -0.00379005 0.03214755

backbone.bn1.weight f4 [32]
00000000: 72d7 7d3f cb45 823f ce4f 673f 489f 7a3f
00000010: ee16 783f c746 873f 2080 7d3f 5104 783f
00000020: a407 793f f455 733f 22a2 743f b6d9 6e3f
00000030: 25d5 6f3f 94b5 723f 813f 783f deab 7d3f
00000040: 73fd 7b3f ae63 7e3f 5055 763f 6b77 703f
00000050: 07ff 753f 529e 7e3f 614b 783f 45c5 733f
00000060: 7219 703f 69fd 743f e1dc 703f a384 7d3f
00000070: 9d5f 753f 95cd 723f 144d 7c3f f194 7c3f
0.9915687 1.0177549 0.9035615 0.97899294 0.9690999 1.0568475 0.9902363 0.96881586
0.97277284 0.9505303 0.95559895 0.9330095 0.9368461 0.94808316 0.969719 0.99090374
0.9843361 0.9937085 0.96223927 0.9393222 0.96092266 0.9946033 0.9699002 0.95222884
0.93788826 0.95699173 0.94087034 0.9903051 0.9584902 0.94844943 0.9855511 0.98664767

backbone.bn1.bias f4 [32]
00000000: 2a35 d93d 1ba3 5fbc 3d96 d63c bddc d7bd
00000010: 959e 0bbe ccc9 84bd 66f4 85bd 3ecf 983c
00000020: d2a4 84bd 0add 1dbc 745f 4cbc 7c4c c4bc
00000030: 1473 bbbd c7d7 bbbd caf7 cbbb 7467 2c3d
00000040: 53a7 bd3c 5fb0 31bd f567 d83c dfc2 9a3d
00000050: 06ec 8bbc e451 533d 674b ecbd 6676 ecbd
00000060: 4b8d ecbd 8d68 1a3d 9fcc 89bd badf b3bc
00000070: 67d4 3a3c dac5 073b eefd 14bd 86e5 723d
0.10605843 -0.013649727 0.026194686 -0.10540149 -0.13634713 -0.06483802 -0.06540756 0.018653508
-0.064767495 -0.009635219 -0.01247393 -0.023962252 -0.09152809 -0.09172016 -0.006224607 0.042090848
0.023151075 -0.04338109 0.026416758 0.075567 -0.017080318 0.05159177 -0.11537819 -0.1154602
-0.11550387 0.037697364 -0.067284815 -0.021957267 0.01140318 0.0020717294 -0.03637498 0.05930092

backbone.bn1.running_mean f4 [32]
00000000: 2ac4 80bf ae81 67bf 23e7 c2bf b5ff dcbe
00000010: cad8 6bbf b3b4 0cbe a713 3bbe 477e e3bd
00000020: 0a68 30bf 9f33 e0be 692f 86be 3d0e 59be
00000030: f83d 973f a9ec 22bf 5719 77bf dc24 6ebf
00000040: 1c2b d9be 9868 79bf 31cc 18bf f3e9 9ebf
00000050: 33e2 1ebc 5a1b 1bbf c7e2 aabd 2e37 863e
00000060: e1f3 3bbf 7ed6 89bf 5705 71bf 1d02 29bf
00000070: 3a5d acbf efae cd3e f0fc 56bf 498b 82bf
-1.0059865 -0.9043225 -1.5226787 -0.4316384 -0.9212767 -0.13740806 -0.18269216 -0.1110807
-0.6890875 -0.43789384 -0.26208046 -0.21196838 1.1815786 -0.63642365 -0.9652304 -0.9302499
-0.42415702 -0.9742522 -0.5968657 -1.2415146 -0.009697485 -0.6058861 -0.083440356 0.26213974
-0.73419005 -1.0768583 -0.9414877 -0.6601885 -1.346595 0.40172526 -0.839797 -1.0198756

backbone.bn1.running_var f4 [32]
00000000: 1782 4d42 3457 4442 bfa7 8242 0771 0042
00000010: 3388 2442 36d9 c241 432c 2142 5c5f 1542
00000020: f787 1842 88d7 4a42 c621 2342 c7f0 4a42
00000030: 0f5b 2f42 3e31 0d42 c3f4 3f42 5973 1742
00000040: c75d 2342 93eb 2f42 1ed9 1f42 b529 7242
00000050: 987f 1e42 915a 1042 9984 1f42 6d60 2242
00000060: 44b7 3f42 5236 2642 094a 7242 ad69 3e42
00000070: fb3f 4642 6b7a 4d42 68a1 2742 1a5b 7442
51.37704 49.08516 65.32763 32.11038 41.133007 24.35606 40.293224 37.343124
38.13278 50.71048 40.78298 50.735134 43.838924 35.298088 47.989025 37.862644
40.84158 43.980053 39.96203 60.54073 39.624603 36.088444 39.87949 40.594166
47.92897 41.553047 60.5723 47.6032 49.56248 51.36955 41.907623 61.088966

backbone.conv2.weight f4 [64, 32, 3, 3]
00000000: 6741 85bc 1cd8 3abc cf30 91bd 32b9 43bd
00000010: 5f01 23bd 3c1c a8bc 6c4d 0b3d ec2b 3b3c
00000020: e402 cfbd 7a4b 82bd 2e37 3cbc 73dc 44bc
00000030: 1977 1bbd bc91 c8bc bfcf a03c 8ab1 0ebd
00000040: 4061 80bc 7d79 b43b 13c9 e13a 0785 1ebd
00000050: 0186 823c 766e 72bd 7b8e e0bc ca86 273c
00000060: 213a 273c 79b0 9c3c 1c35 42bc cbab acbd
00000070: a99e 37bd eff6 c13c 4e3c e1bc 333e 9c3d
00000080: 6a2d ff3c 5f54 823d 1318 26bc 7d01 26bd
00000090: 5f6e 853c 0b51 46bb 18e6 85bc 22fd a3ba
000000a0: 674d febc 0230 09bd 28f7 1e3d 779a e0bc
000000b0: 91e8 18bd ed0e 0c3d 6480 b1bc c036 19bc
000000c0: a9ed 313d 5f41 babc 337f 9ebc 729c 17bd
000000d0: 1912 bb3b a187 3fbd d5c2 8f3d 6ce1 18bd
000000e0: d527 79bd 7e4c 813b fb64 6f3d 8445 8c3c
000000f0: efac 063d d20f 7c3d 388f 84bd 1d19 dbbb
00000100: a999 de3c 7553 903b 117f d53c f405 073d
00000110: 0eac bebc 7e52 49bd fa98 1c3c bd98 35bd
00000120: 1b24 2bbc 4775 123d 2183 373d e839 e7bc
00000130: 583d 28bd 6f97 9fbb 665c 553d b57c 6c3b
00000140: 8e90 0cbd c15f 0c3d c07b 74bd 18a6 a8bd
00000150: 865e 3cbd 57c6 6cba 78a2 a83c cfb8 0f3d
00000160: 1d24 673d b5b2 a5bc 5339 d93c 0503 22bd
00000170: 87f6 3cbd 9cff d43c 3776 bcbd 83fc f63b
00000180: be72 553c fd9e c53c 1078 a7bc 44e5 683c
00000190: 398f 66bc cb6b 2fbd e35f 913c 0c3a 1abd
000001a0: 33f6 a0bc 2fca a93d 0e52 d73c 9d16 99bb
000001b0: 83b6 5dbd 73da eb3b 64e3 29bd 176c 18bd
000001c0: c884 1f3d 9888 d9bc c038 7b3d c4b0 0e3d
000001d0: 80ce 77bb e88f af3c b119 92bd 39cb fbbc
000001e0: 732d bc3c 0d49 25bd f3fe e4bc dacd 1a3d
000001f0: 119c 093d 7de4 80bc 904c 47ba 6060 f5bb
00000200: 729c c93c 8e04 113d 2204 983c a59b 0f3d
00000210: 6bb2 1bbc 81e2 33bd 6875 a03c 282e 9d3c
00000220: 9d0d 493d 9aeb 69bd 08b2 22bd 5860 d13c
00000230: fe11 d7bd 8dc4 d43c 114b 22bd eeb0 5cbd
00000240: a525 2b3d ea4f 073c 5c51 48bd 8245 043b
00000250: 05cf 15bd 9ce3 2fbd 7d12 c7bd e06b 1ebd
00000260: 434e e6bc c1f4 c33c 216c e4bc f834 27bd
00000270: 3fc9 7dbd 9487 a6bb d386 b9bd 880f 96bd
00000280: 28e7 0fbc 0af7 8bbd f166 a43a ecd5 84bc
00000290: e06c d53c 96f2 823c 0c94 89bd 4628 57bd
000002a0: 5c45 bcbc 0f0c e9bc 2fe8 583d 7746 88bd
000002b0: 1d16 65bd 8b8a 26bb 01ee 7bbc 7251 e13a
000002c0: 6a6d 9dbc c431 593d 2cff d7bb f399 11bb
000002d0: e494 83bd 2971 7fbd 75de d7bc 8ec4 d5bc
000002e0: 4e50 b93c 9781 ab3c 9e38 353c 93ab de3c
000002f0: fc1a 09bc d545 a43c 01f9 3d3c 2e70 d8bc
00000300: ad6a 373d 35c1 4d3d 5fc1 79bb a572 a13d
00000310: 8b19 123d f8a9 67bd 95d2 92bd eaae 4a3d
00000320: ced5 40bd 45ae a03c 64c5 e0bc 8798 6abd
00000330: 4d55 013e 7b1c 893d 7331 74bd 7dd6 10be
00000340: b488 513c 38e7 e8bc c048 893d 1077 4c3b
00000350: 2841 b4bc d386 f03d fbab 843d 6dac b13c
00000360: d3aa 493d 0e5c 84bd 7132 1a3c 2f6c 703c
00000370: bd3f 01bc bac4 2fbd 8304 aebc c2a2 45bd
00000380: 8fad b23c 2772 89bc 807c a03c dfbc a13c
00000390: 5d74 31bd 505d ae3c 3b9f 29bc 2ce9 91bd
000003a0: e840 aebc 4127 36bd 7c31 45bd 1d10 f7bb
000003b0: 00b6 8cbd 3afe 0abc 8444 73bd aa64 fabc
000003c0: b9ef 44bc ffb3 043d 6735 173d c813 a3bc
000003d0: e704 a0bc 316e 42bb ae35 1dbd eedd 95bd
000003e0: 5b81 f8bc d4a5 b73c e0d2 3a3d 0c96 0a3d
000003f0: ae84 8d3d cfdd 3ebd 0645 3fbd 8d73 17bd
-0.016266538 -0.011404064 -0.070893876 -0.047784038 -0.03979623 -0.020521276 0.034009382 0.011424046
-0.10107973 -0.06362052 -0.011487765 -0.01201545 -0.037955377 -0.024483554 0.019630311 -0.034837283
-0.015671372 0.0055076466 0.0017226062 -0.038701084 0.015933039 -0.059187375 -0.02741169 0.010225007
0.01020673 0.019127117 -0.011853483 -0.084312044 -0.044829044 0.023677317 -0.027494576 0.07629051
0.031149585 0.06363749 -0.010137576 -0.040528763 0.01628798 -0.0030260708 -0.016345069 -0.0012511353
-0.031042768 -0.03349305 0.038809925 -0.027417405 -0.037331168 0.03419392 -0.021667667 -0.009351432
0.04343954 -0.02273625 -0.019347763 -0.037014432 0.0057089445 -0.046760205 0.07019583 -0.037324354
-0.060829002 0.003945886 0.05844591 0.017122991 0.032879766 0.061538525 -0.06472629 -0.0066863433
0.02717288 0.00440448 0.026061567 0.03296466 -0.023275401 -0.049150936 0.009557957 -0.044335116
-0.01044562 0.035756376 0.04480279 -0.028225854 -0.041074127 -0.004870347 0.05209007 0.0036085073
-0.034317546 0.034271006 -0.05968833 -0.08234805 -0.045988582 -0.00090322405 0.020585284 0.035088357
0.056430925 -0.020226816 0.026516592 -0.03955366 -0.046133544 0.02600079 -0.09202235 0.007537426
0.013027845 0.024123663 -0.020442992 0.014214817 -0.014072233 -0.04282741 0.017745918 -0.037653014
-0.019648647 0.082905166 0.026284244 -0.004671885 -0.054129135 0.007197672 -0.041476622 -0.037212458
0.03894499 -0.02655439 0.061333418 0.034836546 -0.0037812293 0.021430925 -0.071338065 -0.030736553
0.02297089 -0.04035287 -0.0279536 0.03779397 0.033596102 -0.015733952 -0.0007602656 -0.0074882954
0.024610732 0.035404734 0.018556658 0.035060544 -0.009502987 -0.043917183 0.019587234 0.019187048
0.04908525 -0.057109453 -0.039720565 0.025558636 -0.105014786 0.025972629 -0.03962237 -0.05387967
0.041783947 0.008258799 -0.048905715 0.0020183031 -0.036574382 -0.042941675 -0.09720323 -0.038677096
-0.02811349 0.023920419 -0.027883591 -0.040822 -0.0619595 -0.00508208 -0.09058919 -0.07327181
-0.008783139 -0.06834228 0.0012542886 -0.016215287 0.026052892 0.015984815 -0.06717691 -0.052528642
-0.022982292 -0.028448133 0.052955803 -0.06654065 -0.055929292 -0.0025412168 -0.015376569 0.001719041
-0.019217212 0.053025976 -0.006591698 -0.0022217005 -0.06424883 -0.062363777 -0.026351193 -0.026094701
0.0226213 0.020935817 0.011060862 0.027181422 -0.00836825 0.02005283 0.011595012 -0.026420679
0.04477947 0.050233085 -0.0038109643 0.07883195 0.03566889 -0.05655858 -0.071690716 0.049483217
-0.0470789 0.019614348 -0.027437873 -0.057274368 0.12630196 0.06694885 -0.05961747 -0.14144321
0.01278894 -0.028430566 0.06703329 0.0031198896 -0.022003725 0.11744466 0.06478115 0.021688664
0.049235176 -0.064628705 0.00941144 0.0146742305 -0.007888732 -0.042912222 -0.021242386 -0.04825092
0.021811275 -0.016778065 0.019590616 0.019743381 -0.043323863 0.02128473 -0.010352905 -0.07124552
-0.021271184 -0.04447103 -0.048142895 -0.0075397626 -0.06870651 -0.008483464 -0.059391513 -0.030565578
-0.012020045 0.03239822 0.036916163 -0.019906893 -0.019533588 -0.002966773 -0.03838127 -0.0731772
-0.030335119 0.02241794 0.045611262 0.033834502 0.06910072 -0.046598252 -0.046696685 -0.036975432

backbone.bn2.weight f4 [64]
00000000: 7aee 7d3f b88f 823f b887 803f 7913 863f
00000010: a945 803f 8be7 7d3f be0b 933f aa2f 783f
00000020: 23e2 723f af33 733f bc32 813f f468 7b3f
00000030: 4666 6b3f 29c1 823f 78cf 763f 8ed8 783f
00000040: 3ce0 7c3f c6c4 813f 0c80 753f 16eb 803f
00000050: 56e0 693f bed9 783f 7d56 893f 7633 773f
00000060: 12bd 753f c78c 6e3f ca30 7e3f aa22 6e3f
00000070: bb41 843f 623e 763f 208f 723f bd94 7b3f
00000080: b1e8 8b3f 0e3c 7b3f 3e64 773f 5c1b 753f
00000090: a76d 7d3f 4fb0 823f 620e 763f e7cf 7e3f
000000a0: 1327 843f a4b9 803f d8b1 713f 23ca 753f
000000b0: 4c6d 6c3f f223 753f 1bc4 7a3f 4924 7a3f
000000c0: e15d 873f 0b5a 783f cecf 803f b469 5a3f
000000d0: 33c2 843f f4e0 873f ce8e 7c3f 0826 7b3f
000000e0: 6117 853f f2b3 723f 2edf 793f 8eb3 8d3f
000000f0: 31a7 7a3f 236f 813f be08 733f 3a79 7f3f
0.9919201 1.020011 1.0041418 1.0474693 1.0021259 0.9918143 1.1487958 0.9694773
0.9487631 0.9500074 1.0093608 0.9820702 0.9195293 1.0215198 0.9641032 0.97205436
0.98779655 1.0138175 0.9589851 1.0071743 0.91357934 0.9720725 1.0729519 0.965629
0.95991623 0.9318356 0.99293196 0.93021643 1.0332559 0.9618894 0.9474964 0.9827383
1.0930387 0.9813851 0.9663733 0.9574487 0.9899544 1.0210055 0.96115696 0.99535984
1.0324425 1.0056653 0.94411993 0.9601156 0.92354274 0.95757973 0.97955483 0.97711617
1.0575525 0.97012395 1.0063417 0.8531754 1.0371765 1.0615525 0.986554 0.98104906
1.039776 0.94805825 0.9760617 1.1070421 0.97911364 1.0112041 0.94935215 0.9979435

backbone.bn2.bias f4 [64]
00000000: 3859 95bd 41ac ccbd 06f9 aa3d a6d8 72bd
00000010: 4b2c afbd 8d50 d739 cd38 703e 83d1 00bd
00000020: c127 11bd be74 a7bd 15ff 03be d87c a1bb
00000030: b260 f3bb f17b b13d 98c6 41bd 10d7 19be
00000040: 0341 3dbc 4613 48bd b199 d73a 2783 e8bc
00000050: 159f 91bd 9abd 75bd 2b9e 2abc 4f40 8abc
00000060: c2c0 a7bd 2947 92bd 0e93 28bd 9885 163a
00000070: 6597 073e b958 07be ba79 a3bd f046 ef3d
00000080: 447a 8c3d 00b1 82bd 18c9 713c e3d6 103d
00000090: 6609 c6bd 9e7b 423c c787 e5bc 6536 78bd
000000a0: a77c 6fbd b66f 0ebd 3e12 07bd 6c61 88bd
000000b0: 068a 51bd de4e babd 4e97 613d f3e7 7c3c
000000c0: d75f bd3c 4d2f cfbd b0ef 06bc f376 91bd
000000d0: 01ca eabb 353b c3bd 5078 90bd a408 b13b
000000e0: 5867 1ebc 5aeb a8bc dac4 a03b d350 6c3e
000000f0: f4ca 76bc 717b b5bc 0fd5 b3bd 4d9d cf3d
-0.07292408 -0.09993792 0.08348279 -0.059288643 -0.0855337 0.0004106801 0.23459168 -0.031449806
-0.035438303 -0.08176564 -0.12890275 -0.0049282126 -0.0074272985 0.08666218 -0.047308534 -0.15023446
-0.0115511445 -0.048846506 0.0016449002 -0.02838285 -0.071104206 -0.05999527 -0.010413687 -0.016876368
-0.081910625 -0.07142479 -0.041155867 0.0005741953 0.13241346 -0.13217439 -0.07982202 0.11683452
0.06859258 -0.06381416 0.014757417 0.035361182 -0.09669761 0.011870293 -0.028018845 -0.06059875
-0.058468487 -0.034774505 -0.03297638 -0.06659207 -0.05115702 -0.09097074 0.055075936 0.01543616
0.023116989 -0.10116444 -0.008235857 -0.07102766 -0.007165194 -0.09532777 -0.07054198 0.0054026414
-0.009668194 -0.020620037 0.004906279 0.23077707 -0.015063036 -0.022153588 -0.08780872 0.101374246

backbone.bn2.running_mean f4 [64]
00000000: 9094 93bf af4f 02bf 3adf f5bf fa6f d0bd
00000010: 0934 823d dacd 42bf e92b 07c0 0eb8 37bf
00000020: b98b 23bd 312e 7bbf 740f 243f f823 babe
00000030: 7a1d 00bf 0861 1ac0 2723 053f 9b88 95be
00000040: 5c33 afbf ea00 d0be cff7 c03d bd78 2dbd
00000050: 0ceb 8bbe 28c3 813d 2495 d6be 0b75 253f
00000060: d334 803e 983c 06be 2911 20bf a031 a6bf
00000070: 37c0 e3be e956 91be 35f0 e9be 2d80 f4bf
00000080: cf9f 03bf 9ee9 24bf d45f 0dbf 283d 3d3f
00000090: 38c2 c2bf c16e bebe cb0c 1dbf 082c a9be
000000a0: 72eb 8dbe d8ff adbe ee25 d6bf cd3b 90bf
000000b0: 96ce 05bf 8156 00bf d199 ffbf c137 87bf
000000c0: 8f38 84bf 779d 5ebf bb4a 44bf 36e8 42bf
000000d0: 3e10 ce3e 4c27 c5be 5178 6cbf 2557 22bf
000000e0: 6f2a 6bbf 3409 09c0 4d4b 2ebe 4db4 1cc0
000000f0: a258 a6bd 1e61 b5be b58c 59bf 884b fabf
-1.1529713 -0.5090284 -1.9208748 -0.10177608 0.06357581 -0.76095355 -2.112055 -0.7176522
-0.03992817 -0.9811736 0.6408608 -0.36355567 -0.5004498 -2.4121723 0.52006763 -0.29205784
-1.3687549 -0.40625697 0.09422266 -0.042351473 -0.27327764 0.06336051 -0.4191066 0.6463172
0.25040302 -0.13109052 -0.62526184 -1.2983894 -0.44482586 -0.2838662 -0.45691076 -1.9101616
-0.51415724 -0.6441897 -0.5522435 0.7392144 -1.5215521 -0.37193874 -0.61347646 -0.33041406
-0.27718693 -0.33984256 -1.6730325 -1.126825 -0.5226835 -0.50131994 -1.9968816 -1.056389
-1.032976 -0.8695902 -0.7667653 -0.76135576 0.40246767 -0.38506544 -0.9237109 -0.6341422
-0.91861624 -2.1411867 -0.17020912 -2.4485047 -0.08122374 -0.35425657 -0.84980327 -1.95543

backbone.bn2.running_var f4 [64]
00000000: 337e ba40 7256 9e40 6aa8 1641 5e93 7b40
00000010: 17de 5740 8e1a 8440 e0d8 c040 afc9 6e40
00000020: abf2 8040 5e82 c940 70c1 6e40 df38 5d40
00000030: f82f 9540 7106 f540 ca52 7840 ef0e 7440
00000040: 15a7 9c40 e134 6540 8b26 5740 239f 9f40
00000050: 9d67 d940 eac0 5c40 65a0 9140 8e09 1d40
00000060: d843 b540 8b5e 1940 e280 a440 c847 a740
00000070: 77e4 8e40 338f 4e40 dcf9 a240 ed31 dd40
00000080: b012 a740 c344 5b40 5fda 7e40 edeb 0840
00000090: f42e af40 da25 7640 bf12 a940 3bea 2c40
000000a0: 0908 c940 5671 6c40 51d7 cc40 4339 b740
000000b0: c38a 8440 a64e 5440 e439 c240 3c4a e540
000000c0: 53a1 8240 3fc9 a140 1c3c 8540 18f0 a340
000000d0: 3369 b040 2a69 ad40 4ac6 ce40 839f 7940
000000e0: e6e3 8440 8a35 1841 97a3 ac40 b6a0 fe40
000000f0: e53a 4e40 6510 ef40 c313 8a40 a256 da40
5.827905 4.9480524 9.416117 3.9308696 3.3729303 4.1282415 6.026474 3.7310598
4.0296226 6.297164 3.7305565 3.4565961 4.6621056 7.6570363 3.880053 3.8134115
4.8953958 3.5813525 3.3617275 4.988176 6.793898 3.4492745 4.5508294 2.4537082
5.6645317 2.3963954 5.140733 5.2275124 4.465389 3.2274902 5.0930004 6.9123445
5.221031 3.426072 3.9820783 2.1393998 5.4744816 3.8460603 5.2835383 2.7017963
6.282231 3.6944175 6.4012837 5.72574 4.1419387 3.3173003 6.0695667 7.165312
4.082193 5.055816 4.1635876 5.1230583 5.5128417 5.4190874 6.461705 3.9003608
4.1528196 9.513071 5.3949695 7.957118 3.2223446 7.4707513 4.3149123 6.8230753

backbone.conv3.weight f4 [128, 64, 3, 3]
00000000: 1bd8 d1b9 f029 e83c a280 1bbd c9b9 ffbb
00000010: 4fea 403c d578 fd3c 159a 8c3c a0f6 893d
00000020: e3a8 8d39 cbe9 953d 12e0 8e3c e9dd ff3c
00000030: 4400 a93a 60d4 50bc e439 debc 957d ff3c
00000040: 041e 6e3c 8ad3 833d 9834 d43c d598 e5bc
00000050: 2da2 00bd 27df 89bc e532 6f3c 0999 81bb
00000060: a017 ed3c e455 81bc 9b5a c9bc 0529 643d
00000070: 4027 be3c cc42 733c f705 3d3d 3d2a f63c
00000080: 7619 043d f8cd 2c3c cc50 663c 32ea 293d
00000090: d6bf 59bd 506d 4ebd 3c42 533b 25c9 47bd
000000a0: 5c93 1ebb 1a01 2fbd 6a54 b2bc 5ac1 fbbc
000000b0: 664b 023d 371c 8cbc 23f7 0f3c 842a 4ebd
000000c0: cd62 56bd e4c5 1bbd 530f a8bc a38e 3abc
000000d0: f3a1 353d 84b0 4f3d 8f16 2bbd 179f 52bd
000000e0: d2c5 06bd 8dea 02bd 0533 98bd e0c6 253d
000000f0: 8345 e1bb 4a2d a3bd 6b27 3bbc 2abf 073d
00000100: 0a5c 5d3c e142 883c e82f 17bc b2d3 4f3d
00000110: 3959 323d 31d0 fdbb ddf8 6fbc 3166 583c
00000120: 2798 133c b593 1e3d df37 683b e553 16bc
00000130: e938 9dbb d1da 67bd baf8 12ba f06d 033c
00000140: 9c76 acbc 70ba ee3c e66d 5d3d 5d04 e63c
00000150: 4cbe 5cbd b670 e93c 01c4 903c d967 ebbc
00000160: fb72 5b3b aefc 163d 5c6b f13c 3ad5 8e3d
00000170: 96ca 403c a0d4 04bd 9efa 1fba 00dc 99bc
00000180: e24b db3c 874e 533d 8543 af3d ba3e 973d
00000190: 72e1 3e3d 004d 583c f36b a6bc 930e 1fbb
000001a0: 339a 51bd c92c d8bb bf90 7f3d faa1 5b3c
000001b0: dc2f 493d a650 293d e2b3 10bd 813f 77bd
000001c0: 6b3a f13c 14d7 1abc 6c44 05bc 1963 263d
000001d0: e859 c33c 36dd 54bc 06e4 1abd 5022 d5bc
000001e0: b16f 87bc 3552 1fbd fe5e 99bc 3980 f8bc
000001f0: b47b 0c3d 4faf 4e3a 1af3 833c d74c 19bd
00000200: 609e 203c bcab 253b fbf8 c03c b451 183d
00000210: 0a88 a838 0eb0 4d3c 5238 8cbc cd4b 42bc
00000220: 5ee4 f23b f00e 3e3c fa17 a03a dd84 453d
00000230: 8bc1 02bd a6bf cdbc 8010 0d3d 9956 e9bc
00000240: 6835 eabc c86d 813c 43a1 d0bb 2363 06bc
00000250: 71bf c9bc db62 ebbc ced9 3abd cf40 7d3d
00000260: 0bd7 103c 9b7a 583b efcf 24bc 38c5 c0bb
00000270: ab92 183c db20 ae3b 2eb8 d0bc cf44 153c
00000280: 8c86 6e3c c8ba f3bb 16bc 68bd 7cf5 acbc
00000290: f510 00bd ef06 2abd 60fd 2ebc 6e4b 71bd
000002a0: 583a 64bc b920 e3bb 30bc 843c 0f3a a5bc
000002b0: 08db 10bd 0613 34b9 563f 21bd 427b 0ebd
000002c0: ed31 2ebd be3b 253c 6ead 9fbc e99d afbc
000002d0: 9fff 243d ab04 2abb fb74 e53b 4215 b4bb
000002e0: ce2b b53c 6991 4a3c b6f3 453d 34de 273d
000002f0: c8d6 7d3d bdcc eb3c b34a f2bc 86d3 bd3c
00000300: f0fc 95bc 41f7 31bd 6b67 9bbc 7dce 8cbb
00000310: ff71 44bc f71a 323c 9288 733c c574 873d
00000320: bff3 47bd a57c a3bc a9d8 f6bb 0735 bcbc
00000330: 8734 cd3c 283d 343c 90f1 533c bb44 98bd
00000340: 26c4 e1bc 82a7 1a3c f929 6fbd e94e 3b3c
00000350: 32b8 66bd f175 803c 072c 6dbc 7690 733d
00000360: d9c2 493c 9cf9 043d c247 483a fc16 28bd
00000370: f0d3 c43c 98ef 95bd d6c2 a4bb 3dcf f73c
00000380: caaf c33b 2418 18bd 0109 973c 9df3 d23c
00000390: 7644 41bd 9074 a1bc 445f 4fbc 9fb1 93bc
000003a0: d180 6abc 68bd f9bb b066 f93c 4a5e acbc
000003b0: d00d 013c 3cb1 1bbc 1683 7a3c 00c9 063c
000003c0: c695 a1bc dcc0 ba3c 860d 02bd f14e 423c
000003d0: 4da0 93bd fc98 c83b 8b6c f8bc f580 213b
000003e0: feef 0fbd 4166 1dbb 8484 06bc 37da 2fbc
000003f0: 6918 ba3c 4408 823d d007 43bd 9874 263c
-0.00040024598 0.02834031 -0.03796447 -0.0078041297 0.0117746135 0.030941406 0.017163316 0.06736493
0.00027019446 0.07319983 0.01744083 0.031233745 0.0012893756 -0.012745947 -0.027127214 0.031187812
0.0145335235 0.06436832 0.025903985 -0.028026978 -0.031404663 -0.01683004 0.014599537 -0.003955011
0.02894193 -0.015788026 -0.024579337 0.05570318 0.023212075 0.014847469 0.046148267 0.030049438
0.032250844 0.010547154 0.014057349 0.04148311 -0.053161465 -0.050397217 0.0032235524 -0.04877581
-0.002419672 -0.04272566 -0.021768767 -0.030731846 0.031810187 -0.017103298 0.008786949 -0.050333515
-0.052340318 -0.03803052 -0.02051512 -0.011386546 0.0443439 0.050705448 -0.04176956 -0.05142125
-0.0329035 -0.031961966 -0.07431606 0.040472865 -0.0068747415 -0.079676226 -0.011422972 0.033141293
0.013510713 0.016633453 -0.00922773 0.050738998 0.04354212 -0.0077457656 -0.014646736 0.013207958
0.009008444 0.038715083 0.0035433692 -0.009175275 -0.004798044 -0.056605164 -0.0005606521 0.008021817
-0.021052651 0.029141635 0.054059885 0.028078252 -0.05389242 0.028496128 0.017671587 -0.028736042
0.0033485282 0.036862068 0.029470138 0.069742635 0.01176705 -0.032429338 -0.00061027135 -0.018781662
0.026769582 0.05158856 0.085578 0.07385011 0.04660172 0.013201952 -0.020315146 -0.0024270162
-0.051172446 -0.0065971357 0.0623939 0.013405317 0.049117908 0.041336678 -0.0353278 -0.060363296
0.029446801 -0.009450693 -0.008133989 0.04062185 0.023846582 -0.012992194 -0.037815116 -0.026017338
-0.01653275 -0.038896758 -0.018722054 -0.030334579 0.03429766 0.00078843994 0.01610713 -0.037426796
0.009803385 0.0025279364 0.023556223 0.037187293 8.0362035e-05 0.012554182 -0.0171167 -0.011858893
0.0074124774 0.011600241 0.0012214177 0.04822241 -0.03192286 -0.0251158 0.034439564 -0.028483676
-0.02858992 0.015799418 -0.00636688 -0.008202347 -0.02462742 -0.028733661 -0.04561787 0.061829384
0.008840333 0.0033032063 -0.010059341 -0.0058828853 0.009312312 0.0053139753 -0.025478449 0.0091106435
0.014558446 -0.0074380375 -0.056819998 -0.02111315 -0.03126617 -0.04151052 -0.0106805265 -0.058909826
-0.013929926 -0.006931391 0.016203016 -0.020169286 -0.035365134 -0.00017173224 -0.039367042 -0.034785517
-0.04252808 0.010085044 -0.019491877 -0.021437602 0.04028284 -0.0025942724 0.0070024705 -0.005495698
0.022115614 0.01236377 0.048328124 0.040983394 0.06197241 0.02878415 -0.029576635 0.023172151
-0.018309087 -0.04344869 -0.018970212 -0.0042970763 -0.011990069 0.010870687 0.014864104 0.06614069
-0.04881644 -0.019956896 -0.007533152 -0.022974504 0.025049461 0.011000909 0.012936011 -0.07434984
-0.027559351 0.009439351 -0.058389638 0.011432388 -0.056328006 0.015681239 -0.014475829 0.05946394
0.012314522 0.03246461 0.0007640087 -0.041037545 0.02402684 -0.073210895 -0.005028109 0.030250186
0.0059718834 -0.037132397 0.01843691 0.02575093 -0.04718443 -0.019708902 -0.01265699 -0.018029032
-0.014312939 -0.007621456 0.030444473 -0.021041054 0.007876828 -0.009502705 0.015290042 0.008226633
-0.019724738 0.02279704 -0.03175118 0.011859641 -0.07208309 0.006121753 -0.030325195 0.0024643515
-0.035140984 -0.0024017247 -0.008210305 -0.010733179 0.022716718 0.06349233 -0.047614872 0.010159634

backbone.bn3.weight f4 [128]
00000000: f081 7d3f 160a 893f d7e1 863f a6f2 633f
00000010: b7bb 833f 1b5a 803f b1a7 7a3f 6605 863f
00000020: 2748 893f 93e1 7e3f ba90 833f 84ff 803f
00000030: 2b13 833f 5cbc 873f 653e 7c3f 5eb7 803f
00000040: d91d 803f 0b02 853f 2736 843f b139 6f3f
00000050: ef89 6c3f 7bea 7c3f 12dd 833f 7084 833f
00000060: 6c4a 7c3f 903b 823f 20b6 7d3f 017e 813f
00000070: 76af 853f 9c7d 823f 4698 743f cbac 823f
00000080: 3da2 893f 9f1d 7e3f 0ee7 853f ffe0 853f
00000090: de37 853f 203a 893f 9553 833f aa90 863f
000000a0: 9fc1 763f a404 873f c23b 7b3f 2735 7f3f
000000b0: 642f 873f 71a9 853f 6c96 853f cfec 733f
000000c0: fbbb 743f 099a 883f bae2 813f 73c9 863f
000000d0: 6447 893f 223f 7f3f b113 883f b0eb 843f
000000e0: a2f5 863f a430 853f df47 8a3f 26da 7f3f
000000f0: f8d6 793f 9929 843f 4a5c 823f 7549 823f
00000100: f659 763f 6047 793f 3318 7d3f e234 833f
00000110: 7fa9 853f d1c5 853f cb0d 853f eb32 853f
00000120: b972 7f3f 8d63 7c3f 870f 823f 63c7 713f
00000130: af2c 873f fc42 893f 44a7 853f 03e5 603f
00000140: 5cee 843f 2c46 7d3f 46be 833f bdac 813f
00000150: e532 863f 6fb7 803f 5f67 803f f75a 813f
00000160: 7732 833f 17f4 833f 0be1 873f 3169 863f
00000170: 020d 853f 9a30 833f 17b1 833f b462 8a3f
00000180: 8b44 843f ee3b 843f 9aa0 823f 11c4 723f
00000190: 1b7a 823f dc0d 843f 2d87 7e3f 1e94 843f
000001a0: 6ed8 803f 798a 843f d454 813f 1a9c 8a3f
000001b0: 2de3 833f fb45 853f d0a0 843f 8108 7c3f
000001c0: 353c 813f d4a3 833f f868 843f d64f 763f
000001d0: 55a5 853f bf39 733f 81c5 843f 86ff 833f
000001e0: f299 843f 6de6 853f 43a2 883f 7563 853f
000001f0: c9bf 833f a32e 843f c18e 853f 1b2f 803f
0.99026394 1.0706203 1.0537671 0.8904213 1.0291661 1.0027498 0.97912127 1.0470397
1.0725144 0.9956295 1.0278542 1.0077977 1.0240225 1.0604358 0.98532706 1.0055959
1.0009109 1.0391248 1.0329026 0.93447405 0.9239797 0.9879529 1.030184 1.0274792
0.9855106 1.0174427 0.99106026 1.0116578 1.0444171 1.0194583 0.9554485 1.0208982
1.0752636 0.9926395 1.0461137 1.0459288 1.0407674 1.0720863 1.0259882 1.0512898
0.9638919 1.0548291 0.9813806 0.9969048 1.0561337 1.0442334 1.043653 0.95283216
0.95599335 1.0672008 1.0147316 1.0530227 1.0724912 0.9970571 1.0631009 1.0384426
1.0543711 1.0405469 1.0803183 0.99942243 0.9759364 1.0325195 1.0184414 1.0178667
0.9623102 0.97374535 0.9886505 1.0250514 1.0442351 1.0450994 1.0394834 1.0406164
0.9978443 0.985894 1.0160989 0.94444865 1.0560511 1.0723567 1.044167 0.87849444
1.0385242 0.989352 1.0292442 1.013084 1.0484282 1.005598 1.0031546 1.0105885
1.0249776 1.0308865 1.0615553 1.0500852 1.0394595 1.0249207 1.0288419 1.0811372
1.0333418 1.0330789 1.0205262 0.94830424 1.0193514 1.031673 0.9942501 1.0357702
1.0066049 1.0354759 1.0104012 1.0828888 1.0303704 1.0411981 1.0361576 0.98450476
1.0096499 1.0284371 1.0344534 0.9621557 1.044108 0.9500999 1.0372773 1.0312355
1.035948 1.0460945 1.0674518 1.0420977 1.0292903 1.0326732 1.043419 1.0014375
