PointPillarUpgrades/output_20251201_185947/pointpillars_ModelNet40.pth (torch, 694054 bytes, 40 tensors)

pfn.blocks.0.fc.weight f4 [64, 8]
0	0x3e89500f	0.26818892
1	0x3e93a114	0.2883383
2	0xbd2e4d74	-0.042554334
3	0x3e3b4e90	0.18291688
4	0xbe06d0d1	-0.13165595
5	0x3df7a4f0	0.12092006
6	0xbe9d1063	-0.30676565
7	0x3e1e9c89	0.15489401
8	0x3e8fdfb3	0.28100356
9	0xbe4dfd75	-0.20116217
10	0x3e9999ad	0.30000058
11	0x3ed379a3	0.4130374
12	0x3d926341	0.071478374
13	0x3d2c569a	0.042074777
14	0x3f0f918e	0.56081474
15	0xbc8c2a27	-0.017109944
16	0x3e3627c6	0.1778861
17	0x3c715e10	0.014731899
18	0xbe859041	-0.2608662
19	0x3e2db07d	0.16961856
20	0xbe5913ea	-0.21199003
21	0x3dc7ee59	0.09762258
22	0xbaceb7a1	-0.0015771278
23	0x3e912447	0.2834799
24	0xbe80ef55	-0.25182596
25	0xbd4f1a96	-0.050562464
26	0xbe0f631f	-0.14002655
27	0xbe55aecb	-0.2086746
28	0x3e6d7e72	0.23192766
29	0xbe8dc9b4	-0.2769295
30	0x3f142f4f	0.5788469
31	0xbe961a8b	-0.29317126
32	0x3e55fc3e	0.20897004
33	0x3d8bb534	0.06821671
34	0xbdb743d3	-0.08948483
35	0x3ee30f24	0.4434749
36	0x3c503ac2	0.012709321
37	0x3ea5c341	0.3237553
38	0x3eb90494	0.36136305
39	0xbc284a99	-0.010271692
40	0x3dc546c2	0.096326366
41	0xbcf2e962	-0.029652301
42	0x3e78a6a8	0.24282324
43	0x3ec3ec08	0.38266015
44	0x3da45618	0.080242336
45	0xbe7b3ee8	-0.24535716
46	0x3db9dbdd	0.09075139
47	0x3d4f1522	0.050557263
48	0x3d4728b9	0.04862282
49	0xbde781e0	-0.113040686
50	0xbee0b738	-0.43889785
51	0x3daae5ff	0.083446495
52	0xbe6f0f12	-0.23345593
53	0x3ed7b01f	0.42126557
54	0xbd93daae	-0.07219444
55	0xbd9502e3	-0.07275941
56	0x3d54a1c4	0.051912084
57	0x3d4754b0	0.04866475
58	0x3ec23418	0.3793037
59	0xbe6ecbfb	-0.2332
60	0x3dceeb7a	0.10103507
61	0xbe49ebaa	-0.19718805
62	0x3e3e8b75	0.18607886
63	0xbe1ad7f7	-0.15121447
64	0x3d04a653	0.03238518
65	0xbd4f0821	-0.05054486
66	0x3eccf991	0.40034154
67	0xbec5b69d	-0.38615885
68	0xbde735f3	-0.11289587
69	0xbe1c2369	-0.15247883
70	0x3ec2b0fa	0.38025647
71	0x3e0dca79	0.13846768
72	0x3e6b05d3	0.2295144
73	0xbe42de83	-0.19030194
74	0xbef0f91a	-0.4706505
75	0xbdcf63b2	-0.10126437
76	0xbdc7ec1f	-0.097618334
77	0x3e2beba3	0.16789107
78	0x3e26af5f	0.16277836
79	0x3ea8943f	0.32925603
80	0xbe4e7299	-0.20160903
81	0xbdf09e8a	-0.11748989
82	0x3e929634	0.2863022
83	0xbe8d5c34	-0.27609408
84	0x3df763a9	0.120795555
85	0xbdde0c8f	-0.10842239
86	0x3ead133f	0.33803746
87	0xbe7a9856	-0.24472174
88	0xb97a1300	-0.00023848936
89	0x3bcc2667	0.006230164
90	0x3b06251a	0.0020468892
91	0x3cb2df52	0.021835003
92	0x3e354dcc	0.17705458
93	0x3f1aae40	0.60422134
94	0xbd3dc6f5	-0.04633232
95	0xbe3b5603	-0.1829453
96	0x3e4fa213	0.2027667
97	0xbc90e05d	-0.01768511
98	0xbdf18eea	-0.11794837
99	0xbde6ea66	-0.11275177
100	0xbeb2325d	-0.3480405
101	0x3e06750b	0.13130586
102	0xbe16772f	-0.14693902
103	0xbee98d0b	-0.4561542
104	0x3c752754	0.01496299
105	0xbdfb54a1	-0.12272001
106	0xbeeef95f	-0.4667463
107	0xbe93cebf	-0.28868672
108	0xbe851a5d	-0.25996676
109	0xbe1ff902	-0.15622333
110	0x3eb53da2	0.35398585
111	0x3db93684	0.09043601
112	0x3e2599ff	0.16172026
113	0xbebefbf4	-0.373016
114	0xbe462e5d	-0.19353624
115	0x3d916f75	0.07101337
116	0x3d0ff610	0.035146773
117	0xbe8b3e24	-0.27195847
118	0x3cbb9963	0.022900289
119	0xbd26db04	-0.040736213
120	0xba39b570	-0.0007084226
121	0xbbc5b55b	-0.006033582
122	0xbc8b06de	-0.016971048
123	0xbe4f341e	-0.20234725
124	0x3d90fdf8	0.07079691
125	0xbf0ee3d9	-0.5581642
126	0x3e44424d	0.19165917
127	0xbd7324b9	-0.059361193
128	0x3e4ee416	0.20204195
129	0xbe20fea3	-0.15722136
130	0x3e5b2af3	0.21403103
131	0x3d48a31b	0.048983674
132	0xbf086ec9	-0.53294045
133	0x3ea1f6f5	0.31633726
134	0xbe0dafbf	-0.13836573
135	0xbdbe0a38	-0.09279293
136	0xbe715a83	-0.23569684
137	0xbec0c5c9	-0.37650898
138	0x3dc8f351	0.09812034
139	0xbe3218ed	-0.17392321
140	0x3e21e6f0	0.15810752
141	0xbe8e95cd	-0.27848664
142	0x3e4cdbac	0.20005673
143	0xbeabcd3f	-0.33555028
144	0x3c5ff5f8	0.013669483
145	0x3d42b64b	0.04753713
146	0x3e717b24	0.2358213
147	0x3ee70523	0.45121107
148	0x3e7b8aa7	0.2456461
149	0xbeaf59bc	-0.3424815
150	0x3d9935e4	0.07480982
151	0xbdf41b49	-0.11919267
152	0x3dada53e	0.08478783
153	0xbe8f270c	-0.27959478
154	0x3e8adf78	0.27123618
155	0xbde9e983	-0.11421492
156	0x3d19a5f6	0.03751179
157	0x3dbafc11	0.09130109
158	0x3e594f0a	0.21221557
159	0xbe97d226	-0.29652518
160	0x3e5c42f4	0.21509916
161	0x3d5b8356	0.05359205
162	0x3d6d7027	0.057968285
163	0xbd534bd4	-0.051585987
164	0xbd4fe770	-0.050757825
165	0xbd8fb42e	-0.070167884
166	0xbe69f735	-0.22848208
167	0x3eefb4b5	0.46817556
168	0x3c5a9c47	0.0133429235
169	0xbe137a00	-0.14402008
170	0xbe9466dd	-0.28984728
171	0x3c484d19	0.012225413
172	0x3e3cf353	0.18452196
173	0xbe543131	-0.2072189
174	0xbe06d53f	-0.13167284
175	0xbd412d04	-0.04716207
176	0xbde619e7	-0.11235409
177	0x3dfc62c2	0.12323524
178	0x3ee84a14	0.45369017
179	0xbe30bef2	-0.1726034
180	0x3d6db79a	0.058036424
181	0x3e5012f0	0.20319724
182	0x3e59360f	0.21212028
183	0xbe20d243	-0.15705208
184	0x3e004c34	0.12529069
185	0x3e227032	0.15863112
186	0x3e805041	0.2506123
187	0xbd0768f1	-0.033059064
188	0xbd03061b	-0.031988245
189	0x3e4f0e25	0.2022024
190	0xbdbf8ff8	-0.09353632
191	0xbdd3c7a1	-0.103408106
192	0x3e4c7b93	0.19969015
193	0x3eaf3709	0.34221676
194	0xbcefcd66	-0.029272746
195	0xbe2779d7	-0.16355072
196	0x3e068b4c	0.13139075
197	0xbd80c821	-0.062881716
198	0x3d05f994	0.03270872
199	0x3dd82c8a	0.1055537
200	0xbe92302c	-0.28552377
201	0xbdffbe41	-0.1248746
202	0x3ed0b6b6	0.40764397
203	0xbe2578b8	-0.16159332
204	0xbd9743a0	-0.07385945
205	0xbe2325a6	-0.1593233
206	0xbeb2fcf7	-0.34958622
207	0xbe4e906a	-0.20172277
208	0xbde948ba	-0.113908246
209	0x3de8ee1d	0.113735415
210	0x3e876263	0.2644225
211	0x3da01349	0.07816178
212	0xbec26d37	-0.3797395
213	0xbe4378d3	-0.1908906
214	0xbe3ae173	-0.18250065
215	0x3ea0604c	0.3132347
216	0xb9d35b79	-0.0004031321
217	0xbad5c1f2	-0.001630841
218	0xbaca1418	-0.0015417365
219	0xbe355f99	-0.17712249
220	0xbed49138	-0.41517043
221	0x3eda1504	0.4259416
222	0x3e39fe3f	0.18163393
223	0x3c12263a	0.008920247
224	0xbe8818e2	-0.26581484
225	0x3e308881	0.17239572
226	0x3eb1cdd8	0.3472736
227	0x3e983860	0.2973051
228	0xbeb31141	-0.349741
229	0xbec8009d	-0.39062968
230	0xbe6bd3ea	-0.23030058
231	0x3e6971e1	0.22797348
232	0x3df99db3	0.12188282
233	0x3e44b406	0.19209298
234	0x3e8734bd	0.26407424
235	0x3ca2e058	0.019882366
236	0x3d0b312d	0.033982445
237	0xbe8fe7b8	-0.28106475
238	0xbf0f7e7f	-0.5605239
239	0xbe808a54	-0.25105536
240	0x3dcffb09	0.10155303
241	0xbdf9629b	-0.121770106
242	0x3cf21fa0	0.029556096
243	0xbed298f8	-0.4113233
244	0xbd3ecca3	-0.046581876
245	0xbe3c3cf9	-0.18382634
246	0xbf08d52f	-0.5345029
247	0x3df07cf4	0.11742583
248	0xbd56af60	-0.052413344
249	0x3daa67fc	0.08320615
250	0xbeb02f5a	-0.34411126
251	0xbe2ce369	-0.16883625
252	0xbc45f647	-0.012082643
253	0xbe0d9936	-0.13827977
254	0x3cd16925	0.025562832
255	0xbec33478	-0.38125968

pfn.blocks.0.bn.weight f4 [64]
0	0x3f3b421d	0.73147756
1	0x3f779162	0.9670621
2	0x3f5bb5c7	0.85824245
3	0x3f587801	0.8455811
4	0x3f7beca9	0.9840799
5	0x3f7ff5ec	0.9998462
6	0x3f8782b6	1.0586765
7	0x3f6c0afe	0.9220427
8	0x3f89d60e	1.0768449
9	0x3f68bc02	0.9091188
10	0x3f617920	0.8807545
11	0x3f94527c	1.1587672
12	0x3f7d5cbb	0.9896962
13	0x3f5eafdf	0.8698711
14	0x3f2022c6	0.6255306
15	0x3f829b7e	1.0203702
16	0x3f8b0fa6	1.086415
17	0x3f707c25	0.9393943
18	0x3f940b44	1.1565938
19	0x3f444524	0.76668
20	0x3f4a0e32	0.7892791
21	0x3f4f3999	0.8094726
22	0x3f80050f	1.0001544
23	0x3f80d9e1	1.0066491
24	0x3f369950	0.71327686
25	0x3f82de56	1.0224102
26	0x3f5a5106	0.8527988
27	0x3f98e993	1.1946281
28	0x3f6bf9ed	0.9217823
29	0x3f83f4fd	1.030914
30	0x3f5db94e	0.8661088
31	0x3f533c7b	0.8251416
32	0x3f430474	0.7617867
33	0x3f4bd682	0.7962419
34	0x3f4057be	0.75133884
35	0x3f73b88f	0.9520349
36	0x3f3f36fc	0.74693274
37	0x3f4394c4	0.76398873
38	0x3f6ef6ae	0.93345153
39	0x3f96263f	1.1730422
40	0x3f737ca8	0.95112085
41	0x3f70acf9	0.94013935
42	0x3f5fc33f	0.87407297
43	0x3f71bdae	0.94430053
44	0x3f32bd65	0.69820243
45	0x3f857e0c	1.0429091
46	0x3f6c760a	0.92367613
47	0x3f6e6791	0.9312678
48	0x3f55926a	0.83426535
49	0x3f6112ac	0.87919116
50	0x3f66351d	0.89924794
51	0x3f67cfa0	0.90551186
52	0x3f4459c1	0.76699454
53	0x3f5b08b2	0.85560143
54	0x3f7febbc	0.9996908
55	0x3f24b44e	0.64337623
56	0x3f454066	0.7705139
57	0x3f70c90e	0.94056785
58	0x3f7d5c7c	0.98969245
59	0x3f6a6afb	0.9156949
60	0x3f74b904	0.9559481
61	0x3f43a1fa	0.7641903
62	0x3f2967b8	0.6617389
63	0x3f3d952e	0.74055755

pfn.blocks.0.bn.bias f4 [64]
0	0x3d87b2c8	0.06625897
1	0xbe4d5bb4	-0.20054513
2	0xbe73e4d2	-0.23817757
3	0xbde31d65	-0.11089591
4	0xbdfafe22	-0.12255503
5	0x3d104be6	0.035228632
6	0x3c865874	0.0163996
7	0xbe07b138	-0.13251197
8	0xbd558f88	-0.052138835
9	0xbe116384	-0.14198118
10	0xbe4f2f9d	-0.20233007
11	0x3bc56de4	0.006025063
12	0xbd73e2e7	-0.059542563
13	0xbe396498	-0.1810478
14	0xbeb80d60	-0.35947704
15	0xbc31c24e	-0.0108495485
16	0xbe3c99c5	-0.18418033
17	0xbe026da3	-0.12737136
18	0x3d05e6b6	0.032690726
19	0xbebe642e	-0.37185806
20	0x3db7a2bd	0.08966587
21	0xbe275e20	-0.163445
22	0xbdcb0333	-0.099127196
23	0xbe055691	-0.13021304
24	0xbdbb5b23	-0.09148242
25	0x3ddf309e	0.10897945
26	0xbdd39a9e	-0.10332225
27	0xbd92a225	-0.07159833
28	0xbcad0200	-0.021119118
29	0x3b33c44a	0.002743023
30	0xbe054492	-0.13014439
31	0xbdb88cdd	-0.090112425
32	0xbe26638a	-0.16248909
33	0xbe6969a7	-0.2279421
34	0xbe2241d4	-0.15845424
35	0xbc80cee6	-0.015723657
36	0xbe752d69	-0.23943104
37	0xbe09abdc	-0.13444465
38	0x3d90abe3	0.07064035
39	0xbdc28341	-0.09497691
40	0xbd340cad	-0.0439574
41	0xbd99f7e3	-0.07517984
42	0xbe2f3fc1	-0.17114164
43	0xbc3a386f	-0.011365994
44	0xbe61d619	-0.22054328
45	0xbd6236f9	-0.055228207
46	0xbdbc32f8	-0.09189409
47	0xbd5455a0	-0.05183947
48	0xbebe9a1f	-0.3722696
49	0xbe2e1ce2	-0.17003205
50	0x3bd8c1c6	0.0066148965
51	0xbceb24a7	-0.028704
52	0xbe5319cd	-0.20615311
53	0xbd9b330e	-0.07578097
54	0xbcceee48	-0.025260106
55	0xbde9a1a9	-0.11407787
56	0xbe2348d5	-0.15945752
57	0xbb490087	-0.003067048
58	0x3a8e3df5	0.0010852205
59	0xbd10835a	-0.035281517
60	0xbe5e9077	-0.21734796
61	0xbd519f6f	-0.05117744
62	0xbe09d1ce	-0.1345894
63	0xbe4e9ecd	-0.20177765

pfn.blocks.0.bn.running_mean f4 [64]
0	0xb78da3ce	-1.6884787e-05
1	0xb9d4717f	-0.00040520352
2	0xb8e3142e	-0.00010827962
3	0xb9242bb9	-0.00015656547
4	0xb99ecd80	-0.00030289218
5	0xb8bed541	-9.099628e-05
6	0x37d7a248	2.5705565e-05
7	0xb8f3d4f3	-0.00011626808
8	0xb95b436b	-0.00020910583
9	0xb9527f82	-0.00020074661
10	0xb845c46c	-4.7151392e-05
11	0x3809cd23	3.2854394e-05
12	0xb5f63b77	-1.8345735e-06
13	0xb9475e3f	-0.00019013228
14	0xb8507764	-4.9702256e-05
15	0xb8cc9d1e	-9.7567434e-05
16	0xb6a34bb4	-4.8665916e-06
17	0x389ee707	7.577059e-05
18	0xb8317711	-4.2310978e-05
19	0xb8d80bcb	-0.00010301879
20	0xb7749048	-1.4577126e-05
21	0x38a076f1	7.651549e-05
22	0xb869ee3c	-5.5773402e-05
23	0xb7d59c38	-2.5464324e-05
24	0xb92d3a99	-0.00016520395
25	0x39b9ffa7	0.00035476426
26	0x3906ea90	0.00012866617
27	0xb8c8d42d	-9.576264e-05
28	0x396cb7ff	0.00022575258
29	0x3969d422	0.00022299637
30	0x39792716	0.00023761051
31	0x376a599d	1.3968352e-05
32	0xb9169a61	-0.00014362625
33	0xb993c299	-0.0002818301
34	0xb939d5d0	-0.00017722626
35	0x37d0ddc4	2.48988e-05
36	0xb94607f1	-0.0001888571
37	0x391907b8	0.00014594092
38	0x38d72a92	0.00010259928
39	0xb788b397	-1.6296091e-05
40	0x39883f44	0.00025987078
41	0xb7f2f4a6	-2.8962571e-05
42	0x39101af1	0.00013742947
43	0xb8aaf812	-8.1524384e-05
44	0xb93646ab	-0.00017383198
45	0x391698ce	0.00014362039
46	0x39813c74	0.00024649838
47	0xb8316db0	-4.2302243e-05
48	0xb86c2803	-5.630405e-05
49	0xb978f6be	-0.00023743042
50	0x38dd1a5f	0.00010543013
51	0xb8175736	-3.6082427e-05
52	0x38eec9d5	0.000113863185
53	0xb96b18b9	-0.00022420556
54	0x38a15199	7.692277e-05
55	0x37a9082e	2.0150179e-05
56	0xb869cdf0	-5.5743323e-05
57	0xb7599cb0	-1.297069e-05
58	0xb955ea3a	-0.00020400519
59	0xb827a616	-3.9970582e-05
60	0xb8f83387	-0.00011835159
61	0xb8a0293a	-7.6370736e-05
62	0xb92f843d	-0.00016738563
63	0xb9b83318	-0.00035133283

pfn.blocks.0.bn.running_var f4 [64]
0	0x3a24fda9	0.0006293902
1	0x3a52e392	0.0008044775
2	0x3997f42c	0.00028982887
3	0x3a5249e4	0.0008021875
4	0x39a20c8c	0.00030908396
5	0x38cfa37e	9.900982e-05
6	0x39a847f7	0.00032097075
7	0x398c0207	0.0002670439
8	0x39aefa57	0.00033374384
9	0x3a4dd173	0.000785134
10	0x39d846fa	0.00041251612
11	0x3a5f1962	0.0008510557
12	0x39fe4d60	0.00048504304
13	0x3a9eca32	0.0012114702
14	0x3a9ecc4e	0.0012115331
15	0x3a456c95	0.00075311336
16	0x3a830ca3	0.0009998273
17	0x3a86f7da	0.0010297254
18	0x38e9f6e4	0.00011156293
19	0x3a5f7822	0.0008524676
20	0x39f0c985	0.0004592651
21	0x3a435ebd	0.0007452777
22	0x3aabd642	0.0013110118
23	0x3a33b51c	0.00068552955
24	0x3a29ed41	0.0006482192
25	0x3a28329d	0.00064162334
26	0x39b4f1dd	0.00034512478
27	0x39e21fbc	0.00043129723
28	0x3a1c445d	0.00059611147
29	0x39a7e093	0.00032020043
30	0x394eca2a	0.00019721003
31	0x3a59e41d	0.00083118846
32	0x3a090c74	0.0005227991
33	0x3a31c91a	0.00067819806
34	0x3a83645e	0.0010024419
35	0x39da183a	0.0004159825
36	0x3a39bcf7	0.0007085348
37	0x39b95518	0.0003534935
38	0x3a294ec2	0.0006458574
39	0x3b2edf61	0.0026683437
40	0x39e97297	0.000445266
41	0x398f598b	0.000273418
42	0x39ac6993	0.00032885055
43	0x3adb7e2d	0.0016745977
44	0x3a6206c0	0.00086222216
45	0x39bccc34	0.00036010297
46	0x3a87dde1	0.0010365808
47	0x3a3f0d9b	0.0007288099
48	0x3a47e92f	0.00076259946
49	0x3a02e6ab	0.00049934787
50	0x3a05264a	0.0005079253
51	0x3963240a	0.00021661833
52	0x3a2496bd	0.0006278565
53	0x39ebdbb7	0.00044986393
54	0x3a3a91e0	0.0007117074
55	0x3a1c2bb8	0.00059574423
56	0x3a19f8fc	0.00058735884
57	0x39fdd368	0.0004841343
58	0x397c35d9	0.00024052653
59	0x3aa6e5f9	0.0012733332
60	0x3ab5b0b7	0.0013861869
61	0x3a743210	0.0009315321
62	0x3a51dc9a	0.00080055895
63	0x3a0f380c	0.0005463369

pfn.blocks.0.proj.weight f4 [64, 8]
0	0x3d70a6ca	0.058752812
1	0xbe44ed42	-0.19231132
2	0xba1fbf5b	-0.0006093883
3	0xba797716	-0.00095163414
4	0xbd0e0525	-0.034672875
5	0x3c9602b9	0.018311845
6	0xbbd7e8e7	-0.0065890434
7	0xbdac4be2	-0.08412911
8	0xbd706f43	-0.058699857
9	0x3e0576b4	0.13033563
10	0x3db56d8e	0.088587865
11	0x3d38dd8c	0.04513316
12	0xbd2ab5c6	-0.04167726
13	0xbd95a6d2	-0.07307209
14	0x3d7564a4	0.05991043
15	0x3d23fec6	0.040037893
16	0x3d10ef1e	0.03538429
17	0x3cd1f523	0.025629586
18	0xbd369ef3	-0.04458518
19	0xbbf21e7e	-0.007388889
20	0xbcf5c2e0	-0.03000015
21	0x3e04f0b1	0.12982441
22	0xbbe25f2d	-0.0069083185
23	0x3ca4b8e1	0.020107688
24	0xbd6ed5e9	-0.05830947
25	0x3d99c25a	0.07507773
26	0xbe20f726	-0.1571928
27	0xbbe8d012	-0.007104882
28	0x3d4c2701	0.049841885
29	0xbd6a1d82	-0.057157047
30	0x3cbceffd	0.023063654
31	0x3d491ce1	0.049099807
32	0x3d47ee13	0.04881103
33	0x3cdc44ae	0.026888218
34	0x3d3df236	0.04637357
35	0x3cc359f3	0.023846602
36	0xbc84ac79	-0.016195523
37	0xbb069368	-0.0020534638
38	0x3d82d9a8	0.06389171
39	0x3b5563ea	0.0032560774
40	0xbd8e35ab	-0.0694383
41	0x3d8e58e0	0.06950545
42	0x3c3215a6	0.010869419
43	0x3c9d24cc	0.019182585
44	0x3b010409	0.0019686243
45	0xbc4ae49c	-0.012383606
46	0x3984e018	0.00025343965
47	0x3dc99bf1	0.098441966
48	0x3d708b1b	0.05872641
49	0x3e41c66f	0.18923353
50	0xbe1ede7e	-0.15514562
51	0xbc546c58	-0.012965284
52	0xbc90a8e9	-0.017658668
53	0xbd9e9933	-0.07744064
54	0xbd8d48f6	-0.06898682
55	0xbd21b4fa	-0.039479233
56	0xbe0c103a	-0.13678065
57	0xbdccfc59	-0.10009069
58	0xbcbbcb56	-0.022924107
59	0xb8e5a5d6	-0.0001095046
60	0x3ce36638	0.027758703
61	0x3cd0cf60	0.02548951
62	0x3ccc5c9e	0.024946507
63	0xbd341a0b	-0.04397015
64	0xbc3c8293	-0.011505741
65	0x3bcab17f	0.00618571
66	0x3d8d9de8	0.06914884
67	0xbca9489e	-0.02066451
68	0xbcbe994f	-0.023266463
69	0xbd485ff8	-0.048919648
70	0x3d20f571	0.03929657
71	0x3d4b70c7	0.0496681
72	0xbd132c76	-0.035931073
73	0x3d529809	0.051414523
74	0xbdda546a	-0.10660632
75	0xbcaa73bc	-0.02080714
76	0x3cb6eae0	0.022328794
77	0x3df7426a	0.12073214
78	0xbd1688aa	-0.036751427
79	0x3d39a631	0.045324508
80	0xbd883b40	-0.06651926
81	0x3d915695	0.07096592
82	0x392e73ce	0.00016637074
83	0xbd0a6e28	-0.03379646
84	0xbd0ad565	-0.033894915
85	0xbd983a69	-0.07433016
86	0xb906d21f	-0.00012857512
87	0xbca5598d	-0.020184303
88	0x3b7f79a9	0.0038982427
89	0xbb6b152e	-0.0035870778
90	0x3ce6e4b8	0.028185233
91	0xbc53f5db	-0.0129370345
92	0x3cb35d27	0.021895004
93	0x3e0fc4a3	0.14039855
94	0x3b124fb8	0.0022325348
95	0x3b428a78	0.0029684585
96	0x3d8bd9d5	0.068286575
97	0x3e245adc	0.16050285
98	0xbd0159d5	-0.03157981
99	0x3be530e8	0.0069943555
100	0xbd1adb77	-0.037806954
101	0x3cd584c1	0.026064279
102	0x3c9b7c3c	0.018980138
103	0xbd6997e7	-0.05702963
104	0xbba57b06	-0.005050066
105	0xbd13e672	-0.03610844
106	0xbdd22eaa	-0.10262807
107	0xbc55103b	-0.013004358
108	0xbc543f0e	-0.0129544865
109	0x3c195d0b	0.009360562
110	0xbc23f448	-0.010006972
111	0x3c28c350	0.010300472
112	0x3d025a0f	0.031824168
113	0xbc80611c	-0.015671305
114	0x3d458a60	0.048227668
115	0xbb085347	-0.002080159
116	0x3cad8e19	0.021185922
117	0x3d9c8451	0.07642425
118	0x3bbee749	0.005825911
119	0x3d7ae625	0.06125464
120	0x3bc1c1d3	0.005912998
121	0x3d80a436	0.06281321
122	0xbdc7e47c	-0.09760377
123	0xbcdde6f4	-0.027087666
124	0x3c626fce	0.013820602
125	0xbe7656b2	-0.24056509
126	0x3c59b437	0.0132875955
127	0x3c911460	0.01770991
128	0x3d96ea1d	0.07368872
129	0xbe689b09	-0.22715391
130	0x3e1bfaaa	0.1523234
131	0xbb1a97ba	-0.0023588971
132	0xbd99a63a	-0.07502408
133	0x3d2464b9	0.04013512
134	0xbc97ee3e	-0.01854622
135	0x3c22848f	0.0099193
136	0xbc862917	-0.016377015
137	0xbda8bc2b	-0.08239015
138	0x3dc37fc7	0.09545856
139	0xbcbee2ba	-0.023301471
140	0xbbcb5751	-0.0062054773
141	0xbcaa23b7	-0.020768983
142	0xbbf390c1	-0.0074330275
143	0x3d88000a	0.066406325
144	0x3cc73607	0.024317754
145	0xbd58f0d9	-0.052964065
146	0x3d7a70f6	0.061142884
147	0x3d057c84	0.03258945
148	0xbc901d03	-0.017591959
149	0xbcfbc008	-0.030731216
150	0x3c8ca139	0.01716672
151	0x3d5a7c48	0.05334118
152	0x3cb4e4fe	0.022081848
153	0x3df403b1	0.119147666
154	0xbd4c6a02	-0.049905784
155	0x3c8a1432	0.016855333
156	0x3c70ee36	0.014705231
157	0xbe013dc3	-0.12621216
158	0x3d05fd94	0.032712534
159	0x3ccda994	0.025105275
160	0xbcab7bd9	-0.020933079
161	0xbc6f522b	-0.014606993
162	0xbd8ed3ef	-0.06974017
163	0xbc12b63b	-0.00895458
164	0xbcb7a0f3	-0.022415614
165	0xbc9b8430	-0.01898393
166	0xbcb65143	-0.022255545
167	0xb8617779	-5.3755448e-05
168	0x3d027432	0.031849094
169	0x3dc727c9	0.09724385
170	0x3c8b8cfb	0.017034998
171	0x3bbb5052	0.005716362
172	0x3b9b161b	0.00473286
173	0x3e2e27c2	0.17007354
174	0xbc46105d	-0.012088862
175	0x3c76da20	0.0150666535
176	0xbdc4d3c7	-0.09610706
177	0xbdc0668f	-0.093945615
178	0x3e2d6a94	0.16935188
179	0xbb5946c8	-0.0033153761
180	0xbc813e40	-0.015776753
181	0x3e62e2e7	0.22156869
182	0x3d0cb081	0.034348015
183	0x3c8265d3	0.015917694
184	0x3d7fd364	0.062457457
185	0x3dd637f7	0.10459893
186	0x3dc1689b	0.0944378
187	0x3a89dcfc	0.0010518129
188	0x39917245	0.00027741693
189	0x3ddff5d0	0.10935557
190	0xbc549bd5	-0.012976606
191	0xbd5af64c	-0.053457543
192	0xbd8a1a1b	-0.067432605
193	0xbe5c8c92	-0.21537998
194	0xbd38d831	-0.04512805
195	0xbc2152b3	-0.009846377
196	0xbd40f147	-0.0471051
197	0xbd09f7df	-0.033683654
198	0xbc299a22	-0.0103516895
199	0x3beae30b	0.007168179
200	0x3cb86518	0.022509143
201	0xbe3d4289	-0.18482412
202	0x3dbdf7b8	0.09275764
203	0x3b8a4a94	0.004220316
204	0xbd60d575	-0.05489107
205	0xbe191f2e	-0.149533
206	0xbcfa568b	-0.030558845
207	0xbc59f01c	-0.013301875
208	0xbce346c1	-0.027743699
209	0xbd37ddf1	-0.044889394
210	0xbd172166	-0.036897086
211	0x3c8af12f	0.016960708
212	0x3c380d22	0.0112336
213	0xbd0a4e0c	-0.033765838
214	0x3bc707f0	0.0060739443
215	0xbdc3fa2c	-0.09569201
216	0xbe19a890	-0.15005708
217	0xbd9c5819	-0.07633991
218	0x3e624105	0.22095115
219	0xbcf8e3bf	-0.030382035
220	0xbd07033e	-0.032962076
221	0x3e95cb55	0.29256693
222	0x3b74d406	0.003735782
223	0x3d9a0a10	0.075214505
224	0xbd55af27	-0.05216899
225	0xbe37bead	-0.17943831
226	0x3dd7b73e	0.105329975
227	0x3c850c8a	0.01624133
228	0x3c250af4	0.010073412
229	0xbce9a9ed	-0.02852341
230	0xbc4dc643	-0.012559476
231	0x3cc7dfb9	0.024398671
232	0xbe030ab7	-0.12797056
233	0xbe2281ff	-0.15869902
234	0x3b73f889	0.0037226996
235	0xbc9bda2a	-0.019024927
236	0xbd4aad6a	-0.049481787
237	0xbca72f67	-0.020408345
238	0xbd9f76b3	-0.07786312
239	0x3ce3d028	0.027809218
240	0xbdf37d4f	-0.11889135
241	0x3d91e54b	0.07123812
242	0x3d8c9a5d	0.0686538
243	0xbd45a67c	-0.048254475
244	0x3c53f86a	0.0129376445
245	0x3b6fb501	0.0036576393
246	0xbd746424	-0.059665814
247	0x3d361d38	0.04446146
248	0xbc0283ee	-0.007966025
249	0x3bfddf59	0.0077475724
250	0xbdccaadd	-0.09993527
251	0x3bfebba1	0.007773832
252	0x3c9e737e	0.01934218
253	0x3d54fb39	0.051997397
254	0x3c65237f	0.013985514
255	0xbd139ee5	-0.036040206

backbone.conv1.weight f4 [32, 64, 3, 3]
0	0x3dc1f7c1	0.094710834
1	0xbd2079e9	-0.039178763
2	0x3d861e87	0.065487914
3	0x3cfa9e41	0.03059304
4	0x3bb5ad0e	0.0055443114
5	0x3c055957	0.008138976
6	0x3ca101c8	0.01965417
7	0xbda43ebd	-0.08019779
8	0x3bf62b2e	0.0075124716
9	0x3b7ac3d8	0.0038263705
10	0xbd6ee520	-0.05832398
11	0x3da1518a	0.078768805
12	0x3d6aebdc	0.05735384
13	0xbcecf38b	-0.028924724
14	0xbb06388f	-0.002048049
15	0x3e1788fd	0.1479835
16	0x3c3cb669	0.011518099
17	0x3e008ee5	0.1255451
18	0x3d967b0b	0.07347687
19	0xbd48c883	-0.049019348
20	0x3d157809	0.036491428
21	0xbb5a9979	-0.0033355637
22	0xbbfb6bc1	-0.0076727574
23	0x3cbe9594	0.023264684
24	0xbd4cc774	-0.0499949
25	0xbe177ca8	-0.14793646
26	0x3d89655e	0.067087874
27	0xbda39979	-0.07988257
28	0xbe14bbe2	-0.14524797
29	0xbe00a178	-0.12561595
30	0x3d02972d	0.031882454
31	0xbd40b803	-0.047050487
32	0xbd702f36	-0.058638774
33	0x3d9cf013	0.07662978
34	0xbce04531	-0.027376743
35	0x3d95cc20	0.073143244
36	0x3d1d1153	0.0383466
37	0xbd202200	-0.039094925
38	0x3db8ae19	0.090175815
39	0x3da34d90	0.07973778
40	0x3c806af3	0.015675997
41	0x3dcb1527	0.09916144
42	0x3dd58b5d	0.10426972
43	0x3ca94953	0.020664847
44	0x3dc427d0	0.09577906
45	0x3d96f1b0	0.07370317
46	0x3cdb4259	0.026765035
47	0x3daffceb	0.08593162
48	0xbd95987b	-0.07304474
49	0xbd4bad4d	-0.04972582
50	0xbc369e1f	-0.011146097
51	0xbd7030c7	-0.058640268
52	0xbe0569f8	-0.13028705
53	0x3bfc2722	0.0076950947
54	0xbda99c4a	-0.08281763
55	0xbe83bb1d	-0.25728694
56	0xbe14dee8	-0.14538157
57	0xbe067da1	-0.13133861
58	0xbe236142	-0.1595507
59	0xbe6edbd0	-0.2332604
60	0xbe10aa6f	-0.14127515
61	0xbeb420d3	-0.35181293
62	0xbdf37030	-0.118866324
63	0x3c6c6cbc	0.014430221
64	0xbd94cee1	-0.072660215
65	0x3b88bb1d	0.0041726963
66	0x3c0b639e	0.008507637
67	0xbd7cb5a6	-0.06169667
68	0x3cc4a0a3	0.024002379
69	0x3cfb6c5d	0.03069132
70	0xbdbd9190	-0.092562795
71	0x3c2143c6	0.009842819
72	0x3d3e675d	0.046485294
73	0x3c9cf286	0.019158613
74	0x3d10c9f2	0.03534884
75	0x3c2219f3	0.009893882
76	0xbdd23889	-0.102646895
77	0x3cbae2f1	0.022813292
78	0xbd0ac958	-0.033883423
79	0xbd6eda19	-0.058313463
80	0xbbb14f7a	-0.0054110857
81	0x3b8e2686	0.0043380884
82	0xbe152595	-0.14565118
83	0xbd4aa2d8	-0.049471706
84	0xbd5efd88	-0.054441005
85	0xbd9edfc6	-0.07757525
86	0xbdde352e	-0.10849987
87	0xbd8c25c4	-0.06843141
88	0xbe204ce0	-0.15654325
89	0x3d99cefd	0.07510183
90	0xbe16fee7	-0.14745675
91	0xbe1c6552	-0.15273026
92	0xbdf62dc1	-0.120204456
93	0xbd297874	-0.04137464
94	0xbd9f3e58	-0.07775563
95	0xbcde1133	-0.02710781
96	0x3d2c4827	0.042060997
97	0xbcc46f98	-0.023978993
98	0x3e1be8df	0.15225552
99	0xbd840ad7	-0.0644738
100	0xbdf49290	-0.11942017
101	0xbdf9acf5	-0.12191192
102	0x3d3cce11	0.046094958
103	0x3cc0a6e0	0.023517072
104	0xbd1e49dc	-0.038644657
105	0x3d5c91ea	0.053850092
106	0xbd754cd3	-0.05988772
107	0x3caf6487	0.02141024
108	0x3cc3004f	0.023803858
109	0xbe12c11f	-0.14331482
110	0x3d175039	0.03694174
111	0x3ca3313e	0.019920941
112	0xbd4dcefa	-0.050246216
113	0xbcb6b533	-0.0223032
114	0xbc158e0d	-0.009128106
115	0xbe8d7409	-0.2762759
116	0xbdc007a3	-0.093764566
117	0x3c8e6dc1	0.01738632
118	0xbdb8abc7	-0.09017139
119	0xbdac1d2a	-0.08404
120	0x3d0db1b9	0.034593318
121	0xbd458b90	-0.0482288
122	0xbd536ed4	-0.051619366
123	0x3d381c92	0.04494912
124	0x3b473b36	0.0030400283
125	0x3dde4682	0.10853292
126	0xbdb78f31	-0.089628585
127	0xbe0f6aa7	-0.14005528
128	0xbdaffdf3	-0.08593359
129	0x3cae5897	0.021282477
130	0xbd884bcf	-0.06655084
131	0xbd554c6b	-0.05207483
132	0x3df8d8fb	0.12150761
133	0x3cfd5ad1	0.030927094
134	0x3dd1b501	0.10239602
135	0x3d197a07	0.03746989
136	0xbddb07fb	-0.106948815
137	0xbd2af73b	-0.041739684
138	0x3dd97cda	0.10619517
139	0x3a034495	0.0005007473
140	0xbc0d3cbc	-0.008620437
141	0x3e2eff17	0.17089497
142	0x3d406bab	0.04697768
143	0x3e1a1852	0.1504834
144	0x3d601cef	0.054715093
145	0xbdbec70f	-0.09315311
146	0x3d3797ba	0.044822432
147	0x3dc0d75a	0.09416075
148	0xbd15d10c	-0.036576316
149	0x3c249afb	0.010046716
150	0x3e342513	0.17592268
151	0x3d48f2f5	0.049059827
152	0x3df74509	0.12073714
153	0xbdc10e9e	-0.09426616
154	0xbe0928e7	-0.1339451
155	0xbe0490a9	-0.12945808
156	0x3c184d8e	0.009295834
157	0xbdb4d506	-0.088296935
158	0xbe074c52	-0.13212708
159	0x3da48917	0.0803396
160	0x3c4a9d40	0.012366593
161	0x3e10b1cc	0.14130324
162	0xbdb925f2	-0.090404406
163	0xbdbc7b8a	-0.09203251
164	0xbc7d9e35	-0.015479614
165	0x3bbfd3ef	0.005854122
166	0xbd791520	-0.060811162
167	0x3ce2b3a7	0.027673556
168	0x3d2928e2	0.041298755
169	0xbdd1d4b2	-0.102456465
170	0xb7a952ea	-2.018498e-05
171	0xbdd2c1f9	-0.102909036
172	0xbe1afb15	-0.15134843
173	0xbd51edd9	-0.05125222
174	0xbc1d7672	-0.009610759
175	0xbd88592f	-0.066576354
176	0xbd82bef4	-0.06384078
177	0x3dda471c	0.10658094
178	0x3d11b45f	0.035572406
179	0x3e1090f3	0.14117794
180	0x3dc96db0	0.09835374
181	0xbd2c70c7	-0.04209974
182	0x3daf40f2	0.08557309
183	0x3d1828c3	0.03714825
184	0xbcaec316	-0.021333259
185	0xbb0572d2	-0.0020362628
186	0xbce26521	-0.027636113
187	0xbe77bbe4	-0.24192768
188	0x3b512855	0.003191491
189	0xbccf60f2	-0.025314782
190	0xbe2c59f8	-0.16831195
191	0xbd829264	-0.06375578
192	0x3d6ac4f8	0.05731675
193	0xbd72176f	-0.05910438
194	0xbd11990a	-0.03554634
195	0x3d530a06	0.05152323
196	0xbd91ac77	-0.07112973
197	0x3dd54b43	0.10414746
198	0xbc0732d8	-0.008251868
199	0xbe091cfa	-0.1338996
200	0xbda1ce3c	-0.07900664
201	0xbb1d521e	-0.0024005244
202	0xbcebdbbf	-0.028791307
203	0x3b7e4f44	0.003880457
204	0x3d5fdb3f	0.05465245
205	0xbd440f01	-0.04786587
206	0x3ce5da00	0.028058052
207	0x3d2eee4d	0.04270773
208	0xbd982507	-0.074289374
209	0x3d099f8b	0.033599418
210	0x3dd76c41	0.10518695
211	0xbc86d19f	-0.016457377
212	0x3d18ae03	0.037275326
213	0x3d85f21b	0.065403186
214	0xbcc914d0	-0.024546057
215	0x3d3bd60c	0.045858428
216	0x3d505953	0.050866436
217	0xbc7f6ac5	-0.015589421
218	0x3d4d7973	0.05016465
219	0x3d4f822e	0.05066126
220	0x3cdd4369	0.027009683
221	0x3cdcee1e	0.026969012
222	0x3cac5cd2	0.021040354
223	0xbba9a61d	-0.005177273
224	0x3d29a761	0.04141939
225	0xbdc0de49	-0.094173975
226	0xbe4acc7a	-0.19804564
227	0xbe29daa4	-0.16587311
228	0xbc70bc32	-0.014693307
229	0xbe07eca9	-0.13273872
230	0xbda757fb	-0.08171078
231	0x3cee04a3	0.029054945
232	0xbda4f6b7	-0.080548696
233	0x3dc41e4b	0.095760904
234	0xbb9e8cae	-0.0048385477
235	0xbdbfb055	-0.093598045
236	0xbd6d1777	-0.057883706
237	0xbcc76a49	-0.024342673
238	0xbdd00432	-0.1015705
239	0xbd781c85	-0.060574073
240	0xbdd7a862	-0.10530163
241	0xbe08250a	-0.1329538
242	0xbddffccc	-0.10936889
243	0x3daaf36b	0.083472095
244	0xbdaccac5	-0.08437113
245	0xbd4adfb7	-0.049529757
246	0x3dbf72d9	0.09348077
247	0x3b8f4547	0.004372272
248	0xbc487e3b	-0.012237127
249	0x3df275e5	0.11838893
250	0x3c867386	0.016412508
251	0x3db84d95	0.089991726
252	0xbb0da6dd	-0.002161435
253	0xbdc2d9c6	-0.09514193
254	0xbe08b6c3	-0.13350968
255	0xbcfe7ea3	-0.031066244

backbone.bn1.weight f4 [32]
0	0x3f800c20	1.00037
1	0x3f6a79ed	0.91592294
2	0x3f63c5dc	0.88973784
3	0x3fa4591e	1.2839696
4	0x3f7a6769	0.9781404
5	0x3f8ce3ee	1.1007059
6	0x3f7d2eb5	0.98899394
7	0x3f758ca0	0.959177
8	0x3f8d506f	1.1040171
9	0x3f62889a	0.8848969
10	0x3f939232	1.152899
11	0x3f8116aa	1.0085042
12	0x3f6a6c4f	0.91571516
13	0x3f6cf8c3	0.9256708
14	0x3f8c81e5	1.0977141
15	0x3f84e3b5	1.0381991
16	0x3f8b093c	1.0862193
17	0x3f63c8c9	0.8897825
18	0x3f94f45c	1.1637073
19	0x3f60d05b	0.87817925
20	0x3f735d72	0.9506446
21	0x3f7aa364	0.97905564
22	0x3f74ea4f	0.95670027
23	0x3f8e27fa	1.110595
24	0x3f6ea3b0	0.9321852
25	0x3f90a81f	1.1301306
26	0x3f78b54e	0.9715165
27	0x3f703ba5	0.9384101
28	0x3f6e9d81	0.9320908
29	0x3f7cb306	0.9871067
30	0x3f8ca05e	1.098644
31	0x3f92e0bc	1.1474833

backbone.bn1.bias f4 [32]
0	0x3d27007b	0.040771943
1	0x3d2d98cf	0.042382058
2	0xbe1a1df1	-0.15050484
3	0x3e9592c3	0.29213533
4	0xbca07c0b	-0.019590398
5	0x3e2de297	0.16980968
6	0xbdb89390	-0.0901252
7	0xbd0bf3bd	-0.034167994
8	0x3dbc0091	0.091797955
9	0xbe00bc47	-0.12571822
10	0x3e880b15	0.26570955
11	0x3e82c352	0.25539643
12	0x3da1d920	0.079027414
13	0xbe3245be	-0.17409417
14	0x3e080988	0.13284886
15	0xbc9736c4	-0.018458731
16	0x3e6d94fc	0.23201364
17	0xbdac1dde	-0.08404134
18	0x3e916a67	0.2840149
19	0x3cae77cb	0.021297356
20	0x3d9edd0b	0.07757004
21	0xbdcfe82c	-0.10151705
22	0xbd868604	-0.0656853
23	0x3e3aaeba	0.18230715
24	0xbe2d1adb	-0.16904776
25	0x3dc01612	0.093792096
26	0xbb0a89e2	-0.0021139313
27	0xbe1d6319	-0.15369834
28	0x3e71d6e3	0.23617129
29	0xbc46ac57	-0.01212605
30	0x3d5894c7	0.05287626
31	0x3d9980c7	0.074952655

backbone.bn1.running_mean f4 [32]
0	0xc0f782a5	-7.734698
1	0xc14ce808	-12.806648
2	0x41122b91	9.135636
3	0xc1631d8e	-14.1947155
4	0x40a3ff28	5.124897
5	0xc0f2531e	-7.572646
6	0x3ff6af8e	1.9272325
7	0x4098709e	4.763747
8	0xc0e58bd9	-7.1733212
9	0x40d67174	6.7013493
10	0xc18abcc7	-17.342176
11	0xc167a6d3	-14.478229
12	0xc0ec33e4	-7.3813343
13	0x40a9acdb	5.3023505
14	0xc1224779	-10.142449
15	0x3fa2fc9e	1.2733343
16	0xc14f4543	-12.95441
17	0xc11a944f	-9.661208
18	0xc17f61f1	-15.961411
19	0xc168db45	-14.553533
20	0xc0e26bb8	-7.0756493
21	0xbfbc478a	-1.4709332
22	0xbed0466b	-0.40678725
23	0xc129e86e	-10.619246
24	0x40a5990b	5.174932
25	0xc155c4d5	-13.360555
26	0x4073d4d8	3.809866
27	0xc0d17721	-6.545792
28	0xc122b2ec	-10.168682
29	0x3f4c90cf	0.7990846
30	0xc15ac2f0	-13.672592
31	0xc188fce0	-17.123474

backbone.bn1.running_var f4 [32]
0	0x43b4da25	361.70425
1	0x440d1c4c	564.44214
2	0x439c232a	312.27472
3	0x43c2e965	389.8234
4	0x43869925	269.19644
5	0x43ce2548	412.29126
6	0x43092f8d	137.18575
7	0x435ce585	220.89656
8	0x431e25f3	158.14824
9	0x43b26e2a	356.86066
10	0x446a30d9	936.76324
11	0x44539da9	846.46344
12	0x43885d58	272.72925
13	0x435f2bfa	223.17178
14	0x44098751	550.1143
15	0x433db69f	189.71336
16	0x43ddac04	443.34387
17	0x43b63cec	364.47595
18	0x4426618c	665.5242
19	0x441e8d12	634.2042
20	0x43927e88	292.98853
21	0x43899ba5	275.21597
22	0x4339d4d4	185.83136
23	0x43a6868c	333.05115
24	0x434dbdda	205.74161
25	0x43d124b8	418.28687
26	0x43477871	199.47047
27	0x43dc42a6	440.5207
28	0x440ffe4a	575.97327
29	0x4383267e	262.30072
30	0x4448ca1d	803.158
31	0x44226860	649.63086

backbone.conv2.weight f4 [64, 32, 3, 3]
0	0x3dde5e36	0.10857813
1	0x3d012b08	0.03153518
2	0xbdb02bbb	-0.08602091
3	0xbb34313c	-0.0027495166
4	0xbd89e3ac	-0.06732878
5	0xbcf36ae6	-0.02971406
6	0xbd866298	-0.06561774
7	0xbdd0db79	-0.10198111
8	0xbc4479a6	-0.011991894
9	0x3d89a74a	0.06721361
10	0x3d076126	0.033051632
11	0xbd4123b1	-0.04715318
12	0x3b8c0aea	0.004273762
13	0x3dbc820e	0.092044935
14	0x3d8cd9bb	0.06877466
15	0x3c9e266f	0.019305436
16	0x3db3ba5f	0.08775782
17	0x3dcfa59a	0.10139008
18	0x3d1ae307	0.037814166
19	0xbe10fc13	-0.14158659
20	0xbd5abb6b	-0.053401392
21	0x3ced926b	0.029000482
22	0xbdbf6017	-0.093444996
23	0x3d7ddbd9	0.06197724
24	0xbd71b462	-0.059009917
25	0x3da4d282	0.08047964
26	0x3cf3346b	0.02968808
27	0xbc031263	-0.007999989
28	0xbd22afe5	-0.039718527
29	0xbde49341	-0.11160899
30	0xbd975edd	-0.073911406
31	0xbc198a75	-0.00937139
32	0x3d351346	0.044207834
33	0x3c470803	0.012147906
34	0x3e7d5972	0.24741152
35	0x3e1e45c2	0.15456298
36	0x3de26bd6	0.11055724
37	0x3d2eb55e	0.042653434
38	0xbb5673fc	-0.003272294
39	0xbc0a699f	-0.008448034
40	0xbe0049e4	-0.12528187
41	0xbd178198	-0.036988825
42	0xbdb571ed	-0.0885962
43	0xbd986b2c	-0.074423164
44	0xbd7b3ea5	-0.06133904
45	0xbc039268	-0.008030511
46	0xbd71ff8f	-0.05908161
47	0x3c47dcf0	0.012198672
48	0x3cdc18ae	0.026867237
49	0xbcb98bc2	-0.02264965
50	0x3d9a3b9b	0.075309
51	0xbb5c02a9	-0.0033570922
52	0xbcfd1671	-0.03089449
53	0x3b64f04e	0.0034933272
54	0xbcb9a15b	-0.022659948
55	0xbe2a4fe7	-0.16632043
56	0xbda2085b	-0.0791175
57	0xbd191629	-0.03737465
58	0xbd757cb0	-0.059933364
59	0x3daaf41a	0.0834734
60	0x3ccb4d2c	0.024817072
61	0x3d2622d1	0.040560547
62	0xbd925aa4	-0.071461946
63	0x3d8367f7	0.06416314
64	0x3da933ee	0.08261858
65	0x378e2d6e	1.6948874e-05
66	0xbdab6dae	-0.08370529
67	0xbdca7dae	-0.09887253
68	0xbd92723b	-0.07150694
69	0xbe6c96fa	-0.23104468
70	0xbe2ea0b3	-0.1705349
71	0xbd87a991	-0.06624139
72	0x3b6f624a	0.003652709
73	0x3dcb5d40	0.099298954
74	0x3d75d835	0.060020644
75	0xbdb83006	-0.08993535
76	0xbe05c39c	-0.130629
77	0x3d7e640f	0.062107142
78	0xbacea60a	-0.0015766036
79	0x3ddb5d3e	0.10711144
80	0x3e03c293	0.12867193
81	0xbd0bc2eb	-0.034121435
82	0xbdcedcf6	-0.10100739
83	0xbd7f86c2	-0.062384374
84	0xbd0d44dc	-0.034489498
85	0xbc0106c0	-0.0078751445
86	0xbc1c6240	-0.009544909
87	0x3cdd82b6	0.027039867
88	0x3dff26d5	0.124585785
89	0xbcdb4901	-0.02676821
90	0x3d3c685a	0.045997955
91	0xbe043479	-0.12910642
92	0xbe3d549e	-0.1848931
93	0xbdaa745e	-0.083229765
94	0xbe13c92b	-0.14432208
95	0x3de47949	0.11155946
96	0xbe0f12d1	-0.13972022
97	0x3eea3089	0.45740154
98	0x3e9559f6	0.29170197
99	0xbd0af155	-0.03392156
100	0xbdfae360	-0.122503996
101	0xbe313111	-0.17303874
102	0xbca961f1	-0.020676585
103	0xbd028334	-0.031863406
104	0x3cb4026d	0.021973813
105	0x3c0f579a	0.008748913
106	0x3d444b36	0.04792329
107	0x3d08e221	0.03341878
108	0x3d5bd5a5	0.053670544
109	0xbd7c3203	-0.061571132
110	0xbe54e45a	-0.20790234
111	0x3d9efba7	0.077628426
112	0x3d57bc6c	0.052669927
113	0xbd3461dc	-0.04403864
114	0xbd03f36a	-0.03221456
115	0xbd82913e	-0.06375359
116	0xbd81f81e	-0.06346153
117	0x3dcb8907	0.09938245
118	0xbda2b201	-0.07944108
119	0xbd3d1ccd	-0.046170045
120	0xbd599d16	-0.053128324
121	0xbdc82fb1	-0.097747214
122	0xbb90ce31	-0.004419111
123	0xbdc87d51	-0.09789527
124	0x3e66d884	0.22543532
125	0x3df0ab37	0.11751407
126	0xbd274fdc	-0.040847644
127	0x3d375f10	0.044768393
128	0x3cd8e622	0.026476923
129	0x3d780364	0.06055011
130	0x3d8429e4	0.064533025
131	0x3d7a4a81	0.06110621
132	0xbc494689	-0.012284883
133	0x3d4a2b95	0.04935797
134	0x3d96fe29	0.07372696
135	0x3d2bcbc4	0.041942373
136	0xbba24a10	-0.0049526766
137	0xbd8a5f11	-0.06756414
138	0x3db936c0	0.09043646
139	0x3d7b7a5e	0.061395995
140	0xbd3d686c	-0.046242163
141	0xbd0e986e	-0.034813337
142	0xbdffa0f1	-0.12481869
143	0xbdb66efd	-0.08907888
144	0xbd837079	-0.06417937
145	0xbd997530	-0.07493055
146	0xbdab100f	-0.08352672
147	0x3d113d5d	0.03545891
148	0x3cda4ce3	0.02664799
149	0xbdb21812	-0.08695997
150	0xba258dfa	-0.00063154066
151	0xbd2b4306	-0.041811965
152	0xbde6df45	-0.11273054
153	0x3da61a73	0.081105135
154	0x3cc22f00	0.023704052
155	0xbc1688f2	-0.009187924
156	0xbd259a76	-0.04043051
157	0x3dd22ca1	0.102624185
158	0x3ddc77a9	0.10765011
159	0xbe4a2560	-0.1974082
160	0x3b7b19f8	0.003831504
161	0x3c761e2a	0.01502184
162	0xbd7dd99b	-0.061975103
163	0xbd340b07	-0.04395583
164	0xbca65846	-0.020305764
165	0xbe10b2fd	-0.14130779
166	0xbe28044e	-0.16407892
167	0xbd60bc82	-0.054867275
168	0xbe030ce6	-0.12797889
169	0x3eac6709	0.3367236
170	0x3e175402	0.1477814
171	0x3c6daf0e	0.014507068
172	0xb7cc65f9	-2.436618e-05
173	0x3c9b2a05	0.018940935
174	0x3d6ef753	0.058341336
175	0x3d9061ea	0.070499256
176	0x3d8e3f9f	0.069457285
177	0x3c4fab3e	0.012675105
178	0x3c2e842d	0.01065163
179	0x3c33bc7f	0.010970234
180	0x3afc6c2f	0.0019258315
181	0x3c723ab6	0.014784506
182	0x3ca76ef9	0.020438658
183	0x3c1d28d6	0.009592256
184	0x3def5875	0.11686794
185	0x3cf7a462	0.030229751
186	0xbd64f350	-0.055896103
187	0x3dbeefb6	0.09323065
188	0x3e0d1ca4	0.13780457
189	0x3dba8afd	0.09108541
190	0xbd697dc2	-0.057004698
191	0xbd918f80	-0.071074486
192	0x3d6f0bf3	0.058361005
193	0x3d9ed284	0.077549964
194	0xbc918041	-0.017761352
195	0xbd3cf647	-0.046133306
196	0x3ce339ca	0.027737517
197	0x3da1d864	0.07902601
198	0x3d8e6bb2	0.06954135
199	0x3dd3df97	0.10345381
200	0x3cfda9ff	0.03096485
201	0xbd81a4aa	-0.06330235
202	0xbd22a0d7	-0.03970417
203	0xbda1888f	-0.078873746
204	0xbd7013ca	-0.058612622
205	0x3d1804bc	0.03711389
206	0xbde0a827	-0.109695725
207	0xbde6cd77	-0.11269658
208	0xbd0f9e3a	-0.035063006
209	0x3c9bd582	0.019022707
210	0xbdc06063	-0.09393384
211	0xbd355639	-0.04427168
212	0xbd5a72ae	-0.053332023
213	0xbe46fc8e	-0.1943228
214	0x3d873422	0.066017404
215	0xbc5ead7c	-0.013591167
216	0x3c640ef3	0.01391958
217	0x3cfd97cd	0.030956173
218	0x3e16b42f	0.14717172
219	0x3d542681	0.051794533
220	0x3d8221dc	0.063541144
221	0x3df834e5	0.12119464
222	0x3cc44d0c	0.02396252
223	0x3d9af534	0.075663
224	0x3db49db9	0.08819146
225	0x3cdfbba0	0.027311146
226	0x3d94f2fb	0.07272907
227	0x3d5d43b0	0.05401963
228	0xbd95e1f5	-0.073184885
229	0xbdb7ee7f	-0.089810364
230	0x3e04bde1	0.12963058
231	0xbd362fa2	-0.04447902
232	0x3ec43c86	0.38327426
233	0x3e36591f	0.17807434
234	0x3ced167f	0.028941391
235	0x3d785113	0.060624193
236	0xbd221c36	-0.039577685
237	0x3dc9fd00	0.09862709
238	0x3d82728c	0.06369504
239	0x3d816443	0.063179515
240	0xbe2e0660	-0.1699462
241	0xbd17ef37	-0.037093367
242	0x3d9063cf	0.07050287
243	0xbd6fd82d	-0.05855577
244	0xbd2b5585	-0.041829605
245	0x3deafca5	0.11473969
246	0xbd881005	-0.066436805
247	0xbc2a05d6	-0.010377368
248	0x3e176919	0.14786185
249	0x3caf415b	0.021393469
250	0x3e9e33fd	0.3089904
251	0x3e324041	0.17407323
252	0x3c982a30	0.018574804
253	0xbd9e402f	-0.07727086
254	0xbcf52ac8	-0.029927626
255	0x3d86f2d7	0.06589287

backbone.bn2.weight f4 [64]
0	0x3f8b9f1c	1.0907931
1	0x3f67c997	0.90541977
2	0x3f98ae77	1.1928242
3	0x3f82f808	1.0231943
4	0x3f834783	1.0256199
5	0x3f7aad68	0.97920847
6	0x3f6ccaa4	0.92496705
7	0x3f684bda	0.9074074
8	0x3f93a9b4	1.1536164
9	0x3f8f689f	1.1203803
10	0x3f805d4e	1.0028474
11	0x3f4c4598	0.7979369
12	0x3f64e578	0.8941264
13	0x3f8c5355	1.0962931
14	0x3f84a0a8	1.0361528
15	0x3f751021	0.95727736
16	0x3f7ebb57	0.9950461
17	0x3f9094c6	1.1295402
18	0x3f82c789	1.0217143
19	0x3f83295b	1.0246996
20	0x3f4e8ff9	0.80688435
21	0x3f8493cc	1.0357604
22	0x3f70d7ec	0.9407947
23	0x3f84140f	1.0318621
24	0x3f8d375f	1.1032523
25	0x3f99a6bf	1.2004012
26	0x3f65a8ba	0.8971058
27	0x3f642623	0.8912069
28	0x3f71be3a	0.9443089
29	0x3f7a6ad4	0.97819257
30	0x3f8db608	1.1071177
31	0x3f62e05d	0.886236
32	0x3f859d04	1.0438542
33	0x3f857f06	1.042939
34	0x3f7763a4	0.96636415
35	0x3f714d94	0.94259
36	0x3f632ea9	0.8874307
37	0x3f6e9e4d	0.932103
38	0x3f720995	0.9454587
39	0x3f6542a8	0.89554834
40	0x3f830fa5	1.0239149
41	0x3f6edca0	0.933054
42	0x3f8ff0b9	1.1245338
43	0x3f7438b4	0.9539902
44	0x3fa972f0	1.3238201
45	0x3f6ebdf3	0.9325859
46	0x3f7b1141	0.980732
47	0x3f6823c4	0.90679574
48	0x3f64adee	0.89327896
49	0x3f833dd0	1.0253239
50	0x3f80f133	1.0073608
51	0x3f7e1464	0.99249864
52	0x3f57a071	0.8422919
53	0x3f6a8aa3	0.9161779
54	0x3f83bb06	1.029145
55	0x3f6978f4	0.91200185
56	0x3f80156f	1.0006541
57	0x3f7a7563	0.9783537
58	0x3f8a8a2a	1.0823414
59	0x3f912925	1.1340681
60	0x3f85e1d7	1.0459546
61	0x3f80e523	1.0069927
62	0x3f8bfb62	1.0936091
63	0x3f6e28c3	0.9303095

backbone.bn2.bias f4 [64]
0	0xbeb12077	-0.3459508
1	0xbe693751	-0.22775008
2	0x3dc29151	0.09500373
3	0x3debf6e2	0.115216985
4	0xbe54b976	-0.20773873
5	0xbe38629a	-0.18006364
6	0xbdd2e4d2	-0.1029755
7	0xbe0b8f27	-0.13628827
8	0x3e20ec82	0.1571522
9	0x3bbe164c	0.005800998
10	0xbe6c709b	-0.2308983
11	0xbe2bb186	-0.16766939
12	0xbde0970c	-0.1096631
13	0x3e0e6de3	0.13909106
14	0x3dda7dd0	0.10668528
15	0xbe6aef6a	-0.22942892
16	0xbd90d4c9	-0.070718355
17	0x3dc17eca	0.09448011
18	0xbe76febf	-0.24120615
19	0xbc8360fc	-0.016037457
20	0xbd8f2e17	-0.06991213
21	0xbe80d709	-0.2516406
22	0xbe17582a	-0.14779726
23	0xbea48d50	-0.32139063
24	0x3dc516d8	0.09623498
25	0x3c92fa5f	0.017941652
26	0xbe687706	-0.22701654
27	0xbe4bbd65	-0.19896467
28	0x3e199e41	0.15001775
29	0xbe3c918c	-0.18414897
30	0x3d7c9bc0	0.061671972
31	0xbdecb18d	-0.115573026
32	0xbe39f9b5	-0.18161662
33	0x3d17f981	0.03710318
34	0xbd8a1109	-0.067415304
35	0xbd19cb55	-0.03754743
36	0xbe173bf5	-0.14768966
37	0xbe395b02	-0.18101123
38	0xbe83e7ea	-0.25762874
39	0xbe738317	-0.23780476
40	0x3d9cfd7c	0.07665536
41	0xbc603ed1	-0.013686852
42	0xbe65d5e5	-0.22444876
43	0xbdc08db3	-0.09402027
44	0xbd84e06a	-0.06488116
45	0xbd960207	-0.073246054
46	0xbebc59e3	-0.36787328
47	0xbe26029b	-0.16211931
48	0xbe7e15fb	-0.24813072
49	0xbe444ba3	-0.19169478
50	0xbeb1f528	-0.34757352
51	0xbd587c95	-0.052853186
52	0xbe3a806b	-0.1821305
53	0xbc7057c1	-0.01466936
54	0xbe3e9cce	-0.18614504
55	0xbe285952	-0.16440323
56	0xbde448d0	-0.111467004
57	0xbe4e2b73	-0.20133762
58	0xbd8b8dbd	-0.06814144
59	0xbe9f0b60	-0.31063366
60	0xbe8f9f83	-0.28051385
61	0x3a941615	0.0011298085
62	0xbd7df90c	-0.062005088
63	0xbdbd4615	-0.09241883

backbone.bn2.running_mean f4 [64]
0	0x3e08cdde	0.13359782
1	0x3f239d55	0.63911945
2	0xc016ba21	-2.3551104
3	0xbf9c54d8	-1.2213392
4	0x3fdd1dfc	1.7274776
5	0x40830e72	4.0955133
6	0xc08a9c41	-4.331574
7	0x3e40fa53	0.18845491
8	0xc0ccfc51	-6.4058003
9	0xc09d5907	-4.9171176
10	0xbe742d01	-0.23845293
11	0xbf5ce76b	-0.86290616
12	0xbed854f6	-0.4225232
13	0x3f67b1cc	0.9050567
14	0x4001e137	2.029371
15	0x40763b18	3.8473568
16	0xc03b7138	-2.9287853
17	0xc04ec1b4	-3.2305727
18	0x3ffcb959	1.9744064
19	0xc0886c6f	-4.2632365
20	0xc040f090	-3.0146828
21	0xbedde1ca	-0.43336326
22	0xbe48ee05	-0.19622047
23	0xbee8fac4	-0.4550382
24	0xc037e872	-2.8735623
25	0xc0eaa389	-7.332463
26	0x3f7bdbcf	0.98382276
27	0x3f863821	1.0485879
28	0xc04dbe93	-3.2147567
29	0x400d89d6	2.2115378
30	0xc082c88f	-4.0869823
31	0xbfb6b328	-1.4273424
32	0x404d66f0	3.2094078
33	0xbfdb425a	-1.7129624
34	0xc01ec7fc	-2.480956
35	0xc0b5e261	-5.683884
36	0x3f7584a4	0.9590552
37	0xc036dd71	-2.8572657
38	0x3e39034f	0.18067668
39	0xbe85a2c0	-0.2610073
40	0x3dad1a92	0.084523335
41	0xc09e04c4	-4.9380817
42	0xc06a9a8c	-3.6656828
43	0xbf81590f	-1.0105304
44	0xbfd8a423	-1.692509
45	0x3ec9235c	0.3928479
46	0x401219ba	2.2828202
47	0xc04ef640	-3.23378
48	0x3fa6f01c	1.3042026
49	0xc0d11152	-6.5333643
50	0x3f38ee87	0.72238964
51	0xc0a27eb4	-5.0779667
52	0xbf64c001	-0.89355475
53	0xbf38ba13	-0.72158927
54	0xbf7a80b9	-0.97852665
55	0x3fb3b84e	1.404062
56	0x3f877cc3	1.0584949
57	0x3f12ae00	0.5729675
58	0xc0814e5d	-4.040816
59	0x3f73f307	0.95292705
60	0xbf4d0d2e	-0.80098236
61	0x3e6b2431	0.22963025
62	0xc01f9ac9	-2.4938223
63	0xc06ab180	-3.6670837

backbone.bn2.running_var f4 [64]
0	0x4089b5f6	4.303462
1	0x406a040a	3.6564965
2	0x40eb7f8c	7.3593197
3	0x415cba8d	13.795545
4	0x40b8b832	5.772485
5	0x40fa041b	7.813001
6	0x40b8f1a6	5.779498
7	0x40a3a010	5.113289
8	0x410b1f74	8.695179
9	0x41254a60	10.330658
10	0x40ba9dfd	5.8317857
11	0x40556c59	3.334738
12	0x408afbd0	4.343239
13	0x40c0ac55	6.0210366
14	0x411278da	9.154505
15	0x40c4cd0b	6.1500297
16	0x40e60f9d	7.189406
17	0x408f2b27	4.4740176
18	0x40aa258e	5.3170843
19	0x41370b02	11.440187
20	0x40e62296	7.191722
21	0x40b4133e	5.627349
22	0x409852d1	4.7601094
23	0x401d8443	2.4611976
24	0x4116f594	9.434956
25	0x410b755b	8.716151
26	0x40d04d8f	6.5094676
27	0x40f71381	7.721131
28	0x41551e99	13.31997
29	0x4095f334	4.685938
30	0x416b3d1b	14.702418
31	0x4127087d	10.439572
32	0x4059bf2c	3.4022932
33	0x408e78ac	4.4522305
34	0x40b38d90	5.6110306
35	0x4109fdcd	8.624463
36	0x40845d88	4.1364174
37	0x40c23df0	6.0700607
38	0x40c4b77e	6.147399
39	0x40974033	4.726587
40	0x40ec03ae	7.375449
41	0x4125a3e6	10.352514
42	0x40f714b0	7.7212753
43	0x40d0bdd8	6.5231743
44	0x405e024c	3.4688902
45	0x40fccb28	7.8997993
46	0x405f2659	3.4867156
47	0x40cecc78	6.4624596
48	0x40a3d254	5.119425
49	0x4155fd97	13.374412
50	0x40656025	3.5839932
51	0x40f8416c	7.757986
52	0x40e060b6	7.0118055
53	0x40af0e2c	5.47048
54	0x40e41d5c	7.128584
55	0x409a5f69	4.8241467
56	0x40bddc90	5.933174
57	0x40ceebf9	6.4663053
58	0x40c73aef	6.225944
59	0x40ad3953	5.4132476
60	0x40859a19	4.1750607
61	0x40796a21	3.8971026
62	0x40cb7332	6.357812
63	0x4118e236	9.555227
