PointPillarUpgrades/output_20251130_225252/pointpillars_ModelNet40.pth (torch, 694054 bytes, 40 tensors)

pfn.blocks.0.fc.weight f4 [64, 8]
000000 b2 6b 8b 3e 4f b2 85 3e f0 b5 42 bd 6c 86 af 3c
       0.27230603 0.261126 -0.04753679 0.021426402
000010 16 b8 2c be 70 82 1e 3e 3d 0d be be 2e 67 11 3e
       -0.16867098 0.15479445 -0.37119475 0.14199516
000020 c0 61 ba 3e 0d ea 4a be f1 f5 92 3e 80 37 50 3e
       0.36402702 -0.19815846 0.28703263 0.20333672
000030 2c fa 1e 3e b2 09 27 3d 35 ae ce 3e 98 20 47 bd
       0.1552512 0.04078073 0.40367284 -0.04861507
000040 bd 37 80 3e b6 d0 36 ba ff 22 5f be 11 35 8c 3d
       0.25042525 -0.00069738494 -0.21790694 0.06846059
000050 78 04 72 be cc 60 78 3d 46 bf 6d be dd 6a 6f 3e
       -0.23634517 0.060639188 -0.23217496 0.23380609
000060 45 fb 8a be 2d 62 97 bd 26 33 f4 bd 2b 52 62 be
       -0.27144828 -0.073917724 -0.11923818 -0.22101657
000070 12 3c 72 3e 73 c4 bc be 75 ba 03 3f 43 c5 32 be
       0.23655728 -0.3686863 0.51456386 -0.17458062
000080 8c c2 e7 3d fd a1 ad 3d bf 12 0a be cf 15 03 3f
       0.11316404 0.084781624 -0.13483714 0.5120515
000090 c9 c8 bb 3b 12 47 b8 3e 51 a6 a2 3e 1f 95 5e bd
       0.0057307226 0.35991722 0.31767514 -0.05434143
0000a0 d6 fe 9d 3d db f1 2e bd 4b 00 f4 3d 07 10 f7 3e
       0.07714622 -0.04271112 0.119141184 0.48254415
0000b0 8f a9 3f 3e e6 ef 83 be 56 e3 91 3e 35 d7 90 3d
       0.18717025 -0.25768965 0.28493756 0.070722975
0000c0 5c 38 4e 3d 7c c6 bb bd 91 08 e2 be 98 ff 75 bd
       0.050346717 -0.09168717 -0.4414716 -0.060058206
0000d0 dd 88 48 be 72 d9 dd 3e 89 cc 5c 3d e6 72 8c 3d
       -0.19583459 0.4332996 0.053905997 0.06857853
0000e0 24 de 68 3d 97 47 d5 3c 56 70 cf 3e da e5 74 be
       0.056852475 0.026035113 0.40515393 -0.23915806
0000f0 f8 c3 13 3e 73 75 27 be 3b 2c 31 3e 7f 35 2c be
       0.14430225 -0.16353397 0.17302029 -0.16817282
000100 9b 48 7e 3d a1 5a e3 bc ab 73 e0 3e c9 dd 4b be
       0.06208096 -0.027753176 0.43838248 -0.19908823
000110 6b 26 33 be 64 e0 e1 bd d3 ba dc 3e 27 3a 9c 3d
       -0.17495124 -0.11029127 0.43111286 0.07628279
000120 1e 5f 8a 3e 85 a2 63 be 62 39 de be 68 16 8d be
       0.27025694 -0.22229965 -0.43403155 -0.27556157
000130 78 14 10 be cd f9 4d 3e a2 6c eb 3c db cb 9a 3e
       -0.14070308 0.20114823 0.028738324 0.30233654
000140 51 99 3a be b8 f9 e3 bd b9 28 51 3e 56 85 c6 bd
       -0.18222548 -0.111316144 0.2042569 -0.096934006
000150 4d a9 e4 3e 81 8c 34 be d9 59 2c 3e 95 2f 85 be
       0.44660416 -0.17631723 0.16831149 -0.26012865
000160 ea fd 3d bd 56 54 ad 3d f6 82 a0 3d 36 cc ac 3d
       -0.04638473 0.084633514 0.07837479 0.08437388
000170 72 dd 21 3e 88 f1 fb 3e 87 77 6a bd f2 39 64 be
       0.15807131 0.4920771 -0.057242896 -0.2228773
000180 b1 82 5e 3e f3 e0 79 bd d1 c2 aa bd e6 55 ea be
       0.21729542 -0.061005544 -0.083379395 -0.4576866
000190 02 02 22 be 5a 59 94 3e f6 45 5d be 33 fc 87 be
       -0.15821078 0.2897442 -0.21608719 -0.265596
0001a0 8a f8 16 3b 19 8b ee bd 21 ce bb be 84 22 c3 be
       0.0023036324 -0.116476245 -0.366807 -0.3811227
0001b0 df bb 65 be 61 f0 7e be a4 21 d8 3e 9e 70 3f 3e
       -0.22434948 -0.24896385 0.42213166 0.18695304
0001c0 a7 0a 0f 3e ed 66 98 be 42 7f 33 be 24 b4 44 bd
       0.13968907 -0.29766026 -0.17529014 -0.048023358
0001d0 24 74 89 3e e1 80 c6 be 84 b0 e0 bd ec 91 8d 3d
       0.2684642 -0.38770202 -0.10971168 0.06912598
0001e0 3d 92 8d b9 0f 2d 03 bc cc 46 39 3c ac 90 e8 be
       -0.00027002572 -0.008006348 0.011308383 -0.45422876
0001f0 9f 63 f3 be 26 c4 57 be 1a cd 24 be c4 c5 7f be
       -0.47536942 -0.21070918 -0.16093865 -0.24977785
000200 01 1a 56 3e 4c 19 0b be 92 91 8d 3e e3 a9 52 3c
       0.20908357 -0.13583869 0.27650124 0.012857887
000210 84 10 e8 be cc 2d 8f 3e 22 14 8d bd f1 1e 32 be
       -0.453251 0.27964628 -0.06888606 -0.17394616
000220 fb 6b 9a be df a8 d1 be 2c 9a 15 3e 32 fd 0c 3d
       -0.30160508 -0.4094915 0.14609593 0.034421153
000230 fb b5 c4 3d c5 6c 89 be 87 90 00 3e 90 ca 0d be
       0.096050225 -0.26840797 0.12555133 -0.13846803
000240 3b 9b 0e 38 f1 df 21 3d e4 cf 6f 3e 76 aa cc 3e
       3.4000008e-05 0.039520208 0.23419148 0.399738
000250 4e d3 5a 3e c9 30 b4 be 7f 5d d0 3d 1a b8 cf bd
       0.21369669 -0.3519347 0.10174083 -0.101425365
000260 83 a7 c7 3d d2 82 81 be 33 8c af 3e c7 29 04 be
       0.09748747 -0.2529512 0.3428665 -0.12906562
000270 c5 8c 16 3d de 69 19 bd 75 58 af 3e 33 28 61 be
       0.036755342 -0.03745448 0.34247175 -0.21987991
000280 6f c3 95 3e 8b ba d9 3d 2e a0 9d 3d 62 04 32 bd
       0.29250666 0.106312834 0.076965675 -0.04346121
000290 e4 6a 8e 3d 3b 9f 91 bd aa d6 6f be 7c af b0 3e
       0.069539815 -0.07110449 -0.23421732 0.34508884
0002a0 11 bf 6d 3c 42 20 53 be 32 94 31 be 14 a5 0d 3e
       0.014510886 -0.20617774 -0.17341688 0.13832504
0002b0 c0 02 82 3e 48 8a 51 be ba ae 2e be d8 a7 4c bc
       0.25392723 -0.20462906 -0.1705884 -0.012491189
0002c0 1b 52 0a be c8 bb d6 3d e1 0f cd 3e aa 0d be be
       -0.13507883 0.10485035 0.40051177 -0.371198
0002d0 30 f1 bd 3d 77 20 a6 3e 32 0d 8a 3d 03 bb 85 bd
       0.092745185 0.32446644 0.06740798 -0.0652981
0002e0 6a 2d 0d 3e 6e d1 12 3e 5f 6a 86 3e 47 3f 3b be
       0.13786855 0.14337704 0.2625303 -0.18285857
0002f0 16 3d 58 bd c0 a5 34 3e b4 cc 08 3d f5 7a 9c bd
       -0.05279263 0.17641354 0.033398345 -0.0764064
000300 c2 b6 75 3e 69 74 a9 3e 78 05 2b bc 9d a4 16 be
       0.23995498 0.33096626 -0.010438316 -0.14711232
000310 54 82 57 3d b2 f4 cb bc c7 ab 5f bc f6 91 da 3d
       0.052614525 -0.024896953 -0.013651795 0.10672371
000320 85 4b 82 be 25 5e 07 be f2 64 e0 3e 40 a9 24 be
       -0.25448242 -0.13219507 0.43827015 -0.16080189
000330 20 6d 8c 3d c1 36 09 be 79 33 b8 be 81 2e 31 be
       0.068567514 -0.13399793 -0.3597677 -0.17302896
000340 28 37 39 bd d8 9b 26 3d 87 24 90 3e dc 2b 72 3e
       -0.045218617 0.040675968 0.28152868 0.23649544
000350 b4 98 c2 be e1 a0 85 be 2a a2 3b be 6e bb 96 3e
       -0.38007128 -0.26099303 -0.1832358 0.29439873
000360 51 f1 a4 3c 73 97 99 3b 8c e0 bd 3d e8 9a 85 3d
       0.0201346 0.0046872436 0.092713445 0.06523687
000370 65 f8 d8 be fc c4 bd 3e d8 fc ea 3c 1a c7 19 bd
       -0.4237701 0.3706435 0.028685018 -0.037543394
000380 a0 bf 89 be 9d 8c 87 3e 75 ae 8c 3e 67 24 3c 3d
       -0.2690401 0.26474467 0.2747685 0.045933153
000390 1f 43 79 be 00 5b c2 be 70 49 b7 be 41 97 6a 3e
       -0.24342011 -0.37960052 -0.35798216 0.22909261
0003a0 d7 1c 8a 3d ea db 4f 3e 1e cd 92 3e 7f 09 0d 3e
       0.06743782 0.20298734 0.28672117 0.13773154
0003b0 3f f6 f2 3d 63 1b ac be 68 0c e1 be e8 3a 8f be
       0.11863374 -0.33614644 -0.43954778 -0.2797463
0003c0 f2 3f 30 3e ae 37 22 be 52 6a 20 3d 8a 19 1e be
       0.17211893 -0.15841553 0.039163895 -0.1543943
0003d0 4f 00 e3 bc a0 b7 7a bd 5b 2d 0f bf 74 6e e2 3d
       -0.027710108 -0.061210275 -0.5592858 0.110562235
0003e0 4d dc db bd 0e 60 57 3e 78 ba 37 be 8c 7c 30 be
       -0.107353784 0.21032736 -0.17942226 -0.17235011
0003f0 e8 3e 9f bd 21 13 7b bd e9 9f e0 3a 72 f3 c6 be
       -0.0777567 -0.06129754 0.0017137501 -0.3885761

pfn.blocks.0.bn.weight f4 [64]
000000 8d 5c 4c 3f 4d 04 69 3f 24 db 4c 3f 00 4a 57 3f
       0.7982872 0.9102219 0.8002188 0.8409729
000010 1c a8 84 3f b5 82 7e 3f b5 a1 86 3f 1d b9 7d 3f
       1.0363803 0.99418193 1.0518099 0.99110585
000020 51 21 96 3f 13 42 72 3f 5b 32 5d 3f 2f bd 8b 3f
       1.1728917 0.9463207 0.8640496 1.0917109
000030 65 1f 6f 3f ae 4a 79 3f 90 35 50 3f e5 cd 6f 3f
       0.9340728 0.9737958 0.8133173 0.93673545
000040 ee f3 81 3f a7 48 63 3f 3b 7e 99 3f 9c cb 65 3f
       1.0152566 0.88782734 1.1991647 0.8976381
000050 6f b4 35 3f d5 2f 46 3f 16 1c 85 3f 7b 9a 86 3f
       0.70978445 0.77416736 1.0399196 1.0515894
000060 aa 2b 48 3f 07 41 7d 3f 3d 69 80 3f 88 dd 8a 3f
       0.78191626 0.9892735 1.0032116 1.0848856
000070 46 ac 51 3f c8 f0 8e 3f 6e b6 76 3f 1a d8 26 3f
       0.81903493 1.1167231 0.96372116 0.65173495
000080 4e 89 82 3f 00 a1 3b 3f 15 5d 61 3f 24 cc 6c 3f
       1.0198152 0.7329254 0.88032657 0.92498994
000090 4e d3 4b 3f 56 e9 54 3f 9d 3c 75 3f 53 e8 9e 3f
       0.796193 0.8316854 0.95795614 1.241465
0000a0 20 ef 62 3f 59 8b 49 3f ed 08 6e 3f 08 4a 74 3f
       0.88646126 0.7872825 0.9298237 0.9542546
0000b0 67 40 27 3f ef 6e 89 3f 19 bc 63 3f 9f 0a 55 3f
       0.65332645 1.0736979 0.8895889 0.8321933
0000c0 12 58 42 3f e8 cf 58 3f 69 9b 57 3f 60 5f 8a 3f
       0.75915635 0.8469224 0.8422151 1.0810356
0000d0 fe 67 3f 3f 87 b3 67 3f 03 38 75 3f 2b ce 3e 3f
       0.74768054 0.9050831 0.9578859 0.7453334
0000e0 0a 75 54 3f ca dc 73 3f 78 2f 77 3f 6c 36 7b 3f
       0.8299109 0.9525877 0.96556807 0.98129916
0000f0 92 87 66 3f 76 5a 37 3f 9a a0 4c 3f a0 2b 44 3f
       0.90050614 0.7162241 0.7993256 0.76629066

pfn.blocks.0.bn.bias f4 [64]
000000 05 a0 ae bd 88 94 42 be 80 5c 85 bd 9c 98 cd bc
       -0.08526615 -0.19001973 -0.065117836 -0.025097184
000010 b1 b5 a7 be 9b d8 62 bd e3 e2 6c bd 9d 66 01 bd
       -0.32755807 -0.055382352 -0.057833564 -0.031592
000020 44 11 77 bd 47 e7 60 be ef 39 68 bd c7 0a 01 3e
       -0.0603192 -0.21963225 -0.056695875 0.12601767
000030 46 28 b4 bd 51 d1 20 be 06 dc 3e be 26 5f 92 3a
       -0.08796744 -0.15704848 -0.1863862 0.0011167272
000040 40 a8 e6 bd ac ea c6 bd 85 94 1c be e9 23 90 be
       -0.1126256 -0.09712729 -0.1529103 -0.28152397
000050 d5 14 3d 3d 1a d2 46 bd 56 f9 ae bc d4 f4 a5 bd
       0.046162445 -0.048540212 -0.021359127 -0.08103338
000060 8b 90 8e bd 99 85 38 3c 1c f8 27 be c3 34 9c bc
       -0.06961163 0.011262321 -0.1640324 -0.019068127
000070 ba d6 0a be 61 08 52 bd 95 cb 02 3e 99 93 5f be
       -0.13558474 -0.051277522 0.12772973 -0.21833648
000080 ca cd 88 bc f9 38 5e be ad f1 a2 bd 9e 69 29 3d
       -0.01669969 -0.21701421 -0.07956252 0.04136049
000090 3e f1 af be b0 1c 49 be 6a b8 b6 bd 6d 99 f5 bb
       -0.3436374 -0.1963985 -0.08921893 -0.0074950964
0000a0 12 9f de 3d d4 cf 39 bd 81 13 a4 be 47 43 5a 3b
       0.10870184 -0.045364216 -0.3204613 0.003330426
0000b0 ae d7 c1 be 05 58 ab bc 29 0f df bd 60 af 2e be
       -0.37859863 -0.020915994 -0.108915634 -0.17059088
0000c0 27 2e d3 be 56 37 db bd f0 61 8f bc ce 55 c0 3c
       -0.4124615 -0.10703914 -0.017502755 0.023478415
0000d0 26 51 2f be ab 7e 18 3e 5e 9e 2a be 7d 57 76 bd
       -0.171208 0.1489207 -0.16661975 -0.06014203
0000e0 82 9e de bd 93 ff 0b bd 13 24 0f bd 09 30 1b be
       -0.10870077 -0.03417928 -0.034946512 -0.15155043
0000f0 5f ca 8c be dd 44 26 bd fb 6a 39 be 31 e7 82 be
       -0.27498147 -0.040593017 -0.18107216 -0.2556701

pfn.blocks.0.bn.running_mean f4 [64]
000000 cf eb e9 b6 7a 6b b8 b9 19 b4 f6 b7 0a 5e bb b8
       -6.971393e-06 -0.0003517529 -2.940935e-05 -8.934371e-05
000010 b3 33 6a b9 cd 2a 3a b9 36 e2 32 b8 1c 32 de b8
       -0.00022335238 -0.00017754287 -4.2649182e-05 -0.000105951185
000020 cd d1 80 b9 80 08 14 b9 a8 e6 42 38 91 3a 6c 38
       -0.00024570376 -0.00014117546 4.646802e-05 5.632133e-05
000030 a4 81 cb 37 2b e8 57 b9 3e 85 b0 37 16 85 cc 38
       2.4259854e-05 -0.00020590487 2.104288e-05 9.752267e-05
000040 94 31 28 b8 1b 87 2d 39 10 01 48 b8 6e 2f 2b b9
       -4.0100495e-05 0.00016548896 -4.7684705e-05 -0.000163255
000050 bc 71 a1 b8 a5 e2 e1 38 fe 57 d9 37 10 3d d8 b8
       -7.698263e-05 0.00010771052 2.590939e-05 -0.000103110564
000060 6a 5d 36 b9 c2 f6 b1 39 6d 12 b8 38 ea 0d c7 b7
       -0.00017391672 0.0003394392 8.777236e-05 -2.3729128e-05
000070 bb 59 86 39 ce 06 34 39 e2 97 53 39 6b 4c 55 38
       0.00025625326 0.00017168673 0.00020179109 5.0854327e-05
000080 74 c9 e1 b8 1b 28 11 b9 8c a9 7b b9 ab 39 85 39
       -0.000107663596 -0.00013843218 -0.00024000386 0.00025410703
000090 4f b9 9c b9 58 c1 d0 38 59 6e fd b7 19 4f 86 36
       -0.00029892704 9.954226e-05 -3.0211335e-05 4.0027194e-06
0000a0 7b fe 6e 39 1f 40 09 b9 1f ad 95 38 ca 5f 80 b8
       0.0002279225 -0.00013089225 7.13712e-05 -6.121358e-05
0000b0 8e bd 19 b9 3a 27 e7 37 1d 01 85 39 a1 ba 21 b9
       -0.00014661832 2.7555612e-05 0.00025368566 -0.00015423681
0000c0 44 bd 8d 37 a3 b9 43 b9 a8 92 f4 38 dc 3e 99 38
       1.6896644e-05 -0.00018665804 0.000116621435 7.307317e-05
0000d0 98 ad bc 38 10 21 0a b9 bb 92 7c 38 69 3f e0 38
       8.996873e-05 -0.00013173022 6.0218135e-05 0.000106929634
0000e0 9f 95 17 b9 81 b5 83 37 08 ab 43 b9 7f e5 61 b8
       -0.0001445622 1.5700936e-05 -0.00018660363 -5.3857915e-05
0000f0 40 fa 1e b9 3d 69 02 b9 89 05 14 b9 74 ea 1b b9
       -0.0001516128 -0.0001243697 -0.00014116442 -0.00014869292

pfn.blocks.0.bn.running_var f4 [64]
000000 95 b3 18 3a 1c b5 63 3a 72 d4 ad 39 0a a7 5d 3a
       0.00058250997 0.000868635 0.00033155415 0.0008455372
000010 0b 42 5e 39 e7 0f ce 38 9b 23 7d 39 30 96 9e 39
       0.00021196173 9.8258075e-05 0.00024141224 0.00030248007
000020 a1 37 df 39 88 e6 3f 3a f4 53 85 39 29 a3 44 3a
       0.0004257532 0.00073204236 0.00025430287 0.00075011194
000030 d0 48 bf 39 7d de 84 3a b1 d9 8e 3a 9f a3 76 39
       0.00036484608 0.0010137107 0.0010898617 0.00023521342
000040 37 cb 88 3a 39 15 86 3a 33 96 d1 38 4f 2d 30 3a
       0.0010436539 0.0010229714 9.9938734e-05 0.00067206187
000050 83 ac 05 3a 83 57 04 3a e3 30 b3 3a c7 67 21 3a
       0.00050992536 0.00050484407 0.0013671186 0.00061571266
000060 0a c8 2d 3a 2d 0b 28 3a 9d 58 51 39 48 db 01 3a
       0.00066292344 0.0006410357 0.00019964804 0.0004953635
000070 13 28 44 3a 47 8f a2 39 8d f1 68 39 4e ce e1 39
       0.0007482778 0.00031005798 0.00022215229 0.00043069053
000080 a0 9e 15 3a 19 1e 51 3a fc 60 8c 3a 42 f4 a3 39
       0.0005707536 0.0007977202 0.0010710056 0.0003127177
000090 5c 02 2d 3a 43 1a a8 39 5d 97 36 3a 33 0e 2c 3b
       0.0006599778 0.00032063024 0.0006965304 0.002625358
0000a0 8a 7e c2 39 11 f7 5a 39 2f a7 5a 3a 1a 7b b6 3a
       0.00037096842 0.0002088214 0.00083409523 0.0013922185
0000b0 e0 9e 83 3a 27 65 c2 39 23 70 3a 3a 51 82 19 3a
       0.0010041855 0.00037077928 0.00071120466 0.00058559055
0000c0 a9 90 1c 3a 2c 19 f6 39 48 26 fe 39 6f 17 20 39
       0.0005972484 0.0004693953 0.00048475177 0.00015267519
0000d0 fb 22 37 3a 65 e4 ae 39 ac cd d6 39 36 54 0c 3a
       0.00069861085 0.00033358033 0.00040970498 0.00053531246
0000e0 cc 31 34 3a ac 0d c8 39 70 ef a0 39 f1 a0 72 3a
       0.00068738754 0.0003815716 0.00030695973 0.00092555495
0000f0 83 7d 80 3a 57 60 55 3a 12 6f 64 3a 2f 90 21 3a
       0.000980303 0.0008139661 0.00087140605 0.00061631476

pfn.blocks.0.proj.weight f4 [64, 8]
000000 0f 21 d8 3c 50 d2 60 be 75 c3 6c bc 96 2e 8d 3b
       0.026382951 -0.21955228 -0.014450897 0.004308532
000010 9e 73 25 bd ef d7 c9 b8 fb 38 f4 bc 07 50 b8 bd
       -0.040393464 -9.624648e-05 -0.029812327 -0.08999639
000020 ae a0 b5 bd 1a 86 28 3e b5 15 a6 3d f3 65 df 3c
       -0.08868538 0.16457406 0.08109609 0.027270293
000030 e1 1a 55 bd ac 60 99 bd 34 98 38 3d f9 b8 2d bc
       -0.052027587 -0.07489142 0.045067027 -0.010603183
000040 ad 5d 53 3d 11 a8 6b 3b 78 94 51 3d ef 33 ba bb
       0.051603008 0.003595833 0.05116698 -0.0056824605
000050 0d f0 1a ba db 96 13 3e 27 05 ea 3a 7c 9a fe bc
       -0.0005910404 0.14413016 0.0017854319 -0.031079523
000060 42 47 da bd 72 21 92 3d 34 74 da bd 25 09 af bc
       -0.106581226 0.071352854 -0.10666695 -0.021366665
000070 79 bf a6 3c 3f d0 59 bd fb f3 0e 3d 4d 73 86 3d
       0.020354973 -0.053177115 0.034900647 0.06564961
000080 93 82 bb 3d 4a 2e 31 3d d9 e9 c0 3d 38 6d fb 3c
       0.091557644 0.043257035 0.09419603 0.030691728
000090 73 29 37 bc b1 d0 ca 3c 9a 9a a5 3d 07 b0 07 3d
       -0.011179316 0.024757715 0.080861285 0.033126857
0000a0 bf c1 50 bd 11 8a b3 3d 9f 3b bb 3b 34 55 10 3d
       -0.05096602 0.087665685 0.0057138945 0.035237506
0000b0 3c 35 0a 3c 7d b4 46 bc 97 4b fc 3c 86 5d 85 3d
       0.008435544 -0.012127993 0.030797763 0.06511979
0000c0 eb 77 5d 3d 6d f2 4b 3e ab a4 2e be 3a 3b 54 3c
       0.05406944 0.19916697 -0.17055003 0.012953574
0000d0 07 a1 82 bd 8e d6 b8 bd 8d 48 ac 3c bc ff af bc
       -0.0637837 -0.09025298 0.021030689 -0.021484248
0000e0 04 3d 9f bd ac 4d 02 be 64 61 79 3b 9a 31 86 bb
       -0.0777531 -0.12724942 0.0038052434 -0.0040952684
0000f0 34 af 37 3d e3 ee ae 3c 54 a8 1f 3b 2c 8a 98 bb
       0.04484482 0.021354144 0.0024361806 -0.0046551432
000100 36 fe d4 bb fa b1 99 3d 03 cb ae 3d 71 39 e1 3c
       -0.006500031 0.075046495 0.08534815 0.02749321
000110 33 68 5a bd c3 ec 9f bc 30 61 1f 3d 15 e1 5d 3d
       -0.05332203 -0.019522076 0.038911045 0.054169733
000120 fd da 22 bd 10 ea ce 3d f0 c2 8f bd b3 80 8b bc
       -0.039759625 0.10103238 -0.07019603 -0.017029142
000130 b6 a5 68 3a 79 75 0a 3e 7c 75 f5 3c 00 d8 68 3d
       0.00088747905 0.13521375 0.029963247 0.05684662
000140 ce 80 55 bd a0 d4 ac 3d 3e 52 5b 3b d3 f5 81 bb
       -0.05212479 0.084389925 0.0033465768 -0.003966072
000150 a7 1f c3 3c 65 f9 9a bd 70 19 dc 3b 27 88 31 3d
       0.023818804 -0.075670995 0.0067168996 0.043342736
000160 b2 c6 77 bd a5 ec 7a 3d b8 19 15 bd 31 b1 b4 bc
       -0.060492225 0.061260838 -0.03640148 -0.022057148
000170 27 8c 9e 3c c9 95 67 3d 2a 04 d5 bb 9c 06 74 bc
       0.01935394 0.05653933 -0.0065007405 -0.014894154
000180 db 26 ba 3c 40 1b 73 3e 22 3c 33 bc dc c7 c6 bc
       0.022723606 0.23740864 -0.01093963 -0.024265222
000190 71 f7 6c 3b f8 50 cf 3d ba 15 20 ba 73 41 6f 3c
       0.0036158229 0.101228654 -0.0006106753 0.014603007
0001a0 7e 8a 8e bc c3 7d 58 bd 25 03 0d be 30 08 de bc
       -0.017400023 -0.05285431 -0.13770731 -0.027103513
0001b0 8f 6c 23 3c 34 ce 7b bd 7b 2c 5a 3b b6 56 0d 3d
       0.009974613 -0.061475947 0.0033290673 0.034506522
0001c0 6d c4 5e 39 13 bc 9a bc 6a 31 2c bc 47 bc 9c bc
       0.00021244744 -0.018888509 -0.010509828 -0.019132746
0001d0 9e 5b c3 3b 70 1d c4 3b 99 be c6 3b 3b 13 10 3d
       0.0059618494 0.0059849545 0.0060652015 0.03517459
0001e0 b7 e0 4d 3d d4 11 10 3e 8f cc 3a 3a d9 ba b2 bb
       0.050263133 0.14069301 0.00071258185 -0.005454403
0001f0 d4 e2 b6 bd b4 55 1a bd 07 9e 10 bd d5 86 50 bd
       -0.08929983 -0.03767939 -0.035306957 -0.050909836
000200 37 8e 7a 3d 8e 08 43 be 31 d3 43 3e fe 24 01 bd
       0.061170783 -0.19046232 0.19123532 -0.03152942
000210 7a 1a 87 bd 44 42 26 3c 81 86 d1 3b 49 66 08 bd
       -0.06596847 0.010147635 0.006394208 -0.03330067
000220 b0 7f 69 bd f1 89 21 bd 68 fa 9a 3d c3 56 7d bc
       -0.057006538 -0.03943819 0.075672925 -0.01546258
000230 83 69 f4 bc e6 25 bd bc 17 4d 5c bc 05 f6 53 3d
       -0.029835468 -0.02308936 -0.013446114 0.051748294
000240 d2 9f 9a 3c 8a a4 97 bd 4d be 9d 3c ee 8d 20 ba
       0.018875036 -0.0740443 0.019255782 -0.0006124665
000250 c6 f5 7e 3c 21 d5 ea bc 8b c6 b8 bc 2e 87 37 3d
       0.015561527 -0.02866608 -0.02255561 0.04480665
000260 13 92 9b 3d 3c 96 96 3d 8b c9 90 3d e9 31 f1 bc
       0.07596221 0.07352874 0.07069691 -0.029442744
000270 d5 3e 8c 3c d4 dd 06 be 7a 9d 21 3d 1c 98 b2 3c
       0.017119804 -0.13170558 0.039456822 0.021801047
000280 f7 28 c7 3c 18 35 15 bc ee 78 7f bc 99 f7 4c ba
       0.024311526 -0.009106897 -0.015592797 -0.00078188773
000290 3d e2 e8 bb 14 a7 21 3c fe 9b b7 bc b4 11 19 bd
       -0.007107048 0.009866495 -0.02241325 -0.0373704
0002a0 95 14 bf 3c 24 54 cc 3d 52 c0 58 3d bf f8 62 3a
       0.023325244 0.09976986 0.052917786 0.0008658282
0002b0 d1 6b f4 3c 43 b4 39 3e af 00 13 bc dc d4 87 bc
       0.029836567 0.1813517 -0.008972331 -0.016580991
0002c0 75 63 01 be 09 13 e3 bd 8e f9 40 3e 47 0e df bc
       -0.12635596 -0.11087615 0.18845198 -0.027228488
0002d0 33 fb ca 3c ea bd 9a 3e 03 7d 86 bc 91 de c7 3d
       0.024777984 0.30223018 -0.016417032 0.09759248
0002e0 24 10 b8 3d bb 9e e1 3d 24 96 ae 3d b1 c4 a0 bc
       0.089874536 0.110166036 0.08524731 -0.01962504
0002f0 88 5e d8 ba 03 50 bd 3d 41 d2 36 bc 6b 25 6b bd
       -0.0016507665 0.09243777 -0.011158527 -0.05740873
000300 d4 5c 08 bd 0d 31 47 be 6a d8 fe 3c f3 a0 74 bc
       -0.033291653 -0.19452305 0.031109054 -0.014930951
000310 4c 03 22 bd 05 e4 eb 3b a4 bb 8c 3a 68 22 1c bd
       -0.039553925 0.007198813 0.0010737074 -0.03811875
000320 f6 01 80 3d 90 6a 40 be 94 76 2d 3e af 00 bd bc
       0.06250374 -0.1879065 0.16939765 -0.023071615
000330 52 29 d4 3c 10 5f fa bd 66 38 1f bd bc 8e 12 3c
       0.02589861 -0.12225163 -0.038872145 0.008945163
000340 dd 08 95 bd fc 92 7d 3d 00 e8 ff 3d b6 e4 55 3b
       -0.07277081 0.061907753 0.12495422 0.0032637543
000350 fa ef 68 bd 12 2f 0b 3e 3d 80 4f bc 1c de 06 be
       -0.056869484 0.13592175 -0.012664852 -0.13170666
000360 d5 ee 06 be 44 51 65 bd 41 df 6e 3e 7e 6f 4c bc
       -0.13177045 -0.055985704 0.23327352 -0.012477754
000370 8f 0e 3f bd 24 5f 68 3e 8d 3c 3e 3d d5 84 9d 3d
       -0.046644744 0.22692543 0.046444464 0.07691351
000380 ac 58 8d bd 02 ca 30 be 99 33 b2 3d fe e4 aa bb
       -0.069016784 -0.1726456 0.08701248 -0.0052152863
000390 04 ed 66 3b 4b 3c cf 3c c4 96 47 bd 7b 92 fd 3c
       0.0035236487 0.025297305 -0.048727766 0.030953636
0003a0 38 bf 0c be 92 71 0f be c0 fc b2 3d b4 43 44 bc
       -0.13744819 -0.14008167 0.087396145 -0.011979032
0003b0 b8 80 43 3d a1 ed 0d bb 2d e2 ab bd 57 fc f9 3c
       0.047730178 -0.002165653 -0.08392749 0.030515833
0003c0 66 2e 60 bd 2d e7 54 bc 88 9e 0a 3e 2d 5f 9b bb
       -0.05473175 -0.01299457 0.13537037 -0.0047415704
0003d0 be 80 b2 bc b3 b7 dd 3d c6 f5 96 bd 5a bb 4c 3d
       -0.021789905 0.108260535 -0.07371096 0.04998336
0003e0 1e e8 fc 3c ea 5f 61 bd a6 c4 0d bb 9e c9 e6 bc
       0.0308724 -0.05502311 -0.0021632104 -0.02817231
0003f0 0c 76 91 3c f8 59 f9 3d 4e fe 89 bb df 23 99 bc
       0.017756484 0.12175363 -0.0042112237 -0.018693862

backbone.conv1.weight f4 [32, 64, 3, 3]
000000 9a 7c 89 bc 32 45 bf bc 37 9f 29 3d ce 7f 0e be
       -0.016783047 -0.023348425 0.041411605 -0.13915941
000010 e2 9f 54 bd 86 2c 19 bd db 64 d2 bd ec 45 6e bd
       -0.05191029 -0.037395976 -0.10273143 -0.05817215
000020 77 06 9e 3b 5f b5 1b bd 00 83 db 3a aa 45 11 3e
       0.004822548 -0.038014766 0.0016747415 0.14186731
000030 ab c6 04 bc 1a c3 e0 bc 45 de 74 3d 53 a8 bd 3d
       -0.008104007 -0.027436782 0.059782285 0.09260621
000040 e1 a1 70 3d 9d 66 02 3e e2 f5 93 bc fb a4 49 bb
       0.05874813 0.12734456 -0.018061582 -0.0030768502
000050 17 c3 84 3d 00 d4 f4 bd 80 f1 ec bc b3 73 88 bb
       0.06482523 -0.11954498 -0.02892375 -0.004164183
000060 9a 58 b2 bd 75 0c 0f bd bb a7 54 3d 64 98 ca bd
       -0.08708306 -0.03492399 0.051917773 -0.098923475
000070 31 62 e0 bd de 39 98 bd bd 41 b0 3c 25 48 fc bb
       -0.109562285 -0.07432912 0.021515721 -0.00769903
000080 8a ec 72 3d 57 d8 14 3d 6d 14 ab 3d da 44 22 3d
       0.059307612 0.03633913 0.08353505 0.039616443
000090 29 39 03 be d5 57 3a bd a2 b2 d8 3d b2 27 80 bd
       -0.12814774 -0.04549392 0.105809465 -0.06257571
0000a0 4c 45 99 bc 3a b1 e8 3d 3c eb e8 3d 6f a4 82 3e
       -0.018709801 0.11361928 0.113729924 0.25516078
0000b0 08 ad be 3e 35 f7 84 3c 23 14 14 3d 3c e8 79 3d
       0.37241387 0.016231159 0.036152016 0.06101249
0000c0 61 0a 99 bc 48 b0 2c bc 05 3c 65 3c ca b5 f6 3c
       -0.018681707 -0.010540076 0.013991361 0.03011598
0000d0 b2 18 2e 3d b6 9b f8 3c da 9a f0 3c 6b 70 a9 3d
       0.04250402 0.030347686 0.029370714 0.08273395
0000e0 03 d0 45 bd 3f 1a 74 bc 98 df bd bd 26 e8 c1 bd
       -0.04829408 -0.014898836 -0.09271163 -0.09468107
0000f0 2d db 8d bd b8 fb 3f bd d9 d1 ae bd c3 34 e8 3b
       -0.0692657 -0.046870917 -0.08536119 0.007086368
000100 91 c5 0c bd fa 2b 8e 3d 52 45 80 3c 29 3f f1 3c
       -0.0343681 0.069419816 0.015658055 0.029449062
000110 52 6f 80 3d 44 66 3a 3d bc 0d 8e 3d a4 cb 01 3e
       0.06271233 0.045507684 0.069362134 0.12675339
000120 01 29 42 ba 7c 8e c2 3c c8 6c 10 3e ae fa c2 3b
       -0.0007406623 0.023749582 0.14103997 0.0059502935
000130 ab 22 e6 bc 07 3e 81 3d 95 0c b4 3c b0 2c 79 3d
       -0.028092703 0.06310659 0.021978656 0.060833633
000140 74 6c 83 3d 32 44 4a 3c 54 24 16 bc 62 1f 0f 3d
       0.0641717 0.012345361 -0.009163935 0.03494204
000150 0b 04 7b bd b6 68 2e bd a3 f7 31 bd 67 d3 16 bd
       -0.061283153 -0.04258033 -0.043449055 -0.036822703
000160 fc 9a 09 3d b0 b8 9f 3c 3a 2f 50 3d 81 74 fa 3c
       0.03359507 0.019497246 0.05082629 0.030573132
000170 61 e7 c6 bd 1b 5a af 3d 33 8b 90 3d 48 fd 70 bd
       -0.09712101 0.08562108 0.070578 -0.058835298
000180 60 8c 85 bd 48 de ae bd dc 2b d2 bd 5e f9 12 be
       -0.06520915 -0.085384905 -0.10262272 -0.14352939
000190 6e 67 ff bd 05 ec 41 bd 16 f0 86 bc d6 53 e9 bc
       -0.124708995 -0.047344226 -0.016471904 -0.028482359
0001a0 43 d4 31 3d b0 2c af 3d fc 32 78 3d 21 ab fc 3d
       0.04341532 0.08553445 0.060595497 0.12337328
0001b0 6c 5c 54 3c 65 9d 05 bd 53 99 e4 3d 3f 8c e9 3c
       0.012961488 -0.032620806 0.11162057 0.028509257
0001c0 9f 36 6f bb fc b9 ae 3d 24 30 0b 3e 11 ad 16 3e
       -0.0036501063 0.085315675 0.13592583 0.14714457
0001d0 5d 9e e4 3d 8b 3d 2b be 96 65 0e be ec e1 ce bd
       0.11163018 -0.16722696 -0.1390594 -0.10101685
0001e0 c2 d2 0f be 7d 5b ca bd 3c f7 b1 bc a8 e1 63 bd
       -0.14045241 -0.09880731 -0.021724336 -0.055635124
0001f0 b0 98 10 3d 71 4e c2 3c 4f 82 03 be 8d c8 87 bd
       0.035301864 0.023719044 -0.12842678 -0.06630049
000200 72 9a a3 3c cc a3 2a bd 12 c9 81 bd 9a 7c 59 3d
       0.019971106 -0.041660115 -0.06337179 0.053097345
000210 ca 6f af 3d 4d d7 9e 3d 65 16 84 bb 4d 8f 83 bd
       0.08566244 0.07755909 -0.00403099 -0.06423817
000220 1f 27 32 bb cb 62 dd 3c be 39 5d bb c4 c3 c9 3d
       -0.0027183963 0.027024647 -0.003375634 0.098517925
000230 d3 9c a0 3d 28 20 03 3e 79 08 e0 3d 60 6b 91 3d
       0.07842412 0.12805235 0.10939116 0.07100558
000240 9a 24 b4 bd a7 19 9b bd a1 0f a5 3d 16 78 94 bd
       -0.08796044 -0.07573252 0.080596216 -0.07249467
000250 81 32 42 bd 32 20 b4 3d 80 39 1e 3e 76 c0 20 3e
       -0.047411446 0.08795203 0.15451622 0.15698418
000260 ac 50 28 3e 47 dc d6 3c a7 56 e0 3c 75 f0 d5 bd
       0.16437024 0.026228083 0.027385069 -0.10446254
000270 60 fa 77 3c 04 7c 8f 3c 1e b2 b7 bd f2 b1 a8 bd
       0.015135378 0.01751519 -0.0896952 -0.082370654
000280 da 40 63 bd 33 fc dd bd 19 3d 14 bc a7 8e 2c bc
       -0.05548177 -0.10839119 -0.00904777 -0.010532058
000290 b6 7b 38 3d 1a 2c 73 3d 8a d5 19 3d a5 4b 02 3e
       0.045039855 0.05936823 0.037557162 0.12724169
0002a0 ac 82 1c 3d aa 30 46 3d cb 54 24 3d f6 5b e5 bc
       0.038210556 0.048386253 0.040119927 -0.027997952
0002b0 bc f5 4d bd 51 87 fa bc 82 ea 10 3c 21 92 28 3c
       -0.05028318 -0.030582102 0.0088449735 0.010288746
0002c0 48 27 2b bb 33 95 c7 3d af 98 e1 3d 2f 3b b4 3d
       -0.0026115943 0.09745254 0.1101545 0.08800351
0002d0 ff 10 4b 3d 34 b8 a7 3c 73 6b 76 3d f6 19 9a bd
       0.049576756 0.020473577 0.060161065 -0.07524483
0002e0 b6 49 15 bb c1 a5 82 bc 0e 70 d0 bd 61 76 f3 bd
       -0.002277953 -0.015948178 -0.10177623 -0.11887813
0002f0 9c 0a 1b bd 8f 21 94 bd 72 e4 da bd 8b ab a4 3c
       -0.037851915 -0.07232963 -0.10688104 0.02010133
000300 6b bb af bc af e8 5b bd 6c 9a 5c 3d 49 ff aa 3c
       -0.021451673 -0.0536887 0.053858206 0.020873683
000310 04 0d 3c 3c 82 63 19 3d da 6e 4b bd e6 7e ed bd
       0.011477713 0.037448414 -0.049666263 -0.115964696
000320 0e 63 a5 3b 90 c0 0b bd c5 5d af bc 01 6b c9 3c
       0.0050472086 -0.03411919 -0.021407017 0.024587156
000330 f1 a4 80 3d cf 8b 2f 3d 59 22 64 3d 26 a0 13 be
       0.0628146 0.04285794 0.05569682 -0.1441656
000340 94 42 02 be 0f 1c d8 3d bc 8a e1 bd a3 18 bb bd
       -0.1272071 0.10552227 -0.110127896 -0.091355585
000350 89 31 ac 3d f3 07 38 3d 05 e9 c0 3d 1a f0 80 3e
       0.084078856 0.044929456 0.09419445 0.25183183
000360 26 53 6e bd 2d a6 57 bc ab 8f f1 3b c2 54 c2 bd
       -0.058184765 -0.013162178 0.007371863 -0.094888225
000370 16 de c6 bb 38 21 e4 bb 20 5f ff bd 1a 43 06 bb
       -0.006068955 -0.006961968 -0.124693155 -0.0020486773
000380 29 fb 1a 3c 9e bb c0 3c a3 d3 d1 3c ee 99 55 bd
       0.009459295 0.023526963 0.025613612 -0.052148752
000390 bc a9 04 3d d3 c8 34 bc f2 15 bc bc fe 65 3d 3c
       0.032388434 -0.011034208 -0.022959683 0.011559961
0003a0 6e ca 5d bc 9c 88 63 bd d9 78 7c 3e d8 16 00 3e
       -0.0135370325 -0.055550203 0.24655475 0.12508714
0003b0 a0 6d 88 3d fe 5f 10 3e 01 8a 7a 3d 9b 17 a4 bd
       0.06661534 0.14099118 0.061166767 -0.08012315
0003c0 d3 d2 96 bd dd bd 33 be b8 b7 53 be a2 bc c0 bd
       -0.0736443 -0.17552896 -0.20675552 -0.09410979
0003d0 99 c0 1b be b2 18 d6 bc 7f 1f ea bd 66 d4 bc bd
       -0.15210189 -0.026134823 -0.11431789 -0.09220199
0003e0 97 82 3f 3c eb 26 a5 3d 0b cd 71 3d 6b fd f7 3d
       0.01168885 0.08064064 0.059033435 0.121088825
0003f0 0e af 2f 3e 1e 68 1a 3e 11 18 04 3c ff 09 c2 3d
       0.17156622 0.1507878 0.0080623785 0.09474563

backbone.bn1.weight f4 [32]
000000 91 8b 85 3f 03 1a 8b 3f cb 72 86 3f c9 f6 a0 3f
       1.0433217 1.0867313 1.0503782 1.2575313
000010 85 ff 84 3f e8 1b 78 3f a4 b7 83 3f a0 0b 88 3f
       1.0390478 0.9691758 1.0290418 1.0628548
000020 da fe 95 3f 68 7c 62 3f 33 03 81 3f 06 3b 5c 3f
       1.17184 0.8847108 1.0079101 0.8602756
000030 ea e9 7e 3f 7b c1 7f 3f 18 fb 62 3f 73 de 94 3f
       0.99575675 0.999046 0.8866439 1.1630386
000040 54 52 9b 3f 43 4a 94 3f 8d 0f 87 3f 75 d9 83 3f
       1.21345 1.1585163 1.0551621 1.0300738
000050 f2 e2 76 3f 47 77 85 3f bc a9 5b 3f e5 5d 8b 3f
       0.9644004 1.0427026 0.8580587 1.0888029
000060 ba 23 42 3f ac f7 69 3f 0a aa 89 3f 0b 0d 68 3f
       0.75835764 0.9139354 1.0755017 0.906449
000070 f4 e9 7f 3f 15 0c 48 3f ee 9d 74 3f 0e 17 8c 3f
       0.9996636 0.78143436 0.9555348 1.0944536

backbone.bn1.bias f4 [32]
000000 e8 fc 2f be 7d 50 33 bd 9d c8 20 be 4c bf 94 3e
       -0.1718632 -0.04377793 -0.15701528 0.29052198
000010 1c 70 af 3d d3 5c a5 bd 77 d3 b7 3a c5 79 ce bd
       0.08566305 -0.080743454 0.0014024813 -0.100818194
000020 cb 5f 0d 3e da c3 7e bc d5 3c 3c 3c 9e aa ed bd
       0.13806073 -0.015549624 0.011489113 -0.11604808
000030 d2 ca a9 bd aa af 2f be 79 47 10 be 04 17 e4 3d
       -0.08290638 -0.17156854 -0.14089765 0.111372024
000040 c2 6b 81 3e 70 58 69 3e 36 5a 1a 3c 39 5d 2c 3e
       0.25277525 0.22787642 0.009420922 0.16832437
000050 8a d7 a1 3d 6a bd 38 3e 16 95 91 bd 5b 2f cb 3d
       0.07902439 0.18041006 -0.07108514 0.09921142
000060 e8 f0 7b be 1e 3a 17 3e 2a 03 d9 3c f2 58 37 be
       -0.24603617 0.14768264 0.026490767 -0.17905024
000070 e0 f4 60 bd e5 cb 61 be 47 98 83 3d 65 69 de 3a
       -0.05492103 -0.22050436 0.06425529 0.0016968666

backbone.bn1.running_mean f4 [32]
000000 b4 68 a5 40 e9 93 15 c1 b7 8c 61 c0 8f db 86 c1
       5.169031 -9.348611 -3.5242136 -16.857206
000010 18 cd 3d c1 6e a2 36 40 36 3a d3 c0 e4 6e 45 41
       -11.862572 2.853664 -6.600856 12.339573
000020 8c cc 64 c1 41 cd 84 40 38 c1 c9 c0 4a b3 23 40
       -14.299938 4.1500554 -6.3048363 2.557818
000030 1c 70 59 40 ea 62 86 41 1c e8 f1 bf a6 42 0c c1
       3.3974676 16.798298 -1.8898959 -8.766272
000040 7c d8 40 c1 0d 6f 4f c1 b4 7f 29 c1 78 52 48 c1
       -12.052853 -12.964612 -10.5936775 -12.520134
000050 05 d4 22 c1 36 1b e4 c0 74 ba 06 c0 2f 1d 62 c1
       -10.176763 -7.1283216 -2.1051302 -14.132125
000060 23 fd 25 41 ed 40 6d c1 5b 6c cc be b0 63 4f 40
       10.374301 -14.828351 -0.3992642 3.2404594
000070 db 69 60 bf f3 2d 5e 40 54 2b 88 40 bc 60 28 c1
       -0.8766152 3.4715545 4.255289 -10.523617

backbone.bn1.running_var f4 [32]
000000 b1 a9 97 43 4a af 0d 44 95 f1 69 43 73 a9 1f 44
       303.3257 566.7389 233.94368 638.64764
000010 83 95 f6 43 8b 35 75 43 96 5d 9f 43 39 cf fd 43
       493.16806 245.20915 318.73114 507.61893
000020 52 86 f7 43 64 a9 78 43 66 df a4 43 5b b9 16 43
       495.04938 248.66168 329.7453 150.72404
000030 58 2a 58 43 8a be 31 44 ec 8f 5c 43 e6 4f b6 43
       216.1654 710.9772 220.5622 364.6242
000040 5b c6 f5 43 43 b7 01 44 c7 ad b4 43 e6 b8 0a 44
       491.54965 518.86346 361.35764 554.88904
000050 2a a0 ce 43 ba c0 be 43 4d a8 ba 42 49 06 fa 43
       413.25128 381.50568 93.32871 500.0491
000060 4f 7a a2 43 3b b0 06 44 04 de 71 43 a6 89 52 43
       324.95554 538.7536 241.86725 210.53769
000070 3e 6e 23 43 72 c9 08 43 c2 7a 4d 43 2c 23 b1 43
       163.43063 136.7869 205.47952 354.27478

backbone.conv2.weight f4 [64, 32, 3, 3]
000000 da a9 b9 3d e4 d2 c8 bd 1b 36 c9 bd 65 1e b8 bc
       0.090656 -0.09805849 -0.09824773 -0.02247543
000010 bb 89 84 3d 21 17 30 3e ec 89 35 3d 06 7f 5e 3e
       0.064715825 0.17196323 0.044320986 0.21728143
000020 50 3f 9b 3d de ef f8 3c 7b 9a c3 3c cd 4f 6a 3d
       0.07580435 0.030387815 0.023877373 0.05720501
000030 10 bc 59 3d 84 97 e6 3d 75 44 1f 3e ad f3 fd bd
       0.053157866 0.11259368 0.15553458 -0.12399993
000040 53 34 5f bd 39 2a 9f 3d de 71 bb bd c6 79 72 bd
       -0.05449326 0.07771725 -0.09152578 -0.059198163
000050 88 3b e8 3d be d3 f0 bd 35 70 3b bd 50 d2 fc bc
       0.1133948 -0.117591366 -0.045761306 -0.030862004
000060 54 be cf 3d 4e 15 4c 3e e8 38 ba 3c 21 9c d8 3c
       0.10143724 0.19930002 0.022732213 0.026441636
000070 63 25 10 be 43 82 b3 bd d5 6a 8d 3b 75 91 b4 bd
       -0.14076762 -0.0876508 0.004315714 -0.08816806
000080 b4 46 e6 bd e3 50 02 3c 3d fa c6 3d 44 85 a6 3c
       -0.11243954 0.007953855 0.09715698 0.020327218
000090 88 7f 92 3d 80 ca 03 3d ce 48 ab bc 54 d0 c5 bc
       0.07153231 0.03217554 -0.02090874 -0.02414719
0000a0 2c a1 7d bd e0 33 f3 bd 08 d2 14 bd 5b c8 f3 bd
       -0.061921284 -0.11875129 -0.036333114 -0.11903449
0000b0 d0 19 01 be 9a 03 8e 3d 22 9c ad bc ea c4 be bc
       -0.12607503 0.06934281 -0.021192614 -0.023287255
0000c0 85 58 d6 bc 2a aa db bc 93 5a 4b 3d d5 1e 18 be
       -0.026165256 -0.026814539 0.049646925 -0.14855511
0000d0 48 bc 93 bd 9d 88 26 3c 6b e3 2e 3e a5 2c 5a bd
       -0.07213646 0.010164407 0.1707894 -0.053265233
0000e0 e4 22 87 bd 2a e5 9a 3d 90 7b af bc 01 2a 83 3c
       -0.06598452 0.07563241 -0.021421224 0.01601124
0000f0 87 bf 0e bd 02 40 a2 3d 52 9b 06 3e 3b 6e 0a 3e
       -0.034850623 0.07922365 0.13145187 0.13518612
000100 63 0e cc 3d 32 b7 14 3d 64 fc 64 3d 43 dd 1f bd
       0.099636815 0.03630752 0.05590476 -0.03902937
000110 01 53 02 bd 31 24 82 bd f7 7e 1f bc da 6a d4 bd
       -0.03181744 -0.06354559 -0.009734861 -0.10371943
000120 f5 ba 45 bd a2 b1 f4 bb 96 c5 bc bc 78 ac 16 3c
       -0.048274 -0.0074674645 -0.023043435 0.009196393
000130 c4 6b aa 3b bf 67 96 3c 2f 23 13 bc 63 5c 1d 3d
       0.005200835 0.018360017 -0.008980556 0.038418185
000140 12 4c 0d bd 97 ff 86 bd e0 ac 59 bd 37 a4 af bd
       -0.034496374 -0.06591719 -0.053143382 -0.08576243
000150 09 05 87 bd 2b ed eb ba 9c 1b 0c bd 13 05 18 bd
       -0.06592757 -0.0017999759 -0.034206018 -0.037114214
000160 1e de 6d bb bd 44 3a bd 3a 74 dd bc 78 1d ec bd
       -0.0036295722 -0.04547571 -0.02703296 -0.11529058
000170 ab 77 58 be c4 09 8a bd b4 2a 02 be 64 c7 3d bd
       -0.211394 -0.06740144 -0.12711602 -0.04633273
000180 bf af c7 bc fa f1 8b 3e e7 49 6a 3e 78 45 8e 3d
       -0.024375794 0.2733305 0.22879754 0.06946844
000190 e0 35 00 3d a5 f9 cc bd 15 d3 af 3b 21 79 47 3d
       0.03130138 -0.100085534 0.005365739 0.048699502
0001a0 f7 fa 1e bd 8f b5 a5 3d 72 ee ef 3d 70 f1 13 3d
       -0.038813557 0.0809127 0.11715402 0.036118925
0001b0 9b ec 94 bc a5 01 59 bc 3d d3 57 be ee 81 21 3c
       -0.018179229 -0.013245021 -0.21076675 0.009857638
0001c0 87 b6 b6 3d ae 96 08 be 09 fb ec 3c 80 0e 26 3d
       0.08921533 -0.1333873 0.028928297 0.040541172
0001d0 c8 cc 38 3d 31 a7 3b 3a 2b 1e c6 bd 45 0a df bd
       0.04511717 0.00071583973 -0.09673723 -0.10890631
0001e0 f1 1c 07 bc 22 9c ac bd 64 2d 05 be f6 3a a4 3c
       -0.008246646 -0.084282175 -0.13005596 0.020047646
0001f0 03 d5 69 3e 25 a6 f0 3d 7c f2 89 3d 56 7a ae 3b
       0.22835164 0.117504396 0.06735703 0.005324642
000200 79 c6 ba 3c ea c6 01 3e 33 0e b4 3d c1 86 bc 3d
       0.022799717 0.12673536 0.08791771 0.0920539
000210 83 54 a7 3d 3c c6 93 3d 25 c1 d8 3d 96 a5 0d bd
       0.08170416 0.072155446 0.105837144 -0.034581743
000220 c6 dd 4d 3c 64 a0 19 be 02 79 c9 3d 96 10 53 3d
       0.012565082 -0.1500259 0.098375335 0.05152949
000230 ce 23 cf bd 9e 58 50 3c 6c 00 8a 3b 76 da c1 bc
       -0.10114251 0.0127164405 0.004211476 -0.02366374
000240 df c8 64 3d 58 1d 07 3d f2 bc 56 ba 3d 8f f7 bc
       0.055855628 0.03298697 -0.0008191607 -0.030219669
000250 9e 0c 2c 3c 28 a0 98 bc 9d c9 2a be 23 e2 1a be
       0.010501055 -0.018631056 -0.16678472 -0.15125327
000260 94 7e a5 bd 9d b1 03 3d 14 a8 a6 3d 02 f8 d1 bc
       -0.080807835 0.032151807 0.08137527 -0.025630955
000270 41 13 06 bd fd f1 41 3e 2a 93 7e bd 59 96 c9 bc
       -0.032733206 0.18939967 -0.062152065 -0.024607824
000280 68 f6 29 3e 0c 56 0e 3d 76 9c 1d 3d 8e b3 51 bd
       0.16597903 0.03475003 0.03847929 -0.051196627
000290 26 b1 65 3d 4d 7a b0 bd db e9 1f be a0 ec 14 be
       0.056077145 -0.08617077 -0.15616553 -0.1454339
0002a0 66 09 46 bd d2 e9 b7 3d 6d 2b 02 3b 57 84 81 3d
       -0.048348807 0.089801446 0.001986231 0.0632407
0002b0 4e 1e fd 3c 87 b1 86 3c 33 34 cd 3d b9 df 57 3d
       0.03089824 0.016442074 0.10019722 0.052703593
0002c0 33 ed 0a 3d ac d6 92 3d b5 96 d3 bc b8 67 16 bd
       0.033917617 0.07169852 -0.025828699 -0.036720008
0002d0 97 fc d2 ba d4 f2 7d bb 80 f8 c0 bd 85 2a 81 3d
       -0.0016097006 -0.0038749473 -0.094223976 0.06306938
0002e0 21 d8 da 3d 10 74 29 bc 4b 77 f6 bb 2e cc 95 3d
       0.106857546 -0.010342613 -0.007521545 0.07314335
0002f0 c6 5d 67 bd 6b 9a 0d 3d 71 1c 60 bd 18 3e 60 bb
       -0.056485914 0.034571093 -0.054714624 -0.0034216698
000300 e5 49 55 3d 01 43 e1 3d 75 ad 27 3b c4 0f af bc
       0.052072424 0.10999108 0.0025585566 -0.021369822
000310 dc 84 69 3e a0 80 8e 3c 30 5a 13 3d b8 dc e7 3d
       0.22804588 0.017395318 0.03597468 0.11321396
000320 48 18 d3 3d 1c d5 45 3d cb d2 53 3d 2a 62 10 bd
       0.10307366 0.04829894 0.0517147 -0.035249867
000330 cd b0 6e bd f5 0c 09 be bb b3 e3 bd be 49 88 be
       -0.05827408 -0.13383849 -0.11118265 -0.2661876
000340 89 4a ff bd 45 d6 6d ba 00 4c 6a be 81 ef 0f be
       -0.12465388 -0.0009072761 -0.22880554 -0.14056207
000350 21 f8 8f bd e8 85 e9 bd 81 06 98 3e 3c fc 86 3d
       -0.07029749 -0.11402494 0.29692462 0.06591079
000360 b4 59 10 3d 27 56 d3 bd 57 85 48 3c 40 bd 93 3d
       0.035241798 -0.10319167 0.012238822 0.07213831
000370 67 5f ce 3c ea bc e8 bc 12 bc b9 3c b7 29 ea 3d
       0.025191976 -0.028410394 0.022672687 0.11433738
000380 e4 82 2d 3e d8 52 95 3c 88 65 59 3d c7 3d 14 3d
       0.16944462 0.01822798 0.053075343 0.036191728
000390 7a 33 5e 3d 8d 0b ca 3d 54 2a 49 3d 2f 78 1f bd
       0.05424831 0.098654844 0.049112633 -0.038932975
0003a0 32 a1 85 bd e1 57 d4 bd d7 39 a0 bc f7 c4 75 bc
       -0.06524886 -0.10368324 -0.01955883 -0.015000573
0003b0 3c 52 dd bd fe 28 09 bc d8 23 ac bd b8 94 43 3c
       -0.108067006 -0.00837159 -0.08405274 0.011937313
0003c0 16 11 0b bd ae 0c d6 3c 7f 0b bd 3d 18 c0 c9 bd
       -0.03395184 0.026129093 0.09230708 -0.09851092
0003d0 e3 af 91 bd f5 69 4b 3d 27 b6 5c bd 1e f7 81 3c
       -0.07113626 0.049661595 -0.05388465 0.015864905
0003e0 23 04 e7 3d 5c 88 55 bd 08 c7 11 3e 7f 48 e2 3d
       0.11280086 -0.052131996 0.1423608 0.11048984
0003f0 c4 14 29 3e 1d 13 81 bd 97 5f 92 3b 86 23 22 3e
       0.16511828 -0.06302474 0.0044669616 0.15833864

backbone.bn2.weight f4 [64]
000000 9a 9b 83 3f 9e df 75 3f c7 de 92 3f b5 ec 83 3f
       1.0281861 0.9604434 1.1474236 1.0306612
000010 a9 3a 86 3f 7b e3 85 3f f8 ae 80 3f b0 5f 86 3f
       1.0486652 1.0460047 1.0053396 1.0497952
000020 de 8f 75 3f a7 bd 8b 3f 71 15 5c 3f fd 3e 88 3f
       0.9592265 1.0917252 0.85970217 1.0644222
000030 fa eb 64 3f 39 34 7f 3f 7e 6a ad 3f d5 ae 83 3f
       0.8942257 0.9968906 1.3548124 1.028773
000040 4a 0c 79 3f c4 fe 68 3f 7c f0 74 3f 5a 57 7d 3f
       0.97284377 0.9101374 0.9567945 0.9896141
000050 7b 2a 88 3f 7a 94 84 3f 48 a5 80 3f b6 50 6f 3f
       1.0637964 1.0357811 1.005044 0.9348253
000060 86 84 a5 3f 98 22 93 3f 99 2e 61 3f 74 74 6c 3f
       1.2931068 1.1494932 0.8796173 0.92365193
000070 57 50 85 3f 25 14 80 3f 49 66 81 3f c3 39 7c 3f
       1.0415143 1.0006148 1.010934 0.9852564
000080 40 d7 71 3f 56 e0 7e 3f 3e c4 8a 3f 2f 4d 75 3f
       0.9446907 0.9956106 1.0841138 0.958209
000090 b2 ee 5b 3f 88 5e 88 3f 84 d0 7f 3f 75 e0 89 3f
       0.85911095 1.0653849 0.99927545 1.0771624
0000a0 de 01 88 3f 4a 78 72 3f a7 71 89 3f 75 d8 81 3f
       1.062557 0.94714797 1.0737809 1.0144182
0000b0 a7 82 a4 3f 9a 05 71 3f cd f1 85 3f 77 d4 78 3f
       1.2852372 0.9414917 1.0464417 0.97199196
0000c0 09 f6 55 3f 4a 1f 8f 3f 59 13 83 3f e1 89 71 3f
       0.83578545 1.1181424 1.024028 0.9435101
0000d0 5d af 6a 3f d7 da 6d 3f 93 42 89 3f c4 b1 5e 3f
       0.91673833 0.9291205 1.0723442 0.8699
0000e0 ab 21 7d 3f 86 4f 90 3f cb a2 66 3f 90 87 90 3f
       0.988795 1.1274269 0.9009215 1.129137
0000f0 aa 02 65 3f 55 83 61 3f 34 23 59 3f ea b9 6e 3f
       0.8945719 0.8809102 0.8481934 0.9325243

backbone.bn2.bias f4 [64]
000000 fb ed a8 be ad f3 db bd 92 2a dd bd 95 f8 23 3d
       -0.32994065 -0.10739837 -0.10799135 0.04003199
000010 b6 3d db bd 63 04 77 be d6 55 bb bd b8 20 47 be
       -0.1070513 -0.24122767 -0.09147231 -0.19446075
000020 76 2b 5c be 7a 72 f2 bd 05 0e 16 be a2 e1 46 3d
       -0.21500954 -0.11838241 -0.14653786 0.048555024
000030 52 99 21 be bb 92 a3 3d c0 5c 29 3e 58 e5 16 be
       -0.15781143 0.07986971 0.16539288 -0.14735925
000040 e3 cf 27 3d 89 38 08 be 3f bb 4c be 74 fa eb 3a
       0.04096974 -0.13302816 -0.19993304 0.0018003718
000050 43 94 ed bd 00 d8 05 be 0a 6a cb bd 0f e4 70 bd
       -0.11600544 -0.13070679 -0.09932335 -0.058811244
000060 b3 1d 46 3e ed f7 a3 bc ed 2e 63 be e3 1d c6 bd
       0.19347267 -0.020015681 -0.2218587 -0.09673669
000070 e1 3c 0d 3e 98 8a 91 be 05 98 d4 bd 53 22 10 bd
       0.13792755 -0.2842605 -0.10380558 -0.035188984
000080 32 01 0c be 95 1d e3 bd 28 96 8e 3d d8 7c 8b bb
       -0.13672331 -0.11089627 0.06962234 -0.004256826
000090 ab cf 34 be 82 3b 2f be 2f b0 54 be d3 73 8d bc
       -0.17657344 -0.17112544 -0.20770334 -0.017267143
0000a0 66 3a c9 3d a4 88 21 3d 0e 56 4a 3d ef e3 99 be
       0.09825592 0.03943695 0.049398474 -0.30056712
0000b0 77 46 81 3d 51 4f 87 bd 9d 24 2c be 33 e5 ce bd
       0.06312268 -0.06606925 -0.16810842 -0.1010231
0000c0 cd 15 b4 bc 47 6d 89 bd 4d 8c 74 be 75 de f8 bd
       -0.021983052 -0.06710296 -0.23881646 -0.12151805
0000d0 ab c1 20 be 08 65 b7 bd 5b 21 df 3c a2 07 4a bd
       -0.15698878 -0.08954817 0.027237585 -0.049323685
0000e0 53 93 02 be 0c aa 5c be d8 a8 e7 bd 44 c4 3c be
       -0.12751512 -0.21549243 -0.11311501 -0.18434244
0000f0 7e f8 12 be f5 a6 88 be cc e2 65 be bd 6d df bd
       -0.14352605 -0.26689878 -0.22449797 -0.10909603

backbone.bn2.running_mean f4 [64]
000000 c9 8a 8b 3f 72 c7 04 c0 7e a4 9d bf 8f d1 1f c0
       1.0901729 -2.0746732 -1.2315824 -2.4971654
000010 51 52 35 c0 a8 d2 ff 3e cb 26 68 3e 8b bb 1d 3f
       -2.8331492 0.49965405 0.22671048 0.6161429
000020 c8 12 47 c0 ba b3 5a c0 bb 03 85 c0 c1 af 21 c0
       -3.1105213 -3.4172196 -4.1567054 -2.5263522
000030 08 7c 91 be d6 05 8b c0 8d 4e c5 c0 f4 46 03 40
       -0.2841494 -4.3444624 -6.1658387 2.0512056
000040 b4 f0 28 c0 2e 57 82 c0 fe 8a a2 bf 8f 1e 6a c0
       -2.6396914 -4.073142 -1.2698667 -3.6581151
000050 f4 23 0a 3f f2 31 e4 3e e8 dc 05 40 f1 0c bc bc
       0.5396111 0.44569355 2.091608 -0.02295539
000060 70 f7 00 c1 22 4b d3 c0 00 64 db be f5 04 52 40
       -8.06041 -6.6029215 -0.4284973 3.2815526
000070 73 1c 79 c0 19 8a 2b 40 e8 b0 1e c0 c4 2b 34 c0
       -3.8923614 2.6803038 -2.4795475 -2.8151712
000080 3b b2 33 40 1e e9 7d be 56 56 a3 bf eb 45 27 c0
       2.8077533 -0.24795958 -1.2760723 -2.6136425
000090 69 23 a2 40 5c af 8d bf e8 4f 21 be b6 a9 aa bf
       5.0668225 -1.106914 -0.15753138 -1.3333042
0000a0 76 f1 9e be fd 3d 68 c0 0f fc 46 c0 23 39 f5 bf
       -0.31043595 -3.6287835 -3.1091344 -1.9158062
0000b0 fc 35 c6 bf 64 1e 6b c0 47 a4 6f 40 d1 83 3c c0
       -1.5485225 -3.67373 3.7444017 -2.9455454
0000c0 85 78 3f 3f c0 ed 50 c0 38 4e 66 3f 77 c6 9e be
       0.74793273 -3.264511 0.899631 -0.31010792
0000d0 97 66 6e 3f 8a ca 26 3c a7 f9 98 c0 28 5a d3 be
       0.9312529 0.010180125 -4.780475 -0.4127972
0000e0 6a 6a 61 bf 71 8e 31 3f 15 24 15 c0 a4 46 59 3f
       -0.88053 0.69357973 -2.3303273 0.84873414
0000f0 b2 6a bd 3f aa 9a 83 3f 5a 43 6e 3f 63 d2 43 be
       1.4798186 1.0281575 0.9307152 -0.19123225

backbone.bn2.running_var f4 [64]
000000 1a 7f 91 40 68 e8 5c 41 94 82 b1 40 1a e8 07 41
       4.5467653 13.80674 5.5471897 8.494165
000010 8b e9 be 40 7b 2f e5 40 d7 c2 dc 40 11 a3 87 40
       5.9660087 7.162046 6.898784 4.2386556
000020 5e 07 d9 40 24 29 e5 40 6f eb 51 41 23 fd 79 40
       6.7821493 7.161272 13.119979 3.9060752
000030 01 8b 55 40 1f 2d 13 41 e4 e8 8d 41 09 f3 b4 40
       3.3366091 9.198516 17.738716 5.6546674
000040 48 93 0a 41 68 99 bb 40 e2 fa be 40 52 cd 27 41
       8.660957 5.8624763 5.9681253 10.487627
000050 d7 75 b4 40 51 99 62 40 10 71 4f 40 c6 70 b0 40
       5.6393847 3.5406077 3.2412758 5.5137663
000060 fa d4 37 41 b0 76 41 41 1b fc bb 40 da 97 d7 40
       11.489496 12.091476 5.8745246 6.7372866
000070 67 66 00 41 0c 9b 67 40 4b ea f3 40 cf 09 40 41
       8.025001 3.6188383 7.62235 12.002395
000080 cd 39 29 40 aa 47 a6 40 3e 35 9f 40 d8 64 14 41
       2.6441529 5.196248 4.9752493 9.27462
000090 5b 27 a4 40 98 4d c7 40 68 6e dc 40 f6 7d cf 40
       5.129804 6.228222 6.8884773 6.484126
0000a0 e6 c1 f3 40 1d 0c 65 41 2f ee eb 40 d1 68 d8 40
       7.6174192 14.315457 7.372825 6.762795
0000b0 20 f2 83 40 30 4c 95 41 3c f9 c8 40 8f a2 08 41
       4.1233063 18.6622 6.280424 8.539687
0000c0 47 fb f4 40 ed ac a5 40 07 3e 92 40 52 42 a1 40
       7.6556735 5.177359 4.5700717 5.0393457
0000d0 58 f2 1f 41 02 71 89 40 ca 0f 17 41 81 cd d7 40
       9.996666 4.295045 9.441355 6.743836
0000e0 4f f5 ec 40 fd 45 a3 40 48 41 ff 40 0a 94 ec 40
       7.404945 5.1022935 7.976719 7.393071
0000f0 7e a3 0b 41 39 cb 84 40 6f eb 80 40 53 ba 83 40
       8.727415 4.1498075 4.0287395 4.1164947
