PointPillarUpgrades/output_20251125_073337/pointpillars_ModelNet10.pth (torch, 601327 bytes, 24 tensors)

pfn.linear.weight f4 [64, 8]
0	0x3e6ed103	0.23321919
1	0x3e90814e	0.28223652
2	0xbdafe4b4	-0.085885435
3	0x3e2149c7	0.157508
4	0xbd3aec31	-0.045635406
5	0x3de073a9	0.109595604
6	0xbdb09247	-0.0862165
7	0x3e6f3ebe	0.23363778
8	0x3e9a5522	0.30143076
9	0xbe7e142c	-0.24812382
10	0x3eac0185	0.3359491
11	0xbcbb029e	-0.022828396
12	0x3e4bfdac	0.19920987
13	0x3dd3baa0	0.1033833
14	0x3dc10125	0.094240464
15	0x3bc4496f	0.0059901993
16	0x3e737238	0.2377404
17	0x3d919b10	0.07109654
18	0xbe095826	-0.13412532
19	0x3d9ef26e	0.077610835
20	0xbd6da7cc	-0.05802135
21	0xbd9d7383	-0.07688048
22	0xbc2001aa	-0.009766022
23	0x3e6632f2	0.22480372
24	0xbe7f0163	-0.24902873
25	0xbe13bc24	-0.14427239
26	0xbe04524d	-0.1292202
27	0xbe4df43a	-0.20112696
28	0x3d534fad	0.051589657
29	0xbebae08a	-0.36499435
30	0x3e9ebddc	0.31004226
31	0xbeb0e5a0	-0.3455019
32	0x3e88676d	0.26641408
33	0x3d4b6879	0.04966018
34	0xbdd0491a	-0.10170193
35	0x3e09aacf	0.13444065
36	0x3d3d8b56	0.04627546
37	0x3e8ce7dc	0.27520645
38	0x3ddcc4c7	0.1077972
39	0xbdf5fc0f	-0.12010967
40	0x3df043c2	0.11731674
41	0xbdba9693	-0.09110751
42	0x3e20ed90	0.15715623
43	0x3e6f05e3	0.2334209
44	0x3dc30e20	0.095241785
45	0xbe6ead50	-0.23308301
46	0x3e014a6d	0.12626047
47	0x3dc8ac61	0.09798504
48	0x3e169dbe	0.14708611
49	0xbe21fc29	-0.15818848
50	0xbee1600f	-0.440186
51	0xbdf47706	-0.119367644
52	0xbe2b6950	-0.16739392
53	0x3e7401c8	0.23828804
54	0x3e007fdf	0.12548779
55	0x3df0a90f	0.11750995
56	0x3d0adc11	0.033901278
57	0xbcb4fcfc	-0.022093289
58	0x3ebcaf60	0.3685255
59	0xbe6e3b4a	-0.23264804
60	0x3dff10b1	0.124543555
61	0xbe17b5a1	-0.1481538
62	0x3ca4e816	0.020130198
63	0xbd3e8359	-0.04651198
64	0x3d163a65	0.036676783
65	0xbd51131a	-0.051043607
66	0x3ec79310	0.38979387
67	0xbe43be74	-0.19115621
68	0xbdb9979d	-0.09062121
69	0xbdfb7042	-0.12277271
70	0x3e525b36	0.20542607
71	0x3e338854	0.17532474
72	0x3ea37d30	0.31931448
73	0xbe530078	-0.20605648
74	0xbebdcece	-0.37071842
75	0xbdd8dcee	-0.10589014
76	0xbd1bfa19	-0.03808031
77	0x3e127042	0.14300635
78	0x3e08f004	0.13372809
79	0x3e64d67e	0.22347447
80	0xbe245f13	-0.16051893
81	0xbe7b5098	-0.24542463
82	0x3e45c3fb	0.19313042
83	0xbd390d5d	-0.04517876
84	0x3dee0ab0	0.11623132
85	0xbda56070	-0.080750346
86	0x3e0b99b2	0.13632849
87	0xbe50ac55	-0.2037824
88	0xbe7b7566	-0.24556503
89	0x3d0bdca1	0.034145955
90	0xbb99bd44	-0.0046917517
91	0xbb9dd235	-0.0048163184
92	0x3df430e5	0.119233884
93	0x3e6b1360	0.2295661
94	0xbe820b7f	-0.25399396
95	0xbe3dc568	-0.18532336
96	0x3e9f7c7b	0.3114966
97	0xbdc8dee7	-0.0980814
98	0xbdde2774	-0.10847369
99	0xbe857b38	-0.2607057
100	0xbde17552	-0.11008705
101	0x3df25a14	0.11833587
102	0xbd3b7e06	-0.045774482
103	0xbe9577ab	-0.29192862
104	0x3c8291bf	0.015938638
105	0xbe274b30	-0.16337276
106	0xbebb3c51	-0.36569455
107	0xbe2ab416	-0.1667026
108	0xbe58addd	-0.21160074
109	0xbe8792cd	-0.26479188
110	0x3eb6451b	0.35599598
111	0x3cde5227	0.027138783
112	0x3db0bd7a	0.0862989
113	0xbe763aba	-0.2404584
114	0xbea0a0a1	-0.3137255
115	0xbdf58588	-0.1198836
116	0x3d77e100	0.06051731
117	0xbeb8f7e9	-0.3612664
118	0xbe058218	-0.13037908
119	0xbe57079b	-0.20998995
120	0x3d12fff9	0.035888646
121	0xbdca5f7a	-0.09881492
122	0x3d4d8cf1	0.05018324
123	0xbdc4dcbc	-0.09612414
124	0xbe7039a9	-0.23459496
125	0xbe735d4c	-0.23766059
126	0xbe209086	-0.15680131
127	0xbe367137	-0.17816626
128	0x3e8c83c5	0.27444282
129	0xbd8d32da	-0.06894465
130	0x3e9a8a8f	0.30183837
131	0x3cd4f9df	0.025998054
132	0xbdfe4642	-0.12415744
133	0x3e97b4b9	0.29630068
134	0xbe15ae49	-0.14617266
135	0xbd9f7ccd	-0.07787476
136	0xbe8a7bb8	-0.27047515
137	0xbe97c769	-0.29644325
138	0x3de5618d	0.11200247
139	0xbd227902	-0.039666183
140	0x3d88ef83	0.06686308
141	0xbe88581e	-0.26629728
142	0x3e832e87	0.25621435
143	0xbe5a16d9	-0.21297778
144	0xbd88794b	-0.0666376
145	0x3d345d75	0.04403444
146	0x3e31a2bd	0.17347236
147	0x3e5f6df4	0.21819288
148	0x3e4150b2	0.18878439
149	0xbe96dfd1	-0.29467633
150	0x3c995d44	0.01872123
151	0xbdeb31e1	-0.11484123
152	0xbc71d3de	-0.014759986
153	0xbe9bc2d1	-0.3042207
154	0x3e995313	0.29946193
155	0xbe38c2f3	-0.18043117
156	0x3e2b8ef2	0.16753748
157	0x3e06229c	0.1309914
158	0x3d59ef8c	0.053206965
159	0xbe12d53d	-0.14339156
160	0x3eca0914	0.3946005
161	0x3cac1456	0.02100579
162	0x3d0d2189	0.03445581
163	0xbe0065c6	-0.12538823
164	0x3d9086c2	0.07056953
165	0xbd44fb4d	-0.04809122
166	0xbda9e84d	-0.08296261
167	0x3e8afaaf	0.2714438
168	0x3d4fe8e5	0.050759215
169	0xbdb6f0cb	-0.08932646
170	0xbe8ae2f6	-0.27126282
171	0xbd36472b	-0.044501465
172	0x3e0b691c	0.13614315
173	0xbe1347ea	-0.14382902
174	0xbe3783c7	-0.17921363
175	0xbe15820d	-0.14600392
176	0xbe846a2d	-0.25862256
177	0x3d997a4f	0.07494032
178	0x3e91972b	0.28435645
179	0xbe76dec8	-0.24108422
180	0x3dc84e01	0.09780503
181	0x3e4ad160	0.19806433
182	0x3ca2f087	0.019890083
183	0xbdbcb4bc	-0.0921416
184	0x3e2b1449	0.16706957
185	0x3e4b338c	0.19843882
186	0x3de4e466	0.11176376
187	0xbd2c309a	-0.042038538
188	0xbc90b3f7	-0.017663939
189	0x3ca3fc03	0.02001763
190	0xbd9293d8	-0.07157105
191	0xbd86d637	-0.06583827
192	0x3e3588e5	0.17728002
193	0x3e958d72	0.29209477
194	0xbccf03aa	-0.025270302
195	0xbd1318ff	-0.03591251
196	0x3c35f06e	0.011104686
197	0xbd18c692	-0.037298746
198	0x3e1103b3	0.14161567
199	0x3e1f0a4b	0.1553127
200	0xbe8ac7ca	-0.27105552
201	0xbde54156	-0.111941025
202	0x3eb7070c	0.35747564
203	0x3e0643be	0.13111779
204	0x3d224124	0.039612904
205	0xbe44c1b2	-0.19214514
206	0xbe9238dc	-0.28559005
207	0xbe726a49	-0.23673357
208	0xbdfb64af	-0.12275063
209	0x3da7e5b2	0.08198108
210	0x3e7b7aa2	0.245585
211	0x3e16562c	0.1468131
212	0xbe3e03a7	-0.18556081
213	0xbe5d1796	-0.21591029
214	0xbdd84a73	-0.10561075
215	0x3ebcd0db	0.36878094
216	0x3b955ebc	0.0045584124
217	0xbd2629cc	-0.040567204
218	0x3e8c4534	0.27396548
219	0xbdf952e8	-0.12174016
220	0xbdd5b7b5	-0.1043543
221	0x3ea6b076	0.32556504
222	0xbe72307a	-0.23651305
223	0x3b2bfedc	0.0026244437
224	0xbeb1f622	-0.34758097
225	0x3e838cb4	0.25693285
226	0x3e8eba3c	0.2787646
227	0x3cc14c40	0.02359593
228	0xbe15017e	-0.1455135
229	0xbe9dc885	-0.30817047
230	0xbe9fbee6	-0.3120033
231	0x3e99b5c8	0.300215
232	0x3e06ab40	0.13151264
233	0x3ea755be	0.32682604
234	0x3e3d78b2	0.18503073
235	0x3c35b037	0.011089376
236	0xbcb6aa92	-0.022298131
237	0xbe7421d1	-0.23841025
238	0xbe97160e	-0.29509014
239	0xbe887083	-0.2664834
240	0x3e1afd47	0.1513568
241	0xbdea43c5	-0.11438707
242	0x3abb59a9	0.0014293689
243	0xbd43aa7b	-0.047770005
244	0xbd87a672	-0.06623544
245	0xbe8f87ec	-0.28033388
246	0xbe493132	-0.19647673
247	0x3df19407	0.11795812
248	0xbddad263	-0.10684659
249	0x3e5fcd8b	0.21855752
250	0xbe2fab67	-0.17155229
251	0xbe2e31cb	-0.17011182
252	0x3ccc9c1a	0.024976779
253	0xbe09ee4b	-0.13469808
254	0xbc11cdaf	-0.008899136
255	0xbe882973	-0.26594123

pfn.bn.weight f4 [64]
0	0x3f6e2d16	0.93037546
1	0x3f80d3dc	1.0064654
2	0x3f6976eb	0.9119708
3	0x3f76e75a	0.96446764
4	0x3f719963	0.94374675
5	0x3f7de433	0.9917633
6	0x3f81dccd	1.0145508
7	0x3f83fe37	1.0311955
8	0x3f848efb	1.0356134
9	0x3f65d17c	0.8977277
10	0x3f77b0cd	0.9675415
11	0x3f77c56c	0.96785617
12	0x3f74f11a	0.9568039
13	0x3f7c073f	0.98448557
14	0x3f7a6bb4	0.9782059
15	0x3f6f5752	0.93492615
16	0x3f7deb12	0.99186814
17	0x3f6753a9	0.9036203
18	0x3f7558ac	0.9583843
19	0x3f819866	1.0124633
20	0x3f827024	1.0190473
21	0x3f7e6ba9	0.99383026
22	0x3f7aed51	0.98018366
23	0x3f7ac765	0.979605
24	0x3f6ce784	0.92540765
25	0x3f7a7d53	0.9784748
26	0x3f7fb2a7	0.99881977
27	0x3f8b8c7c	1.0902247
28	0x3f838a99	1.0276672
29	0x3f7a0d28	0.97676325
30	0x3f6bdc59	0.921331
31	0x3f805336	1.0025394
32	0x3f840292	1.0313284
33	0x3f659463	0.89679545
34	0x3f743da5	0.9540656
35	0x3f67dad5	0.90568286
36	0x3f818695	1.0119196
37	0x3f81f56e	1.0153024
38	0x3f7ca536	0.9868959
39	0x3f80791b	1.0036958
40	0x3f8189e0	1.0120201
41	0x3f7df2c2	0.99198544
42	0x3f8026b4	1.0011811
43	0x3f820023	1.0156292
44	0x3f7bebdb	0.9840676
45	0x3f8494c5	1.0357901
46	0x3f83133f	1.0240248
47	0x3f7b7704	0.9822848
48	0x3f82268f	1.0168017
49	0x3f730a11	0.94937235
50	0x3f75e431	0.9605132
51	0x3f842629	1.0324146
52	0x3f7f8105	0.99806243
53	0x3f8397ca	1.0280697
54	0x3f8378c7	1.0271233
55	0x3f731f96	0.9497007
56	0x3f7a1a60	0.97696495
57	0x3f81297e	1.0090787
58	0x3f775594	0.96614957
59	0x3f737b07	0.951096
60	0x3f7e0a6b	0.99234647
61	0x3f72c805	0.94836456
62	0x3f7590fd	0.9592436
63	0x3f711b7c	0.9418256

pfn.bn.bias f4 [64]
0	0xbd9045ea	-0.07044585
1	0xbd244e2a	-0.040113606
2	0xbca7b4fe	-0.020472046
3	0xbb2c5b90	-0.0026299693
4	0xbce7938e	-0.028268602
5	0xbd18c555	-0.037297565
6	0xbcb74728	-0.022372797
7	0xbc25698b	-0.010095964
8	0x3b9e7da0	0.004836753
9	0xbd941ccd	-0.07232056
10	0xbd88b6e6	-0.0667551
11	0x3c6eb4ae	0.014569445
12	0xbc34cc7e	-0.011035083
13	0xbc59a92a	-0.013284961
14	0xbc95b864	-0.0182764
15	0xbd543c87	-0.051815536
16	0xbab83134	-0.001405275
17	0xbd3eb888	-0.0465627
18	0xbd7045e3	-0.0586604
19	0xbdab83a9	-0.083747216
20	0x3ca1192f	0.019665329
21	0xba6520da	-0.0008740552
22	0xbcc91461	-0.02454585
23	0xbda5f087	-0.081025176
24	0xbdbe3ae6	-0.09288578
25	0xbc1062c1	-0.008812607
26	0xbcc6e5bc	-0.024279468
27	0xbca84ed9	-0.02054541
28	0xbd135b6f	-0.03597587
29	0xbd62b647	-0.055349614
30	0xbd8bd526	-0.06827764
31	0xbcfec68b	-0.031100532
32	0xbcec4106	-0.0288396
33	0xbde455ba	-0.111491635
34	0xbd8a135f	-0.06741976
35	0xbd5e2340	-0.054232836
36	0x3c75124b	0.014957975
37	0xbadbaeb0	-0.0016760435
38	0xbcef3eaa	-0.029204685
39	0xbd172982	-0.03690482
40	0x3cacf4aa	0.021112759
41	0x3c2d7d89	0.010589012
42	0xbc949178	-0.018135771
43	0xbc88df42	-0.01670802
44	0xbd2e8db7	-0.04261562
45	0xb4e96a00	-4.3476757e-07
46	0x3c230715	0.009950419
47	0xbcfa8071	-0.030578824
48	0xbc2124f0	-0.009835467
49	0xbd981291	-0.07425416
50	0xbd5f6626	-0.054540776
51	0x3a5dc1bb	0.0008459349
52	0xbc9cebfa	-0.019155491
53	0x3cc01c8d	0.023451114
54	0xbc75cacb	-0.015001963
55	0xbd8bc10d	-0.06823931
56	0xbc9cc4b1	-0.019136759
57	0xbd9cec20	-0.07662225
58	0xbbeb9933	-0.0071898936
59	0xbc59ffbc	-0.013305601
60	0xbcad4d92	-0.021155152
61	0xbd98877a	-0.07447715
62	0xbdab1d28	-0.083551705
63	0xbd6068b6	-0.05478736

pfn.bn.running_mean f4 [64]
0	0x340b1973	1.2954642e-07
1	0x32dabae3	2.5463526e-08
2	0x34186ec1	1.4196395e-07
3	0xb4214b3b	-1.5021662e-07
4	0xb3601fff	-5.2183164e-08
5	0x33c52703	9.1806236e-08
6	0x33deecb0	1.0380734e-07
7	0xb2d5bb53	-2.4881649e-08
8	0x342af34d	1.5920996e-07
9	0x343a5b3a	1.7355788e-07
10	0xb3d4df3a	-9.912624e-08
11	0xb43e34ac	-1.7714291e-07
12	0xb45412a3	-1.9750819e-07
13	0x33d46c76	9.891748e-08
14	0xb42fe697	-1.6382033e-07
15	0xb4206e03	-1.4941183e-07
16	0xb3b34c90	-8.349264e-08
17	0xb3a6810f	-7.753453e-08
18	0xb3948c50	-6.91731e-08
19	0xb3aa8077	-7.9396095e-08
20	0x34263cd4	1.5482084e-07
21	0xb4104722	-1.3436923e-07
22	0xb368b2c0	-5.417928e-08
23	0xb379ceb2	-5.816282e-08
24	0x340d66b4	1.3169011e-07
25	0xb46895e6	-2.1661216e-07
26	0x346371d4	2.1182433e-07
27	0xb360d71a	-5.2349698e-08
28	0x3400b4e2	1.1986734e-07
29	0xb47f92b4	-2.3802096e-07
30	0x3305d438	3.1159487e-08
31	0xb4389c41	-1.719318e-07
32	0xb36dce0e	-5.5368268e-08
33	0xb3f3793b	-1.1337621e-07
34	0xb42e5e97	-1.6239424e-07
35	0x3400cb4b	1.1994887e-07
36	0xb3a68f20	-7.756012e-08
37	0xb4256fd9	-1.5407512e-07
38	0x34628780	2.1097185e-07
39	0x3358bc6b	5.0462784e-08
40	0xb4847d01	-2.4677868e-07
41	0xb3e31c74	-1.0575687e-07
42	0xb4585b49	-2.0149777e-07
43	0x3435e417	1.6939917e-07
44	0x342a5e71	1.5866841e-07
45	0xb433e230	-1.675296e-07
46	0xb418a672	-1.4216656e-07
47	0x34787565	2.3139508e-07
48	0xb34d665b	-4.7823374e-08
49	0xb35e2338	-5.1720434e-08
50	0xb3ac8c4c	-8.034894e-08
51	0xb34573fb	-4.597312e-08
52	0x338e1906	6.616942e-08
53	0x32763c98	1.4332862e-08
54	0x32e1edeb	2.630164e-08
55	0x3441bac8	1.8042476e-07
56	0x339c85e0	7.288668e-08
57	0xb3861d87	-6.245232e-08
58	0x3448069a	1.8628853e-07
59	0x32a79840	1.9510594e-08
60	0xb1ea5210	-6.8196258e-09
61	0x32e62b23	2.679514e-08
62	0x34618139	2.1001769e-07
63	0xb43bd765	-1.7494092e-07

pfn.bn.running_var f4 [64]
0	0x36f84468	7.3989395e-06
1	0x37333bfc	1.0683198e-05
2	0x362d5125	2.5826241e-06
3	0x3684e888	3.9609768e-06
4	0x362986a0	2.5261324e-06
5	0x35eaf4c6	1.7505597e-06
6	0x3721d51b	9.645965e-06
7	0x36957576	4.4542203e-06
8	0x36aceaaf	5.15332e-06
9	0x3745db6b	1.1793202e-05
10	0x36cbe156	6.076104e-06
11	0x3600f48f	1.9215838e-06
12	0x368b5f99	4.153652e-06
13	0x36eea2ee	7.1119202e-06
14	0x37127d2d	8.731423e-06
15	0x355eee29	8.3048013e-07
16	0x36b84758	5.491933e-06
17	0x370fb69d	8.565982e-06
18	0x35b492ee	1.3453807e-06
19	0x371e6d8d	9.443041e-06
20	0x36974662	4.5083443e-06
21	0x366865b5	3.4629895e-06
22	0x36b9b2e7	5.5342566e-06
23	0x368824ff	4.0574228e-06
24	0x36edb74f	7.0844903e-06
25	0x36edba3a	7.08483e-06
26	0x36524fc7	3.1338875e-06
27	0x36370ada	2.7275441e-06
28	0x3748bcdb	1.19649e-05
29	0x37223f56	9.670699e-06
30	0x35eece5a	1.7792438e-06
31	0x36a358a6	4.8680986e-06
32	0x36eca22d	7.052228e-06
33	0x36daa153	6.515687e-06
34	0x372016a2	9.542013e-06
35	0x35bfd1d8	1.4291682e-06
36	0x36809aab	3.832703e-06
37	0x362e551a	2.5977556e-06
38	0x371163a2	8.665871e-06
39	0x37091a7a	8.172001e-06
40	0x369d338d	4.684966e-06
41	0x369fccd1	4.762413e-06
42	0x365a57e2	3.2535686e-06
43	0x371ca4ec	9.336723e-06
44	0x3710a89a	8.6223245e-06
45	0x3704d1bc	7.916646e-06
46	0x36ed8f4d	7.079833e-06
47	0x36b76e5e	5.4666734e-06
48	0x372e1996	1.0377165e-05
49	0x367e6327	3.7906664e-06
50	0x36b98482	5.5288556e-06
51	0x36470645	2.965696e-06
52	0x368434f9	3.9400734e-06
53	0x366ca054	3.5260064e-06
54	0x36dfda91	6.6713624e-06
55	0x368f2b9d	4.2668094e-06
56	0x36fec3e8	7.5925964e-06
57	0x3723e73f	9.769398e-06
58	0x36c75312	5.940333e-06
59	0x364d7ed3	3.0621202e-06
60	0x3681dc94	3.8701783e-06
61	0x374788f2	1.1893209e-05
62	0x36f8cff0	7.415183e-06
63	0x36bab427	5.5642045e-06

backbone.conv1.weight f4 [32, 64, 3, 3]
0	0xbc693b9d	-0.014235404
1	0x3cc2d83f	0.023784755
2	0xbca19244	-0.019723065
3	0xbd2421e2	-0.040071376
4	0xbc1bf034	-0.009517718
5	0xbd0f1c5a	-0.034939148
6	0x3cedb58f	0.029017238
7	0xbd8ca874	-0.068680674
8	0xbd48360f	-0.04887968
9	0xbcaab607	-0.02083875
10	0xbc8b1790	-0.016979009
11	0xbcd8863c	-0.026431195
12	0x3c734f32	0.014850425
13	0xbd8addd2	-0.0678059
14	0xbb0e25cd	-0.0021690011
15	0xbc8281bd	-0.015931005
16	0xbcb74f35	-0.022376636
17	0x3c364676	0.011125198
18	0xbc8d643f	-0.017259715
19	0x3d0497fc	0.032371506
20	0x3ca71a9d	0.020398432
21	0x3cc8b1ee	0.024498906
22	0x3c7ef172	0.015560495
23	0x3b4e22ce	0.003145385
24	0xbcd9fd99	-0.026610183
25	0xbd2d227e	-0.042269222
26	0xbc2ab851	-0.010419921
27	0x3d1f5570	0.03889984
28	0xbd535bac	-0.051601097
29	0xbd9112d4	-0.07083669
30	0x3b397c89	0.0028302989
31	0xbb164331	-0.0022928233
32	0x3cedc601	0.02902508
33	0x3d269c5c	0.04067646
34	0xbcb29bb2	-0.021802757
35	0x3d860f87	0.0654593
36	0x3c01b541	0.007916749
37	0x3d6a9a37	0.057275977
38	0x3b8661b0	0.0041010007
39	0x3b979163	0.0046254857
40	0xbb9e65d0	-0.0048339143
41	0x3d028de9	0.031873617
42	0x3c3d5e5f	0.011558144
43	0xbd8aa383	-0.06769469
44	0x3d29febc	0.0415027
45	0xbd05c0eb	-0.032654684
46	0x3b02cb84	0.001995773
47	0xbc3ccadd	-0.011522976
48	0x3c6cc92e	0.014452262
49	0x3c839ab9	0.016064988
50	0xbcddc4fd	-0.02707147
51	0xbd454510	-0.048161566
52	0xbd5be3de	-0.053684108
53	0xbca50d95	-0.020148078
54	0xbd7ee8af	-0.062233623
55	0x3ba9bb9b	0.005179835
56	0xbd828e6d	-0.06374822
57	0xbd6da76e	-0.058021
58	0xbd479458	-0.048725456
59	0xbd8e6b9a	-0.06954117
60	0xbd457288	-0.04820493
61	0xbccdff2d	-0.025146091
62	0x3d8341cc	0.06409034
63	0xbc8e8c2b	-0.017400822
64	0xbc708994	-0.014681239
65	0xbc4b9c2f	-0.012427374
66	0xbd23192e	-0.039818935
67	0xbcac2211	-0.021012338
68	0x3adf6f4a	0.0017046717
69	0xbd27674d	-0.04087
70	0xbc01b03c	-0.007915553
71	0xbc89c6f2	-0.016818497
72	0xbb50b048	-0.0031843353
73	0xbb639261	-0.00347247
74	0xbd8119a3	-0.06303718
75	0xbcdec9a9	-0.027195768
76	0xbb7569cc	-0.0037447093
77	0xbca9cc0a	-0.020727176
78	0x3c09d190	0.00841178
79	0x3cc5585b	0.024089983
80	0xbdaf611a	-0.085634425
81	0xbd2aade1	-0.04166973
82	0x3cd9a713	0.026568925
83	0xbd83dd60	-0.06438708
84	0xbd0085d3	-0.031377625
85	0xbd84448a	-0.06458385
86	0x3b9aca30	0.0047238097
87	0xbc5c6a9a	-0.01345315
88	0xbd7a7eba	-0.061156012
89	0x3d7474ee	0.059681825
90	0xbda8eae4	-0.08247927
91	0xbd4cf67b	-0.05003975
92	0xbd84843b	-0.064705335
93	0xbd7d812f	-0.061890777
94	0xbd4386de	-0.04773604
95	0xbd5d153f	-0.05397534
96	0x3d8d363e	0.068951115
97	0xbb30187d	-0.0026870065
98	0x3d17523b	0.036943655
99	0xbc99cc5c	-0.018774204
100	0xbb9dd0f1	-0.0048161675
101	0xb9925d22	-0.0002791668
102	0x3c310d06	0.010806328
103	0xbc1dfdb1	-0.009643004
104	0x3c02ba98	0.007979058
105	0x3cbc1e39	0.02296363
106	0xbd40b659	-0.0470489
107	0x3d98d343	0.0746217
108	0xbd609092	-0.054825373
109	0x3d629531	0.05531806
110	0xbd5ec240	-0.05438447
111	0xbd31af5d	-0.04338013
112	0xbcdbd8e8	-0.026836827
113	0xbcfcc8c3	-0.03085745
114	0xbd024d88	-0.03181222
115	0xbc9d3139	-0.01918851
116	0xba1b06cc	-0.00059137936
117	0x3b1b957f	0.002374023
118	0xbccb1c84	-0.02479387
119	0xbd641547	-0.055684354
120	0x3bca30d4	0.0061703715
121	0x3cc7066d	0.024295056
122	0xbd1509d3	-0.036386322
123	0xbc8a4023	-0.016876286
124	0xbd99ac75	-0.07503597
125	0x3a0aba03	0.0005292
126	0xbd82c80b	-0.063858114
127	0x3c27b332	0.010235595
128	0xbd0eec12	-0.034893103
129	0xbd8773bc	-0.066138715
130	0x3ca16272	0.019700263
131	0xbbe15c68	-0.0068774708
132	0xbcd1deff	-0.025619028
133	0xbd8316a8	-0.06400806
134	0x3d403394	0.04692419
135	0xbd898aea	-0.06715949
136	0xbd28d6f6	-0.041220628
137	0xbda4d02d	-0.08047519
138	0xba869e70	-0.0010270607
139	0xbd6a715e	-0.05723702
140	0x39a31caa	0.0003111114
141	0xbb2b2f6d	-0.0026120797
142	0xbd39c31a	-0.04535208
143	0x3d75a38e	0.05997043
144	0xbc9131dd	-0.017723972
145	0xbcd10de7	-0.025519324
146	0xbd35ec5d	-0.044414867
147	0x3c44de28	0.012015857
148	0xbcf9d539	-0.03049718
149	0x3c6ffab8	0.014647178
150	0xbd53dee4	-0.051726237
151	0xbbdb992d	-0.0067016096
152	0xbc8e7f8a	-0.0173948
153	0xbd0509bf	-0.032479998
154	0xbc007ef1	-0.007842765
155	0xbd800f91	-0.06252969
156	0xb9e05c23	-0.00042793257
157	0xbd74569d	-0.059652913
158	0xbd1e5445	-0.038654584
159	0x3d57b47d	0.05266236
160	0xbbb088ae	-0.0053873872
161	0x3d1c455f	0.038152095
162	0xbceac9e7	-0.028660728
163	0x3d932089	0.0718394
164	0xbcff11c1	-0.031136395
165	0xbd0d8185	-0.034547348
166	0xbd0d2530	-0.034459293
167	0xbc9b12b3	-0.018929815
168	0x3d5b4603	0.053533565
169	0xbc4322b6	-0.011910131
170	0xbc7013aa	-0.014653126
171	0xbd1e29f8	-0.038614243
172	0xbd3e5f5c	-0.04647766
173	0xbca08673	-0.01959536
174	0xbd6432fd	-0.05571269
175	0xbd2cfa36	-0.042230807
176	0xbdae1eca	-0.08501966
177	0x3c29272f	0.0103242835
178	0xbcc2d72b	-0.02378424
179	0x3d470e94	0.048597887
180	0x3b97298a	0.004613106
181	0x3de844c6	0.113412425
182	0x3aa2cb6f	0.0012420247
183	0x3d0ed033	0.034866523
184	0x3d508d1d	0.050915826
185	0x3d7d30fc	0.061814293
186	0xbc89d0bf	-0.01682317
187	0xbb0477b6	-0.0020212955
188	0x3d813b4a	0.063101366
189	0xbd24a33e	-0.040194742
190	0xbb86cc80	-0.004113734
191	0xbd8376c1	-0.06419135
192	0xbc4af68a	-0.012387881
193	0xbd386c50	-0.04502517
194	0xbc13555c	-0.008992519
195	0x3bdb545e	0.006693407
196	0xbd8f356f	-0.069926135
197	0x3ceeb6f4	0.029139973
198	0xbbdc7cd1	-0.0067287465
199	0x3d7a067f	0.06104135
200	0xbba04578	-0.004891094
201	0xbd9c3a3f	-0.07628297
202	0x3d155e17	0.036466684
203	0x3cba921a	0.022774745
204	0x3d5dc2d0	0.054140866
205	0xbd703421	-0.058643464
206	0x3bd73e65	0.0065687173
207	0xbc5322db	-0.012886728
208	0x3d701222	0.058611043
209	0x3bed2041	0.007236511
210	0x3c139d2b	0.00900964
211	0x3d0237a1	0.031791333
212	0x3b05f385	0.0020439338
213	0x3d03c75b	0.032172542
214	0xbd16bd35	-0.036801536
215	0xbd80db33	-0.06291809
216	0xbd85c5cc	-0.065318674
217	0x3d47c7e0	0.0487746
218	0x3cce20c8	0.025162116
219	0xbd527fbd	-0.051391352
220	0xbd9d877c	-0.07691857
221	0x3ccf03dd	0.025270397
222	0x3ce7a300	0.028275967
223	0xbd0153f9	-0.031574223
224	0xbd9646ed	-0.07337747
225	0xbd54d5b6	-0.051961623
226	0x3cb78eb2	0.02240691
227	0x3b0d5432	0.0021565077
228	0xbbb1199a	-0.0054046633
229	0x3a70e446	0.0009189289
230	0xbc8d6e35	-0.017264465
231	0x3dabdca1	0.08391691
232	0xbd1d9704	-0.038474098
233	0x3c02abd4	0.007975537
234	0x3cc91b6f	0.024549214
235	0x3c99f10a	0.018791694
236	0xbd3af330	-0.045642078
237	0x3b4d9653	0.0031370118
238	0x3c470f06	0.012149578
239	0xbbda67e4	-0.0066652168
240	0x3c03d256	0.008045753
241	0xbcc9e3ab	-0.024644693
242	0x3d5295fc	0.051412567
243	0xbcdf3941	-0.02724898
244	0xbd0305c3	-0.031987917
245	0xbcb5688f	-0.022144584
246	0xbd8646e4	-0.0655649
247	0x3d085900	0.033288002
248	0xbcf70d2b	-0.030157646
249	0x3942c16e	0.0001857334
250	0xbcbf7372	-0.023370478
251	0xbdb7207a	-0.08941741
252	0xbd39d2dd	-0.04536711
253	0x3da9d290	0.08292115
254	0xbc843997	-0.016140742
255	0xbd874bba	-0.066062406

backbone.bn1.weight f4 [32]
0	0x3f751c17	0.95745987
1	0x3f81e6c2	1.0148547
2	0x3f6fe006	0.9370121
3	0x3f7e391c	0.9930589
4	0x3f7b95e7	0.9827561
5	0x3f7725d4	0.96542096
6	0x3f745d51	0.9545489
7	0x3f777490	0.96662235
8	0x3f7416cc	0.95347285
9	0x3f77777f	0.9666671
10	0x3f6c733d	0.9236334
11	0x3f7596c5	0.9593318
12	0x3f7e098c	0.9923332
13	0x3f728fa2	0.94750416
14	0x3f8d25f3	1.1027206
15	0x3f862042	1.0478594
16	0x3f82248a	1.0167401
17	0x3f7fd4be	0.99933994
18	0x3f7e8d55	0.99434406
19	0x3f77d006	0.96801794
20	0x3f8537e6	1.0407684
21	0x3f718039	0.9433628
22	0x3f8525b8	1.0402136
23	0x3f7b61e6	0.98196256
24	0x3f7955ab	0.97396344
25	0x3f74f430	0.956851
26	0x3f72e63a	0.9488255
27	0x3f842d84	1.032639
28	0x3f7be6a7	0.9839882
29	0x3f8350c5	1.0259024
30	0x3f7ab1b4	0.97927403
31	0x3f7ca80c	0.9869392

backbone.bn1.bias f4 [32]
0	0xbc7ca3bb	-0.015419896
1	0xbd316ca0	-0.043316483
2	0x3cc1c6fa	0.02365445
3	0x3b4c79f7	0.0031200626
4	0xbd049e13	-0.032377314
5	0xbd975e9b	-0.073910914
6	0xbbd01f8e	-0.006351418
7	0x3c22d76f	0.009939059
8	0xbd1af52e	-0.037831478
9	0x3db2e9df	0.087360136
10	0x3c9b8e4d	0.018988753
11	0xbd2c4246	-0.04205539
12	0x3d1488a6	0.03626313
13	0xbddc905e	-0.10769723
14	0xbd9d1c2e	-0.076713905
15	0xbc85c798	-0.016330525
16	0x3dddd0ce	0.10830842
17	0xbd05b308	-0.03264144
18	0xbcd49a21	-0.0259524
19	0xbc2dbcd9	-0.010604107
20	0x3d8f4108	0.069948256
21	0x3c0408df	0.008058756
22	0xbb3c333e	-0.0028717066
23	0xbd722bcb	-0.059123795
24	0xbba57427	-0.005049247
25	0xbe11beca	-0.14232937
26	0x3bc461e1	0.0059931134
27	0xbd804525	-0.06263188
28	0xbca4fd9f	-0.020140467
29	0xbc744c54	-0.014910776
30	0xbd1d7206	-0.03843882
31	0x3c005d8d	0.007834804

backbone.bn1.running_mean f4 [32]
0	0xbfb7122b	-1.430242
1	0x3f73921e	0.9514483
2	0xbf852ae0	-1.040371
3	0xbf902e90	-1.126421
4	0xbe64c331	-0.22340085
5	0xbe8ad4e8	-0.2711556
6	0xbf2b335c	-0.66875243
7	0xbf80b472	-1.0055068
8	0xbfb309f6	-1.3987415
9	0xbf9ba4f2	-1.2159712
10	0xbf3b633a	-0.7319828
11	0xbf6f3583	-0.9344103
12	0x3e9ecb9b	0.31014714
13	0xbe1c120b	-0.15241258
14	0xbf177d2c	-0.5917537
15	0xbe46be51	-0.19408537
16	0xbefa99d9	-0.489455
17	0x3cbbcf29	0.02292593
18	0xbf515e61	-0.81784636
19	0xbfb5fb22	-1.4217265
20	0xbf77424a	-0.96585524
21	0xbf032ec2	-0.5124322
22	0xbedef6ba	-0.43547612
23	0xbf2f5ff3	-0.6850578
24	0xbfc4c1d6	-1.5371654
25	0xbeb6e398	-0.35720515
26	0xbfba4a5f	-1.4553946
27	0xbe99b395	-0.30019823
28	0xbf94b1f8	-1.1616812
29	0xbee261ee	-0.4421534
30	0xbf4ee36f	-0.80815786
31	0xbfe5c5d0	-1.7950993

backbone.bn1.running_var f4 [32]
0	0x428d2003	70.56252
1	0x4258ca18	54.197357
2	0x426832f8	58.049774
3	0x427b766b	62.865643
4	0x42103e8f	36.061092
5	0x42534ff0	52.828064
6	0x428207b2	65.01503
7	0x42306261	44.096073
8	0x42954e12	74.65248
9	0x429172e6	72.72441
10	0x426abd3b	58.684795
11	0x427cd573	63.208447
12	0x4223b2b9	40.924534
13	0x422381d4	40.876785
14	0x42220c5f	40.51208
15	0x42103373	36.050243
16	0x42148219	37.12705
17	0x4209df52	34.468086
18	0x4241bc14	48.43367
19	0x424d947d	51.395008
20	0x4215c7a8	37.444977
21	0x42914204	72.62894
22	0x4231abfd	44.417957
23	0x423179b8	44.368866
24	0x427a800c	62.625046
25	0x423b353c	46.801987
26	0x4247e600	49.97461
27	0x42380e5e	46.01403
28	0x4237621e	45.845818
29	0x4202a2cc	32.65898
30	0x425c8e3c	55.1389
31	0x429a7d19	77.24433

backbone.conv2.weight f4 [64, 32, 3, 3]
0	0xbda1741d	-0.07883475
1	0xbd1a9824	-0.03774275
2	0x3d0c793e	0.034295313
3	0x3d78dc48	0.06075695
4	0xbd827e08	-0.06371695
5	0xbc5dd1e6	-0.013538813
6	0xbc0d636a	-0.008629659
7	0x3c7c7f9f	0.015411287
8	0xbc17782d	-0.009244961
9	0xbd01dcbc	-0.03170465
10	0x38c9be90	9.619922e-05
11	0x3d16b189	0.036790404
12	0x3c02ae69	0.007976153
13	0x3d49c83d	0.049263228
14	0xbd22a295	-0.03970583
15	0x3d9595d3	0.07303967
16	0x3e005a3d	0.12534423
17	0x3dbabedd	0.091184355
18	0xbceee5a9	-0.029162245
19	0xbd95bb47	-0.07311111
20	0xbd87624f	-0.06610548
21	0x3d9aee65	0.075650014
22	0x3ce7114a	0.028206486
23	0x3d1a6298	0.037691683
24	0x3d05e110	0.03268534
25	0xbb9e66a4	-0.004834013
26	0x3d660b48	0.056163102
27	0xbd8d3ff9	-0.068969674
28	0x3c9580e7	0.018249942
29	0x3d0f347a	0.034962155
30	0x3d994645	0.07484106
31	0x3d17ba5f	0.03704297
32	0x3d3cbbf4	0.046077684
33	0x3dd5d515	0.10441033
34	0x3ba255df	0.0049540843
35	0x3c9b5bb3	0.018964624
36	0xbd2d720c	-0.04234509
37	0x3d09f062	0.033676513
38	0xbcad08e1	-0.021122398
39	0x3d3f02f1	0.046633665
40	0xbd5f132d	-0.054461647
41	0x3d196f8a	0.037459888
42	0x3d68085c	0.056648597
43	0x3d8eb9b0	0.06969011
44	0x3d80318c	0.0625945
45	0xbd3ca567	-0.046056177
46	0x3d0355d5	0.032064278
47	0xbbcb4429	-0.0062031937
48	0x3d9c196c	0.07622036
49	0x3cdfdc74	0.0273268
50	0xbc8e2635	-0.017352203
51	0x3d16faa2	0.036860116
52	0x3dbf2320	0.093328714
53	0x3ce5ab8c	0.028035901
54	0x3ded7502	0.11594583
55	0x3d8a200b	0.06744393
56	0xbd2f2540	-0.042760134
57	0xbb8ceb1d	-0.0043004886
58	0x3c7886e0	0.015168875
59	0x3b5a2279	0.0033284707
60	0x3c74d1f7	0.014942638
61	0x3db91498	0.09037131
62	0x3c12ac75	0.00895225
63	0x3bbae085	0.0057030343
64	0xbc1be190	-0.0095142275
65	0xbd89870c	-0.06715211
66	0x3cc1d3c0	0.02366054
67	0x3c90fa82	0.017697576
68	0x3a398385	0.0007076788
69	0x3d937fc2	0.07202102
70	0x3cc151c7	0.023598565
71	0x3b0f0bb7	0.002182705
72	0x3d6352cb	0.05549888
73	0xbcbbf0eb	-0.022942027
74	0x39be88ec	0.0003634164
75	0x3d425e38	0.047453135
76	0xbc492bd6	-0.012278518
77	0x3bd42d2e	0.0064751124
78	0xbbbef0fc	-0.0058270674
79	0xbd32aa74	-0.043619588
80	0x3d001000	0.03126526
81	0xbdc30d80	-0.09524059
82	0x3cb41275	0.021981457
83	0xbb4a3b10	-0.0030857958
84	0xbc33444d	-0.010941577
85	0x3c7bd99e	0.015371708
86	0xbd498e34	-0.04920788
87	0xbd965a65	-0.0734146
88	0xbcad4153	-0.021149313
89	0xbc141304	-0.009037737
90	0xbd0c936f	-0.03432029
91	0x3b13bcf9	0.0022543056
92	0x3a8e1f26	0.0010843023
93	0x3c34e23b	0.011040266
94	0xbd561818	-0.05226907
95	0xbd7f4286	-0.0623193
96	0xbd24d7b1	-0.04024476
97	0x3cd10755	0.025516191
98	0xbd295359	-0.041339252
99	0xbc430eb3	-0.01190536
100	0x3aaf3bb5	0.0013369235
101	0xbd589eeb	-0.05288593
102	0x3d15e009	0.03659061
103	0x3d9cfba1	0.07665182
104	0xbd1244fc	-0.03571032
105	0x3cace823	0.021106785
106	0x3d943fb5	0.07238714
107	0x3d4c59ab	0.0498902
108	0xbe07b530	-0.13252711
109	0xbccd4c4d	-0.025060797
110	0xbdbe35ae	-0.09287582
111	0xbd632f16	-0.055464827
112	0xbd95dc49	-0.07317407
113	0xbb0712a1	-0.002061047
114	0x3d903b02	0.07042505
115	0xbc4becd1	-0.012446598
116	0xbd087ffe	-0.033325188
117	0x3d47da61	0.048792247
118	0x3d4cc7c5	0.049995203
119	0x3d59d077	0.053177323
120	0x3d64e49e	0.05588209
121	0xbd413480	-0.04716921
122	0xbc854bff	-0.01627159
123	0x3d43738d	0.04771762
124	0xbd2d71d9	-0.0423449
125	0xbba80a39	-0.0051281718
126	0x3e1e0ae5	0.15433843
127	0x3e3f7356	0.18696341
128	0x3cf0357d	0.02932238
129	0x3cb8629e	0.022507962
130	0xbc00513e	-0.00783187
131	0xbc8f39b0	-0.017483562
132	0x3dc6fb0d	0.09715853
133	0x3d27594a	0.040856637
134	0x3e17e40d	0.14833088
135	0x3cf5fd84	0.030028112
136	0x3d1d2861	0.038368586
137	0x3d4983fe	0.049198143
138	0x3c32be76	0.010909667
139	0xbc30dbdd	-0.010794607
140	0xbc8cd187	-0.017189754
141	0xbc87fa0a	-0.01659872
142	0xbca60b1d	-0.020268971
143	0x3d183ed9	0.03716931
144	0xbd49b416	-0.04924401
145	0xbddcbb13	-0.10777869
146	0xbd3d9e35	-0.046293456
147	0xbcaf90bd	-0.021431321
148	0xbd718f52	-0.05897457
149	0xbd45eb93	-0.048320364
150	0xbbd8ed85	-0.0066201114
151	0x3c3eaefe	0.011638401
152	0xbd5f9cb7	-0.054592814
153	0x3c1e897b	0.009676333
154	0xbca79f02	-0.020461563
155	0xbcf37f68	-0.029723838
156	0x3c1b7e1c	0.009490516
157	0xbd3bee52	-0.045881577
158	0xbcd4090a	-0.025883216
159	0xbd0696a6	-0.032858513
160	0x3d8fff47	0.07031112
161	0xbcbce2d3	-0.023057377
162	0xbce338b9	-0.027737008
163	0x3db3367e	0.08750628
164	0xbb9e9e3e	-0.0048406413
165	0xbc0e2182	-0.008674981
166	0x3c4101a6	0.011780178
167	0x3d717c95	0.0589567
168	0x3c56b6e3	0.013105127
169	0x3c416694	0.011804242
170	0xbb61fb31	-0.0034481997
171	0xbd0c3d13	-0.034237932
172	0xbd0c0f96	-0.03419455
173	0xbd75b3da	-0.059985973
174	0xbd7cd489	-0.061726127
175	0x3b106a3d	0.002203598
176	0xbd7ac8cb	-0.061226647
177	0x3d4fa930	0.05069846
178	0xbbdf1e5b	-0.0068090386
179	0xbd1c159d	-0.03810655
180	0xbd464179	-0.048402283
181	0xbd6e148c	-0.058125064
182	0xbd2ccf78	-0.042190045
183	0xbd82b99b	-0.06383058
184	0xbd2f0d5e	-0.042737357
185	0x3c834a81	0.016026737
186	0x3bd6f13f	0.0065595205
187	0x3cd35401	0.025796892
188	0x3d699a24	0.057031766
189	0xbcbe45be	-0.023226615
190	0xbcd833db	-0.026391914
191	0x3d5012e9	0.050799284
192	0xbdc3568b	-0.09537991
193	0xbd4d7cc8	-0.05016783
194	0xbd2d3b6b	-0.042292994
195	0x3d546a83	0.05185939
196	0x3d9e93ae	0.077430114
197	0xbd9ea8b3	-0.077470206
198	0x3c9dc07d	0.019256825
199	0x3d8414fb	0.06449314
200	0x3db72e24	0.089443475
201	0x3d50df78	0.050994366
202	0x3cebfb70	0.028806418
203	0x3d4e688b	0.05039267
204	0x3db0dc1d	0.08635733
205	0x3d4294cf	0.047505196
206	0x3d35031e	0.044192426
207	0x3d059df4	0.03262134
208	0x3d1b0e73	0.037855577
209	0xbc4b495d	-0.012407628
210	0xbd9e257f	-0.077219956
211	0x3bc92a30	0.0061390623
212	0xbd177216	-0.036974035
213	0xbca91e81	-0.020644428
214	0x3ce1221c	0.027482085
215	0x3d742b34	0.059611514
216	0x3d0658cb	0.032799523
217	0x3df3bff8	0.119018495
218	0x3cb79a93	0.022412574
219	0xbdaba42f	-0.08380925
220	0x3dbbabc4	0.09163621
221	0x3c82e4ef	0.015978305
222	0x3ce76983	0.028248554
223	0xbd0ed7a9	-0.03487364
224	0x3d99291a	0.074785426
225	0x3d74c230	0.059755504
226	0x3db12a4c	0.086506456
227	0x3cb32a1a	0.021870662
228	0xbd0aebb5	-0.033916194
229	0xbbcbac9a	-0.006215644
230	0xbd2d9474	-0.042377904
231	0xbc92a5f0	-0.01790139
232	0xbd143b0f	-0.036189135
233	0x3c833452	0.01601616
234	0xbcff55be	-0.031168815
235	0x3cf639eb	0.030056914
236	0x3d3576e7	0.044302847
237	0xbd037f4b	-0.032103818
238	0x3d02f610	0.031972945
239	0x3cab1428	0.020883635
240	0xbd1ae1a1	-0.037812833
241	0xbd805e36	-0.06267969
242	0x3d7262f9	0.05917642
243	0xbcff6c58	-0.031179592
244	0xbc680e52	-0.0141635705
245	0xbd2e9161	-0.042619113
246	0xbd19ba62	-0.037531264
247	0xbd1e7f08	-0.038695365
248	0x3cc2a149	0.023758547
249	0x3ddd767e	0.10813616
250	0x3e205b76	0.1565989
251	0xbc69b450	-0.014264181
252	0x3c8dfd29	0.01733263
253	0x3d65fe0e	0.05615049
254	0xbc115184	-0.0088695325
255	0x3a8d0b67	0.0010760844

backbone.bn2.weight f4 [64]
0	0x3f83b0d9	1.0288345
1	0x3f792d91	0.97335154
2	0x3f87b31b	1.0601534
3	0x3f7ad986	0.97988164
4	0x3f81e88e	1.0149095
5	0x3f896873	1.0735
6	0x3f7659e3	0.96230906
7	0x3f814026	1.0097702
8	0x3f851edc	1.0400043
9	0x3f6e0656	0.9297842
10	0x3f74187e	0.9534987
11	0x3f647b30	0.8925047
12	0x3f7dd630	0.9915495
13	0x3f71fe36	0.9452852
14	0x3f846908	1.0344553
15	0x3f852c82	1.0404208
16	0x3f84fe25	1.0390059
17	0x3f7655e8	0.9622483
18	0x3f741560	0.95345116
19	0x3f7c9cfd	0.98677045
20	0x3f6ee995	0.9332517
21	0x3f736a8d	0.9508446
22	0x3f7e7b14	0.9940655
23	0x3f7cc54c	0.9873855
24	0x3f7302ef	0.9492635
25	0x3f7d84c2	0.990307
26	0x3f763686	0.96176946
27	0x3f6ba87d	0.9205397
28	0x3f5a8c40	0.85370255
29	0x3f71ef7b	0.94506043
30	0x3f773d04	0.9657748
31	0x3f7b9400	0.98272705
32	0x3f8a3c64	1.079968
33	0x3f7b3f9a	0.98143923
34	0x3f87f55a	1.062175
35	0x3f7da5ca	0.990811
36	0x3f7e9ce4	0.99458146
37	0x3f746b7d	0.95476514
38	0x3f839db4	1.0282502
39	0x3f891dac	1.071218
40	0x3f7b9193	0.98269004
41	0x3f8596e4	1.0436673
42	0x3f785dbf	0.97018045
43	0x3f80c466	1.0059936
44	0x3f818b58	1.0120649
45	0x3f72fc42	0.94916165
46	0x3f83c881	1.0295564
47	0x3f807a97	1.0037411
48	0x3f8413d1	1.0318547
49	0x3f800ae7	1.0003327
50	0x3f734515	0.95027286
51	0x3f7aa756	0.97911584
52	0x3f7d83d3	0.9902927
53	0x3f7e75c3	0.9939844
54	0x3f6f4bea	0.9347521
55	0x3f640496	0.890695
56	0x3f707de8	0.9394212
57	0x3f64349d	0.8914278
58	0x3f822cfd	1.0169979
59	0x3f822a5c	1.0169177
60	0x3f8299a9	1.0203143
61	0x3f74eafd	0.95671064
62	0x3f64cdac	0.8937633
63	0x3f8e4f5a	1.1117966

backbone.bn2.bias f4 [64]
0	0xbdf608cd	-0.12013397
1	0x3b00b9b3	0.0019641935
2	0x3dbdf4d2	0.092752114
3	0xbd19f603	-0.03758813
4	0x3e23a8aa	0.15982309
5	0x3cf78a95	0.030217448
6	0xbda045dd	-0.07825825
7	0xbdb4950d	-0.08817492
8	0xbd9e11a8	-0.077182114
9	0xbd836081	-0.06414891
10	0xbbf9adee	-0.007619611
11	0xbdbe52f2	-0.09293164
12	0x3c8c7793	0.017146861
13	0xbdafb066	-0.08578567
14	0x3d60b4e1	0.05486
15	0x3d7afa00	0.061273575
16	0x3e156cb9	0.14592256
17	0xbcf10fa0	-0.029426396
18	0xbcce0982	-0.025151018
19	0xbd9f8cff	-0.07790565
20	0xbd18d6ad	-0.037314106
21	0xbd9d420a	-0.076786116
22	0xbd0b68ab	-0.034035366
23	0xbcd01d2d	-0.025404537
24	0xbda783b5	-0.08179418
25	0xbde7ebbe	-0.11324261
26	0xbe10e42c	-0.1414954
27	0xbd8dec05	-0.06929783
28	0xbdc57493	-0.096413754
29	0xbcf5f9f4	-0.030026414
30	0x3dd402dc	0.10352108
31	0xbdccfeab	-0.100095116
32	0x3e134733	0.14382629
33	0xbdb39d4e	-0.08770238
34	0xbd05d554	-0.03267415
35	0xbd652da1	-0.05595172
36	0xbd47a3c6	-0.04874017
37	0xbd6a38db	-0.057183128
38	0x3da77bc3	0.081779025
39	0xbd11af23	-0.035567414
40	0xbdcc2129	-0.09967262
41	0x3cdc1a24	0.026867934
42	0xbd8deb92	-0.06929697
43	0x3d35893c	0.04432033
44	0xbbb83c6f	-0.0056224386
45	0xbb8fb41a	-0.0043854835
46	0x3c39994b	0.011328052
47	0xbdbdf92e	-0.09276043
48	0x3d249a3c	0.04018615
49	0xbd99b3fb	-0.07505032
50	0xbdf33c94	-0.11876789
51	0xbd7a9a4b	-0.0611823
52	0xbc9f9281	-0.019479038
53	0xbdc91e86	-0.09820275
54	0xbdcdf0dd	-0.10055707
55	0xbd6ee4a1	-0.058323506
56	0xbd9acc42	-0.0755849
57	0x3c83b6c3	0.016078359
58	0xbd96efc4	-0.073699504
59	0x3dadd498	0.08487815
60	0xbcbd6bb5	-0.023122648
61	0xbd95840a	-0.07300575
62	0xbd58513f	-0.052811857
63	0xbbea857f	-0.0071570273

backbone.bn2.running_mean f4 [64]
0	0x3f2fca37	0.6866793
1	0xbe13a981	-0.1442013
2	0xbff1544d	-1.8853852
3	0xbf7dfb09	-0.99211174
4	0xc014c048	-2.324236
5	0x3e6fcb3d	0.23417373
6	0xbf523b50	-0.82121754
7	0x3dad5784	0.08463958
8	0xbec65d16	-0.38742894
9	0xbf37c5b2	-0.71786034
10	0xbf287d4d	-0.65816194
11	0x3e5b55b9	0.2141942
12	0xbf980948	-1.1877832
13	0xbbe5e8c6	-0.007016274
14	0xbdf6b16d	-0.1204556
15	0xbffc43d2	-1.9708197
16	0xbfd565aa	-1.667165
17	0x3dd46a54	0.10371843
18	0x3ec7c542	0.39017683
19	0xbf2f0796	-0.6837095
20	0xbeacfdf6	-0.33787507
21	0xbf7acf03	-0.97972125
22	0x3dcab7ce	0.09898339
23	0xbf5c3a36	-0.8602632
24	0xbf5e8a2f	-0.869296
25	0x3e1148fd	0.14187999
26	0xbcee8cba	-0.029119838
27	0x3f14bdae	0.5810193
28	0x3f6400f2	0.8906394
29	0xbf9ad89e	-1.2097356
30	0xbf791028	-0.9729028
31	0xbef33f82	-0.4750939
32	0xbf57cefc	-0.8430021
33	0x3f372ce9	0.715529
34	0xbf8cc7b2	-1.0998442
35	0xbf46280e	-0.7740487
36	0xbeef47a8	-0.46734357
37	0xbf292a91	-0.66080576
38	0xc00f107d	-2.2353814
39	0x3e24688c	0.16055506
40	0xbd9ab59b	-0.0755417
41	0xbfc6ffc4	-1.5546803
42	0xbf73f92d	-0.9530209
43	0xbfba014b	-1.4531645
44	0xbf43eb4c	-0.7653091
45	0xbedbf67f	-0.429615
46	0xbebbda6a	-0.36690074
47	0x3cc3ae44	0.023886807
48	0xbfa3580d	-1.2761246
49	0xbf580d26	-0.8439506
50	0xbdf9ae1c	-0.12191412
51	0xbf8498e9	-1.0359164
52	0x3e3c0b12	0.18363598
53	0x3d8b767f	0.06809711
54	0x3e1a86f6	0.15090546
55	0x3f7a8de5	0.97872764
56	0x3f219fdc	0.6313455
57	0x3f81e117	1.0146817
58	0xbefcbc1e	-0.49362272
59	0xbfb1b99e	-1.3884771
60	0x3b964148	0.004585419
61	0xbf60801b	-0.87695473
62	0x3fd57af8	1.6678152
63	0x3be0c820	0.0068597943

backbone.bn2.running_var f4 [64]
0	0x402ffa00	2.7496338
1	0x402c7eb3	2.695233
2	0x40afbab2	5.49154
3	0x404b6f3f	3.178665
4	0x41015229	8.082559
5	0x4052999b	3.2906253
6	0x40566f84	3.3505564
7	0x401b5f91	2.427708
8	0x40253787	2.5815141
9	0x404c4520	3.191719
10	0x4095b9c2	4.6789255
11	0x402713af	2.6105764
12	0x401c8f40	2.4462433
13	0x3ff3c535	1.9044558
14	0x4023f620	2.5618973
15	0x40af7600	5.4831543
16	0x4087a133	4.2384276
17	0x3fc38d93	1.527758
18	0x40160f3e	2.3446803
19	0x407fa339	3.9943373
20	0x40536a3e	3.3033595
21	0x403ca55d	2.947593
22	0x3ff9fa92	1.9529593
23	0x4052eb04	3.2955942
24	0x4023c8e9	2.5591376
25	0x402ba348	2.681841
26	0x4030c651	2.7621043
27	0x4015854c	2.3362608
28	0x4068e22d	3.6388047
29	0x403da4ef	2.9631917
30	0x406ffc86	3.7497878
31	0x40065816	2.0991263
32	0x403e395c	2.972251
33	0x4036b919	2.8550475
34	0x40a162c8	5.0433083
35	0x407934eb	3.8938549
36	0x40233f8a	2.550753
37	0x401fc7ee	2.4965777
38	0x40ad86b9	5.4226956
39	0x40468156	3.101644
40	0x4068d56b	3.638026
41	0x40c60554	6.1881504
42	0x406abd20	3.6677933
43	0x40b48423	5.64113
44	0x40585bde	3.3806071
45	0x3fe53c67	1.7909058
46	0x402ef736	2.7338386
47	0x4039d22f	2.9034536
48	0x40b79de7	5.738025
49	0x406b6ca3	3.6785057
50	0x404c539a	3.1926026
51	0x4092ab5d	4.5834184
52	0x4001609b	2.0215213
53	0x402dea47	2.7174242
54	0x403931f1	2.8936732
55	0x40649786	3.5717483
56	0x4070a958	3.760336
57	0x4043be09	3.0584738
58	0x4048c23d	3.1368554
59	0x402773af	2.6164358
60	0x4053d061	3.3095934
61	0x4051564f	3.2708929
62	0x40a83fc3	5.2577834
63	0x400753e6	2.1144958

backbone.conv3.weight f4 [128, 64, 3, 3]
0	0xbcff2c94	-0.031149186
1	0x3d18bff1	0.037292425
2	0xbc9634aa	-0.018335659
3	0xbda9251f	-0.082590334
4	0x3ca0bda6	0.019621681
5	0xbd0f61bc	-0.035005316
6	0xbc62db07	-0.0138461655
7	0xbd618f8e	-0.055068545
8	0xbc8d7298	-0.017266557
9	0x3d91a342	0.07111217
10	0x3db2f67a	0.08738418
11	0xbb77a248	-0.0037785936
12	0xba8ce098	-0.0010748086
13	0x3b150469	0.0022738224
14	0xbc50de4d	-0.012748313
15	0xbd7251dc	-0.0591601
16	0xbc6717ff	-0.014104842
17	0xbc98206a	-0.018570144
18	0x3bd42e90	0.0064752772
19	0xbcaa8ff3	-0.020820593
20	0xbc552f20	-0.013011724
21	0x3d663760	0.056205153
22	0x3afd8cfe	0.0019344387
23	0x3dcda0d5	0.10040442
24	0x3d2fd65f	0.04292905
25	0xbcb8636b	-0.022508344
26	0x3c240223	0.010010275
27	0x3cda7f7a	0.026672114
28	0x3da23455	0.07920138
29	0x3b8c6db7	0.00428554
30	0x3d1930da	0.037400104
31	0x3ba49f98	0.005023908
32	0x3b5f24a5	0.0034048941
33	0xbd030b0d	-0.03199296
34	0xbb212763	-0.0024590127
35	0xbd16688e	-0.036720805
36	0x3cb9613c	0.022629373
37	0x3d041579	0.03224704
38	0xbcd151be	-0.025551673
39	0xbc1f6e78	-0.009730928
40	0x3b71152a	0.0036786296
41	0x3cc28155	0.023743311
42	0x3dd93de2	0.10607506
43	0x3d57be14	0.052671507
44	0xbc9dcf19	-0.01926379
45	0xbc502bab	-0.012705724
46	0xbbb397ed	-0.0054807574
47	0xbcdced8f	-0.026968746
48	0x3d9bc8d2	0.07606663
49	0x3dae4928	0.08510047
50	0x3d4f25b6	0.050573073
51	0x3d44f610	0.048086226
52	0x3da79d23	0.08184268
53	0x3c76cc10	0.015063301
54	0x3cfabe52	0.03060833
55	0x3cb95f01	0.02262831
56	0xbd24de96	-0.040251337
57	0xbd12dcb0	-0.035854995
58	0xbbc0dd80	-0.00588578
59	0xbd0fdc67	-0.0351223
60	0x39fc1938	0.00048083975
61	0xbd21cf9a	-0.039504625
62	0x3d120b69	0.035655413
63	0xbd5b901a	-0.053604223
64	0xbd10ee2f	-0.0353834
65	0xbcaf1fff	-0.021377562
66	0xbcd9a4d9	-0.026567863
67	0xbc8b2b4e	-0.016988423
68	0xbc879560	-0.01655072
69	0xbb212966	-0.0024591326
70	0x3c0b38b5	0.008497407
71	0xbc3eb21f	-0.011639147
72	0xbd1f8b01	-0.038950924
73	0x39540eb4	0.00020223373
74	0x3c100d54	0.00879224
75	0xbd2eb6c5	-0.04265477
76	0x3d053a3e	0.032526247
77	0xbc855346	-0.01627506
78	0xbb895dd4	-0.0041920934
79	0xbc364547	-0.011124915
80	0xbca4d2db	-0.020120075
81	0xbc75a154	-0.014992077
82	0x3d77f9a7	0.06054082
83	0xbcb2a56b	-0.021807393
84	0x3d027e8b	0.031858962
85	0x3da7ea70	0.08199012
86	0x3c727dfd	0.014800546
87	0xba8d366d	-0.0010773666
88	0x3c64dc5b	0.013968552
89	0xb7c8ec30	-2.3951841e-05
90	0xbd0abf1a	-0.033873655
91	0x3ceedecb	0.02915897
92	0xbcd1c9a0	-0.025608838
93	0xbd951737	-0.072798185
94	0x3d4ff6c0	0.05077243
95	0x3c157d30	0.009124085
96	0xbd4e72ff	-0.050402638
97	0x3cb993df	0.022653518
98	0x3dc3c367	0.095587544
99	0xbd685a89	-0.056726966
100	0x3c594735	0.013261606
101	0x3d126d4e	0.035748772
102	0xbd2a9ffb	-0.041656476
103	0xbc941876	-0.01807807
104	0x3c98e14b	0.018662116
105	0x3a9e7ddd	0.0012091954
106	0xbc6ac8c7	-0.014330096
107	0xbc2d9501	-0.010594607
108	0x3c1cfa07	0.009581096
109	0x3c6c1c62	0.014411064
110	0xbaa2fde4	-0.0012435284
111	0xbcb5965b	-0.022166422
112	0x3c6c9421	0.014439614
113	0x3ce093d9	0.02741425
114	0xbd180a33	-0.0371191
115	0xbafd26ed	-0.0019313969
116	0xbd7e6f59	-0.06211791
117	0xbb5c9c20	-0.0033662394
118	0xbd268cdf	-0.04066169
119	0xbb55c2e9	-0.0032617396
120	0xbd76de30	-0.06027049
121	0xbc22a9ec	-0.009928208
122	0x3c9be778	0.019031271
123	0xbdcd9f11	-0.10040105
124	0x3d073ac9	0.033015046
125	0xbd14f8fe	-0.03637027
126	0xba873103	-0.0010314289
127	0x3d20c661	0.03925169
128	0x3c4bd0bd	0.012439904
129	0x3d95d88b	0.07316693
130	0x3a18a80c	0.0005823381
131	0x3d4174f6	0.047230683
132	0x3d2d1db6	0.042264663
133	0x3d329793	0.043601584
134	0x3d1e8134	0.038697436
135	0x3d308742	0.043097742
136	0x3a99a446	0.0011721931
137	0xbac527e0	-0.0015041791
138	0x3b58b95a	0.0033069463
139	0x3c9388e1	0.018009605
140	0x3c700d48	0.014651604
141	0x3d46c4b5	0.04852744
142	0x3d199a45	0.03750064
143	0xbd37f5dc	-0.044912204
144	0x3c07a932	0.008280085
145	0x3d33deb8	0.043913573
146	0x3d328b30	0.04358977
147	0xbd2e189b	-0.042503934
148	0xbdaceab4	-0.084432036
149	0x3d24376c	0.040091917
150	0x3dbd465b	0.09241935
151	0xbba50911	-0.005036481
152	0x3d6117af	0.054954227
153	0xbd6b4082	-0.057434566
154	0x3d14cd1a	0.036328413
155	0x3cc423e5	0.023942897
156	0xbd45fea7	-0.04833856
157	0x3ba059a5	0.004893499
158	0x3d674e57	0.056471195
159	0x3c984b90	0.018590719
160	0xbd02e3bc	-0.031955466
161	0x3d39bf3d	0.045348395
162	0x3d6dbbd6	0.058040462
163	0x3d68f85c	0.05687748
164	0x3c5f1028	0.013614692
165	0xbca28fa2	-0.01984388
166	0x3d8976d8	0.06712121
167	0xbc833bdc	-0.016019754
168	0xbccfd716	-0.025371116
169	0x3d1d0ecc	0.03834419
170	0xbd029d80	-0.031888485
171	0xbcf8e2ac	-0.030381523
172	0x3cd69a01	0.026196482
173	0x3c4e5b2e	0.012594981
174	0x3c83c3d8	0.016084597
175	0x3ce7b95f	0.028286634
176	0x3d4d3e75	0.05010839
177	0xbcc17154	-0.02361361
178	0x3cfe9b18	0.031079814
179	0x3cf31699	0.029673861
180	0x3ca0eb16	0.019643348
181	0x3d27cc77	0.040966477
182	0xbc9665c4	-0.018359073
183	0x3cc18a1d	0.023625428
184	0xbd21b63a	-0.039480425
185	0x3a70e98e	0.0009190076
186	0x3c0e75e8	0.008695103
187	0x3c81d9b7	0.015850885
188	0xbb8a0f2e	-0.0042132353
189	0xbc3e09f5	-0.011599054
190	0xbcba32e5	-0.022729347
191	0xbccb1a11	-0.024792703
192	0x3d43cc69	0.047802363
193	0x3b01f655	0.0019830663
194	0x3c9bf53b	0.019037833
195	0x3bf0f100	0.007352948
196	0x3ce36e5a	0.02776258
197	0xbd2ec07f	-0.042664047
198	0xbced6706	-0.02897979
199	0x3c5a2a02	0.0133156795
200	0xbcc3cf43	-0.023902541
201	0xbd494f06	-0.04914763
202	0x3d7b7401	0.061389927
203	0x3d07e6c3	0.033179056
204	0xbd9aa34b	-0.07550677
205	0xbd22abf7	-0.03971478
206	0x3cef22d9	0.029191421
207	0xbd636cf3	-0.055523824
208	0xbc897e4c	-0.016783856
209	0x3c05bac8	0.008162208
210	0x3d068228	0.03283897
211	0x3d71c80d	0.059028674
212	0x3d589e8e	0.052885585
213	0xbc12fbf1	-0.0089712
214	0x3c502bd8	0.012705766
215	0xbc0e72c9	-0.008694359
216	0xbd0c9c2f	-0.034328636
217	0xbc68300d	-0.014171612
218	0x3be95414	0.0071206186
219	0x3d32e33a	0.04367373
220	0x3c5490cf	0.012973978
221	0xbd3c3b3a	-0.04595492
222	0x3c959349	0.018258708
223	0x3cacd32a	0.021096785
224	0xbd21456b	-0.039372843
225	0xbc7c0373	-0.015381682
226	0xbb923480	-0.004461825
227	0xbd6b9329	-0.05751339
228	0xbc02ba50	-0.007978991
229	0x3a96baff	0.0011499821
230	0xbcf8e5b6	-0.030382972
231	0xbcb27176	-0.021782618
232	0xbc66095d	-0.014040318
233	0xbd7ef7c9	-0.062248025
234	0xbd2b23b0	-0.04178208
235	0x3d1daaec	0.038493082
236	0x3b976b9f	0.0046209837
237	0x3cb9f83c	0.022701375
238	0x3d224901	0.039620403
239	0x3be82c1b	0.007085336
240	0xbc3aaa89	-0.011393198
241	0x3d161149	0.03663758
242	0x3d54223f	0.051790472
243	0xbce88537	-0.028383834
244	0x3d00e91b	0.031472307
245	0xbd6185d1	-0.055059258
246	0x3ce88c30	0.02838716
247	0xbb4844b8	-0.0030558538
248	0x3cccae52	0.024985466
249	0xbc51ddcb	-0.012809227
250	0xbcac2f71	-0.021018716
251	0xbcc6584b	-0.024212023
252	0xbd37db5d	-0.044886936
253	0x3cf4cb12	0.029881988
254	0x3d01552b	0.031575363
255	0xbca4ec65	-0.020132253

backbone.bn3.weight f4 [128]
0	0x3f7ce558	0.9878745
1	0x3f750405	0.9570926
2	0x3f85bbd3	1.0447944
3	0x3f8407a2	1.0314829
4	0x3f818da1	1.0121347
5	0x3f82b5fb	1.0211786
6	0x3f7d8a7e	0.9903945
7	0x3f803d26	1.0018661
8	0x3f789ce8	0.9711442
9	0x3f680f18	0.9064803
10	0x3f80e7d9	1.0070754
11	0x3f80b8c7	1.005639
12	0x3f74af8c	0.95580363
13	0x3f7e52ef	0.99345297
14	0x3f7aef9d	0.9802187
15	0x3f7e0ec4	0.9924128
16	0x3f7f5516	0.99739206
17	0x3f8248f7	1.0178517
18	0x3f8013d6	1.0006053
19	0x3f814f50	1.0102329
20	0x3f7c367b	0.9852063
21	0x3f7fee44	0.9997294
22	0x3f77064a	0.9649397
23	0x3f7c3b2a	0.9852778
24	0x3f82c521	1.0216409
25	0x3f80f89d	1.0075871
26	0x3f776471	0.96637636
27	0x3f856def	1.0424174
28	0x3f82aa40	1.0208206
29	0x3f77f3d8	0.9685645
30	0x3f810d98	1.0082273
31	0x3f7aae75	0.9792245
32	0x3f73ab7b	0.95183533
33	0x3f7a1a31	0.97696215
34	0x3f81b05e	1.0131948
35	0x3f7d0d75	0.9884866
36	0x3f81a0ee	1.0127237
37	0x3f7bb2d3	0.9831974
38	0x3f7cf9b2	0.98818505
39	0x3f7ea141	0.99464804
40	0x3f802775	1.0012041
41	0x3f8235e0	1.0172691
42	0x3f80e4a2	1.0069773
43	0x3f6d1cf9	0.92622334
44	0x3f70afaa	0.9401804
45	0x3f7aa293	0.9790432
46	0x3f82890a	1.0198071
47	0x3f762f29	0.9616571
48	0x3f7c2200	0.9848938
49	0x3f7f56cd	0.9974182
50	0x3f7d7d66	0.9901947
51	0x3f7bbe52	0.9833728
52	0x3f7d05f2	0.98837197
53	0x3f7d1c40	0.9887123
54	0x3f83b0b3	1.0288299
55	0x3f7bb649	0.9832502
56	0x3f830925	1.0237166
57	0x3f74528d	0.9543846
58	0x3f77e9f1	0.9684134
59	0x3f7fbcff	0.9989776
60	0x3f7cbcc5	0.9872554
61	0x3f7cd753	0.9876606
62	0x3f77efb1	0.96850115
63	0x3f8075a2	1.0035899
64	0x3f7eba9b	0.9950349
65	0x3f7ad074	0.97974324
66	0x3f837f70	1.0273266
67	0x3f7e5afe	0.99357593
68	0x3f81e9d7	1.0149487
69	0x3f7c5623	0.98568934
70	0x3f75aaf6	0.9596399
71	0x3f7aa06e	0.97901046
72	0x3f813747	1.0094994
73	0x3f7c8870	0.9864569
74	0x3f822b86	1.0169532
75	0x3f7ef6f7	0.9959559
76	0x3f82b910	1.0212727
77	0x3f871a8b	1.0554975
78	0x3f808903	1.0041813
79	0x3f772f4f	0.9655656
80	0x3f8008f0	1.0002728
81	0x3f745773	0.95445937
82	0x3f7d356d	0.98909646
83	0x3f7d2905	0.98890716
84	0x3f8292eb	1.0201086
85	0x3f81b5f0	1.0133648
86	0x3f736803	0.95080584
87	0x3f7eb87b	0.99500245
88	0x3f7cd48d	0.98761827
89	0x3f6d4cb8	0.9269519
90	0x3f829d96	1.0204341
91	0x3f839715	1.0280482
92	0x3f7bc3a6	0.9834541
93	0x3f815ee7	1.0107087
94	0x3f7cfb72	0.98821175
95	0x3f83bebb	1.0292581
96	0x3f70f538	0.94124174
97	0x3f85a097	1.0439633
98	0x3f7cf317	0.98808426
99	0x3f7353b8	0.9504962
100	0x3f7d1618	0.9886184
101	0x3f803250	1.0015354
102	0x3f7e2eb5	0.9929002
103	0x3f70f6d1	0.9412661
104	0x3f824200	1.0176392
105	0x3f89e49c	1.0772891
106	0x3f7cf88e	0.98816764
107	0x3f84d21e	1.0376623
108	0x3f7ad45f	0.979803
109	0x3f7b5d57	0.981893
110	0x3f80deea	1.0068028
111	0x3f83f7a4	1.0309949
112	0x3f7799b9	0.9671894
113	0x3f7d3539	0.98909336
114	0x3f8125d4	1.0089669
115	0x3f83160e	1.0241106
116	0x3f80333a	1.0015633
117	0x3f7a1f59	0.9770408
118	0x3f8364b1	1.0265104
119	0x3f762dce	0.9616364
120	0x3f808264	1.0039792
121	0x3f84f3d3	1.0386909
122	0x3f7ff9ff	0.9999084
123	0x3f7cecd6	0.9879888
124	0x3f808fdc	1.0043902
125	0x3f7fa35d	0.9985865
126	0x3f7ad1ca	0.9797636
127	0x3f8195fe	1.0123899
