PointPillarUpgrades/output_20251129_165431/pointpillars_ModelNet10.pth (torch, 663206 bytes, 40 tensors)

pfn.blocks.0.fc.weight f4 [64, 8]
00000000: b018 843e 87ed 6d3e 71e0 f0bd ee1b 4b3d
00000010: 38df 853c 71a4 833d b848 edbd 465f 703e
00000020: 43b7 8e3e 26f8 95be 8ec4 b33e f043 56be
00000030: 52ff bdbd 3aea a93c c25b 8f3d 67fe b3bd
00000040: b6a1 7a3e 9306 7d3d ed72 8bbe 5e0e 42bd
00000050: 99f4 dbbd 7b00 053e 110b fdbb 3584 173e
00000060: a2a4 99be ce42 3bbd 912f 54bd 915c f9bd
00000070: d35c d1bd 79b4 b5be 2749 0d3e 55f4 34bd
00000080: bb0d 863e 2b31 a93c fd05 3dbe 1ed6 3d3e
00000090: f72d ba3d 7f6f 7a3e 926b f93d 1b7b 1abe
000000a0: 589c 663d fd64 14be bd8b 523e 0bbe 1ebd
000000b0: da8b 2abe ea6d 5ebd f858 de3d adee 94bd
000000c0: 0fee 483e 0296 15be 8976 babe f383 1bbe
000000d0: 1856 e6bc 6df9 b93e 400a c13d d308 c7bc
000000e0: 21fc 8a3d fa34 863c 985b ef3e 3555 e2bd
000000f0: 60a2 de3d 77c3 adbd 7e39 763d 7f93 d4bd
00000100: 4235 c03d 77da 61bd 1c04 c73e 425f 69be
00000110: ab04 03be 3f8d 33be bd22 323e 1a38 d63d
00000120: 5670 8f3e 2317 a8be b155 a7be d343 32be
00000130: e7a0 903b 33ed 9e3e 13ad f13d b90b 5b3e
00000140: dbfd c8bd 44e1 60be d6f4 563e 50aa 0bbe
00000150: 3579 74bd 6edb 373d 3787 f83d be75 75be
00000160: 8243 58be 6ebb d23d f768 bc3d 744f cabc
00000170: ff25 8d3e 1c8f 493e 2990 45be a73d 1abe
00000180: 4a0a a73e 996f 77bd 44d9 2bbe 2d5e 973d
00000190: b5f5 a83c 1f3b 9c3d dfcb 25bc ab2a 0dbe
000001a0: 3022 023d b190 d9bd 7930 e3be 6687 74be
000001b0: 2730 bebe 9519 a2be 0ea9 1d3e 5154 98bd
000001c0: 9158 2c3d 6dcc 7bbe a47a 8cbe 810e 99bd
000001d0: 542a 73bd 6d3e 8bbe b276 3bbe 49fa 40be
000001e0: 9223 34bc 5059 293c 7fb0 c8bc bb3f 33bd
000001f0: 23d0 52be 339b b6be b73d 1abe d18a 17be
00000200: 8877 a13e f7cb 83bd a816 af3e 1753 c3bd
00000210: e8ea 44be 2976 823e 7794 03be 04ab e8bd
00000220: 7c9f 8bbe f84a 8dbe ab2a df3d a8f3 cbbd
00000230: 52fa 1c3b 4564 c4be ce18 373e d18e d8bd
00000240: c8b8 a3bd dba0 323d 790a 4f3e 8e35 2a3d
00000250: 5b86 a7bd 4b58 63be c71f 233e 7aa2 92be
00000260: 8aeb b93b a699 4ebe a81e ac3e d91f 5abe
00000270: 3489 59bd c504 91bc 24c9 d43d cb43 89be
00000280: 9ff4 ad3e f5b1 d13d b2e5 e53d a197 2dbe
00000290: 7ae6 bfbb 2c1f a0bd 06e1 38bd 6d07 443e
000002a0: b773 05bd b815 77be c72c 04be 8a0b 40bd
000002b0: 7245 873e 435d dc3d 1db5 01be 2c2a 4dbe
000002c0: e84c 40be f135 033e a14a bc3e c74e e7bc
000002d0: fe6d 883e dcdc 8d3e a848 bc3d c689 e7bd
000002e0: c47b c33d cbff 343e 9af8 233e 7675 c1bd
000002f0: b69c aabd 74a0 fe3d 02cd 8abc 0669 9ebd
00000300: 465d e33d 297d 933e 8544 ed3d d71e 443d
00000310: 4532 1c3e 3226 243e e505 443e a4a0 fe3d
00000320: f6a3 79be ae7f 85bd c039 a33e 48cd 8a3b
00000330: 0919 12bd 966c 1dbe d821 00be b221 61be
00000340: 7b1b 9ebc aa9c 1e3d 38bb c53e d497 123e
00000350: 094a 8b3d d1c6 debd b851 acbd ac96 8b3e
00000360: e8cb 33bc a2c7 29bb 8e89 b93e 3384 193b
00000370: 45d3 463d 26f6 d53e 2910 21be f541 493b
00000380: 3dbf 8dbe b95b 673e edcc ac3e 0023 87bd
00000390: 10e3 22be 012a 6bbe bb5f 27be 96e4 2a3e
000003a0: ab18 b93d 65e0 b23e 071e 293e 1b6f 32bc
000003b0: eefd e2bd 9e3e 9abe 68f4 41be 4f4d 83be
000003c0: ee57 223e 9f82 c2bd 614b 03bd e070 a4bd
000003d0: d7fb f33c f064 70be 583b 8fbe 0ec6 853d
000003e0: d8bc debd 457c 3a3e d554 06be 6923 303d
000003f0: 77af 843d 0f07 8ebd 51c9 50bd fa35 28be
0.25800085 0.2323514 -0.11761559 0.049587183 0.01634179 0.06427849 -0.115861356 0.23473844
0.27874193 -0.29290885 0.35110897 -0.20924354 -0.09277214 0.02074157 0.06999923 -0.08788758
0.2447575 0.061773848 -0.2723612 -0.047376983 -0.10740013 0.12988465 -0.0077222665 0.14796527
-0.30008417 -0.045718007 -0.051803175 -0.12175859 -0.10222783 -0.35489252 0.13797437 -0.044178326
0.2618235 0.020653328 -0.18459316 0.1853871 0.09090798 0.24456595 0.121787205 -0.15086024
0.056301445 -0.14491649 0.20561118 -0.038755458 -0.16654912 -0.05430404 0.10856813 -0.07272086
0.19622062 -0.14608005 -0.3641856 -0.15187053 -0.028117225 0.3632311 0.09425783 -0.0242962
0.06786371 0.016382683 0.46749568 -0.11051408 0.10870814 -0.084845476 0.060113423 -0.10379695
0.09385158 -0.055139985 0.38870323 -0.22790244 -0.1279475 -0.1753435 0.17396064 0.10459919
0.28015393 -0.32830152 -0.32682565 -0.17408685 0.0044137123 0.31040344 0.118005894 0.2139119
-0.09814044 -0.21960932 0.20991835 -0.13639188 -0.059685905 0.044887 0.12135165 -0.23970696
-0.21119502 0.102896556 0.09199708 -0.02469609 0.2756805 0.19683498 -0.19293274 -0.15062581
0.32625037 -0.060409162 -0.16782099 0.073910095 0.020624975 0.07628464 -0.010119407 -0.13785808
0.031770885 -0.10623301 -0.4437292 -0.23879775 -0.37146112 -0.31660143 0.1539652 -0.07437957
0.04207665 -0.24589701 -0.27437317 -0.074734695 -0.05936654 -0.27196065 -0.18306997 -0.18845476
-0.010994809 0.010336235 -0.024498222 -0.04376195 -0.2058721 -0.35665283 -0.15062605 -0.14799048
0.31536508 -0.064353876 0.34196973 -0.095373325 -0.19230235 0.25480774 -0.12849604 -0.11360744
-0.27270114 -0.2759626 0.1089681 -0.09958583 0.0023952913 -0.3835775 0.17880556 -0.10574115
-0.079942286 0.043610435 0.20218839 0.04155498 -0.08179923 -0.2220165 0.15930091 -0.28639585
0.0056738304 -0.201758 0.3361714 -0.21301211 -0.053109363 -0.01770247 0.10389927 -0.26809534
0.33975694 0.10239021 0.112254515 -0.16952373 -0.0058563324 -0.078184456 -0.045136474 0.19143458
-0.032581057 -0.24129379 -0.12907706 -0.046886005 0.2642017 0.10759976 -0.12666745 -0.20035619
-0.18779337 0.12813546 0.36775687 -0.028235806 0.26646417 0.27707565 0.091935456 -0.11305575
0.09545091 0.17675702 0.16012803 -0.09446232 -0.083306715 0.12432948 -0.016943458 -0.077348754
0.11101775 0.28806427 0.11585335 0.047880974 0.15253551 0.16030195 0.19142874 0.124329835
-0.24378952 -0.065184936 0.31879997 0.004235897 -0.035668407 -0.15373453 -0.1251291 -0.2198551
-0.019300213 0.038723625 0.386194 0.1431573 0.068012305 -0.10877765 -0.08414024 0.2726339
-0.010973908 -0.0025906344 0.36237758 0.0023424744 0.048541326 0.4178936 -0.15728821 0.003070948
-0.27684966 0.22593583 0.33750096 -0.065984726 -0.1590693 -0.22965242 -0.16345112 0.16688761
0.09037908 0.34936824 0.16515361 -0.010890747 -0.110835895 -0.30125898 -0.1894089 -0.2564492
0.15853855 -0.0949757 -0.03205431 -0.08029342 0.029783173 -0.23476005 -0.27974963 0.065319166
-0.10875863 0.18211468 -0.13118298 0.04300252 0.0647878 -0.0693494 -0.05097324 -0.1642684

pfn.blocks.0.bn.weight f4 [64]
00000000: 2feb 5e3f fea7 863f bdd6 803f cb81 5c3f
00000010: a610 6f3f 9705 783f 1e54 6e3f 347d 8e3f
00000020: 7c7c 853f b934 783f 533b 5c3f 72c0 6f3f
00000030: 9b51 6b3f 9c6b 783f 748f 5b3f 58ad 533f
00000040: b190 873f 7466 603f ea49 693f fa34 5e3f
00000050: fdf7 7c3f 5405 783f 38ca 833f cd5b 653f
00000060: c4e9 643f 8982 4a3f 9605 7d3f b8d6 8f3f
00000070: 13a9 683f 0dc2 723f ff8f 503f 5037 613f
00000080: 805d 843f c428 653f bd5b 813f 2992 763f
00000090: 29f1 773f 03ad 853f 15a5 773f 9e00 823f
000000a0: 8895 6a3f f174 713f 9f98 703f b1ff 713f
000000b0: 1314 703f 5d54 7f3f 1220 6b3f 04ca 6c3f
000000c0: 0872 673f 51bc 5f3f 1d0c 5a3f 1773 803f
000000d0: 392b 863f c349 7a3f 015e 813f fdc3 693f
000000e0: 7a34 6d3f 9511 603f 8cd8 7b3f 3b93 693f
000000f0: 7d0f 823f e13e 6d3f a374 563f 0ebd 643f
0.8707761 1.0520017 1.0065533 0.8613555 0.9338478 0.9688353 0.930971 1.1131959
1.0428615 0.9695545 0.8602802 0.93653023 0.91921395 0.970392 0.8576577 0.82686377
1.0591031 0.8765633 0.9112841 0.86799586 0.988159 0.9688313 1.0296087 0.895932
0.894192 0.7910543 0.9883665 1.1237402 0.90882987 0.9482735 0.8146972 0.87975025
1.0341034 0.8951533 1.0106121 0.9631677 0.96852356 1.0443424 0.9673627 1.0156438
0.91634417 0.94319063 0.9398288 0.9453078 0.9378063 0.99738103 0.9184581 0.9249575
0.9040837 0.87396723 0.85174733 1.0035123 1.048194 0.977688 1.0106813 0.9131468
0.926582 0.8752683 0.983773 0.9124028 1.0160977 0.9267407 0.83771724 0.89350975

pfn.blocks.0.bn.bias f4 [64]
00000000: 3f0d f63d eb98 e43b 9883 abbc 66fb 4c3d
00000010: 6368 c2bd 07b6 54bd f4e2 64bb 7267 2cbe
00000020: 9302 60bd 3608 0b3e 0529 873b 66f2 e23d
00000030: e0a3 3dbd cd5c f7bd a8df 08be 480a 91bd
00000040: 016e 22be d190 3d3d 5813 6fbd 2b50 a3bc
00000050: 21ba e13d 9946 80ba 44c1 9bbb 8f6c ecbd
00000060: e9c5 b7bd 496f 963d c2c7 933b 6beb 06bd
00000070: f29e 323e ebe9 f4bd cfdf c3bb 8c75 b93d
00000080: 2829 263b 5521 d8bd 7bab 15be f6e8 0b3e
00000090: cefd 5b3d b7bc 37bc 6300 903d f0b8 2abc
000000a0: eb5d c5ba 980c 783e 479e b03b e679 303e
000000b0: 7577 1abe 7f4e 98bd e807 483e 51cc 02bd
000000c0: 5271 0cbd 8866 5fbd 15f4 c23b 1338 373e
000000d0: 537a eebd 9d07 6dbc bdf1 ebbd 2356 3fbd
000000e0: 821a 103e 1042 04bd fe91 ccbd df74 04be
000000f0: 7de9 3fbe b869 22be 636a 233d 85cc cdbd
0.12014245 0.006976237 -0.020936772 0.05004444 -0.094925664 -0.051931407 -0.0034925314 -0.16836336
-0.054689955 0.13577351 0.004124763 0.1108139 -0.04629886 -0.12078247 -0.13366568 -0.07082039
-0.15862276 0.046280686 -0.058368057 -0.019935688 0.110218294 -0.0009786665 -0.0047532637 -0.115441434
-0.08973295 0.07345445 0.004509897 -0.032939356 0.17443445 -0.11958679 -0.005977608 0.090556234
0.002535412 -0.105532326 -0.14616196 0.13663086 0.053708844 -0.011214427 0.07031324 -0.010420069
-0.0015057897 0.24223554 0.005389962 0.17234 -0.15084632 -0.07436847 0.19534266 -0.031933133
-0.03428776 -0.05454114 0.005949507 0.17892484 -0.11644425 -0.014467147 -0.11520717 -0.046713006
0.14072612 -0.032289565 -0.09988783 -0.12935208 -0.18741412 -0.15860641 0.03989638 -0.10048775

pfn.blocks.0.bn.running_mean f4 [64]
00000000: 7083 18b3 3a76 f532 e744 e0b2 b113 81b1
00000010: 8fca a8b2 4bb3 0032 88e7 7fb1 6f6f 52b0
00000020: f46e c1b2 72a7 b1af 7b7e ff32 d458 0433
00000030: 22d3 df31 3c05 31b2 40c1 8933 6cfe ef32
00000040: 0b8a f632 f21c d232 026d cab1 cf92 0433
00000050: 0df8 dab2 7c22 8033 18a3 58b2 9a2c 81b2
00000060: 1113 9bb3 0c4e 5633 34e5 96b1 510f e832
00000070: 36d6 72b1 8925 3fb0 a934 3733 5a38 6cb1
00000080: 2cac 21b1 d30f 0db3 03a8 0cb3 9d0b 6c33
00000090: 75d4 22b3 06b8 2633 de0b a0b3 06fc 02b2
000000a0: 1575 5e33 7c81 d031 517a e431 666f bb32
000000b0: d83b 7eb2 3c71 e432 5a34 4533 cdf2 66b3
000000c0: d13f bcb2 7abc 67b2 c575 1533 d131 95b2
000000d0: 2350 b532 866b 15b3 cc1f 4c30 db57 cfb1
000000e0: b2d5 8432 995b 05b3 082d b6b2 a5ca 8331
000000f0: c71b d1b1 3d9f 6eb3 f80e 7fb3 ea67 95b1
-3.55098e-08 2.8575517e-08 -2.6108365e-08 -3.756633e-09 -1.9649887e-08 7.491347e-09 -3.7238994e-09 -7.655591e-10
-2.2518613e-08 -3.231509e-10 2.9743424e-08 3.0814434e-08 6.514157e-09 -1.0303946e-08 6.4147116e-08 2.793896e-08
2.8700944e-08 2.446038e-08 -5.8913665e-09 3.0867167e-08 -2.549134e-08 5.966737e-08 -1.2609938e-08 -1.5037859e-08
-7.221218e-08 4.989674e-08 -4.391632e-09 2.701532e-08 -3.53374e-09 -6.9538736e-10 4.2655902e-08 -3.4374552e-09
-2.3526452e-09 -3.2843513e-08 -3.2749096e-08 5.4958594e-08 -3.7911793e-08 3.8817255e-08 -7.452739e-08 -7.624299e-09
5.179489e-08 6.0683174e-09 6.649579e-09 2.1820323e-08 -1.4798353e-08 2.6594186e-08 4.591525e-08 -5.3771874e-08
-2.19151e-08 -1.3488824e-08 3.4798877e-08 -1.7368537e-08 2.1107615e-08 -3.4789558e-08 7.4259954e-10 -6.034481e-09
1.5464e-08 -3.1049783e-08 -2.1208066e-08 3.83564e-09 -6.0858585e-09 -5.555852e-08 -5.9385428e-08 -4.3482844e-09

pfn.blocks.0.bn.running_var f4 [64]
00000000: 62e0 ca36 ad85 4a37 9d4b 9636 56f3 6736
00000010: b676 5d36 2bfd 3936 f464 0037 9a14 0837
00000020: 61a5 be36 6d22 7137 19d0 9d36 f833 3136
00000030: 723d 9c36 53cc 1437 47d6 0337 df45 7f34
00000040: 4d0e 0837 b683 0137 a89b f435 de24 cf36
00000050: 79a7 ab36 ce2e a436 e435 0337 1e8b 7d36
00000060: 03f1 ea36 c75f b436 5fef ba36 0eba b536
00000070: 66c0 2f37 43c2 2a37 1efe d535 327d 5036
00000080: 1390 e136 f293 cf36 6974 5137 191f 5a36
00000090: eae1 9136 3547 8636 0398 1b37 04a2 3937
000000a0: 145a 8f36 3b8c 9d36 759b 5036 36c7 1937
000000b0: 99f3 1837 917a ff36 42b9 e036 75f0 c536
000000c0: a74c 1237 7b54 7036 cce5 2d36 cc54 6236
000000d0: e961 df36 0124 8c36 afd9 e736 fe79 9636
000000e0: ca26 e536 b38f bd36 c36f 0637 0b04 6736
000000f0: 3b8c bf36 4241 5737 1504 a836 5346 bf36
6.0461907e-06 1.2071262e-05 4.479151e-06 3.4563323e-06 3.3000665e-06 2.7714511e-06 7.6528995e-06 8.111028e-06
5.681694e-06 1.4372735e-05 4.7031904e-06 2.6405305e-06 4.6563155e-06 8.86906e-06 7.858099e-06 2.3774145e-07
8.109561e-06 7.7196655e-06 1.8224719e-06 6.1733726e-06 5.1156935e-06 4.8930297e-06 7.820756e-06 3.7780915e-06
7.001801e-06 5.375568e-06 5.5710984e-06 5.41588e-06 1.0475609e-05 1.017802e-05 1.5943695e-06 3.1067289e-06
6.722295e-06 6.186304e-06 1.2484475e-05 3.2502633e-06 4.3476366e-06 4.001801e-06 9.274113e-06 1.10645815e-05
4.2722186e-06 4.6952896e-06 3.1084903e-06 9.165893e-06 9.116623e-06 7.613861e-06 6.697287e-06 5.8990504e-06
8.720125e-06 3.581196e-06 2.5912768e-06 3.3725983e-06 6.657316e-06 4.1765165e-06 6.909678e-06 4.48455e-06
6.8292475e-06 5.6493677e-06 8.013044e-06 3.4424036e-06 5.7085686e-06 1.2830193e-05 5.0072654e-06 5.7004304e-06

pfn.blocks.0.proj.weight f4 [64, 8]
00000000: 91e1 303b 3b35 13bc 82a4 5c3a 4030 903a
00000010: 909e 263a c582 85ba 9c27 53bb a9b1 763c
00000020: d639 98b9 43c3 ba3b 4c32 b13c 3018 f0bb
00000030: dd54 953b 6a31 e0ba 0bcd 73bb da16 6f3c
00000040: 1e98 0e3c 3a2b ba3a 8bb6 c6bc 017e deba
00000050: 4b94 57ba c122 a4ba d1c6 0d3c ad2c debb
00000060: 06b0 ef3a 050d e13b b47b 2dbb 5bac 89bb
00000070: 90f6 ca3b b2aa 72bb 444b 8c3b 72f7 3e3b
00000080: c4ff c93b 2fe0 2fba 8127 813b f671 fb39
00000090: 2cae 473a 5991 133c 0f2d 2b3a 08f1 9dbc
000000a0: ed7f 7f3b 7db3 1e3c 90b4 993c 6b7e e7bb
000000b0: e1e5 e239 32cc f1bb 0318 e4ba d4fa 703c
000000c0: dd6f 75bb a690 a53c e868 1a3c 3f33 2fbb
000000d0: 0af7 e13a 748d dd3b 1bbb 233a 8c3f 64bc
000000e0: fcdc 75bd 2e81 63bd 2830 3d3d bcaf 723a
000000f0: 90d1 ea38 c001 f9bb 33ad 15bc 7a4f b6bb
00000100: 9e64 f6ba ca45 88bb 7398 b63c 046d 38ba
00000110: db1e afba 4f7a 0abc 14bc f3bb 98f0 e5ba
00000120: ce07 fb3b 0083 833c 1cb3 68bc 3a70 61bb
00000130: 37ad 983a 2d9c bc3a 5331 ec3b d748 d8b9
00000140: 8a08 0a3c ca58 703c a950 b5b9 3c70 c3ba
00000150: 3f75 093a 0114 743b 01b5 083b 9132 e93b
00000160: 4a86 72bc 2391 823c 8eb8 aebc 3e67 b63b
00000170: b221 45bb ad4b 1abb 8d89 a93c 5327 baba
00000180: d591 273c a48e 863c 5db8 553c 77d1 cbba
00000190: bffa 013b 8ead 15bc 6910 bcba 7627 f8bb
000001a0: 72cd 5a3a ebe2 fdbb 1c74 95bc 30d8 d4bb
000001b0: 2e24 1db8 c973 23bc 4c6e 34bc 1bf7 81bc
000001c0: e44b ed3b ed7f 993b 2825 893c 4c43 24ba
000001d0: 705e 0eba 9e8c c0bb 35e0 16bc 4028 ecbb
000001e0: 5e99 8939 09ee ed3c 7a78 02bd 3f69 c4ba
000001f0: 1a8b e837 85a7 32bc 715d 82bc 88d4 abbb
00000200: d7fd 643c 7fe8 6cbd 4468 483d 9c55 9cbb
00000210: 2b46 a93b b33e d5b8 d5db 85bc 93e5 cb3b
00000220: 900b 993b d15f e73c 21ea 753a 05af f53a
00000230: ebed a23a 6c3f 3a3b 03fd 073c f42f 95bb
00000240: c8d6 c5bb 277b 9ebc ec4f 3e3a 79a7 f7ba
00000250: 1858 013b cbbc b0ba dc3c 69bb dc95 72bc
00000260: d0be 8b3c af97 c73c 7bac 0f3d fe16 07bc
00000270: 329b 5a3b d539 cebc 9f2d e33a 6e28 383c
00000280: 2d91 373c 6764 dc3c 6cc8 0f3b 00c7 91ba
00000290: 6836 043b dfec 4d3b 1c1e 6f3b f2a6 c63a
000002a0: bb8e ce3b 7712 05bc 699f 9e3b 7e4d 13ba
000002b0: ea7e b2bb 3658 2a3c bac0 ca3b 61d7 a0bb
000002c0: 9e78 59bc 6c7b 27bc 4250 833c 00bf ec39
000002d0: af15 af3a d7c0 e7ba 9ea8 c5ba 01c0 2abc
000002e0: 7da9 ee3b e1e1 1a3c ced7 b3bc f898 cfba
000002f0: 109b ff39 eeda 183c 0bb5 023c 2a26 203c
00000300: e37b 25bb 35bd 0ebd 8773 2bbc 6890 32ba
00000310: 8b91 493b 1b27 1d3c 6e20 1039 a383 fdbb
00000320: af13 c53b 8c5d c93b 37ae 8b3b 897e 86ba
00000330: 024b 523b 5678 1bbc b43a 253c d29f a13b
00000340: 2e1f 583a d93d 4d3b 19e5 d53c 5b00 5f3b
00000350: f81e c9ba c15a d3bb df1a 103b 49e3 78bb
00000360: a3b9 30bd 0563 a9ba 2451 043d 9c5b 663b
00000370: fb7f 78ba 83b2 da3b 94b3 14bc 8ee6 953b
00000380: 17f6 a3ba 3259 bdbc a928 c13c 5bd7 30bb
00000390: 5343 51bb fcc0 f23b b5a9 2a3c 95a1 34bb
000003a0: d09f 3ebc 6dd1 42bd c0e9 87bb 3fc7 14bb
000003b0: efea b3ba 6acd c9bb eecf 1f3c b27f 56bb
000003c0: da93 10bb 8eb0 d73b 5bf7 03bc 43f1 333b
000003d0: 9a81 9339 5eff 27bc 4d46 12bc 0e64 c5ba
000003e0: c2f6 9b3b 35d0 aebb 88ed 1d3b ed83 e2ba
000003f0: 29fa 903a b456 88bb f040 163c 97c2 4b3c
0.0026989917 -0.008984859 0.00084168476 0.0011000708 0.0006356025 -0.0010186067 -0.0032219654 0.015057006
-0.0002903479 0.0056995465 0.021630429 -0.007327102 0.0045572356 -0.001710457 -0.0037201073 0.014592851
0.00870326 0.0014203556 -0.024256965 -0.0016974808 -0.00082236965 -0.0012522565 0.008653359 -0.006780228
0.0018286712 0.006868007 -0.0026471438 -0.0042014546 0.0061939433 -0.0037028012 0.0042814333 0.0029139188
0.006164523 -0.0006709126 0.003941477 0.00047959358 0.0007617201 0.009006822 0.00065298466 -0.019279972
0.0038986162 0.009686348 0.018762857 -0.0070646307 0.00043277352 -0.0073790783 -0.0017402176 0.01470824
-0.003745071 0.020210575 0.009424426 -0.0026733426 0.0017239761 0.0067612473 0.00062458374 -0.013931166
-0.0600252 -0.055543117 0.046188504 0.0009257754 0.000111970236 -0.0075990856 -0.009135532 -0.0055636736
-0.0018798297 -0.00415871 0.02228949 -0.00070352876 -0.0013360636 -0.008452012 -0.007438192 -0.0017543016
0.0076608425 0.016053677 -0.014202859 -0.0034399168 0.0011648302 0.0014389806 0.0072080283 -0.00041253
0.008424887 0.014669606 -0.00034583107 -0.0014910768 0.0005243606 0.0037243369 0.002085984 0.0071166237
-0.014802525 0.015938347 -0.021328237 0.0055665066 -0.0030079898 -0.0023543641 0.020695472 -0.0014202393
0.01022764 0.016425438 0.013044444 -0.0015550096 0.0019833294 -0.009135617 -0.0014348152 -0.0075730635
0.0008346654 -0.007747998 -0.018243842 -0.006495498 -3.7465412e-05 -0.009976336 -0.011012625 -0.0158649
0.007241713 0.0046844394 0.01674135 -0.00062661315 -0.00054309424 -0.005876138 -0.009208729 -0.0072069466
0.00026244944 0.029044168 -0.031853177 -0.0014984979 2.772133e-05 -0.010904198 -0.015913697 -0.0052438416
0.013976536 -0.057838913 0.04892756 -0.0047709476 0.0051658354 -0.0001016831 -0.016340176 0.0062224357
0.004670568 0.028243931 0.0009380896 0.0018744176 0.0012430524 0.002841915 0.008300069 -0.0045528356
-0.006037567 -0.019345833 0.0007259834 -0.0018894515 0.0019736346 -0.0013483999 -0.0035589254 -0.014806237
0.01705876 0.02436432 0.0350766 -0.008245228 0.0033356664 -0.02517406 0.0017332322 0.011240108
0.011204046 0.026903344 0.002193953 -0.0011121929 0.002017403 0.0031421704 0.0036486452 0.0015155955
0.006303636 -0.008122078 0.0048407805 -0.0005619152 -0.0054472582 0.010397008 0.0061875256 -0.0049084877
-0.013273386 -0.010222297 0.01602948 0.00045155734 0.0013357903 -0.0017681372 -0.0015080159 -0.010421754
0.007283388 0.009453268 -0.02195349 -0.0015838435 0.0004875292 0.009329541 0.007977734 0.009774724
-0.0025250844 -0.03484841 -0.010464556 -0.00068116793 0.0030756916 0.009591843 0.00013744991 -0.0077366396
0.0060143094 0.006145185 0.0042627114 -0.0010261099 0.0032088165 -0.00948914 0.010084797 0.004932382
0.0008244392 0.0031317382 0.026110219 0.0034027311 -0.0015344312 -0.0064500277 0.0021988673 -0.003797727
-0.043145787 -0.0012923187 0.032303944 0.0035149818 -0.000947952 0.0066741123 -0.009076018 0.0045746034
-0.0012509254 -0.02311382 0.023578959 -0.002698383 -0.0031930998 0.0074082594 0.010416438 -0.002756213
-0.011634782 -0.047563005 -0.004147738 -0.0022701768 -0.0013726632 -0.0061585205 0.009754164 -0.003272992
-0.0022060783 0.0065823263 -0.00805458 0.0027457036 0.00028134586 -0.010253755 -0.008927894 -0.0015059726
0.0047596404 -0.005334879 0.0024097878 -0.0017281749 0.0011060882 -0.0041607264 0.009170756 0.012436531

backbone.conv1.weight f4 [32, 64, 3, 3]
00000000: d5eb 5b3d 07ac 3abc faa1 6abd 887b e7bd
00000010: 4df6 90bd 89af 853d b6d1 8ebd 5924 023d
00000020: 5e13 3abd 52d3 04bd b693 e2bc 9374 8f3d
00000030: 46b1 ac3d 7dfb 96bd 2544 10be 00ee 1cbd
00000040: 90f2 06bc f92f e93b 05bd dc3c 2265 693d
00000050: 095a 93bd 70bf dfbd 2fba f2bd d3bc 573d
00000060: 30c7 82bd c943 ea3b 1df3 bbbc 2f29 4ebd
00000070: 357c c7bd f5b8 34bd 9461 8e3d 0d5e 5fbd
00000080: f0dc 33bd 3b95 85bd f096 d0bd 316e 1b3c
00000090: 8564 38bc 7c16 5c3d 7011 68bc fb4a 06bd
000000a0: 73d4 04be e4c8 a53d 840a afbd df22 723d
000000b0: 25cd a4bb 0698 cabb 86ef e5bc 1d82 393d
000000c0: 6758 dc3c f87e 07bd 0b68 f3bd 26a9 3bbd
000000d0: ece3 ce3c 4d18 42bd 2f3e bdbd 0e73 ca3c
000000e0: 649a 40bc 334c e53c ad08 e8bd 8e62 5abd
000000f0: b0be 453c b471 6e3d b2c4 293d 2956 6dbd
00000100: 12e2 c6bd 1df8 4ebc d8c7 dcbd 8631 84b9
00000110: 7a83 60bc 4779 3bbd 2b5f bf3d cad4 1fbe
00000120: a57e 5dbd a2e5 3abd c0a9 703c e996 bdbd
00000130: e553 31bd e9db bf3b f098 93bd 070d b53d
00000140: d002 2bbe 7233 1fbd 6437 653d 08c9 363d
00000150: c9ff 973d 74e3 8bbd 927a 8abd a2c2 a6bc
00000160: 3fe4 de3c be0a 443d c059 16bd 8661 21bd
00000170: 430a de3b 3b31 763c ee2f f8bc f2e7 e5bd
00000180: 6c5f a2bd 0bfd 9fbd da5d b13c b395 dcbc
00000190: 4900 2ebd c83f bbbc 65c5 a33d d968 7b3c
000001a0: 0013 be3b 4db0 3dbd d531 ddbd 632e 7c3d
000001b0: c251 e6bc c515 9e3c bdbc 543d be91 a63c
000001c0: e8a8 cebd 75cf 6f3d c7da 47bd d327 7bbb
000001d0: 7036 b93c c80a b6bd 15dc 8f3c 1fa2 06bc
000001e0: 21a5 95bb 34ed d5bd 09ac 9bbd 23a6 00bd
000001f0: aa0e e33c 8e69 103b 05e8 c6bd a0e3 623d
00000200: 7d4c 543d 76ec 4f3d ee64 b5bd dff9 93bd
00000210: a437 093d a567 293d 9469 8abb 0e90 10bc
00000220: e201 e4bb d40f 783d 1bf8 e13c 65a4 00bd
00000230: 7747 5fbd 9937 0ebc 41d8 91bc 5d59 793c
00000240: c489 29bd 99ce 8ebd 4570 c83c d25a 523b
00000250: 6681 76bd df6c 5abb b36b debc 8caf 973d
00000260: ca7a 47bd a81c b9bc 500c 86bc 729b 71bb
00000270: 4fac 153a a114 25bd 10ee e4bd 7bf6 90bd
00000280: 6f1d a6bd 00de b23c 081c 32bd 7fa0 41bd
00000290: 0b6c 8abc e276 15bd 08c5 06bc 0bc1 7b3c
000002a0: 99ea acbc 661e e13c 0459 f7bd b45c 82bd
000002b0: 844b 38bd f70a cb3c 2100 eabb b935 66bd
000002c0: 6c6c 01be ef44 abbd 939c 713c 08e6 973c
000002d0: 9d71 3dbc 9f96 2cbc 08ee c63c 96ae baba
000002e0: 998e 36bd bc45 e33d 3c12 49bd 4d61 743d
000002f0: e2e6 e43c a15f 25bd 7dd2 d73a 25bc 853d
00000300: ad2d c43d 47b2 74bd 0c36 2ebd 57be 1fbc
00000310: e0fc 6cbc 19f5 823d 3519 0bbd ead6 8cbd
00000320: f9f8 823c 8e72 81bd 2640 ab3c b7ec 183d
00000330: f28c 2fbd 32d4 91bc 7427 5fbd 6458 d33a
00000340: 7527 24bd 669b 02bd 963e f8bc cf0a 0fbd
00000350: 930a 9c3d 65b3 48bd 8b6f a53d a473 6ebd
00000360: 397c 76ba b69a 3dbd 6960 6ebd a1fe 1abd
00000370: e105 33bc 9ff1 c83d 4f23 c5bd c404 313d
00000380: 20e6 77bd 4ca1 05bd 83af 89bd 31c2 79bd
00000390: 92aa 4dbd 4481 c0bc 92dd 77bd ab0a 80bd
000003a0: c849 65bd 0a3d 4e3c 27e5 86bd 0f80 72bd
000003b0: cd90 4a3d 0205 a0bd dedc fdbc 143e 3cbc
000003c0: bac0 01bd 0694 ae3d b139 00be 6092 8bbd
000003d0: 37ca 70bd 991d 1f3d dfe4 16be 2df7 b0bc
000003e0: b393 0c3c 7a6a 64bd 1add dc3c 7745 c4bd
000003f0: 3550 653c 0360 0bbd 8bd5 54bd f73f 373d
0.053691704 -0.011393554 -0.05728338 -0.113028586 -0.07078228 0.06527621 -0.06973593 0.031772945
-0.045428626 -0.032428093 -0.027658325 0.07004657 0.0843225 -0.07372186 -0.14088495 -0.038312912
-0.008236542 0.0071163145 0.0269456 0.056981213 -0.07194907 -0.10925186 -0.11851918 0.05267031
-0.06385648 0.007149194 -0.022943074 -0.050332244 -0.097404875 -0.0441217 0.06952205 -0.054533053
-0.043911874 -0.06522604 -0.10185039 0.009486721 -0.0112544345 0.05373238 -0.014164314 -0.03278635
-0.12971668 0.080949575 -0.085469276 0.059115287 -0.005029338 -0.0061826734 -0.028068315 0.0452901
0.026897622 -0.03308007 -0.11885079 -0.04581561 0.025255166 -0.047386456 -0.09240376 0.024713065
-0.01175556 0.027990436 -0.1132978 -0.053316645 0.012069389 0.058213905 0.04144735 -0.057943497
-0.09711088 -0.012632397 -0.10780305 -0.000252139 -0.013703221 -0.045769956 0.09344324 -0.15608516
-0.054075856 -0.04562915 0.014688909 -0.092572995 -0.0432929 0.0058550728 -0.07206905 0.088403754
-0.16700292 -0.03886742 0.055961028 0.044625312 0.07421834 -0.068304926 -0.0676166 -0.02035648
0.027208446 0.047861807 -0.036706686 -0.039399646 0.0067761256 0.015026386 -0.030296292 -0.11225881
-0.079283565 -0.07811936 0.021651197 -0.02692685 -0.04248074 -0.022857562 0.079966344 0.015344822
0.005800605 -0.04631071 -0.1080052 0.061567675 -0.028115157 0.01929749 0.051937807 0.020333167
-0.1009081 0.058547456 -0.048792627 -0.0038323298 0.022608966 -0.08888775 0.017560998 -0.008217364
-0.004566804 -0.104456335 -0.076011725 -0.03140844 0.027716953 0.0022035572 -0.09712223 0.05539286
0.051830757 0.050762616 -0.088571414 -0.072253935 0.03350033 0.04135861 -0.0042240117 -0.008823408
-0.0069582323 0.06056197 0.027584126 -0.03140678 -0.054511514 -0.008680248 -0.017803313 0.01521906
-0.04139115 -0.06972999 0.024467597 0.003209759 -0.060181998 -0.0033329052 -0.027150964 0.0740653
-0.048701085 -0.022596672 -0.016363293 -0.0036866334 0.0005709575 -0.040302876 -0.11178219 -0.070782624
-0.08111083 0.021834373 -0.043483764 -0.0472722 -0.016897222 -0.03649033 -0.008225687 0.015365849
-0.021107959 0.027480315 -0.12077525 -0.06365338 -0.044993892 0.024785502 -0.0071411286 -0.056203578
-0.12639016 -0.083627574 0.014746803 0.018542305 -0.011562732 -0.010533958 0.024283424 -0.0014242704
-0.044569585 0.11097285 -0.049089655 0.059663106 0.027942125 -0.040374402 0.0016465929 0.06530026
0.095790245 -0.05974033 -0.042532012 -0.00974997 -0.014464587 0.06394405 -0.033959586 -0.06876929
0.01598786 -0.06320678 0.020904612 0.037335124 -0.042859025 -0.017801378 -0.054480985 0.0016124365
-0.04007669 -0.03188648 -0.03030328 -0.034922417 0.07619204 -0.04899921 0.08077916 -0.058215752
-0.0009402666 -0.046290122 -0.058197413 -0.03784049 -0.010926695 0.098117106 -0.09625875 0.043217435
-0.0605222 -0.032624528 -0.06722929 -0.06097621 -0.050211497 -0.023499139 -0.06051404 -0.06252035
-0.055978566 0.012587795 -0.06586676 -0.059204157 0.0494545 -0.07813455 -0.030989107 -0.01148941
-0.03167794 0.08524327 -0.12522008 -0.06815028 -0.058786597 0.038846586 -0.14735745 -0.021602238
0.008580136 -0.055765606 0.026960898 -0.09583562 0.013996174 -0.03402711 -0.051961463 0.044738736

backbone.bn1.weight f4 [32]
00000000: 96f6 693f c606 7e3f 622e 503f ee1a 6f3f
00000010: c7c1 563f fe29 893f 9305 7e3f d4ea 743f
00000020: c42b 6b3f a19e 773f 0498 623f 1e83 563f
00000030: 3fcc 5f3f 7f4f 5a3f cace 7b3f fe6c 843f
00000040: 7130 6f3f 8cba 6f3f 28bc 643f 5918 743f
00000050: 76c4 643f deea 793f ffe7 6b3f 7cbe 5b3f
00000060: 70fc 6a3f 4189 633f c019 5e3f 6871 763f
00000070: 6b68 6c3f 61aa 4f3f 43c1 793f 23ce 813f
0.91391885 0.99229085 0.81320775 0.93400466 0.8388943 1.071594 0.99227256 0.9567082
0.91863656 0.96726424 0.8851321 0.8379382 0.8742103 0.8527755 0.9836241 1.0345762
0.9343329 0.9364402 0.89349604 0.9534965 0.89362276 0.97624004 0.9215087 0.8583753
0.9179144 0.8888131 0.8675804 0.96266794 0.9234683 0.8111935 0.9756052 1.0141033

backbone.bn1.bias f4 [32]
00000000: a82a 1f3e 1f31 0cbc fd98 803e 2bff 8abd
00000010: 9f3a b8be 60fe f0bd 5dcc 36bd c213 aa3d
00000020: 8d1a e2bd f552 9b3d c339 a5bd 2dc7 843d
00000030: c904 abbe 84a3 c7bd 84ea 25bd b2f5 efbc
00000040: 55fb 8cbc 120f bebd 7f0a 17b9 d28c c43c
00000050: b98c 1dbc 156d 043e 47c3 5ebe ad7b 09be
00000060: 4864 babd dc74 013e 7f42 dfbd 2b16 9f3c
00000070: 7dfd cd3c 9eba a4bd f479 52bd 6301 833d
0.15543616 -0.008556633 0.2511672 -0.06786951 -0.35982224 -0.11767268 -0.04462849 0.0830455
-0.110402204 0.07584182 -0.08067658 0.06483302 -0.33402088 -0.09747985 -0.040506855 -0.029291961
-0.017209688 -0.09280218 -0.00014404392 0.02399293 -0.00961607 0.12932236 -0.2175418 -0.13426085
-0.091011584 0.12642235 -0.10901355 0.01941975 0.025145287 -0.08043407 -0.051385835 0.06396749

backbone.bn1.running_mean f4 [32]
00000000: 1f41 23c0 64cf 0fc0 3ea0 33c0 4e25 01c0
00000010: c775 cdbf d44c 0abf 5bd2 00bf e6e7 273f
00000020: bea3 cfbf 875c efbf aecb 053f 7c75 8dbf
00000030: 4ec3 0a40 816e 5abf f02c 0ebe c059 c9bf
00000040: a109 49bf c8e7 25c0 f5d2 83bf ee9f 98bf
00000050: 6769 97bf 7ac2 d2bf 13da b5bf 92b1 bcbc
00000060: aba6 d2bf b20f 13c0 4bea c1bf 1f5c ecbf
00000070: 8cd2 a8bf 99f7 9ebf 4cff 03c0 6900 00c0
-2.5508497 -2.247033 -2.8066554 -2.017902 -1.6051568 -0.5402348 -0.50320977 0.65588224
-1.6221845 -1.8700112 0.52263916 -1.1051478 2.1681705 -0.85324866 -0.1388433 -1.5730515
-0.7853032 -2.5922718 -1.0298754 -1.1923807 -1.1829041 -1.64656 -1.4207176 -0.02303389
-1.6457113 -2.297833 -1.5149626 -1.8465613 -1.3189254 -1.2419311 -2.062457 -2.000025

backbone.bn1.running_var f4 [32]
00000000: 4cae 3343 ef7e 0d43 edb2 1a43 a910 1543
00000010: 6875 5243 a553 b442 0182 e442 c2ab 1643
00000020: 5f1c 0d43 df43 2143 4da9 1b43 7531 0243
00000030: 2748 3d43 80e9 0243 8e08 f842 1a96 c142
00000040: cac3 d242 e0b9 3643 3b46 f742 030d ff42
00000050: 46e0 2643 ce9a f842 7e12 0b43 d2c5 1843
00000060: 814c 0c43 b19b 1f43 fb17 0b43 35d3 0b43
00000070: e6d4 fb42 573e 2843 146b 0443 9a56 3643
179.68085 141.49583 154.69893 149.06508 210.45862 90.16337 114.253914 150.67093
141.11082 161.26512 155.66133 130.19319 189.28185 130.91211 124.01671 96.79317
105.3824 182.72607 123.63717 127.52541 166.87607 124.30235 139.07224 152.77274
140.29884 159.60817 139.09367 139.82503 125.91582 168.24352 132.41827 182.33829

backbone.conv2.weight f4 [64, 32, 3, 3]
00000000: 0567 05bd 63e4 84bc a108 70bd 0a70 61bc
00000010: 82ac b5bd 9edc ccbc 57eb 8f3d 8709 2cbd
00000020: f2f6 15be 2de9 05be 52e5 81bd 1bda 993b
00000030: 3072 a1bd 70b6 15be 8c61 15bb 0278 d9b9
00000040: 229a ba3d 3112 d33c 207e 13bc 1aa4 663c
00000050: daf1 413d 2f87 1dbe 6c4f 7fbd 36bf 463c
00000060: 3ef4 25bd 7b43 f83b 167d 57ba a759 18be
00000070: a290 70bd 6b02 0e3d 0dc9 a8bd 719a 033c
00000080: fc4b 3bbc 208d aa3d 9537 09bd f8a3 bcbd
00000090: 9a7d 203d b678 81bb 8c88 4dbd ec82 92bd
000000a0: 99f0 9f3c e102 a7bd 2a78 103d 6b8e 5a3c
000000b0: 5e20 cc3c c5d3 dd3d 1577 393d 5f48 153d
000000c0: 3412 9c3b 1a07 bbbd e338 0bbd 3fd7 0cbd
000000d0: dd49 6b3c 1f9e aabc d0e3 953c 0aed 89bd
000000e0: ede5 64bd 47eb 093d 6d18 803d 8829 e0bb
000000f0: 22eb b83c be24 523d 5bc4 f8bd bbc1 8fbc
00000100: 5587 313d 4a87 0bbd c20d 013d a162 113d
00000110: 7e03 973c d06b 40bd d9bb eabb b54f 94bd
00000120: f333 e1bc e9db 9f3d d487 d2bb 209f 6fbc
00000130: 6771 a2bd c8c6 56bc 4971 923d b14c 80bd
00000140: 097b 0c3c 0746 bdbc 2398 a7bd 6afb 72bd
00000150: 422f 063d f062 11bd 5f4c ed3c ee3e e03d
00000160: e8a3 4a3d ec2d 17bd 9931 a83b b717 25bd
00000170: f30d 9ebd 4678 383d d65b 11be 0adc f83b
00000180: 3e8d 173d 42f3 91bb 1b46 a6bd ac2a 54bd
00000190: 2d02 87bd d213 77bd f9a9 14bd 57fd 49bd
000001a0: 8b29 35b9 d4a3 853d bd1a 7d3d e630 27bd
000001b0: 5871 79bd 5410 54bc cf15 4bbd 6d1f 52bd
000001c0: adfa bb3a 23f2 c2bc 15ee ba3d 4bd7 6fba
000001d0: 8c4e c8bd 3973 9b3d 26aa e53b 787a bebd
000001e0: e5c9 7f3d 6e86 59bd 82e9 30bd a1c6 943d
000001f0: 95cd 903d 0ccb e2bc 191d 023d d21f 2fbd
00000200: 3e25 83bd 8d8d cd3d 8f4d 863d 354a 713d
00000210: 3fd0 85bc e9a6 b3bb fda8 b83d dcb8 a23d
00000220: 087c 0ebc ac2f 33bd 95ad cdbb 983b 823c
00000230: c11d dcbd fdef edbb 9580 99bd 8985 0cbe
00000240: e179 943c a802 23bd fb6f 72bd 394e 033c
00000250: 4921 1fbe 906a 8abc 2d98 74bd c291 33bd
00000260: 2027 c6bb 3a02 563d b553 32bd 1cda b43b
00000270: f9ae a4bd c0df 74bd dcd3 c8bd 38b2 b5bd
00000280: 8de6 e5bc def5 37bd fd2e bd3d 9860 503d
00000290: 4b58 39bd dffd 2c3d 4071 6abd 5bb6 84bd
000002a0: 7b97 383d c7d2 34bd 01bc ba3d 6352 94bd
000002b0: c9e2 a0bc 81ad f63c bf91 b6bc 24a7 11bd
000002c0: a8cb f4bc 2ffd 7c3b 3f4a 923d 9110 9d3c
000002d0: 22a8 c3bd b34a e8bc a1b1 92bd f1aa 52bb
000002e0: 9689 393d 6838 583d 7076 35bc d0c7 d8bc
000002f0: 828d 5dbd 8712 873d b2a3 b1bb 9a80 aabd
00000300: 2f7f ac3d 1da9 683d 5e5f b5bc 3e99 2d3e
00000310: 144c 843d 193a 11bd 81c9 b9bd 7271 27bc
00000320: c93f ccbd 3936 d23d da80 dfbd 19cb 8bbd
00000330: d35e 533e 13c0 ff3d ecbb c4bd a59e 56be
00000340: c4d0 39bd e730 9cbd 6e61 4f3b c891 a1bd
00000350: 803e 9cbd 2065 3c3e 6307 e23d fb4b 99bc
00000360: ac43 e03d 8deb f13c 6b4b 27bd bffc 38bb
00000370: c643 47bc e5ef c13b d9c9 e5ba 0aa4 7dbd
00000380: 82dc 2f3d 3cab 58bd c92c 89bc f284 623b
00000390: 3a0d 25be ae6b a13d c2e7 02bd 9797 d4bd
000003a0: 66a5 013d 5fc2 e13c db36 ccbc 7522 1fbd
000003b0: 11dd bbbd 3fe0 11bd 8d4c 4abd 4f20 2bbd
000003c0: 5f41 64bd 05d0 793d 8cb1 0dbd df4b a03c
000003d0: c04e 113d ed30 bebc 617b 32bd a944 b1bd
000003e0: 88b2 b3bb 5844 273d df10 883d 9417 e53c
000003f0: a1b9 423d 5711 1cbd 13c7 86bd 3772 913c
-0.03256895 -0.016222185 -0.05860198 -0.013759622 -0.08870794 -0.025007542 0.070273094 -0.042001273
-0.14644983 -0.13077231 -0.063425675 0.0046951897 -0.07883108 -0.14620376 -0.0022793738 -0.00041478878
0.0911143 0.02576551 -0.0090022385 0.014077211 0.04734979 -0.153836 -0.062331602 0.012130549
-0.04051613 0.0075764037 -0.00082202384 -0.1487795 -0.058731683 0.034670275 -0.082414724 0.008032427
-0.01143169 0.08327699 -0.033500273 -0.09210962 0.039182283 -0.0039511574 -0.05017905 -0.071538776
0.019523906 -0.08154846 0.035270847 0.013339619 0.024917778 0.108314075 0.04527958 0.03644597
0.004762912 -0.09132214 -0.0339898 -0.034384962 0.014360872 -0.020827351 0.018297106 -0.06734665
-0.055883337 0.033671644 0.06254659 -0.0068408884 0.022573058 0.05130457 -0.12146827 -0.017548433
0.043341953 -0.03406457 0.03150726 0.03549445 0.018434282 -0.046977818 -0.0071635065 -0.072417654
-0.027490592 0.078056164 -0.0064248834 -0.014625341 -0.07931786 -0.013108917 0.07150514 -0.06264628
0.008574256 -0.02310468 -0.08183315 -0.0593218 0.032759912 -0.035494745 0.02896708 0.10949503
0.04947272 -0.03690903 0.0051328656 -0.04030582 -0.07717504 0.045036577 -0.14195189 0.00759459
0.036999933 -0.0044540474 -0.0811884 -0.051798508 -0.06592212 -0.060321636 -0.03629491 -0.04931387
-0.00017276981 0.06525388 0.061793078 -0.040818118 -0.06089911 -0.012943346 -0.049581345 -0.0512995
0.0014341675 -0.0237971 0.09127442 -0.00091492076 -0.097806066 0.07590336 0.0070088087 -0.09300703
0.0624484 -0.053106718 -0.04319144 0.07264448 0.07070462 -0.02768471 0.03176603 -0.042754956
-0.06403588 0.10036764 0.06557762 0.05890866 -0.016334651 -0.0054825437 0.09016607 0.079454154
-0.008696564 -0.043746635 -0.006276796 0.015897557 -0.107478626 -0.007261275 -0.07495228 -0.13722815
0.018124523 -0.039797455 -0.059188824 0.008014255 -0.15540041 -0.016896516 -0.05971544 -0.043840177
-0.0060471445 0.052248217 -0.04353686 0.0055191647 -0.08041186 -0.059783697 -0.09806034 -0.08871883
-0.028064037 -0.04491221 0.09237478 0.05087337 -0.04525022 0.042234298 -0.05723691 -0.06480094
0.045066338 -0.044146325 0.0911789 -0.072422765 -0.01963939 0.03011203 -0.022286294 -0.03555979
-0.029882267 0.0038603058 0.071430676 0.019172939 -0.09553553 -0.028355932 -0.07162786 -0.0032145346
0.045297228 0.05278817 -0.011075601 -0.026462466 -0.05409003 0.06595331 -0.0054211253 -0.0832531
0.08422696 0.056801904 -0.022140201 0.16952989 0.06459823 -0.035455797 -0.09071637 -0.010219919
-0.099731036 0.102642484 -0.10913248 -0.06825847 0.20641641 0.12487807 -0.09606156 -0.20958956
-0.04536511 -0.07626515 0.0031643766 -0.07889134 -0.076291084 0.18397951 0.11036565 -0.018712988
0.109504074 0.029531265 -0.04084341 -0.002822682 -0.012162155 0.0059184902 -0.0017531469 -0.061924018
0.042934902 -0.052897677 -0.016744988 0.0034564105 -0.16118327 0.078818664 -0.031959303 -0.10380476
0.031651877 0.027558504 -0.0249285 -0.03885122 -0.091730244 -0.03561425 -0.04938941 -0.04177886
-0.055726405 0.0609894 -0.03459315 0.019567428 0.035475492 -0.023216689 -0.043574695 -0.08655674
-0.005483929 0.040836662 0.06643843 0.027965344 0.04754031 -0.038102474 -0.06580939 0.017754657

backbone.bn2.weight f4 [64]
00000000: b483 7a3f f15b 7b3f 0c7e 833f 6372 823f
00000010: 85e2 7a3f e7a7 743f f4cf a53f 4967 7d3f
00000020: 29df 773f 6567 633f 2a14 863f 9db6 823f
00000030: f845 803f c9c8 833f 8fc0 733f 3592 6f3f
00000040: e0af 7d3f 9551 733f 41c4 663f e94e 783f
00000050: 7c3b 673f 1f6b 723f 2fab 8f3f 1e88 783f
00000060: f892 7e3f 97ad 853f ad6a 773f 9a38 8b3f
00000070: 295b 883f 999e 773f 65c9 683f 58e3 8a3f
00000080: 3d19 8f3f 7e51 8d3f 6d45 883f d826 793f
00000090: 4cf6 7b3f fd5b 7a3f 3b51 7f3f ad77 6e3f
000000a0: ee66 873f 72f3 803f aea2 753f b936 783f
000000b0: d496 873f ec68 7c3f dd61 8f3f d680 7e3f
000000c0: f825 8c3f cf99 6a3f dd94 833f 6100 493f
000000d0: 96e3 843f 28b4 843f 62cd 623f cb87 853f
000000e0: 64d4 873f 3a58 813f ff4f 733f a48a a43f
000000f0: 7273 783f a196 7d3f 0385 663f e19b 873f
0.97857213 0.98187166 1.0272841 1.0191158 0.9800189 0.955687 1.2954087 0.98985726
0.9682489 0.8882964 1.0474904 1.0211979 1.0021353 1.029565 0.95215696 0.9358247
0.9909649 0.9504636 0.9014321 0.9699541 0.9032514 0.94694704 1.1224116 0.970827
0.99443007 1.04436 0.9664715 1.0876648 1.065282 0.96726376 0.90932304 1.085063
1.1179577 1.1040494 1.0646187 0.97324896 0.98422694 0.9779661 0.9973332 0.9315136
1.0578287 1.0074294 0.95951355 0.969585 1.0592904 0.985976 1.120174 0.9941534
1.0949087 0.91640943 1.0279804 0.78516203 1.0381954 1.0367479 0.8859464 1.0432066
1.0611691 1.010505 0.9504394 1.285481 0.97051156 0.99057966 0.9004671 1.0594445

backbone.bn2.bias f4 [64]
00000000: 1d86 f7bd 5317 3dbe 2189 e23d b954 29be
00000010: d3c9 55be 9ad4 c73a e4f3 b13e 024e 483d
00000020: feb2 dcbd 48ba 20be 425e e0be 3140 ecbc
00000030: 0999 a9bd 5061 273e e72f 47be 169d 62be
00000040: be13 db3d ab12 683b 2606 1f3c f77f fdbd
00000050: f3f4 0cbe 11db 13be e36e 7fbb fac1 2abe
00000060: eea2 a6bd f1da 013d 747b 7fbc 6cfa 083e
00000070: 2609 e83d 04c6 38bd 68c4 babd 8d3f 883e
00000080: db8d 4e3d d447 66bb 8692 593d 0596 bfbc
00000090: 8508 61be 25ae a63d 0ec0 ecbb 935c 42be
000000a0: 47c6 09be d3fd d0bd 3388 ebbc 181d 093e
000000b0: 2f0b 94bb 2a8b 82be 58f2 583e 30ce 0c3e
000000c0: a5d0 983c dff0 42be b292 7dbd 0c81 00be
000000d0: 36bc 09bd ccaa 4fbe 417d 16be fedd 31bd
000000e0: 5864 c0bd e052 333c a603 2a3d e40e ac3e
000000f0: c680 89bc 8769 85bd 478d 48bd 2ddf 453e
-0.12086127 -0.18465929 0.110613115 -0.16536225 -0.20877771 0.0015245855 0.34756386 0.04890252
-0.107763276 -0.1569606 -0.43821913 -0.028839203 -0.08281142 0.16345716 -0.19451867 -0.22130236
0.10697125 0.0035411518 0.009706056 -0.12377923 -0.13765316 -0.14439036 -0.0038976006 -0.16675559
-0.08136545 0.03170294 -0.015593398 0.13376778 0.1132987 -0.045110717 -0.09119493 0.26610985
0.050428253 -0.0035138028 0.05311825 -0.023386965 -0.21975906 0.08138684 -0.007225043 -0.18980627
-0.13454543 -0.10204663 -0.028751468 0.13390005 -0.0045179348 -0.254968 0.21186197 0.1375053
0.018654177 -0.19037198 -0.061907478 -0.12549227 -0.033626758 -0.20279998 -0.14696218 -0.0434246
-0.09394139 0.010945052 0.041507386 0.3360511 -0.016785037 -0.06514268 -0.048962858 0.19323416

backbone.bn2.running_mean f4 [64]
00000000: e2d2 aebf ea42 c1bf 68ad e8bf ba59 b8bf
00000010: 8ee4 a53e d95d eebf da6d 4fc0 54bb 1ec0
00000020: e246 adbe 9ff7 abbf f1a3 3e3f 2dfb 3bbf
00000030: f93b dabe 4d7a 30c0 0736 bdbd 5bec 09bf
00000040: 28e3 1fc0 4ca7 4cbe 583a 5fbf db51 49be
00000050: 1a13 46bf 1aa1 57bf 4b33 16be a1f4 a73e
00000060: 116b c5be 8f11 193f a8e0 b7bf b033 03c0
00000070: e893 7dbf 92fe 8abf d726 2cbf 32cc 56c0
00000080: 44ad 5abf 7e1b 97bf 3a6d 69bf 0c4f 153e
00000090: d6c8 f3bf 21a1 e7bf f681 1ac0 d49a 033f
000000a0: 622a b1be 1693 23bf 83a9 0ac0 f5fa 19c0
000000b0: 0e47 71bf a69e 81bf 20f9 6fc0 65e9 f4bf
000000c0: e893 9ebf 0320 06c0 fc1e a3bf 102c febe
000000d0: 02c5 b1be 88df c9bf fd24 27c0 8ebe dcbe
000000e0: 0510 90bf c2bd e3bf c476 0bc0 8eed 30c0
000000f0: eaa2 d7bf ed1f 1ebf 03bb f2bf f1fc febf
-1.3658106 -1.5098546 -1.8177919 -1.4402382 0.32400936 -1.862239 -3.2410798 -2.4801836
-0.33843142 -1.3434943 0.74468905 -0.7343014 -0.4262388 -2.7574646 -0.092388205 -0.53876275
-2.4982395 -0.19985694 -0.871984 -0.19660132 -0.77372897 -0.84230196 -0.14668004 0.32803825
-0.38558248 0.5979242 -1.4365435 -2.0500298 -0.9905381 -1.0858939 -0.67246765 -3.356213
-0.8542063 -1.1805265 -0.9118229 0.14580935 -1.9045665 -1.8096048 -2.4141822 0.51408124
-0.34602648 -0.6389631 -2.1665962 -2.4059422 -0.94249046 -1.0126541 -3.7495804 -1.9133726
-1.2388887 -2.0957038 -1.2743831 -0.49642992 -0.34720618 -1.5771341 -2.6116326 -0.43114132
-1.1254889 -1.7792284 -2.1791239 -2.7644992 -1.6846592 -0.61767465 -1.8963321 -1.9920942

backbone.bn2.running_var f4 [64]
00000000: 0d30 4d41 69c6 3441 b524 4c41 19f5 3441
00000010: 8db6 0041 d074 2b41 f6ce 8641 4819 5c41
00000020: 7f7f f140 7eb1 2241 5b0c 2141 daaa e540
00000030: 8879 0841 51c0 6341 f96c 2741 2481 3c41
00000040: 3285 4a41 6e59 1741 3008 f940 9a8d 2241
00000050: 8549 2541 5bf2 1c41 6479 f140 ed5c c840
00000060: 01e9 4a41 4dc4 b440 3e63 6141 71da 3541
00000070: 4413 2e41 15ea e140 240a 2841 a775 7641
00000080: f8c2 0841 7663 1141 4ef3 2841 25d0 f540
00000090: cb5d 2441 4be8 3941 ed2a 6741 4014 f340
000000a0: f408 1c41 1757 f540 d190 5841 8f77 8541
000000b0: 3235 2441 d64d 2741 d301 8641 9242 6741
000000c0: ceec d840 1e54 2e41 6ee0 0441 60e0 3641
000000d0: e527 5241 3af5 4b41 dce2 7b41 d609 fa40
000000e0: 6e25 1941 695d 2e41 50e6 8741 dc97 7b41
000000f0: c4d2 1841 21fe 1741 a110 2341 bf6b 5a41
12.824231 11.29844 12.758962 11.309838 8.044568 10.716019 16.851055 13.756172
7.5468135 10.168333 10.065516 7.177106 8.529671 14.234452 10.464105 11.781528
12.657518 9.459333 7.7822495 10.159571 10.330449 9.809169 7.546068 6.2613435
12.681886 5.6489625 14.086729 11.36583 10.8797035 7.0598245 10.502476 15.403724
8.5476 9.086782 10.559401 7.6816583 10.272899 11.619212 14.44798 7.596222
9.752186 7.666881 13.535356 16.683378 10.262987 10.456503 16.75089 14.4537525
6.778907 10.895536 8.304792 11.429779 13.13474 12.74737 15.742886 7.8137007
9.571638 10.897805 16.987457 15.724575 9.551456 9.499543 10.19156 13.651305

backbone.conv3.weight f4 [128, 64, 3, 3]
00000000: e5fe 9ebd e14e 2abd 4299 a8bc f453 f03c
00000010: 7c1e 803d 0307 9c3d 06b7 beba b979 033e
00000020: c332 25bd 0206 cc3d 4805 1ebc f160 a73d
00000030: 83d2 0c3c be3b aabc 413d 8cbc f123 103c
00000040: 0b9b 3cbd 1c38 eabc 42d8 bebc 61c7 893d
00000050: cca0 86bd 0c83 153c 5422 0bbd 5673 933d
00000060: 57ee c83d 3ac9 f23c ff6c 1e3d 302c 643d
00000070: 548f aebc a2a5 abbc 86ad 0b3a fd5c 803c
00000080: 8411 6cba 3633 553d 9a18 b93c 2139 65bc
00000090: dd09 94bd 77fc b7bc 519c dabd 903a 81bd
000000a0: 9717 1dbd a118 94bd f782 2abc 7f5e 0d3d
000000b0: cbff b03d 39be 8fbd 898a 8dbd 9f43 2a3c
000000c0: 7daa 23bd 0e9c 07bc b5d7 993c bea8 31bd
000000d0: ac3e fc3c 3aa6 b5bd 955c ea3c 1e41 cbbc
000000e0: 016a bdbb 5a07 19bd f09b 07be 4e21 bf3c
000000f0: 41ea 6dbd b6d5 b3bd 046b 403c fe43 9d3d
00000100: 83e8 453d 9d49 c73d 6917 38bd f085 ce3d
00000110: 1338 baba 383f 84bd 736b a3bd f0b5 853c
00000120: e7ce c13b 3116 0e3d 3c62 1e3d 7a72 6a3d
00000130: 3be9 a43d 1fd5 c7bc 8138 54bd c908 f93c
00000140: 014a 20bd 8d99 303b c215 ce3d bfd5 083c
00000150: 16d4 18bd 8e5c a33d 33bb 6e3d ec6a 003d
00000160: 2dc4 5e3c 05f7 903d 81e5 d13d fce8 823d
00000170: 1c28 b23c ab4d aabd e51c a73d ac2a 203d
00000180: 666e 8f3d 197c 8d3d 59e2 3a3e 8c59 fa3d
00000190: 51a6 8a3d 83ae 5f3d 4c74 85bd 73eb fe3c
000001a0: 0bc1 843c 6d29 54bd 4253 723d 4aea 103d
000001b0: db4c cb3b f6f4 6a3d d8ce 0abd c3e9 98bc
000001c0: b09e 993d a84b 66bc 0f64 ac3d 66d5 d53d
000001d0: 4bcc ab3d b4f0 c1bd 0432 d0bd f5e2 d3bd
000001e0: 7794 21bc 930e 88bc 71c5 43bd 91ac a1bd
000001f0: 2fe0 a53d 24db 92bd 02ae 5e3c 3645 e6bc
00000200: 26ee ac3c c82d 96bc cac1 a13d 88d1 c93c
00000210: 3066 e7bd bec7 95bc caab 393d 836f afbd
00000220: c464 30bd 18ec b13b 11e0 ddbd 087b 5a3d
00000230: ffb5 89bd e387 843b 7892 d63c 5aa8 4ebd
00000240: 6b6e ebbd f32d c73b 9c0a 72bd 888b 113c
00000250: 4f81 1dbd 0d27 55bd ef18 d3bd d81a 063e
00000260: 5839 ea3c 5e85 2fbd cfa6 28bd 9044 82bd
00000270: bae3 493d 3e31 873c 7930 11bd 3608 013d
00000280: a373 e53c ae7a 2bbd f18d 2fbe 8588 d7bd
00000290: 16e2 05be a576 f1bd cb60 0cbd 496a cabd
000002a0: a652 7d3c 2955 0b3d 188f 84bd ea54 68bd
000002b0: 72a8 f9bc 3a12 ed3c 788e 813d ab61 913d
000002c0: 39fa d4bb 341a 5c3d fca7 34bb 39e7 12bd
000002d0: 5d6f 483e 493d 943c 8714 c13d 05c8 e13b
000002e0: ebd4 733d 375a a13d 544e 083d 8d50 2e3d
000002f0: 8e5e a63c c424 103c e887 aa3c 57a9 9b3d
00000300: 3a6c c3bd 7f49 19bd 9dcc 25bd 5fca 0fbd
00000310: 3d30 37bd 5a9d e5bb a033 d53c 35d0 d23c
00000320: c929 1bbd 6e76 8b3d bd16 413d b263 05bd
00000330: c672 833c b1df d53d 6841 49bd 680e 083d
00000340: b9e6 03bc 63c7 013d 4921 83bc 784c 073d
00000350: fdc7 6abc 00ff a33d a41e 633d fa18 2a3c
00000360: 5382 69bd b47b 8d3c 0e69 17bd c1a4 f1bd
00000370: 8e96 353d e338 e9bd cf93 8ebc 304d 0c3e
00000380: 36f4 843d 802b 50bc d352 8abc ada6 453d
00000390: e871 98bd f3cb f1bd 595e 4abd 6c2c 543d
000003a0: d58c 3f3c 0962 e1bd 66e5 2bbd 0465 4bbd
000003b0: 3fd4 64bd 86bb e7bc 5f24 15bc f80e 19bd
000003c0: d947 23bc 07e4 8c3d 6ba5 44bd e514 f5bd
000003d0: 7942 36be 31f2 33bd ff5b 1bbe 8c3e 45bd
000003e0: fcff 00be c50f 15bb b5bb 77bb 8e77 adbd
000003f0: dc46 9d3c d383 8c3d fa2b b93d 6683 b93d
-0.07763461 -0.04157913 -0.020580892 0.029336907 0.062558144 0.07618525 -0.0014550395 0.12839402
-0.040331613 0.099620834 -0.009644814 0.08172787 0.008595112 -0.02078044 -0.017119052 0.008797632
-0.046046298 -0.028591208 -0.02329648 0.06727482 -0.06573638 0.009125482 -0.033968285 0.07199733
0.09811085 0.029636968 0.038678166 0.055706203 -0.021308579 -0.020953003 0.0005328286 0.01566934
-0.00090052956 0.05205079 0.022594739 -0.013990671 -0.07228444 -0.022459252 -0.10674346 -0.06309998
-0.038352575 -0.0723126 -0.010407201 0.034513947 0.08642539 -0.07018704 -0.06911189 0.010392099
-0.039957512 -0.008276952 0.018779615 -0.043373816 0.030791603 -0.08869596 0.0286086 -0.024811324
-0.005780459 -0.037360527 -0.13243079 0.02333131 -0.05808473 -0.087809965 0.0117442645 0.07678984
0.048317444 0.097308375 -0.0449442 0.1008414 -0.0014207385 -0.064573705 -0.07979479 0.016322106
0.0059145573 0.034689132 0.038667902 0.05723808 0.08052298 -0.024393616 -0.0518117 0.030399697
-0.039133076 0.0026946992 0.10062744 0.008351742 -0.037311636 0.07976638 0.058283996 0.03135197
0.013596577 0.07078365 0.102488525 0.063920945 0.021747641 -0.08315595 0.08159808 0.039103195
0.07003479 0.069084354 0.18250407 0.12224111 0.067700036 0.054609787 -0.065163225 0.03111813
0.016205331 -0.05179732 0.059161432 0.035379685 0.0062042302 0.05736252 -0.033888668 -0.018666154
0.0750097 -0.014056124 0.08417522 0.10441093 0.08388575 -0.094697386 -0.1016579 -0.10346023
-0.009862057 -0.016608512 -0.047795717 -0.078942426 0.080994 -0.07170704 0.013591291 -0.028109174
0.021109652 -0.018332377 0.078982905 0.024636045 -0.112987876 -0.018283721 0.045329846 -0.08566191
-0.043064848 0.005429756 -0.10833753 0.053339988 -0.06724166 0.0040445193 0.026192889 -0.05045352
-0.1149567 0.0060784756 -0.05909215 0.0088833645 -0.038453396 -0.052039195 -0.1030749 0.13096178
0.028591797 -0.0428518 -0.041174706 -0.063607335 0.049289443 0.016502973 -0.035446618 0.03150197
0.028009241 -0.041865043 -0.1714399 -0.10524086 -0.13074526 -0.11790208 -0.034271996 -0.098835535
0.015461599 0.034016762 -0.064726055 -0.056721605 -0.030475829 0.028939355 0.06326002 0.07098707
-0.0064995554 0.053735927 -0.0027565947 -0.035865042 0.19573732 0.01809563 0.094277434 0.0068902993
0.059529226 0.07878535 0.033277825 0.042557288 0.020308759 0.008797828 0.020816758 0.076006584
-0.09542127 -0.037423607 -0.040478338 -0.035105105 -0.044723738 -0.007007283 0.026025593 0.025734046
-0.037881646 0.06809698 0.047140826 -0.03256578 0.01604594 0.104430564 -0.049134642 0.033216864
-0.008050614 0.03168429 -0.016007083 0.03303191 -0.0143299075 0.08007622 0.055449143 0.010381931
-0.057009052 0.0172709 -0.036965422 -0.117990024 0.044333033 -0.113878034 -0.017404465 0.1370132
0.06491892 -0.012705684 -0.016885197 0.048254658 -0.07443601 -0.11806478 -0.049406383 0.051800177
0.011691292 -0.11005027 -0.04196682 -0.049656883 -0.055866476 -0.02828766 -0.00910291 -0.03736779
-0.00996586 0.0687943 -0.048009317 -0.11966876 -0.17798795 -0.043932144 -0.15171812 -0.048155352
-0.1259765 -0.0022744995 -0.003780109 -0.08470069 0.019198827 0.06861081 0.09041591 0.090582654

backbone.bn3.weight f4 [128]
00000000: d64e 7c3f 04f6 903f 46a9 8e3f d12c 693f
00000010: f3b7 873f b8d8 873f 17e9 663f 26b3 8e3f
00000020: 10d9 8c3f 7297 7e3f 7ac2 893f a329 823f
00000030: 4ab3 883f 39fc a33f ccac 733f 9217 7a3f
00000040: 99b4 7b3f 8a31 823f c567 883f e6a8 7a3f
00000050: c77b 663f ba75 8e3f 4220 863f b1a0 8a3f
00000060: faee 843f 54ad 903f f5b5 883f 06e4 7c3f
00000070: beca 8e3f 7189 993f 8e47 7d3f ec7e 8a3f
00000080: 9334 903f d77d 853f 8120 863f 697c 8d3f
00000090: 2ea5 873f 1e9a 8e3f 32ed 863f d808 923f
000000a0: 1576 6e3f 5e8a 943f 4487 793f b559 883f
000000b0: 71e0 893f 2b93 883f 2edf 883f c7b1 7f3f
000000c0: c3ef 693f b3e0 903f 669f 853f b98d 8b3f
000000d0: 5734 913f 0f22 7d3f b67e 923f 1c8f 8f3f
000000e0: aede 893f 40b8 893f 0073 8e3f 4a49 8e3f
000000f0: 6bed 723f 257a 8b3f 1128 863f 3413 843f
00000100: 5e7f 7d3f 0774 6b3f 3ac8 813f 3f02 8b3f
00000110: e20d 8e3f 4e05 8c3f 8568 8f3f 5341 8d3f
00000120: 603c 823f b943 803f 86d3 803f 18a8 823f
00000130: fd83 893f 80c4 8c3f c564 873f 4b13 3b3f
00000140: 6876 903f 64ae 7d3f a794 853f 6367 843f
00000150: a874 903f 7585 863f 5ee1 813f de1b 823f
00000160: da6d 843f 4731 8a3f 3e14 963f 0ebd 8a3f
00000170: 08db 8b3f 6203 853f 0c46 863f c9f1 8d3f
00000180: eea3 8c3f b3be 853f ae13 803f 3214 6f3f
00000190: 8b3d 833f 18e8 8f3f c581 8d3f 19bf 923f
000001a0: 1a6d 863f 23b0 893f 6663 8b3f bc66 8f3f
000001b0: 989c 8f3f b6d9 8c3f 782d 8e3f 1667 773f
000001c0: d457 853f 42fa 8e3f 69d1 8c3f cc1f 6d3f
000001d0: ca2c 933f c7ce 6a3f b23e 8a3f 1195 8b3f
000001e0: dc00 823f 15fd 8a3f 7a51 8f3f e4be 863f
000001f0: af88 853f 83bf 893f f317 873f 332d 793f
0.98557794 1.1325078 1.1145408 0.9108401 1.0603012 1.0613012 0.90199417 1.1148422
1.1003742 0.9944984 1.0762475 1.0168957 1.0679715 1.2811347 0.9518554 0.97692215
0.98322445 1.0171368 1.0656668 0.9791397 0.9003262 1.1129677 1.0478594 1.0830289
1.038543 1.1302896 1.0680529 0.98785436 1.1155622 1.1995069 0.9893731 1.0819983
1.1266044 1.0429028 1.047867 1.1053592 1.0597284 1.1140783 1.0541136 1.1408949
0.9314893 1.1604726 0.97472024 1.0652376 1.0771619 1.0669912 1.0693109 0.9988064
0.9138147 1.1318573 1.043927 1.0902625 1.1344098 0.98880094 1.1444919 1.1215549
1.0771081 1.0759354 1.1128845 1.1116116 0.9489352 1.089665 1.0480977 1.031836
0.9902247 0.9197392 1.0139229 1.086006 1.1097987 1.0939119 1.1203772 1.103556
1.0174675 1.0020667 1.0064552 1.0207548 1.0743405 1.0997467 1.0577627 0.73076314
1.1286135 0.99094224 1.043599 1.0344051 1.1285601 1.0509478 1.0146902 1.0164754
1.0346024 1.0796288 1.1724927 1.0838945 1.0926218 1.0391657 1.0490127 1.1089412
1.0987527 1.0448822 1.0006006 0.9339019 1.0253156 1.1242704 1.1055228 1.1464568
1.0502045 1.0756878 1.0889709 1.1203227 1.1219664 1.100394 1.1107626 0.9664167
1.0417428 1.1170123 1.1001407 0.92626643 1.1498044 0.9172177 1.0800383 1.0904866
1.0156512 1.0858485 1.119674 1.0527005 1.0432338 1.076157 1.0554184 0.97334594
