PointPillarUpgrades/output_20251201_054057/pointpillars_ModelNet40.pth (torch, 694054 bytes, 40 tensors)

pfn.blocks.0.fc.weight f4 [64, 8]
0	0x3e6fd844	0.23422343
1	0x3e2936a1	0.16524746
2	0xbe3722e7	-0.17884408
3	0x3e73d0cd	0.2381012
4	0xbe5516c3	-0.20809464
5	0x3de77a89	0.113026686
6	0xbef5ae0b	-0.47984347
7	0x3e0bcfbf	0.13653468
8	0x3ea0a63a	0.3137682
9	0xbe61b89a	-0.22043076
10	0x3eacc193	0.33741435
11	0x3e2682cb	0.16260831
12	0x3df11cb5	0.117730536
13	0x3d0e3e12	0.034727164
14	0x3ed125e6	0.40849227
15	0xbde74505	-0.11292461
16	0x3e3c86e6	0.18410835
17	0x3c105ed8	0.008811675
18	0xbe69f3ff	-0.22846983
19	0x3e03976f	0.12850736
20	0xbe50622f	-0.20349954
21	0x3dfe1471	0.12406243
22	0xbe6f73b6	-0.23383984
23	0x3e8c200b	0.27368197
24	0xbe27a66d	-0.1637208
25	0xbd24e0b1	-0.040253345
26	0xbe579df8	-0.21056354
27	0xbe7ed531	-0.24886014
28	0x3e21f117	0.15814625
29	0xbef92109	-0.48658016
30	0x3ed712fb	0.42006668
31	0xbe210bea	-0.15727201
32	0x3e052318	0.13001668
33	0x3d09757f	0.03355932
34	0xbe1ae8f8	-0.15127933
35	0x3f144a16	0.57925546
36	0xbcec60df	-0.028854785
37	0x3eaff79e	0.34368604
38	0x3e717232	0.23578718
39	0xbde33109	-0.11093337
40	0x3d52f995	0.05150755
41	0xbdb7371f	-0.089460604
42	0x3e8563a6	0.26052588
43	0x3ef993e3	0.4874564
44	0x3d1eb65c	0.03874813
45	0xbe2ace04	-0.16680151
46	0x3e1c9fdd	0.15295358
47	0x3d8de87d	0.06929109
48	0x3d9ad01e	0.075592265
49	0xbe253c4e	-0.16136286
50	0xbecb9c7b	-0.39767823
51	0xbe2c50de	-0.16827723
52	0xbe860a26	-0.26179618
53	0x3ecbe40f	0.39822432
54	0x3e52cccb	0.20585935
55	0x3c9cf936	0.019161802
56	0x3c7f476a	0.015580991
57	0x3d0d7ca8	0.03454271
58	0x3ea2991b	0.31757435
59	0xbe142986	-0.14468965
60	0x3d5335fb	0.05156515
61	0xbea48bba	-0.32137853
62	0x3c4b4439	0.012406402
63	0xbd77c4d0	-0.06049043
64	0x3d6aab7a	0.05729244
65	0xbc8b4ee0	-0.017005384
66	0x3eed2f33	0.46325073
67	0xbecea0ff	-0.40357205
68	0xbd9a5a56	-0.075367615
69	0xbddaa5e2	-0.10676171
70	0x3eb23081	0.3480263
71	0x3dc1fec7	0.09472423
72	0x3e740cea	0.23833051
73	0xbe27a6c2	-0.16372207
74	0xbed92277	-0.42409107
75	0xbd59b62a	-0.05315224
76	0xbe557dab	-0.2084872
77	0x3e71d815	0.23617585
78	0x3e5f7f80	0.21825981
79	0x3ea6cea4	0.3257953
80	0xbdb871af	-0.090060584
81	0xbe563107	-0.2091714
82	0x3e7faeae	0.24968979
83	0xbe65dbab	-0.22447078
84	0x3e850d3c	0.2598666
85	0xbdb39db0	-0.08770311
86	0x3edb319f	0.42811295
87	0xbe722fef	-0.23651098
88	0xbd83c19c	-0.064334124
89	0x3d54020e	0.051759772
90	0x3d29fd3e	0.041501276
91	0x3cfa51c9	0.030556576
92	0x3e3d3ef2	0.18481043
93	0x3f01ae0e	0.5065621
94	0x3cbf4a20	0.023350775
95	0xbe5b5325	-0.21418436
96	0x3e6f092d	0.23343344
97	0xbc458f1f	-0.0120580485
98	0xbe2ac7d0	-0.16677785
99	0xbe893f03	-0.26805887
100	0xbe85d015	-0.26135316
101	0x3e14a8af	0.14517473
102	0x3c8241cf	0.01590052
103	0xbecfcfa7	-0.40588114
104	0xbc819b1e	-0.015821036
105	0xbdfce7d9	-0.12348909
106	0xbeb07683	-0.34465417
107	0xbea72d13	-0.32651576
108	0xbe81b36f	-0.2533221
109	0xbe92dcf7	-0.28684208
110	0x3eaf83bc	0.34280193
111	0x3e82d0f2	0.25550038
112	0x3d941929	0.072313614
113	0xbeb2600f	-0.34838912
114	0xbe5fa3d0	-0.21839833
115	0x3b32a020	0.0027256086
116	0x3d82769b	0.063702784
117	0xbe98d720	-0.29851627
118	0x3e13884c	0.14407462
119	0xbe3ebbc0	-0.18626308
120	0x3be3ba4d	0.006949699
121	0xbd5006c1	-0.05078769
122	0x3dbdf874	0.09275904
123	0xbed04aca	-0.4068206
124	0xbec92616	-0.3928687
125	0xbe7a5408	-0.24446118
126	0xbdde8589	-0.108653136
127	0xbe773cea	-0.2414433
128	0x3e7d6775	0.24746497
129	0xbe3358d3	-0.17514353
130	0x3e674b2b	0.22587268
131	0x3d802133	0.06256332
132	0xbed2ac98	-0.41147304
133	0x3e7d4f4c	0.2473728
134	0xbe0ca7e7	-0.13735925
135	0xbe5c815a	-0.21533719
136	0xbea40cfc	-0.32041156
137	0xbecd0b9a	-0.40047914
138	0x3df97156	0.1217982
139	0xbe306c24	-0.17228752
140	0x3d9c78ac	0.07640204
141	0xbe82dd8b	-0.2555965
142	0x3e19d5f1	0.15023018
143	0xbdee275d	-0.11628602
144	0xb9807711	-0.00024502774
145	0x3ccdb918	0.025112674
146	0x3e530052	0.20605591
147	0x3ed78e0f	0.4210057
148	0x3e95396c	0.29145372
149	0xbeadb04e	-0.33923572
150	0x3e027d02	0.12742999
151	0xbe19980e	-0.1499941
152	0x3cdcb61c	0.026942305
153	0xbe3332b0	-0.17499804
154	0x3ead1162	0.33802325
155	0xbdda4818	-0.10658282
156	0x3d219fff	0.039459225
157	0x3d8899d8	0.06669968
158	0x3ec8bda6	0.3920719
159	0xbea84ce4	-0.32871163
160	0x3e50c46d	0.2038743
161	0xbc9036e7	-0.017604304
162	0x3d41c0ed	0.04730313
163	0xbd55fa75	-0.052240808
164	0x3e4ee82b	0.20205753
165	0xbd276e86	-0.040876888
166	0xbed1250b	-0.40848574
167	0x3ec7f7ae	0.39056152
168	0x3d16fd69	0.036862765
169	0xbe5ba5ec	-0.21450013
170	0xbe444a5f	-0.19168995
171	0xbe4268d2	-0.18985298
172	0x3e417f4b	0.18896215
173	0xbe243958	-0.160375
174	0xbe55ab20	-0.2086606
175	0x3be9f84f	0.0071401964
176	0xbd994abe	-0.07484959
177	0x3d47e9d7	0.04880699
178	0x3ef55f60	0.47924328
179	0xbe47c3ac	-0.19508237
180	0x3de45326	0.11148672
181	0x3e961444	0.29312336
182	0x3e8ba8e2	0.27277285
183	0xbe15214c	-0.14563483
184	0x3e20409a	0.15649644
185	0x3e2a8d37	0.16655432
186	0x3e80a82c	0.25128305
187	0xbe25f5cd	-0.16207047
188	0xbd935efd	-0.07195852
189	0x3e0b6838	0.13613975
190	0x3c58f903	0.013242963
191	0xbd983e98	-0.07433814
192	0x3e539d87	0.2066556
193	0x3e9f213c	0.31080043
194	0xbd0b09af	-0.033944782
195	0x3d8c0040	0.06835985
196	0xbd105260	-0.03523481
197	0xbd7763db	-0.060397964
198	0xbd8de8d2	-0.069291726
199	0x3e306845	0.17227276
200	0xbe7ae407	-0.24501048
201	0xbdcd6f2a	-0.100309685
202	0x3ece3759	0.40276602
203	0xbd5db37c	-0.054126248
204	0x3d9ce585	0.07660965
205	0xbe435f09	-0.19079222
206	0xbeaca180	-0.33716965
207	0xbe8569a0	-0.26057148
208	0xbce68352	-0.02813879
209	0x3ce5f383	0.028070217
210	0x3e8f6a73	0.28010902
211	0x3e5c5c54	0.21519595
212	0xbeb33f7a	-0.35009366
213	0xbe868cad	-0.26279202
214	0xbe39cabd	-0.18143745
215	0x3eb4af66	0.35290068
216	0x3c4b812b	0.012420933
217	0x3c6392ee	0.013890011
218	0x3cad366e	0.021144118
219	0xbdc0de57	-0.09417408
220	0xbedb8e17	-0.42881843
221	0x3ed1cb73	0.40975532
222	0x3d98c04a	0.07458551
223	0xbc35a4e1	-0.0110866735
224	0xbe9c954d	-0.30582657
225	0x3e8e4255	0.27784982
226	0x3eac5f00	0.3366623
227	0x3e229b95	0.15879662
228	0xbdc9a4c1	-0.098458774
229	0xbea23682	-0.3168221
230	0xbe9cf1c9	-0.30653217
231	0x3e2d90eb	0.16949813
232	0x3dd8151f	0.105509035
233	0x3e2a1d16	0.16612658
234	0x3e626aa5	0.22110994
235	0x3e35a069	0.17736973
236	0xbd4c5e73	-0.04989476
237	0xbeb85423	-0.3600169
238	0xbef7cd54	-0.4839884
239	0xbe8d1edf	-0.27562615
240	0x3e2ad975	0.16684516
241	0xbe3fccb1	-0.18730427
242	0xbc21771e	-0.00985506
243	0x3d4f34fd	0.050587643
244	0x3d458b05	0.048228282
245	0xbe7d848c	-0.24757594
246	0xbea0a613	-0.31376705
247	0x3e307e34	0.17235643
248	0xbe037e95	-0.12841256
249	0x3e80daac	0.25166833
250	0xbe078800	-0.13235474
251	0xbe062660	-0.13100576
252	0xbc8697d7	-0.016429825
253	0xbe0c4435	-0.13697894
254	0x3d280075	0.04101606
255	0xbead3ca9	-0.33835343

pfn.blocks.0.bn.weight f4 [64]
0	0x3f4e9bb2	0.8070632
1	0x3f7bd1e7	0.9836716
2	0x3f4e9aad	0.80704767
3	0x3f7b7671	0.982276
4	0x3f8764e8	1.0577669
5	0x3f82860b	1.0197157
6	0x3f86c02e	1.0527399
7	0x3f8b2e0f	1.0873431
8	0x3f93c22e	1.1543634
9	0x3f6b3719	0.9188095
10	0x3f636d4d	0.88838655
11	0x3f75c1eb	0.9599902
12	0x3f76e66f	0.96445364
13	0x3f897a65	1.0740477
14	0x3f2fed59	0.6872154
15	0x3f5dceae	0.86643493
16	0x3f87f623	1.062199
17	0x3f516532	0.81795037
18	0x3f929d4c	1.1454253
19	0x3f5f2920	0.87172127
20	0x3f56249e	0.83649623
21	0x3f487a57	0.78311676
22	0x3f86b45e	1.0523794
23	0x3f88c8ed	1.0686318
24	0x3f26d5d7	0.65170044
25	0x3f79a211	0.9751292
26	0x3f70129e	0.9377841
27	0x3f93a2db	1.1534075
28	0x3f53bd0b	0.8271033
29	0x3f8a5e24	1.080998
30	0x3f5c5135	0.8606141
31	0x3f21945a	0.6311699
32	0x3f778f26	0.967028
33	0x3f545ec3	0.82957095
34	0x3f76f076	0.96460664
35	0x3f796bab	0.97429913
36	0x3f4020d6	0.75050104
37	0x3f4eebec	0.8082874
38	0x3f6d3252	0.9265491
39	0x3f93b6db	1.1540178
40	0x3f6639e5	0.8993209
41	0x3f53a819	0.8267837
42	0x3f661e61	0.89890105
43	0x3f7c834f	0.9863786
44	0x3f1fad2d	0.6237362
45	0x3f86c10d	1.0527664
46	0x3f618910	0.88099766
47	0x3f6abe09	0.9169622
48	0x3f41fe9f	0.75779146
49	0x3f5c9ef2	0.8618003
50	0x3f57c464	0.84284043
51	0x3f7c2a78	0.985023
52	0x3f6b6408	0.9194951
53	0x3f6af43c	0.9177892
54	0x3f67574d	0.90367585
55	0x3f253e35	0.64548045
56	0x3f4a7e0d	0.7909859
57	0x3f5ea4fd	0.869705
58	0x3f71ef07	0.9450535
59	0x3f6ee386	0.93315923
60	0x3f4a6119	0.7905441
61	0x3f480b33	0.7814209
62	0x3f3cb960	0.7372036
63	0x3f42e1f0	0.76126003

pfn.blocks.0.bn.bias f4 [64]
0	0xbcbca52a	-0.023027975
1	0xbe3efbcb	-0.18650739
2	0x3d2fa7b8	0.04288456
3	0xbbca650f	-0.006176598
4	0xbe09c3a5	-0.13453539
5	0x3b835c3f	0.0040087993
6	0x3c8e1636	0.017344575
7	0xbd9c9818	-0.07646197
8	0xbc7249f6	-0.0147881415
9	0xbe397a65	-0.18113096
10	0xbe436fda	-0.19085637
11	0x3d1c8666	0.03821411
12	0x3dd5ad2c	0.104334205
13	0xbe63973b	-0.22225659
14	0xbe875ea8	-0.26439404
15	0xbb178289	-0.0023118577
16	0xbe19ac0c	-0.15007037
17	0xbe485a87	-0.19565783
18	0xbdc61598	-0.096720874
19	0xbe3f674a	-0.18691745
20	0x3d882c14	0.06649032
21	0xbe237039	-0.15960778
22	0xbbfd0bc0	-0.007722348
23	0xbd837a0e	-0.064197645
24	0xbe166b4c	-0.14689368
25	0xbd8f72da	-0.07004328
26	0xbe12b3cf	-0.14326404
27	0xbcbe9c69	-0.023267942
28	0xbd0144d9	-0.0315598
29	0xbe577fac	-0.21044797
30	0xbde677df	-0.11253332
31	0xbe4e84ce	-0.20167848
32	0xbcc1731c	-0.023614459
33	0xbe473bcb	-0.19456403
34	0xbc3d282d	-0.011545223
35	0x3e0803e8	0.1328274
36	0xbe8342fc	-0.25637043
37	0xbe1854ca	-0.14876094
38	0xbdc524b5	-0.09626142
39	0xbaabcb5d	-0.0013106872
40	0x3b08cf19	0.0020875393
41	0x3d523210	0.051317275
42	0xbe98c5d1	-0.29838422
43	0xbb3efd82	-0.0029142802
44	0xbe610d71	-0.21977784
45	0xbe04f46f	-0.12983869
46	0xbe011a8f	-0.12607788
47	0xbd9b136b	-0.07572063
48	0xbe968aaf	-0.29402682
49	0xbe41fd36	-0.18944249
50	0xbcbe4f1b	-0.02323108
51	0x3e5010ad	0.20318861
52	0xbe682bae	-0.22672912
53	0x3e17a9a9	0.14810814
54	0xbe72fef7	-0.23730074
55	0xbe093113	-0.13397627
56	0xbe16e5fb	-0.14736168
57	0xbda21f3b	-0.07916113
58	0x3d89b7a8	0.06724483
59	0xbcab7be4	-0.0209331
60	0xbe6fbc70	-0.23411727
61	0x3b23880b	0.0024952914
62	0xbe504120	-0.20337343
63	0xbe10811a	-0.14111748

pfn.blocks.0.bn.running_mean f4 [64]
0	0x38eee13d	0.00011390678
1	0xb9a88882	-0.00032145163
2	0x37957499	1.781648e-05
3	0xb8eff075	-0.00011441197
4	0xb92f0d0c	-0.00016694161
5	0xb8dc8711	-0.000105155756
6	0xb8e443b0	-0.00010884495
7	0xb7c1ad53	-2.3088103e-05
8	0xb96c7bd8	-0.00022552849
9	0xb96220bf	-0.00021565238
10	0xb9101f3e	-0.00013744549
11	0x37fe0001	3.0279161e-05
12	0xb88e5a4d	-6.7879075e-05
13	0xb92ff50a	-0.00016780585
14	0xb8240e44	-3.9113933e-05
15	0x38a6e44f	7.9580226e-05
16	0xb69d1fc9	-4.682665e-06
17	0x3902daa3	0.00012479215
18	0xb87ed2af	-6.0754533e-05
19	0xb930fc8f	-0.00016878753
20	0x38aaf4f5	8.1518585e-05
21	0x38fbceb2	0.00012007113
22	0xb8ed6e9b	-0.000113216425
23	0xb8cf3149	-9.879709e-05
24	0xb8e471b4	-0.00010893066
25	0x39a18c8a	0.00030813023
26	0x3879b36b	5.9533322e-05
27	0xb83d757f	-4.517054e-05
28	0x397498fb	0.00023326643
29	0x3950b881	0.00019905159
30	0x38c2356a	9.26059e-05
31	0x3830a22d	4.2112708e-05
32	0xb95f73bb	-0.0002131005
33	0xb898c505	-7.2846226e-05
34	0xb957247d	-0.00020517591
35	0x397be58f	0.00024022743
36	0xb9942a7f	-0.00028260422
37	0x3907e92d	0.00012961468
38	0x37561e58	1.2762459e-05
39	0xb8671322	-5.509251e-05
40	0x3981adce	0.00024734292
41	0xb88e520c	-6.78637e-05
42	0x38bac97e	8.906702e-05
43	0xb8fc8a4f	-0.000120420584
44	0xb937a7d0	-0.00017514755
45	0x390a8204	0.0001320914
46	0x397c563a	0.00024064715
47	0xb8ffd5c7	-0.00012199167
48	0xb710e23c	-8.635743e-06
49	0xb91ad0cc	-0.00014764367
50	0x39078a8d	0.00012926217
51	0x3795d1e1	1.7859917e-05
52	0x389402ae	7.057689e-05
53	0xb956d095	-0.00020486333
54	0x3825180a	3.9361454e-05
55	0x391fca6a	0.00015238827
56	0xb9503642	-0.00019856638
57	0xb8963f82	-7.1643866e-05
58	0xb8e47710	-0.00010894064
59	0xb84f0e9f	-4.9366263e-05
60	0xb9260539	-0.00015832939
61	0xb916fbca	-0.00014398913
62	0xb922baca	-0.00015519108
63	0xb87d0c08	-6.0331105e-05

pfn.blocks.0.bn.running_var f4 [64]
0	0x39b93182	0.00035322836
1	0x3a72dc5b	0.0009264403
2	0x397c4396	0.0002405777
3	0x3a9f251e	0.0012141799
4	0x39481d8a	0.0001908449
5	0x38fc0b8e	0.000120184486
6	0x39a86719	0.0003212027
7	0x38d66846	0.000102237376
8	0x39fab44c	0.00047818047
9	0x3a14e564	0.0005679934
10	0x39ceaa5c	0.0003941831
11	0x3a348c4c	0.0006887361
12	0x39e4934b	0.0004359729
13	0x3a8b16c0	0.0010611638
14	0x3aa4df01	0.0012578667
15	0x3954776d	0.00020262385
16	0x3a7ed140	0.0009720512
17	0x3a83d545	0.0010058066
18	0x38dde8d2	0.00010581467
19	0x3a421d51	0.0007404881
20	0x39bf0342	0.00036432786
21	0x3a00c767	0.0004912526
22	0x3ac6147a	0.0015112304
23	0x3a13db29	0.00056402624
24	0x3a1be297	0.0005946545
25	0x3a02aa89	0.0004984518
26	0x39688a22	0.00022176703
27	0x39d93d1d	0.00041434998
28	0x3a590059	0.0008277945
29	0x3997fa71	0.00028987558
30	0x39c36066	0.0003726512
31	0x3a00856d	0.00049026945
32	0x39c02dd1	0.0003665523
33	0x3a353338	0.0006912234
34	0x3aa1819e	0.0012321954
35	0x39a07acf	0.00030609078
36	0x3a2e0f55	0.0006639858
37	0x39ac76da	0.00032894948
38	0x3a345c7b	0.0006880236
39	0x3b287ad3	0.0025707975
40	0x39a76243	0.00031925933
41	0x398d6396	0.00026967813
42	0x3a011e18	0.0004925444
43	0x3ad0458f	0.0015889871
44	0x3a4c5f60	0.00077961944
45	0x39be73ee	0.00036325998
46	0x3a481196	0.0007632015
47	0x3a34bdd2	0.00068947405
48	0x3a368918	0.00069631776
49	0x3a1ca7a6	0.00059759093
50	0x39f772c6	0.00047197024
51	0x395ed632	0.00021251364
52	0x3a88a1a6	0.0010424152
53	0x3a020965	0.00049605063
54	0x39b1b1dd	0.0003389259
55	0x3a162bbf	0.00057285646
56	0x3a1b33e2	0.0005920512
57	0x39d15bf7	0.00039932106
58	0x397b9ea2	0.0002399632
59	0x3a961be5	0.0011452405
60	0x3a67b32c	0.00088386494
61	0x3a5c946a	0.00084144494
62	0x3a5c84fb	0.00084121496
63	0x3a150638	0.00056848256

pfn.blocks.0.proj.weight f4 [64, 8]
0	0x3dab2cae	0.08358131
1	0xbe4feaa5	-0.20304354
2	0xbca6e36d	-0.020372117
3	0xb9910aec	-0.00027664693
4	0x3b47f533	0.003051114
5	0xbc5e166c	-0.0135551505
6	0xbcaa48a2	-0.020786587
7	0xbdcd5d5f	-0.10027575
8	0xbd67d10d	-0.05659585
9	0x3e35a07e	0.17737004
10	0x3d8c7479	0.06858153
11	0x3d021232	0.031755634
12	0xbcfee2c8	-0.031113997
13	0xbda01b83	-0.078177474
14	0x3d441cc1	0.047878984
15	0x3ca5fc02	0.020261768
16	0x3be5ccb9	0.0070129302
17	0x3c8b861e	0.017031725
18	0x3d3f290a	0.046669997
19	0xbccbc724	-0.024875231
20	0x3c18e831	0.0093327025
21	0x3e30edc6	0.17278203
22	0xbc5f4977	-0.013628355
23	0x3c94f1e6	0.018181752
24	0xbd8e0379	-0.06934256
25	0x3cc07284	0.023492105
26	0xbe4a144c	-0.19734305
27	0xbcc5ab7e	-0.024129625
28	0xbb80125e	-0.0039084395
29	0xbe1c612a	-0.1527144
30	0x3cf1da78	0.02952312
31	0x3d01b6cb	0.031668466
32	0x3da6fce2	0.08153702
33	0x3c222b30	0.009897992
34	0x3d134df3	0.03596301
35	0x3d372b88	0.04471925
36	0xbcaf4ca1	-0.021398844
37	0x3cb632ce	0.022241022
38	0x3d66dd96	0.056363665
39	0x3c1867de	0.009302108
40	0xbcda7567	-0.02666731
41	0x3dd37904	0.10325816
42	0x3cd8a1de	0.026444372
43	0x3cafcb60	0.021459281
44	0xbcbe5671	-0.023234578
45	0xbce9e028	-0.028549269
46	0xbc7f5339	-0.015583807
47	0x3d9885d5	0.074474014
48	0x3cdf0120	0.027222216
49	0x3e453014	0.19256622
50	0xbdfcdecb	-0.12347182
51	0xbbc6dda4	-0.006068902
52	0xbd1bbfd5	-0.038024742
53	0xbe0f78f9	-0.14010991
54	0xbc691bca	-0.014227817
55	0xbd974092	-0.07385363
56	0xbe04551d	-0.12923093
57	0xbde604e2	-0.112314
58	0xbd139fd3	-0.036041092
59	0x3c0adde1	0.008475752
60	0x3d6720b6	0.05642768
61	0x3d212f59	0.039351795
62	0xbcea8c65	-0.028631398
63	0xbd35d04b	-0.044388097
64	0xbc279e32	-0.010230588
65	0x3d57fbae	0.052730255
66	0x3ddb5cc0	0.1071105
67	0xbc62ae8d	-0.013835561
68	0x3b3602c4	0.0027772645
69	0x3b1ce675	0.0023941074
70	0x3cd47bab	0.025937876
71	0x3d8c5275	0.06851665
72	0xbd294fd1	-0.041335884
73	0x3dbcdead	0.092221595
74	0xbdc7fb17	-0.097646885
75	0xbb926924	-0.0044681
76	0xbbc5e4d8	-0.006039243
77	0x3dfa124a	0.122105196
78	0x3cb8b19f	0.022545634
79	0x3d99a1ac	0.075015396
80	0xbd933bd2	-0.07189144
81	0x3dfeef26	0.12447958
82	0x3ca3ed5c	0.020010643
83	0xbb00c353	-0.0019647672
84	0x3b6254f2	0.0034535495
85	0xbd388b3e	-0.045054667
86	0x3d55ec09	0.052227054
87	0x3d5523da	0.052036144
88	0x3a857502	0.0010181966
89	0x3c3bcade	0.0114619415
90	0xbd310b0d	-0.04322343
91	0xbd043bb6	-0.032283507
92	0x3c8387a7	0.016055895
93	0x3c22ca91	0.009935991
94	0x3d3b92c7	0.045794275
95	0xbc238303	-0.009979966
96	0x3dcd96dd	0.100385405
97	0x3e259cf9	0.16173162
98	0xbc0b6051	-0.00850685
99	0xbc36bd69	-0.011153557
100	0xbcb59577	-0.022165997
101	0x3d34e863	0.044166934
102	0x3c956a4d	0.018239165
103	0xbd8a402a	-0.067505196
104	0xbca557f1	-0.020183535
105	0xbd9a1aa9	-0.07524616
106	0xbe1a611a	-0.15076104
107	0xbc083a37	-0.008314661
108	0xba8b21d2	-0.0010614938
109	0xbdab2192	-0.083560124
110	0xbad49f0c	-0.0016221716
111	0x3d1769f2	0.03696627
112	0x3bed6af1	0.0072454144
113	0x3d09c9c6	0.03363969
114	0x3cf5b6d2	0.029994402
115	0xbc1bba64	-0.009504888
116	0x3d106625	0.035253663
117	0x3d86641e	0.065620646
118	0x3c87897e	0.016545054
119	0x3d3915c5	0.045186777
120	0x3ba6e0f9	0.005092737
121	0x3e1a5c17	0.15074192
122	0x3d073673	0.03301091
123	0xbb3b7f7c	-0.0028609922
124	0xbd425357	-0.04744276
125	0xbcd2b9a2	-0.025723282
126	0xb9462609	-0.0001889692
127	0xbc854fd2	-0.016273413
128	0x3d9cac7f	0.076500885
129	0xbe772876	-0.24136528
130	0x3e29b2cc	0.16572112
131	0x3b80a659	0.00392608
132	0xbd461294	-0.04835756
133	0xbc67016b	-0.014099459
134	0x3c50c9f2	0.01274346
135	0xbd6faa6c	-0.058512136
136	0xbcb33d0a	-0.021879692
137	0xbd93a13a	-0.07208486
138	0x3dc55f45	0.09637312
139	0xbb95eae1	-0.004575119
140	0xbc24f65a	-0.0100685
141	0xbaf33b47	-0.0018557095
142	0x3a3a72dd	0.0007112453
143	0x3d6532b0	0.055956542
144	0x3cf8c830	0.030368894
145	0xbda240a2	-0.07922484
146	0xbb972825	-0.00461294
147	0x3c897b9e	0.016782578
148	0x3d1795a7	0.037007954
149	0xbb2c3247	-0.0026275085
150	0xbc75e3b8	-0.015007906
151	0xbca36800	-0.019947052
152	0x3c8acc41	0.016943099
153	0x3db968f5	0.09053222
154	0x3d0186bc	0.031622633
155	0xbb5d40ae	-0.0033760476
156	0xbcd638e6	-0.026150178
157	0xbdbda883	-0.09260657
158	0x3d3392e9	0.043841276
159	0x3d642d2d	0.055707145
160	0x3d86ae98	0.0657627
161	0xbb84bbb0	-0.0040506944
162	0xbd419f5e	-0.047271125
163	0x3a17fcc2	0.0005797857
164	0xbc02ccae	-0.00798337
165	0xbb08f164	-0.0020895833
166	0xbc9f5c61	-0.01945323
167	0xbd2e4988	-0.042550594
168	0x3d0ecedb	0.03486524
169	0x3da5b7ff	0.08091735
170	0x3ca23938	0.019802675
171	0xbc842594	-0.0161312
172	0x3b979179	0.004625496
173	0x3e37e9ef	0.17960332
174	0xbcdf5f4f	-0.027267126
175	0x3ba918cb	0.0051604263
176	0xbdc3f62f	-0.0956844
177	0xbdb804da	-0.089853
178	0x3e777f06	0.2416955
179	0xbc86d83f	-0.016460536
180	0x3c7f6529	0.015588083
181	0x3ea6014c	0.32422864
182	0x3d9f049e	0.077645525
183	0x3d510b68	0.05103627
184	0x3dcb932d	0.09940181
185	0x3e25a433	0.16175918
186	0x3d3778b5	0.04479285
187	0xbc21c851	-0.009874419
188	0x3bac1e67	0.0052526477
189	0x3cdba270	0.026810855
190	0x3c363f2e	0.011123462
191	0xbd6c8bc9	-0.057750497
192	0x3c3e9085	0.011631136
193	0xbe6332ab	-0.22187297
194	0xbbbb5e8e	-0.005718059
195	0x3b74c2a3	0.0037347458
196	0xbc8c3ea0	-0.017119706
197	0xbaa70b34	-0.0012744428
198	0x3c07ef11	0.008296744
199	0xbc87e4a5	-0.016588518
200	0x3d8bffd4	0.06835905
201	0xbe2b52a3	-0.16730742
202	0x3e149a40	0.14511967
203	0xbb9582e4	-0.0045627225
204	0x3aa210fb	0.001236468
205	0xbe1fb4fa	-0.15596381
206	0xbcf71a32	-0.030163858
207	0xbd59d2b9	-0.053179476
208	0xbcc735e8	-0.024317697
209	0x3d4245eb	0.04742996
210	0x3e25b424	0.16182
211	0xbc7e3043	-0.015514436
212	0xbca46c53	-0.020071184
213	0x3df5e889	0.12007243
214	0xbd21931b	-0.03944693
215	0xbe194b37	-0.14970098
216	0xbde40370	-0.11133468
217	0xbda87e32	-0.08227195
218	0x3e50394e	0.2033436
219	0x3b4895f2	0.0030606952
220	0xbd48a4f1	-0.048985425
221	0x3e9076c1	0.28215602
222	0x3d1e053f	0.03857922
223	0x3d8f6eba	0.07003541
224	0xbd77b2fe	-0.060473435
225	0xbe18b49a	-0.14912644
226	0x3d382faf	0.04496735
227	0x3a9135c0	0.0011078641
228	0xbca3790c	-0.01995518
229	0xb8ac3422	-8.2113096e-05
230	0xbc5dda4a	-0.013540814
231	0xbb48b7fd	-0.0030627244
232	0xbdea7050	-0.11447203
233	0xbe1561e5	-0.14588125
234	0x3c966b54	0.018361725
235	0xbc17d5c3	-0.009267273
236	0xbcccdcf2	-0.025007699
237	0xbc67d49f	-0.014149814
238	0xbdb69d18	-0.08916682
239	0xbbe3e0ba	-0.0069542797
240	0xbd5a3b68	-0.05327931
241	0x3d766003	0.060150158
242	0x3e08330b	0.13300721
243	0x3baf54cb	0.0053506843
244	0xbb41e4c7	-0.0029585825
245	0x3d9b40be	0.07580708
246	0xbca00a19	-0.019536065
247	0x3cf38961	0.029728593
248	0x3cc66256	0.024216812
249	0xbdd68652	-0.10474838
250	0xbc385705	-0.011251216
251	0x3bc33b64	0.0059580076
252	0x3c36a3e1	0.01114747
253	0x3d94aded	0.07259736
254	0x3cd39c3d	0.025831336
255	0xbd28aa32	-0.041177936

backbone.conv1.weight f4 [32, 64, 3, 3]
0	0x3c8e4346	0.017366063
1	0x3b8a452a	0.004219671
2	0x3dd158c2	0.10222007
3	0xbe09ee5b	-0.13469832
4	0xbcf1f77a	-0.029536951
5	0x3d43d124	0.047806874
6	0xbd35f238	-0.04442045
7	0xbd54a735	-0.051917274
8	0x3cc74497	0.024324698
9	0x3d1813af	0.037128147
10	0x3d8a22b0	0.06744897
11	0x3df5f77b	0.12010094
12	0x3d23cb6d	0.039988924
13	0x3c54bcb3	0.0129844425
14	0x3d0f2fff	0.034957882
15	0x3dbf2645	0.09333471
16	0x3dd5d477	0.10440915
17	0x3dcfb5bd	0.10142086
18	0x3d0537ab	0.032523792
19	0x3c05d6df	0.008168905
20	0x3d916e5d	0.07101128
21	0xbdb6cf5f	-0.08926272
22	0x3a73856b	0.0009289595
23	0x3db9d864	0.09074476
24	0xbcaf48c5	-0.021397004
25	0xbcb3c645	-0.021945128
26	0x3d646a3c	0.055765375
27	0xbdde0568	-0.10840875
28	0xbe55be7f	-0.2087345
29	0xbe1160be	-0.1419706
30	0x3d52c760	0.05145967
31	0xbb20138e	-0.0024425718
32	0x3c55a350	0.013039425
33	0x3d2ad76e	0.041709356
34	0x3d4e4044	0.050354257
35	0x3c7b528f	0.015339508
36	0xbd29c5a4	-0.04144825
37	0xbd00ec3c	-0.03147529
38	0x3d8ab63d	0.067730404
39	0xbd91118d	-0.07083426
40	0xbd8681ad	-0.065677024
41	0x3d7e07db	0.06201921
42	0x3daf3152	0.08554329
43	0x3e8bcb31	0.2730346
44	0x3e716b57	0.23576103
45	0x3dc1c5d1	0.094615586
46	0x3dea405c	0.11438057
47	0x3dec5fc2	0.11541702
48	0x3c80342f	0.015649883
49	0x3dba2dac	0.090907425
50	0xbcee9c44	-0.029127248
51	0x3c926270	0.017869204
52	0xbd3954c4	-0.045246854
53	0xbcec1406	-0.028818142
54	0xbba8f1d3	-0.005155781
55	0xbc66c338	-0.01408463
56	0xbc184905	-0.009294753
57	0xbe00da2d	-0.12583227
58	0xbdb5a4fd	-0.0886936
59	0xbe2d4752	-0.16921738
60	0xbda00ffe	-0.0781555
61	0xbd42659e	-0.04746019
62	0xbd59060a	-0.052984275
63	0x3cffa790	0.03120783
64	0x3db12816	0.08650224
65	0x3dd5531a	0.10416241
66	0x3d841175	0.06448642
67	0x3da99773	0.0828084
68	0x3d2e6ef8	0.042586297
69	0x3c5715c4	0.013127748
70	0x3d5eed96	0.0544258
71	0x3dc50c17	0.096214466
72	0xbd10c228	-0.03534141
73	0x3ce115d7	0.027476234
74	0x3d8c143a	0.068397954
75	0xbca46820	-0.020069182
76	0xbc90f466	-0.017694663
77	0x3d254948	0.04035309
78	0xbdbd3424	-0.09238461
79	0xbb9a6e42	-0.004712851
80	0xbcddedf2	-0.027091
81	0x3d908e4b	0.0705839
82	0xbbaa1203	-0.0051901354
83	0x3d6c2800	0.057655334
84	0xbd85451a	-0.06507321
85	0xbcd22633	-0.02565298
86	0xbc441b7e	-0.011969445
87	0xbdbbd476	-0.09171383
88	0xbd8af780	-0.06785488
89	0xbc9067c2	-0.0176276
90	0x3d83543a	0.06412549
91	0x3d089706	0.033347152
92	0xbca6d1c5	-0.020363698
93	0x3ddf7fe6	0.109130666
94	0x3e03f82d	0.1288764
95	0xbcb4840e	-0.022035625
96	0x3cecff83	0.028930431
97	0x3d08f63e	0.03343796
98	0x3cbea470	0.02327177
99	0xbd902992	-0.07039179
100	0xbd5cd7fb	-0.053916913
101	0xbda88733	-0.08228912
102	0xbccd9bd3	-0.025098717
103	0xbd978efb	-0.07400318
104	0x3be30946	0.0069285957
105	0x3d8ed31c	0.0697386
106	0x3dd83a0a	0.10557945
107	0x3da13418	0.07871264
108	0xbce7c938	-0.02829419
109	0xbd8b349f	-0.06797146
110	0x3db779fd	0.08958814
111	0xbdd95e15	-0.10613648
112	0xbc324909	-0.010881671
113	0x3d8d8aa8	0.06911212
114	0x3bc0f6c5	0.005888792
115	0x3cd11ef0	0.025527447
116	0x3d01e40c	0.031711623
117	0xbdcf4181	-0.10119916
118	0xbe280c3f	-0.16410922
119	0xbdc17f84	-0.0944815
120	0xbd838150	-0.06421149
121	0xbd16685c	-0.03672062
122	0xbb0322c4	-0.0020009736
123	0xbd8842db	-0.06653377
124	0xbc4cae47	-0.012492723
125	0x3c9848d4	0.018589415
126	0xbd936342	-0.07196666
127	0xbde8d7c8	-0.11369282
128	0xbd60d147	-0.054887082
129	0x3bdd0ca9	0.006745894
130	0xbca47068	-0.02007313
131	0x3c722014	0.014778156
132	0x3dbd8515	0.09253899
133	0x3db4409d	0.088013865
134	0x3b8f692f	0.0043765525
135	0xbd6057de	-0.054771297
136	0xbdf1a03f	-0.11798143
137	0xbcdf3753	-0.02724806
138	0x3c30d2b1	0.01079242
139	0x3cbd61ea	0.023117978
140	0xbc19528e	-0.0093580615
141	0x3dfcc691	0.12342561
142	0x3d822059	0.06353826
143	0x3d235752	0.039878197
144	0xbcb8c32f	-0.022554008
145	0xbacd5967	-0.0015666903
146	0x3d9246ad	0.071423866
147	0xbd0106fe	-0.03150081
148	0xbd519120	-0.051163793
149	0x3d3b1b85	0.04568054
150	0x3e0d0802	0.13772586
151	0x3e37cdbe	0.17949578
152	0x3de349ed	0.110980846
153	0x3db014fb	0.08597752
154	0x3cdba70d	0.026813054
155	0xbd35f7ab	-0.044425648
156	0x3da03209	0.078220434
157	0x3d8a18ca	0.067430094
158	0xbd98ce46	-0.074612185
159	0xbc4161c2	-0.011803092
160	0x3ad553e0	0.0016275607
161	0xbd5ba161	-0.0536207
162	0xbd50e45f	-0.05099904
163	0xbdc0ed96	-0.09420316
164	0xbc63d6e3	-0.013906213
165	0x3dc933cb	0.09824332
166	0x3d4cc777	0.049994912
167	0x3da59467	0.08084946
168	0x3e04a6ab	0.12954204
169	0x3de52535	0.11188737
170	0x3df3b84a	0.11900385
171	0xbd361bf4	-0.044460252
172	0xbd6953de	-0.056964748
173	0xbcdb99f3	-0.026806807
174	0xbcf8c2e6	-0.030366372
175	0x3bf0fe10	0.0073545054
176	0xbd30a9f3	-0.043130826
177	0x39179cc3	0.0001445888
178	0x3d58e2cc	0.052950665
179	0x3d7508ab	0.05982272
180	0x3ca8e228	0.020615652
181	0x3d898919	0.067156024
182	0x3e0a2d80	0.1349392
183	0xbde30cbf	-0.110864155
184	0x3c9ff6d2	0.019526873
185	0x3da5c1b5	0.08093587
186	0xbe0ba7cb	-0.13638227
187	0xbe5ee36e	-0.21766445
188	0xbdc1de44	-0.09466222
189	0xb7dc92ff	-2.6294494e-05
190	0xbdf36233	-0.118839644
191	0xbb7373d4	-0.0037147896
192	0x3d2833ca	0.041065015
193	0x3d00ce65	0.031446833
194	0x3d815cee	0.06316553
195	0x3d0e08bd	0.034676302
196	0x3c9da410	0.01924327
197	0x3d294ca3	0.041332852
198	0xbd357659	-0.04430232
199	0xbdbfb895	-0.09361378
200	0xbc732d05	-0.014842276
201	0xbdad5a06	-0.08464436
202	0xbcd79450	-0.026315838
203	0x3c2bc5a3	0.010484132
204	0x3cc86626	0.02446277
205	0x3d845b73	0.06462755
206	0x3d2963b6	0.041354857
207	0xbd7ea8cf	-0.062172707
208	0xbc2c443a	-0.010514313
209	0x3db27e93	0.08715548
210	0xbd3b1fd2	-0.045684643
211	0xbdd5a8e9	-0.10432608
212	0x3d9da24a	0.0769697
213	0x3d93633f	0.07196664
214	0x3e2fe910	0.1717875
215	0x3e34beb1	0.17650868
216	0xbddcce92	-0.10781588
217	0xbd9e1999	-0.07719726
218	0x3cb6df06	0.022323143
219	0xbe0b8303	-0.13624196
220	0xbd5e7402	-0.054309852
221	0x3d84460a	0.064586714
222	0xbddc44ba	-0.10755296
223	0xbd3f1ddf	-0.046659347
224	0x3c9d0742	0.0191685
225	0x3d7692e0	0.060198665
226	0x3d2c2ea2	0.04203666
227	0xbcc321b4	-0.023819782
228	0x3d939735	0.07206575
229	0x3da7731d	0.08176253
230	0xbd116398	-0.03549537
231	0x3d729c96	0.059231363
232	0x3cdad45b	0.026712587
233	0xbcc2af2d	-0.023765171
234	0x3d7895b4	0.060689643
235	0x3dd4bc3c	0.10387465
236	0x3d3d0108	0.04614356
237	0x3daa137a	0.08304496
238	0x3db4dc65	0.088310994
239	0xbc80dd73	-0.015730595
240	0xbd7da798	-0.061927408
241	0xbe11d3c2	-0.14240935
242	0xbe4197c5	-0.18905552
243	0xbdabd8ae	-0.08390938
244	0xbdeab3ef	-0.11460101
245	0xbd833f6d	-0.06408582
246	0xbe0cdde4	-0.1375652
247	0xbe43f477	-0.19136225
248	0xbcc787b5	-0.024356702
249	0x3b1bbed9	0.0023764877
250	0x3d30e402	0.043186195
251	0x3d6499eb	0.05581085
252	0x3d94d073	0.07266321
253	0x3dcf5e7e	0.10125445
254	0x3c47063d	0.012147483
255	0x3d42c271	0.047548715

backbone.bn1.weight f4 [32]
0	0x3f8685b6	1.0509555
1	0x3f6b66c5	0.9195369
2	0x3f866dbf	1.0502242
3	0x3fa5bda0	1.2948494
4	0x3f830586	1.0236061
5	0x3f8b7aa6	1.0896804
6	0x3f7cfe2f	0.98825353
7	0x3f80e488	1.0069742
8	0x3f8347bf	1.025627
9	0x3f75dd80	0.9604111
10	0x3f58a041	0.8461953
11	0x3f8105ee	1.0079935
12	0x3f8580c9	1.0429927
13	0x3f7da9bf	0.99087137
14	0x3f4b4934	0.79408574
15	0x3f824850	1.0178318
16	0x3f7ddeb8	0.99167967
17	0x3f92a632	1.1456969
18	0x3f9c3bd2	1.2205756
19	0x3f8a7b00	1.0818787
20	0x3f604abb	0.8761403
21	0x3f774416	0.96588266
22	0x3f636e24	0.88839936
23	0x3f91ee0d	1.1400772
24	0x3f3d29db	0.7389199
25	0x3f797bb3	0.97454375
26	0x3f675e2d	0.90378076
27	0x3f5285d2	0.82235444
28	0x3f85dbd4	1.0457711
29	0x3f8295df	1.0201987
30	0x3f6b4492	0.91901505
31	0x3f81b9ce	1.0134828

backbone.bn1.bias f4 [32]
0	0xbdbf33cb	-0.093360506
1	0xbda3561f	-0.07975411
2	0x3e3ca4dd	0.18422265
3	0x3e8f2bb0	0.27963018
4	0xbd36e778	-0.04465434
5	0x3df33397	0.11875074
6	0xbd8c57c5	-0.06852678
7	0xbdc663d7	-0.09687012
8	0x3dc59728	0.096479714
9	0xbd97c9da	-0.07411547
10	0xbdeb94a0	-0.11502957
11	0xbdb2d87e	-0.08732699
12	0xbd14bf63	-0.036315333
13	0xbe2b5b8e	-0.16734144
14	0xbe326b21	-0.17423679
15	0xbb377f1e	-0.0027999352
16	0xbcd75042	-0.026283387
17	0x3e805568	0.2506516
18	0x3e0f47bc	0.13992208
19	0x3db2bc22	0.0872729
20	0xbe2410f5	-0.16022094
21	0xbda89a6f	-0.08232581
22	0xbe79daa9	-0.24399818
23	0x3df7c30c	0.12097749
24	0xbea66dd0	-0.32505655
25	0x3e0ebf8c	0.13940257
26	0x3dec150c	0.11527452
27	0xbe70386b	-0.23459022
28	0x3e4103cc	0.18849105
29	0xbda3215e	-0.07965349
30	0xbc56ad83	-0.013102892
31	0x3e6d7ac8	0.23191369

backbone.bn1.running_mean f4 [32]
0	0x40737186	3.803804
1	0xc0ce7dd0	-6.452858
2	0xc11f73bd	-9.965756
3	0xc186793e	-16.8092
4	0x3ff15950	1.8855381
5	0xc1145375	-9.270375
6	0x40665ad1	3.599293
7	0x40d11ae6	6.5345335
8	0xc16712b0	-14.442062
9	0x408f6c55	4.481974
10	0xbafb321d	-0.0019164715
11	0x411a97d8	9.662071
12	0xbf971825	-1.1804243
13	0x4100eafb	8.057368
14	0x4081901f	4.048843
15	0x3feb978a	1.8405621
16	0x3e20b7f1	0.15695168
17	0xc1611677	-14.067985
18	0xc0ab7bf4	-5.358881
19	0xc1184f40	-9.519348
20	0xc0038fa6	-2.0556426
21	0xc05f5081	-3.4892886
22	0x40f8f9c0	7.780487
23	0xc125953e	-10.348936
24	0x41505b33	13.022265
25	0xc14bf162	-12.746431
26	0x401551fe	2.3331294
27	0x406b8fd2	3.680653
28	0xc10c2ba4	-8.760654
29	0x405aef06	3.4208388
30	0xc09d8c75	-4.9233956
31	0xc1286428	-10.524452

backbone.bn1.running_var f4 [32]
0	0x4364b01e	228.68796
1	0x440663b3	537.5578
2	0x4401e2cc	519.5437
3	0x4416d864	603.3811
4	0x431cea61	156.91554
5	0x43a1ec87	323.84787
6	0x43443f2b	196.24675
7	0x437ba39f	251.63914
8	0x441b9d66	622.45935
9	0x432b8944	171.5362
10	0x42daa7a4	109.32742
11	0x43a094bc	321.162
12	0x42dbd285	109.91117
13	0x43699e9b	233.61955
14	0x435247d7	210.28062
15	0x42f76fc5	123.7183
16	0x43889c15	273.2194
17	0x4439bea7	742.97894
18	0x4342ccee	194.8005
19	0x43b7a6c7	367.30295
20	0x437b0a88	251.04114
21	0x438e7c8f	284.9731
22	0x43c76917	398.821
23	0x43b8a150	369.26025
24	0x43f7f1e5	495.8898
25	0x43e0a20e	449.26605
26	0x42fe68d6	127.20476
27	0x4382cccf	261.60007
28	0x43e44cfe	456.6015
29	0x43660481	230.0176
30	0x43857359	266.90115
31	0x439eacf7	317.3513

backbone.conv2.weight f4 [64, 32, 3, 3]
0	0xbca8b990	-0.020596296
1	0x3c09a94d	0.008402181
2	0xbcfeb503	-0.031092172
3	0xbdc216bf	-0.09476995
4	0x3dce691d	0.100786425
5	0x3de39718	0.11112803
6	0xbd1f79ca	-0.038934506
7	0x3e1c3a44	0.15256602
8	0xbad3a14e	-0.0016146095
9	0xbe026476	-0.12733635
10	0xbd381006	-0.044937156
11	0x3bd72884	0.006566109
12	0xbd7f6581	-0.06235266
13	0xbb1aa96a	-0.0023599514
14	0x3dc9b9f5	0.098499216
15	0xbdae3d59	-0.08507795
16	0x3d8d3628	0.06895095
17	0x3e37a98a	0.17935768
18	0x3c622917	0.013803742
19	0xbdf9d8a3	-0.12199523
20	0xbd5f5e76	-0.054533444
21	0xbd8d6768	-0.06904489
22	0xbdab9ef5	-0.08379928
23	0x3d0ce0b7	0.034393992
24	0x3ca8eed6	0.020621698
25	0x3e48e775	0.19619544
26	0x3dc37f1e	0.0954573
27	0x3d40d177	0.04707476
28	0xbdd63bac	-0.104606
29	0xbd108da2	-0.03529132
30	0x3d43253b	0.047642928
31	0x3d808398	0.062750995
32	0xbc316a35	-0.010828544
33	0x3d6ad504	0.057332054
34	0x3dd625ac	0.10456404
35	0xbb96176d	-0.0045804293
36	0x3e2264ae	0.15858719
37	0x3d6ca009	0.05776981
38	0xbc44070d	-0.011964572
39	0x3cdc5d4c	0.026899956
40	0xbcc6179f	-0.024181185
41	0x3c71864d	0.014741492
42	0xbcaf608b	-0.02140834
43	0xbc03d4d4	-0.008046348
44	0xbda9de3d	-0.08294342
45	0x3dfb077a	0.122572854
46	0xbd7646b9	-0.06012604
47	0x3d6cd7a6	0.057822846
48	0x3d9be628	0.07612258
49	0xbd97221c	-0.07379553
50	0xbd4a78d9	-0.049431656
51	0xbd63d5f6	-0.05562397
52	0xbd345d7c	-0.044034466
53	0xbdcb9b99	-0.09941787
54	0xbc98062b	-0.018557629
55	0x3c20a723	0.0098054735
56	0xbc62b6d4	-0.013837535
57	0xbce937ce	-0.028468993
58	0x3d995d7d	0.074885346
59	0x3e20b940	0.15695667
60	0xbccdf5f3	-0.025141692
61	0xbcb6e3e1	-0.022325458
62	0x3c83a4f7	0.016069872
63	0x3d069a00	0.03286171
64	0x3e0c26b4	0.13686639
65	0x3dcb68f2	0.09932126
66	0xbdf87e23	-0.12133434
67	0xbd1d7b2d	-0.038447548
68	0xbd91cf23	-0.07119586
69	0xbd98dc5b	-0.074639045
70	0x3d4fafc9	0.05070475
71	0xbdf9c5f6	-0.12195961
72	0x3da5dc41	0.08098651
73	0x3cbd698a	0.023121614
74	0xbac957af	-0.0015361215
75	0xbd0e2b89	-0.034709487
76	0xbdb53296	-0.08847539
77	0xbda691e7	-0.081332974
78	0xbd153227	-0.036424782
79	0xbc35c992	-0.011095421
80	0xbd3b315b	-0.045701366
81	0x3d60cf4a	0.054885186
82	0x3d0fa47a	0.035068966
83	0xbd523351	-0.05131847
84	0xbd405ca3	-0.046963345
85	0x3dcc7b47	0.09984451
86	0xbcbf2df0	-0.023337334
87	0xbda18a07	-0.07887655
88	0x3d6728a5	0.056435246
89	0xbd197385	-0.037463684
90	0xbdc7e0bb	-0.09759661
91	0xbe1e2922	-0.15445378
92	0xbdd6dcb0	-0.104913116
93	0xbe5187c9	-0.20461954
94	0xbe273e02	-0.16332248
95	0xbd2414dc	-0.040058956
96	0xbe047f18	-0.12939107
97	0x3e7dd7cb	0.2478935
98	0x3d18b1cf	0.037278946
99	0x3a8afae1	0.0010603332
100	0xbdf41645	-0.1191831
101	0xbdc4d9b7	-0.09611838
102	0xbcb5e6cf	-0.022204785
103	0xbdb4f3e0	-0.08835578
104	0x3d777345	0.060412664
105	0x3c0c9ad3	0.008581835
106	0x3b5aec7e	0.003340512
107	0x3e17d221	0.14826252
108	0x3d80f491	0.06296647
109	0x3d9eab1b	0.077474795
110	0xbcf0f2f2	-0.02941272
111	0x3dbb728b	0.09152707
112	0x3e125059	0.14288463
113	0x3d8d3576	0.068949625
114	0x3d9a913d	0.07547233
115	0x3e1c7c82	0.15281871
116	0x3d964eea	0.073392704
117	0x3d634e15	0.055494387
118	0xbd4e3509	-0.050343547
119	0xbd21b2e0	-0.03947723
120	0x3b09d3e1	0.002103083
121	0xbc87c8a5	-0.016575167
122	0xbdef830f	-0.11694919
123	0x3d0733c2	0.033008344
124	0x3e7cbf4c	0.24682349
125	0x3c9925d3	0.018694794
126	0x3d2c1dd1	0.042020623
127	0xbb773f03	-0.0037726767
128	0xbb81634e	-0.0039486056
129	0x3d2dd803	0.042442333
130	0x3d0e32fa	0.034716584
131	0x3cda4509	0.026644247
132	0xbccd216e	-0.025040355
133	0xbd07d3a1	-0.03316081
134	0x3d39e493	0.045384
135	0xb9b5788d	-0.00034612828
136	0x3d75d18e	0.0600143
137	0x3d56735c	0.05235611
138	0xbd9d9020	-0.07693505
139	0x3d08070d	0.03320985
140	0xbd033dcc	-0.032041356
141	0x3c4c1744	0.012456719
142	0xbdb08925	-0.08619908
143	0xbcacf56b	-0.021113118
144	0x3e4bc27a	0.19898406
145	0x3d8a096e	0.0674008
146	0xbcb71e48	-0.022353306
147	0xbd005221	-0.031328324
148	0xbca362cf	-0.019944577
149	0xbde65c6a	-0.11248095
150	0xbe3dabf6	-0.18522629
151	0xbdc3810a	-0.095460966
152	0xbd8ac441	-0.06775714
153	0xbd957322	-0.072973505
154	0xbe159b27	-0.14609967
155	0xbdd45bd9	-0.10369081
156	0xbdda2dbd	-0.10653255
157	0xbbe14934	-0.0068751816
158	0xbd496bb4	-0.04917498
159	0x3d7ae0b2	0.061249442
160	0x3e0c5efa	0.13708106
161	0x3e13af35	0.14422305
162	0xbd19270c	-0.037390754
163	0xbe228efe	-0.1587486
164	0xbd9395a3	-0.07206275
165	0xbd9b196e	-0.0757321
166	0xbde5ff8a	-0.11230381
167	0xbe193eba	-0.14965335
168	0x3df91a4e	0.1216322
169	0x3ca65bc2	0.020307425
170	0x3d8fdc71	0.07024468
171	0x3d817195	0.06320492
172	0xbc8913c1	-0.016733052
173	0x3dee1f93	0.11627116
174	0xbd407a77	-0.04699179
175	0x3c4a6ce5	0.012355064
176	0x3d0ee959	0.034890506
177	0x3d562976	0.052285634
178	0x3cea51b2	0.028603408
179	0xbcf7cf7a	-0.0302503
180	0x3c0a0887	0.008424885
181	0x3c6e82a8	0.014557518
182	0xbd9748e3	-0.07386949
183	0x3bf96f11	0.007612117
184	0x3e604fdd	0.21905465
185	0x3db8ebe4	0.090293676
186	0x3d1c89fb	0.038217526
187	0x3ddfbc38	0.10924572
188	0x3e1b22ef	0.15150045
189	0x3c2a3ef0	0.010390982
190	0xbb928a1e	-0.0044720313
191	0xbcf6a81d	-0.03010946
192	0xbe2510bf	-0.1611967
193	0xbdb8e7b1	-0.09028567
194	0xbde74b5f	-0.11293673
195	0xbdad9225	-0.084751405
196	0x3d019c32	0.0316431
197	0xbe35599d	-0.17709966
198	0xbc945a6c	-0.018109523
199	0xbd1b35bc	-0.037893042
200	0xbdc2804f	-0.09497129
201	0x3d705ccc	0.058682248
202	0x3d99fba5	0.075187005
203	0xbdd0387d	-0.10167024
204	0x3dbc974d	0.09208546
205	0x3e017d55	0.12645467
206	0x3d24bdb5	0.04021998
207	0xbdb9a913	-0.090654515
208	0xbdf355b7	-0.11881583
209	0xbd7d0007	-0.061767604
210	0xbe0d54f5	-0.1380194
211	0xbe6eb87e	-0.23312566
212	0xbe0de8ee	-0.13858387
213	0xbd4b6e1d	-0.04966556
214	0x3e0109d3	0.12601404
215	0xbbd6e2c5	-0.0065577948
216	0x3d0f28b2	0.03495092
217	0xbdc9849d	-0.09839747
218	0x3c7775dc	0.015103783
219	0xbd6b5dfe	-0.057462685
220	0x3c1fb6a9	0.009748139
221	0x3d15cfb8	0.03657505
222	0x3c879238	0.016549215
223	0x3e3dd6c2	0.18538955
224	0x3dfb0f88	0.12258822
225	0x3e347a1d	0.17624708
226	0x3d67bfd1	0.056579415
227	0x3b9a355c	0.004706068
228	0x3dcaffa0	0.09912038
229	0x3b20e0da	0.0024548084
230	0x3d83a77e	0.06428431
231	0xbd601f41	-0.054717306
232	0xbbfd7aa6	-0.007735568
233	0xbdb56285	-0.08856682
234	0xbe0a3dc5	-0.13500126
235	0xbe1a064e	-0.15041468
236	0xbd37f181	-0.04490805
237	0xbd82b456	-0.063820526
238	0xbd8be9ec	-0.068317264
239	0xbb9316e8	-0.0044888146
240	0xbcd5ca88	-0.026097551
241	0x3db7deab	0.089780174
242	0x3d95f464	0.073220044
243	0xbdb262b8	-0.08710235
244	0xbc9fab04	-0.019490726
245	0x3d92c68d	0.07166777
246	0xbd810fdf	-0.06301855
247	0x3b583186	0.0032988503
248	0xbc08e051	-0.008354262
249	0x3d25c0c8	0.040467054
250	0x3e8cda85	0.27510467
251	0x3e18547c	0.14875978
252	0x3bd354b2	0.0064493055
253	0xbd9ccebb	-0.07656618
254	0x3cc718f0	0.024303883
255	0x3d20ae5c	0.039228782

backbone.bn2.weight f4 [64]
0	0x3f818866	1.011975
1	0x3f73ba3f	0.95206064
2	0x3f88b8f0	1.0681438
3	0x3f79ae1a	0.9753128
4	0x3f791040	0.9729042
5	0x3f729e6e	0.94772995
6	0x3f88fdad	1.0702416
7	0x3f859137	1.0434941
8	0x3f7000a8	0.93751
9	0x3f8a48f2	1.0803511
10	0x3f73dd40	0.95259476
11	0x3f7597e3	0.95934886
12	0x3f7034e3	0.938307
13	0x3f859fb6	1.0439365
14	0x3f7a95be	0.9788474
15	0x3f816801	1.0109864
16	0x3f83af0d	1.0287796
17	0x3f8e3618	1.1110258
18	0x3f7d0e52	0.98849976
19	0x3f886ad3	1.06576
20	0x3f8354b8	1.0260229
21	0x3f88b184	1.0679173
22	0x3f5cc6d5	0.86240894
23	0x3f3d215f	0.73879045
24	0x3f904f63	1.1274227
25	0x3f7a80bd	0.9785269
26	0x3f69d2f9	0.91337544
27	0x3f7b2e54	0.98117566
28	0x3f897f95	1.074206
29	0x3f697bb1	0.91204363
30	0x3f75bcd8	0.9599128
31	0x3f5d522f	0.8645353
32	0x3f6221ae	0.8833264
33	0x3f704a0c	0.93862987
34	0x3f85d5fe	1.045593
35	0x3f7b528a	0.9817282
36	0x3f8569d3	1.042292
37	0x3f757952	0.95888245
38	0x3f7bcadc	0.98356414
39	0x3f6ef3ac	0.93340564
40	0x3f75da2c	0.9603603
41	0x3f70100a	0.93774474
42	0x3f81de18	1.0145903
43	0x3f784756	0.9698385
44	0x3f9aff21	1.2109109
45	0x3f775ec4	0.96628976
46	0x3f75e2e3	0.96049327
47	0x3f54cc54	0.8312428
48	0x3f7b7e95	0.98240024
49	0x3f801608	1.0006723
50	0x3f6c4b1a	0.92302096
51	0x3f8ee38e	1.1163194
52	0x3f849520	1.0358009
53	0x3f6405a1	0.8907109
54	0x3f7573b1	0.95879656
55	0x3f7af19f	0.98024935
56	0x3f88e5b6	1.0695102
57	0x3f8b2c56	1.0872905
58	0x3f71bd7f	0.94429773
59	0x3f7ed194	0.9953854
60	0x3f87738c	1.0582137
61	0x3f67a718	0.9048934
62	0x3f69af54	0.91283154
63	0x3f8ff220	1.1245766

backbone.bn2.bias f4 [64]
0	0xbe0da15b	-0.13831083
1	0x3d18bce2	0.037289508
2	0xbd523731	-0.051322166
3	0x3d0b9e13	0.0340863
4	0xbd5ff2dd	-0.05467497
5	0xbe304d4a	-0.17216983
6	0xbe2c4e4d	-0.16826744
7	0xbe81684e	-0.2527489
8	0xbad7d411	-0.0016466399
9	0xbd6488e5	-0.055794615
10	0xbe70ec4f	-0.23527645
11	0xbe9f0121	-0.3105555
12	0xbd81f454	-0.0634543
13	0x3daa09ab	0.08302625
14	0xbb11941e	-0.002221353
15	0xbe42d3a6	-0.1902605
16	0xbe201ba2	-0.15635541
17	0xbe8b362d	-0.2718977
18	0xbe05f0d0	-0.13080144
19	0xbe0dce9c	-0.13848346
20	0xbe63b268	-0.22236025
21	0xbe7aa60a	-0.24477401
22	0xbe007376	-0.12544045
23	0xbdd36a84	-0.103230506
24	0x3ce82bb4	0.028341152
25	0xbdf716b4	-0.12064877
26	0xbe752f4b	-0.23943822
27	0xbe06702f	-0.13128732
28	0x3e13db4f	0.14439128
29	0xbe2c0945	-0.16800411
30	0xbd8d2825	-0.068924226
31	0xbdb1adb1	-0.08675707
32	0xbe41ab7a	-0.1891307
33	0x3da759ea	0.081714466
34	0xbd8d4bcd	-0.068992235
35	0xbd302275	-0.04300161
36	0x3cd1de12	0.025618587
37	0xbe65ab7b	-0.22428696
38	0xbe859589	-0.2609065
39	0xbdb27db7	-0.087153845
40	0xbdac54b7	-0.084145956
41	0xbda78e6f	-0.08181464
42	0xbd0a0689	-0.03369764
43	0xbe708660	-0.2348876
44	0xbce73b9a	-0.028226662
45	0xbe41f8c4	-0.18942553
46	0xbdec3436	-0.11533396
47	0xbcc3d721	-0.023906292
48	0x3c0c1439	0.008549743
49	0xbe15f2c2	-0.14643386
50	0xbd8e59b7	-0.069507055
51	0xbd449497	-0.04799327
52	0xbd4e5917	-0.05037793
53	0xbd0952fe	-0.033526413
54	0xbe8f599c	-0.27998054
55	0xbd8c882f	-0.068619125
56	0xbd645b34	-0.05575104
57	0xbe8eeefc	-0.27916706
58	0x3d6c6d17	0.057721224
59	0xbe6c01ea	-0.23047605
60	0xbe3ca240	-0.18421268
61	0xbd82dfa9	-0.06390316
62	0xbd15ebe0	-0.0366019
63	0xbe090624	-0.13381249

backbone.bn2.running_mean f4 [64]
0	0x3d78709e	0.060654275
1	0xc00b639d	-2.177955
2	0xbf93493c	-1.1506724
3	0xc07d79e7	-3.9605653
4	0xc0198cd3	-2.3992202
5	0xbf16de31	-0.5893279
6	0xbf6f127f	-0.933876
7	0x3eced430	0.4039626
8	0xc05cb378	-3.448454
9	0xc08f6a8b	-4.4817557
10	0xbeabde32	-0.3356796
11	0xbf2d9706	-0.6780857
12	0xbfb57458	-1.417613
13	0xc04dc070	-3.2148705
14	0xbf90e77d	-1.1320645
15	0x403e4e22	2.9735188
16	0x3f9da068	1.2314577
17	0xbd25c175	-0.040467698
18	0xbf46b02c	-0.77612567
19	0xc078d4ab	-3.8879802
20	0xbeafb58b	-0.34318194
21	0x3f5a330f	0.8523416
22	0x3e407c3a	0.18797389
23	0x3fd1e981	1.6399385
24	0xc0a40fe4	-5.12694
25	0xc09b047d	-4.844298
26	0x3f7ad90b	0.9798743
27	0xc01b5319	-2.4269469
28	0xc0147347	-2.319536
29	0x3fbc0086	1.468766
30	0xc0cd3993	-6.413278
31	0x404e0b31	3.219433
32	0x40539d09	3.3064597
33	0xbff9dc15	-1.9520289
34	0xbfa62b14	-1.2981896
35	0xc087e1d9	-4.2463193
36	0x4083ce30	4.1189194
37	0xc079a837	-3.900892
38	0xbcd2c344	-0.025727876
39	0x3f0df652	0.5545398
40	0x3f62796b	0.8846652
41	0xbfd5a2de	-1.6690328
42	0xc07e8643	-3.9769447
43	0x403211a6	2.7823272
44	0xc03c9eca	-2.9471917
45	0x3c94a7e8	0.01814647
46	0xbfd166f2	-1.6359541
47	0xc0304ad6	-2.7545676
48	0xbfb1869f	-1.3869208
49	0xc041d037	-3.0283334
50	0xc095fd07	-4.687137
51	0xc0c7ff42	-6.2499094
52	0xbef01d45	-0.4689733
53	0x3e352f06	0.1769372
54	0x3e393825	0.18087824
55	0x3f806b66	1.0032775
56	0xbfa4b9d4	-1.286921
57	0xbef6ab20	-0.48177433
58	0xbf8c3ef4	-1.0956712
59	0x3fe1c321	1.7637674
60	0x3f119fca	0.56884444
61	0xc016d94d	-2.357013
62	0xbfe92acc	-1.8216186
63	0x3f2dee7d	0.6794203

backbone.bn2.running_var f4 [64]
0	0x40553612	3.3314252
1	0x40aec796	5.4618635
2	0x40c08982	6.0167856
3	0x413cfcbd	11.811704
4	0x40a7082e	5.2197485
5	0x40d47d33	6.640283
6	0x40cbf827	6.374042
7	0x408894c8	4.268162
8	0x4107625d	8.461514
9	0x413101a9	11.062905
10	0x40a4e898	5.153393
11	0x40b333a7	5.600055
12	0x40c6c2e4	6.2112904
13	0x40f960cd	7.7930665
14	0x40e4fa7d	7.155577
15	0x40cc10db	6.3770576
16	0x405fbc8b	3.4958827
17	0x40da2c61	6.8179173
18	0x40c094af	6.01815
19	0x40dfcca0	6.9937286
20	0x4089c78e	4.3056097
21	0x40b78cda	5.735944
22	0x40e46de4	7.1384144
23	0x409ce5ff	4.9030757
24	0x41496c6a	12.588968
25	0x40db0d1c	6.8453503
26	0x40afa326	5.4886656
27	0x40d02383	6.504335
28	0x40d9be24	6.8044605
29	0x409b4c68	4.853077
30	0x41484cec	12.51878
31	0x406e6664	3.7249994
32	0x4096f2de	4.717147
33	0x40b28a39	5.579373
34	0x40a30121	5.093888
35	0x40b4596c	5.6359158
36	0x40c0bf65	6.0233636
37	0x41013372	8.07506
38	0x40a4b859	5.1475034
39	0x4073927b	3.8058155
40	0x40ab6206	5.3557158
41	0x412f3cad	10.952313
42	0x40e39fc8	7.1132545
43	0x40b47dc1	5.640351
44	0x409e875d	4.954024
45	0x408dae2f	4.4275126
46	0x40c2ae95	6.0838113
47	0x41387b23	11.530063
48	0x4110e1ed	9.055158
49	0x40e90c70	7.2827682
50	0x4183eca9	16.490557
51	0x4138a655	11.540608
52	0x40d83739	6.756741
53	0x40d55aee	6.66735
54	0x404eb253	3.229634
55	0x4103b60c	8.231945
56	0x40d37048	6.607456
57	0x409ba681	4.864075
58	0x41020a27	8.127479
59	0x40b03edc	5.5076733
60	0x408ff271	4.498345
61	0x41043bb8	8.26458
62	0x40e77c13	7.233896
63	0x410409bb	8.252376
