PointPillarUpgrades/output_20251129_185705/pointpillars_ModelNet10.pth (torch, 663206 bytes, 40 tensors)

pfn.blocks.0.fc.weight f4 [64, 8]
00000000: 1610 8bbe 4a6b 4a3e e371 b6be 5897 1bbe
00000010: fbfb 19be 74ee bebd 9a04 a2bd d511 18bd
00000020: c24c 53bd b838 c7bb 9761 6fbc 77bd 613e
00000030: 361b d43d d63f e23e 5f57 b3bd 0b0b 2c3e
00000040: 99cc 74be 6a86 123e 8808 8bbe 116b 313e
00000050: c6ee fe3d b92e b43e c6de 053d 19ed a4be
00000060: 3936 0f3e d899 51bd e083 afbe 0f77 3cbd
00000070: 9253 67bd 9380 7e3e 5e17 9cbe d768 983e
00000080: cfd4 943e 3c59 d9bd a14c c43e 1a6c 263e
00000090: c9ed 38bd 8bde 843d 48d9 813e 9104 0b3e
000000a0: 21ba c83d 0170 813e aeba 6fbe acab ebbd
000000b0: f543 ec3d 97ef 523e b2ea 7a3e fe97 0f3e
000000c0: 9c7b 343e a7ae 883e a06d 06be 1e95 1f3c
000000d0: a7fc 32be 0990 a8be 53a5 39be b386 d6bd
000000e0: 82a3 c0bd 4940 df3d 7a91 a2be 3ef7 2f3e
000000f0: ed87 52be 01fd a73e 6c7f 49be 7765 a43e
00000100: dc45 b7bd 4b4f 18bc 631a a9be ec77 73be
00000110: 5f56 f8bc eaff a4be 3b4a 65be bf92 1cbd
00000120: 497e 8dbe f097 4c3d 9492 1b3c a306 fc3d
00000130: 7202 89be 9d4c 8bbe 7a6b 9dbe 350d 803e
00000140: 5fdb 93be 2427 3cbe 258b 873e a2a8 90bd
00000150: ae4c 82bd 6691 c2be 8a21 b6bc f8d6 53bd
00000160: e321 4cbe 99e1 973e d3db d83d 7a3c cabe
00000170: 8185 85be 1e63 173d c3c4 703e ee4b 933e
00000180: bdde 373d c746 e83c 26d4 df3e 0349 7c3e
00000190: 56bb 0cbe 78c1 aa3c 73f0 35be 590e c6bc
000001a0: 4c87 86be 473b 923e 96da 023b bc17 5e3e
000001b0: 7ede 72be b1b2 803e e542 7d3e 243d 88be
000001c0: d3b0 ecbd 4a8f 9b3e cefe e3bd 8449 16bd
000001d0: fd1a dd3d 58d9 a5bd f29d 7c3e bc25 21bd
000001e0: 4aec 60be e62a bfbc 28ec f6bd d17c 073e
000001f0: 6740 fe3d e025 af3e c06f e73d 6936 47bd
00000200: b1c0 923e 9a17 913e 3f71 8f3d e58e 993b
00000210: 107f c73d cabf b7be 4295 f43d 6842 b1be
00000220: d1b5 4a3e 972b f9bd 40ea 9f3d f821 3bbd
00000230: 45c1 893d 36c6 3b3e 468e 1dbd aa04 2ebe
00000240: 41de a83e 988f 733e b461 97be 4501 39be
00000250: 2ef3 a33e 7ae5 5f3d 70b7 e23d f942 463e
00000260: b99e 5abe d741 7dbb 531e 75be 7c1c 1dbe
00000270: 90d5 fd3d 6b19 983e 7254 c7be 97b6 0cbe
00000280: 1a74 2fbe f76f bdbc 6758 c33e 070c 0dbe
00000290: 518e bb3d b0e0 e63e 6ac5 5bbe 0be3 cb3d
000002a0: 771b 183e 1b7f 4ebd 9f7d d53e 24b5 8c3e
000002b0: 339f 623e df7f ff3d ff9b 5b3e 7593 453e
000002c0: 2b58 be3d 9bcd e33d 27e8 963e f278 48be
000002d0: f2f1 893e c886 8a3e 0816 383e fa99 03be
000002e0: 0e78 cc3d a645 28bd b4bc ab3e 4dca 8e3d
000002f0: c429 563d 95be 38be a5c1 aabe a74e 913e
00000300: c30d 99bd 0e2c 64be 3a16 8cbe 12b3 74bd
00000310: e51b 043e c9c8 45be edb6 dcbc f1c6 b6bd
00000320: 15fb 50bd 2512 21be 74ce 0ebe 07b5 113e
00000330: 5a9e e13c 3c08 d1be 0cf1 943d c443 5c3e
00000340: 3a18 a73e f3c4 273e 794c 37bd 5276 bcbd
00000350: fdf9 323e 0f9f 24be 46f5 16be 6ed5 4a3e
00000360: 91f8 1b3e 808f 873e 912f 913e fc9a 3ebd
00000370: 7364 0cbe db96 403d 62aa 373c d186 523b
00000380: 9bbc a9bd c337 adbe ecca 04be de36 f4bd
00000390: d2f4 3fbd e8f0 c83d c889 823e 832a 8c3e
000003a0: a66b 853e 743b 44bd e042 303e 333f 09be
000003b0: 796b 8bbd 6be6 9c3e ff2a b13e a82b 2dbe
000003c0: 310c 75be 5fb7 babd 062c 4b3e 7b20 61be
000003d0: 091a 1a3d 514c fc3b 79dc 93be 1295 f83d
000003e0: 25bc 9c3e 6fa4 65be 4e79 143e d9f4 23be
000003f0: c865 0dbe fcc4 45be 8f91 07be c213 65be
-0.2716071 0.1976749 -0.35633764 -0.15194452 -0.15037529 -0.09322825 -0.07911034 -0.03712638
-0.051586874 -0.0060797594 -0.01461067 0.22044931 0.103567526 0.44189328 -0.08756899 0.16801088
-0.23906173 0.14309087 -0.27154946 0.17325999 0.12447886 0.35191897 0.032683156 -0.3221214
0.13985528 -0.051172107 -0.342803 -0.04601198 -0.056476183 0.24853735 -0.30486578 0.29767486
0.2906861 -0.10612723 0.38339713 0.16252175 -0.045148645 0.06487759 0.25361085 0.1357596
0.09801126 0.25280765 -0.23411056 -0.11507353 0.11536399 0.20599209 0.24503592 0.14022824
0.17625278 0.2669575 -0.13127756 0.009740142 -0.17479192 -0.3292239 -0.18129472 -0.104749106
-0.09406187 0.10900933 -0.31751615 0.17184159 -0.20559664 0.32810214 -0.19677514 0.32108662
-0.089488715 -0.009296249 -0.33027944 -0.23776215 -0.030314622 -0.32226497 -0.22391598 -0.038225885
-0.2763541 0.049949586 0.009495396 0.12305953 -0.26759678 -0.2720689 -0.3074606 0.25010076
-0.28878304 -0.18374306 0.26473346 -0.07063414 -0.06362282 -0.38001555 -0.02223279 -0.051718682
-0.19934802 0.29664305 0.10588803 -0.39499265 -0.26078418 0.03695976 0.23512559 0.28768867
0.044890154 0.028354062 0.43716544 0.24637227 -0.13743338 0.020844206 -0.17767505 -0.024176763
-0.26275098 0.2856085 0.0019966713 0.21688741 -0.23717687 0.2513633 0.2473255 -0.26609147
-0.11557164 0.30382758 -0.111325845 -0.036691204 0.10796163 -0.08098096 0.24669626 -0.039342627
-0.21965137 -0.023335885 -0.12056762 0.13231207 0.124146275 0.34208584 0.113006115 -0.048635874
0.28662637 0.2833832 0.07004022 0.004686224 0.09741032 -0.3588851 0.11942531 -0.34620976
0.1979592 -0.12166517 0.078083515 -0.045686692 0.06726316 0.1833733 -0.03846576 -0.16993967
0.32982066 0.23785245 -0.2956673 -0.1806689 0.3202147 0.054662205 0.11070144 0.19361486
-0.2134961 -0.003864398 -0.23937349 -0.15342897 0.123942494 0.29706892 -0.38931614 -0.13741527
-0.17134133 -0.023124678 0.38153383 -0.1377412 0.09158004 0.45093298 -0.21462026 0.099554144
0.14854227 -0.050414186 0.41697404 0.2748195 0.22131042 0.12475561 0.21446227 0.19294532
0.092941605 0.111232005 0.29473993 -0.19577387 0.26942402 0.27055955 0.17977154 -0.12851706
0.09983836 -0.041082047 0.33542407 0.069721796 0.052285925 -0.18041451 -0.33350864 0.2838032
-0.07473328 -0.2228243 -0.27360708 -0.059741087 0.12901266 -0.19314875 -0.026942695 -0.08924664
-0.0510207 -0.15729578 -0.13945943 0.14229213 0.027541328 -0.40826595 0.072725385 0.21510226
0.3263567 0.16383724 -0.044750664 -0.09202255 0.17478175 -0.16076301 -0.14742002 0.1980798
0.1523154 0.2647667 0.28356603 -0.046534523 -0.13710193 0.047018867 0.011210056 0.0032123814
-0.08287927 -0.33831605 -0.12968034 -0.119245276 -0.04686434 0.09811574 0.25495744 0.27376184
0.26058692 -0.04790826 0.17213011 -0.13403015 -0.06807608 0.30644545 0.34603116 -0.16911185
-0.23930432 -0.091170065 0.19841012 -0.21985047 0.037622485 0.0076995273 -0.28879145 0.12137808
0.30612293 -0.22426008 0.14499399 -0.1601137 -0.13808358 -0.19313425 -0.1323912 -0.22370818

pfn.blocks.0.bn.weight f4 [64]
00000000: bcff 833f fd07 7d3f 8e0f 7f3f b467 853f
00000010: 5596 813f 4a8d 6d3f aab2 6c3f 278e 7d3f
00000020: cdbd 7d3f db8c 713f c8a9 7f3f dbcd 6c3f
00000030: c0e9 8a3f b151 6f3f bee0 7a3f 0ef0 783f
00000040: d162 6e3f c015 7c3f 2c26 7d3f acd6 813f
00000050: b9a7 853f ecf5 813f 86be 873f ae3e 763f
00000060: cf3a 783f 6418 813f 6bac 6c3f 2222 733f
00000070: da17 6e3f 32de 7c3f 67e5 7d3f 9bea 763f
00000080: 32bf 6f3f 31de 6e3f 1b09 783f 5454 7a3f
00000090: ae90 693f 1dd4 833f fbdf 803f 0306 803f
000000a0: 85ef 663f 00a6 6f3f abe9 6f3f 1c52 693f
000000b0: 2e19 823f a61a 7b3f 3730 713f 279a 7c3f
000000c0: 0e77 843f 2c29 763f 92d5 823f 90b7 823f
000000d0: cca1 873f 5624 733f 8a13 743f 4738 7c3f
000000e0: c083 833f 5ca0 763f 7355 713f 07c5 813f
000000f0: 23de 793f 0053 843f 0a00 813f 4753 6d3f
1.0312419 0.98840314 0.9963311 1.0422273 1.0124003 0.92793715 0.9246012 0.9904503
0.9911774 0.94355553 0.9986844 0.9250161 1.0852585 0.93484026 0.9799918 0.97241294
0.9311953 0.9847069 0.9888637 1.0143638 1.044181 1.0153174 1.0605018 0.9618939
0.96964735 1.0085568 0.9245059 0.9497396 0.93005145 0.98776543 0.99178165 0.9645173
0.93651116 0.9330779 0.96888894 0.97784925 0.9123639 1.0299107 1.0068353 1.0001835
0.9020923 0.9361267 0.93715924 0.91140914 1.0163934 0.9808754 0.94214195 0.9867272
1.0348833 0.96156573 1.0221426 1.0212269 1.0596251 0.9497732 0.95342314 0.9852337
1.0274582 0.9633844 0.9427101 1.0138253 0.9760458 1.033783 1.0078137 0.92705196

pfn.blocks.0.bn.bias f4 [64]
00000000: f5d3 a1bd 73ac 25bc d984 0b3d 1750 313c
00000010: 4d7e 65bc fdde 6ebd a4c1 58bd 67ea 0e3d
00000020: ee49 c53c 77e4 5a3d 8d97 d13b bff2 dcbc
00000030: 9f02 32b9 a866 dcbb 32b2 9bbd f05d 6fbc
00000040: 14c2 99bd 7498 3dbd fd55 f83a 91a5 5b3d
00000050: d961 1e3d ca2f 783c bf74 6bbc ccb6 0cbd
00000060: cc27 04bd 4525 36bd 1467 2ebd 7b4e b5bd
00000070: f682 8cbd 1e2c 31bd 6ff1 f83b 632d d2bc
00000080: 9734 8fbd 7f27 b6bd 8cea fb3a 1489 a3bc
00000090: cc9c 36bd eb72 8a3c e5c8 933a 3f0c a4bd
000000a0: 3496 16bd 29c9 0ebd c9d9 4bbd cf95 63bd
000000b0: 2d57 9d3c 0c4c fcbc 6e1b 73bd ddff 2b3d
000000c0: dc53 02bd 51d1 6f3c d937 973c 421e 0dbd
000000d0: 129d 823c eef7 41bd 94bf 91bc fd94 3cbc
000000e0: dc66 d1bc d318 02bd 458a 20bc 3758 8f3c
000000f0: b31c 4ebd 2435 63bd e792 ddbb 508f 0abd
-0.07901756 -0.010111916 0.03406224 0.010822318 -0.014007163 -0.058318127 -0.052919045 0.034891512
0.024083104 0.053440537 0.00639624 -0.02697122 -0.00016976379 -0.0067261048 -0.076023474 -0.014609799
-0.075077206 -0.04628797 0.0018946525 0.053624693 0.038667534 0.015148113 -0.014371096 -0.034354016
-0.032264516 -0.044469137 -0.04257877 -0.088528596 -0.06860916 -0.043254964 0.0075971405 -0.025656408
-0.069924526 -0.08894252 0.0019219681 -0.019962825 -0.044583127 0.0169005 0.0011275081 -0.08010148
-0.03676434 -0.03485981 -0.049768243 -0.05556279 0.019206608 -0.03079798 -0.05935233 0.041992057
-0.031818256 0.014637307 0.018459247 -0.034452684 0.015944038 -0.047355585 -0.017791547 -0.011510131
-0.025561742 -0.031761955 -0.009798591 0.017498119 -0.05032034 -0.0554706 -0.006761897 -0.03382808

pfn.blocks.0.bn.running_mean f4 [64]
00000000: 82e3 4838 49c5 2938 52cf 6437 e8d3 c637
00000010: 8733 dab8 e680 0ab9 25e0 c0b7 2d69 4c38
00000020: b108 6b38 d5f1 2b39 0948 f838 8645 91b7
00000030: 5f5b aa38 e18b beb7 a14d 93b8 80c9 6937
00000040: ac88 01b9 fac1 f4b7 41bb 26b9 8c21 1639
00000050: b1cf 1b39 8bfd 62b8 6e69 68b8 9f09 e738
00000060: c597 4237 7402 28b7 e94b 60b8 2239 f9b7
00000070: 2df8 2fb8 9494 1eb9 6799 3539 38bf 9eb7
00000080: 1468 5fb7 4795 b937 7ecb fb38 4d02 d7b7
00000090: 20c7 c1b8 ca49 9137 e9b9 8137 df42 f5b8
000000a0: 0498 1f38 82ee b238 ff49 feb7 5db0 7cb8
000000b0: d23a 47b8 f6d5 abb8 6d2f a638 c698 1839
000000c0: afca bdb8 d0a5 3a37 8e89 9838 f3d3 46b6
000000d0: 54ce 0539 a701 0eb9 feff 27b9 a564 3cb9
000000e0: effa 5a38 4a5d 39b8 6c38 f637 f5b4 82b8
000000f0: 9263 82b7 6bf6 e1b7 4863 61b8 38c3 e838
4.78956e-05 4.0476476e-05 1.36381295e-05 2.3702116e-05 -0.00010404648 -0.00013208724 -2.2992559e-05 4.8735343e-05
5.603646e-05 0.0001639792 0.00011838979 -1.7317721e-05 8.123251e-05 -2.2714901e-05 -7.023966e-05 1.3934798e-05
-0.00012353313 -2.9177394e-05 -0.00015900751 0.00014317612 0.00014859323 -5.411873e-05 -5.54113e-05 0.000110167304
1.1598638e-05 -1.00141515e-05 -5.347646e-05 -2.9709718e-05 -4.1954383e-05 -0.00015123404 0.00017318652 -1.8924111e-05
-1.3316068e-05 2.2123231e-05 0.00012006516 -2.5631069e-05 -9.240047e-05 1.7319708e-05 1.546457e-05 -0.00011694966
3.805013e-05 8.532127e-05 -3.0313617e-05 -6.0245733e-05 -4.7500078e-05 -8.193769e-05 7.9243306e-05 0.00014552762
-9.049975e-05 1.112507e-05 7.273546e-05 -2.962767e-06 0.00012760732 -0.00013542791 -0.00016021726 -0.0001796657
5.220895e-05 -4.419432e-05 2.9351759e-05 -6.232589e-05 -1.5543574e-05 -2.6936837e-05 -5.3736643e-05 0.000110989844

pfn.blocks.0.bn.running_var f4 [64]
00000000: d3bf 4e3a 7a9c c939 ab90 d039 928d 9739
00000010: 4d6b 3f3a 6fd3 eb39 1df1 4d3a 78f1 ab39
00000020: 0ceb 623a 5e29 e239 e37a e339 9fdf 5d3a
00000030: 0a2b 143a 28c6 3b3a 1908 163a d64d 6f39
00000040: cd04 5d3a 942c b639 4869 563a 7441 5239
00000050: 98d6 bb3a 55ee 543a f20f 493a b0ef b639
00000060: 8d7a 573a 55ca 363a 8d7f 193a dd8a 483a
00000070: 09b1 2e3a d8fa 2a3a afef 9f39 62c7 2d3a
00000080: ed9e 543a 2f21 083a e6c7 af39 7a00 503a
00000090: 9ac4 4f3a 6143 e739 bb3e c33a 52c9 b539
000000a0: 3b9f 063a b240 8939 4d16 8139 8164 8a3a
000000b0: 038b 753a 02b1 473a 9109 c839 2a2b 1f3a
000000c0: aed6 c43a 4187 4b3a 39ad 133a 8153 7d3a
000000d0: 79f0 2839 56dc 8839 1146 393a 110e 853a
000000e0: 2e34 473a 4284 193a 0d96 9939 009b 7339
000000f0: a4dd f339 c59d c139 4907 bb39 572a e739
0.00078868604 0.00038454292 0.00039780638 0.00028906442 0.0007302061 0.00044980223 0.0007856058 0.0003279557
0.00086562405 0.000431369 0.00043388372 0.0008463803 0.0005652165 0.00071630115 0.00057232525 0.00022821812
0.00084311963 0.00034746958 0.000817914 0.00020051544 0.0014330922 0.00081226724 0.00076699175 0.00034892326
0.00082198606 0.0006972899 0.00058554934 0.0007650087 0.00066639535 0.0006522364 0.0003050542 0.00066291366
0.000811084 0.0005192933 0.00033527537 0.00079346413 0.0007925719 0.00044109955 0.0014896014 0.00034673006
0.00051354215 0.00026178878 0.00024621413 0.0010558517 0.00093667227 0.0007617624 0.000381541 0.00060718006
0.0015017593 0.000776399 0.0005633417 0.0009663627 0.00016111312 0.00026104104 0.00070676306 0.0010151287
0.0007599023 0.0005856195 0.0002929423 0.00023232028 0.00046513707 0.00036929376 0.00035672847 0.000440913

pfn.blocks.0.proj.weight f4 [64, 8]
00000000: 6efa 57be 09a3 203e 1081 503e a689 83bc
00000010: f421 94bd c38e 9dbd eaab f9bc 6951 9b3c
00000020: 1b09 3bbe 1bb3 dcbd f651 06bd 95bd e83c
00000030: c639 fcba c0e3 08be b296 5e3d 3249 13be
00000040: cf15 27be bbb3 77bc b2fd be3d 7b89 eb3c
00000050: 0f97 c1bd 33ff 2b3e c225 353d 786a 3f3e
00000060: 5c9f 9c3e 40ed a53d 47ee 5b3d aa22 123c
00000070: f211 1cbe ad9d edbd 68be 8ebd 17e9 2fbe
00000080: d8db 773c 98ad f23d e34c b13e 45f4 453d
00000090: 2233 0e3b 9523 8e3d 9262 f13d d65a 2ebe
000000a0: fb45 1c3e 5f5f 57be ed8d 743e ce47 853c
000000b0: ffa3 bebd f633 9d3d 6098 48bd 38d0 ad3d
000000c0: 1fca f73d 92f7 283e aaac bd3d 5044 793a
000000d0: b21f fe3c 8e82 393d c10e b9bc 3380 4dbe
000000e0: 0ed6 e33d a4f3 65bd 51a3 623d 5f05 60bb
000000f0: 812f 053d 6623 0bbd 49e9 bf3d a490 683c
00000100: 1c33 f4bd 57a0 853e ea36 533e 957d 293d
00000110: c5bf 833d 0301 79be 072f d2bc c766 0cbe
00000120: 5096 d4bd 72fd 0d3e a56e 4fbe a509 dabb
00000130: f530 05bd fb6f 31be 6c6c 36ba 6284 debd
00000140: aecf 9abc 3427 7a3e f2c5 433d 4a5b 34bd
00000150: b4ed 023c aff7 4e3c 6d32 5b3c 8048 893e
00000160: 2728 be3d ef18 e5bd c9e0 56be 6656 9dbc
00000170: 672d 1a3c 9614 b93d 88b7 5dbd 3969 cb3d
00000180: e8b3 47be 7704 2e3e 2127 943d 12e2 bebb
00000190: 2aa8 393e f948 d23a 52c3 fb3d b71b 86be
000001a0: 8947 45be 31cb 93bd 34cf 963c ceb3 31bc
000001b0: 2589 e5bd f2c0 3fbe 276b 81bc 04c5 1c3d
000001c0: df4f c6bd ba07 36be 9098 2ebe 691c 863c
000001d0: 94cc 3c3e 51a5 623d 8227 c7bd 5159 b0bb
000001e0: 195a c4bd 152f c83c c043 5b3e 54c1 2fbc
000001f0: 9d47 35bc cff4 57be e881 b1bc 72da 42be
00000200: dd2e aabc e0ff 19be 40c3 dbbc 4fc9 ce3c
00000210: 8e9c 1cbd e814 1fbd d139 3b3d bd36 2abe
00000220: b7d5 603e f192 60be fd87 463e a887 fcbc
00000230: 0df4 83bd 128f 203e 1b04 433d a750 283d
00000240: 5315 eebc 35c9 773e 149c 0b3e 8712 83bc
00000250: 7ba7 ebbd e18f 64be 8232 863c 4eb5 bf3c
00000260: fa0a a33d 5864 0ebd 5e3c 87bd f6ed eb3c
00000270: 3a9c f6bb d563 04be 3185 5ebd dae6 1dbe
00000280: 6253 8a3e c842 03be e53e 3e3e d710 093d
00000290: 045b 8f3d 1522 533e a7ba c33d 3848 293e
000002a0: 84fc 20be 58b2 97bd 6b4b 2c3d baf7 c1bc
000002b0: 27f1 bf3d 8f08 173e 5e12 e23d ad0c 8b3c
000002c0: 40bd c83d 65ba c5bd 72ec 85bd 0bf6 09bd
000002d0: 36fd aebb 3cbd 9ebd 0e11 eebd 2431 11bb
000002e0: ed4a 0dbe 091d 413b d876 83bd bc3b 1f3c
000002f0: f6fd 6c3d 091c 8f3c 8f0e db3b 1e85 bebd
00000300: 80a8 253c 77a5 98be fac7 f4bd 5439 493d
00000310: 92b6 f0bc ef8d 1bbd b0d1 c83c 0c05 fb3d
00000320: 2720 94bd 8f65 10be 2634 35be cc4d 09bc
00000330: 172b fa3d c5e3 27be d3a9 4cbd 63f9 fabd
00000340: 601d c5bd ebb0 1a3e 46fc b43c c75b 1bbc
00000350: a824 d03c f967 70be 8e51 99bc bd54 c2bd
00000360: f7b5 30be b528 5abd b6b9 f4bd 53a3 1e3c
00000370: a330 9b3d 7524 64be d2a3 3fbd 9247 33be
00000380: 9b1f 89be 715d a13e 12a5 07be 2292 e3b9
00000390: 8e40 083e 8373 3a3e 82fd 9ebd 9598 f1bd
000003a0: 03b2 10be add7 f0bc a645 663e 9214 d5bb
000003b0: 5c27 66be 416f e7bd f0db 013e 5232 6c3e
000003c0: b105 213e 41c7 2f3e 9fec 833e 05e2 67bd
000003d0: 4182 88bd 87e1 7dbd 8063 ea3d 774b 233e
000003e0: 6e4d 113d eeba 203e 82da dc3d 34e4 3b3b
000003f0: 08b3 f3bc 6b28 d4bc 806a 393c 9d1d 1f3d
-0.21091625 0.15687193 0.20361733 -0.016056847 -0.072330385 -0.07693245 -0.030477483 0.018959718
-0.18265192 -0.10776349 -0.032793008 0.028410712 -0.0019243292 -0.1336813 0.054342933 -0.1438339
-0.16316913 -0.015118535 0.09325732 0.02875208 -0.0945264 0.1679657 0.04422546 0.18692958
0.30590332 0.081018925 0.053694036 0.008919397 -0.1524122 -0.1160234 -0.06969911 -0.1717876
0.015128098 0.11849517 0.34628972 0.048328657 0.0021697958 0.069403805 0.11786379 -0.17026839
0.1526107 -0.21032475 0.23882265 0.01626959 -0.093086235 0.076759264 -0.04897344 0.0848698
0.120990984 0.1650069 0.09261449 0.00095087755 0.031020973 0.045290522 -0.022590043 -0.20068435
0.11124812 -0.056140557 0.055331532 -0.003418289 0.032516006 -0.033969305 0.093706675 0.014194641
-0.11923811 0.26098892 0.20626417 0.04137953 0.064330615 -0.24316792 -0.02565719 -0.13711081
-0.10380232 0.13866213 -0.20257051 -0.0066539817 -0.032517392 -0.17327873 -0.0006958905 -0.10865094
-0.018897858 0.24429017 0.047796197 -0.044032373 0.007991243 0.012632295 0.013378722 0.26813126
0.09285002 -0.11186396 -0.20984186 -0.019206237 0.009410239 0.090371296 -0.054130107 0.09932179
-0.19502223 0.1699389 0.07234026 -0.0058252895 0.18130556 0.0016043476 0.12293114 -0.2619302
-0.1926557 -0.0721649 0.018409349 -0.010846091 -0.11207799 -0.18725947 -0.015798165 0.038273826
-0.09683203 -0.17776385 -0.17050385 0.016370969 0.18437415 0.05533344 -0.097243324 -0.005381741
-0.09587497 0.024436513 0.21412563 -0.010727245 -0.011064437 -0.21089481 -0.02166839 -0.19028643
-0.0207743 -0.15039015 -0.0268265 0.025242476 -0.03823524 -0.038838297 0.045709435 -0.16622443
0.21956526 -0.21931054 0.19387813 -0.030826405 -0.06443033 0.15679577 0.047611337 0.04109254
-0.029062903 0.24197848 0.13633758 -0.016000045 -0.11506554 -0.2232051 0.016381506 0.023401882
0.07961078 -0.034763664 -0.06603311 0.028799992 -0.007525948 -0.12928708 -0.05432624 -0.15420094
0.2701674 -0.12818444 0.1857868 0.033463325 0.06999782 0.2061847 0.095570855 0.16531456
-0.15721327 -0.07407063 0.04206411 -0.023677696 0.09372168 0.14749359 0.110386595 0.016973818
0.098017216 -0.096546926 -0.06539239 -0.03368191 -0.0053402437 -0.07750937 -0.11624347 -0.0022154534
-0.13798113 0.002946677 -0.06419152 0.009718832 0.057859384 0.017469423 0.006685085 -0.09302734
0.010110974 -0.2981374 -0.11952205 0.049126938 -0.029383931 -0.037977155 0.02451405 0.12256822
-0.07232695 -0.14101242 -0.17695674 -0.008380365 0.1221525 -0.16395481 -0.049966644 -0.12254598
-0.096247435 0.15106551 0.02209295 -0.009482331 0.025408104 -0.23477162 -0.018715646 -0.09488819
-0.17256914 -0.053261478 -0.11949484 0.009682494 0.07577636 -0.22279532 -0.04678709 -0.1750777
-0.26781926 0.31516603 -0.13246563 -0.0004340569 0.13305876 0.18208127 -0.077631965 -0.11796681
-0.14130406 -0.029399717 0.22487506 -0.0065026963 -0.22475952 -0.11300517 0.12681556 0.2306607
0.15724827 0.17165853 0.25766465 -0.056612033 -0.06665469 -0.061982658 0.11444759 0.15946756
0.035474233 0.15696308 0.107838646 0.0028669955 -0.029748455 -0.025898179 0.0113168955 0.0388466

backbone.conv1.weight f4 [32, 64, 3, 3]
00000000: 27b4 833d 0baa 20bd c367 95bb 1613 843d
00000010: 726c 743d c0c0 ba3b b71a 96bb dac8 cb3c
00000020: da2d 08bd a8c5 b23c ad03 c5bc d209 90bd
00000030: 3959 553d 76d2 20bc 596e aa3b 3835 69bc
00000040: 3f21 103d da89 1d3d 80ab d83c 9daf 423d
00000050: 0063 103c b6fa 8c3d 8123 813d d62b 953c
00000060: cdb8 b03c 1eee 70bb 6500 d6bb 355e 89bd
00000070: 9446 eabd 8149 cdbc 9ec4 5bbd 09c5 28bb
00000080: 686d 64bd 4033 b4bd f0e2 2fbc f1df ec3b
00000090: 7b79 94bd c2aa 37bc 9a9a 8cbd 9551 c9bd
000000a0: 67f5 b2bc bc86 11bd 4340 9fbc 88c6 86bd
000000b0: 589b 7d3c 5428 1fbc 98a4 063d 68ae a83c
000000c0: c72f dcbc 735a c0bc 51d7 8a3c 9cd9 40bc
000000d0: af27 34bd 0bd8 b5bc 77fb 673a 087d 7cbc
000000e0: 639f 42bd a21f 693c 412d 11bd c569 d43b
000000f0: f6de 943d dd0d e13c cf3e 9c3c a0fd bdbc
00000100: e111 f0bb 812a fdbb 3233 493c d292 a8bc
00000110: 0faf 2cbc 42fb c33b 01d4 cfbb 10ef 75bd
00000120: 9eb5 19bb 22fc 4abd e0a4 a0bd e84e a83d
00000130: 42a4 9a3d 2962 bebc d24e 3a3d 795d a23d
00000140: a861 5dbc 6181 4f3d 2a41 a43b f086 56bc
00000150: c53b c63b 516b 313c 33c3 d3ba 8bf2 6b3d
00000160: 429d b2bc e35a 483d 86fe e0bb 6726 db3c
00000170: 5f5a 473d 5ea0 aabb c2bf 883c 5471 43bc
00000180: 90c9 723b 1f48 853c ef35 453d 6fb4 9b3c
00000190: 8571 f5bb 2305 683c 77ff b43a 7844 f73b
000001a0: 111e eb3c b4fa 923c ee30 f6bc 4e87 8d3b
000001b0: bccb 9dbd e3c2 a8bd 4b83 a3bc af19 c3bc
000001c0: 13bf 10bd 914c 72bd 5242 9cbd 68be 6dbd
000001d0: 8488 1abd d029 1b3d fbd1 6f3d 663e a53c
000001e0: 5f80 523d 730e 5dbc 404e 3d3d 187b 263d
000001f0: 6bdd aabc fde8 4d3c 614e d23b f105 413d
00000200: c8c9 12bc 9c64 8b3d 46a8 18bc 6d19 94bc
00000210: 9888 083d ad6f 35bc 012d 5cbd bbe5 433d
00000220: 8e9a be3c 8032 06bd e9a7 673d da31 033c
00000230: 0a92 06bd 961f 193c 18a9 9e3d 2b33 863c
00000240: c887 99bc 534f ecbb bfdd d8bc 9e94 e13c
00000250: 9c1f e33c e1ca 37bd 113e 0e3d d044 8d3b
00000260: 89d7 3cbd 4932 3cbd 5004 6ebd a99d 11bd
00000270: dfe9 bcbc be83 26bc 4ad5 54bd bf27 9abc
00000280: d6d1 333c 5b15 91bb d94e 90bc dd46 6fbd
00000290: 1c0d 63bd 2954 e1bc c798 c4bc 8489 5ebd
000002a0: 6337 043c 4c1a 37bd 8f7c 0bbd 2d10 403d
000002b0: 5c95 343d f589 20bd 740d 8e3c 026a 593c
000002c0: 16b4 c3bc 231d 6d3c 17a7 ac3d 29b2 a9bc
000002d0: b817 a83c c8e4 e8bc f2d4 673b 6ede d4bc
000002e0: c673 ae3c 17c8 b2bc 5981 d43c c57c 80bc
000002f0: 664d 363d f11e 47bd 99ed 9ebd 9ae6 fbbc
00000300: d49a 3bbd ff36 b5bd d3bc 5abd 5d7b 5bbd
00000310: 0d39 29bd 2b7f e0ba 6992 96bd 8784 56bd
00000320: a024 81bd 8e12 11bd 30a7 79bc 869c 383c
00000330: db22 47bd 1d4d 4cbd c202 54bd 4424 4abd
00000340: 78a1 653c 3208 9abd ccdc 81bd 5c66 91bd
00000350: 3d41 05bd 3672 44bd 4842 a2bd f269 93bb
00000360: 8366 673d 69ec aabb fbdd 8bbd bc8f 803d
00000370: 2291 fa3c 90ca 86bd 2391 3a3d 4a8f f83c
00000380: 5801 e4bc b36a 463b 191f 08bd 3c4a 04bd
00000390: ac18 733d ed9f c93c 2d9b 38bd 06c0 deba
000003a0: 93b7 db3c 8e9c 5a3d 14f3 70bc fa8e 053b
000003b0: df0e 0bbd 74c3 3638 f9d0 53bd adc3 d23b
000003c0: 16e7 e43b e801 f8bc eb10 b33c 07e4 1dbd
000003d0: 3f20 e6bc 500b 093c ee3f 0a3d 40a0 08bd
000003e0: d3d9 a9bc 6abe 813c 8d36 5cbd 38cb 41bd
000003f0: 41eb 643d 9f49 0b3c fed6 febc df65 4f3c
0.06430846 -0.039224666 -0.0045594885 0.06448953 0.059673734 0.005699247 -0.0045808214 0.024876047
-0.033246852 0.021822765 -0.024049604 -0.07033123 0.052087042 -0.009815803 0.0052011427 -0.01423388
0.035187956 0.038461544 0.026448965 0.04753076 0.008812666 0.06883757 0.063056 0.01820938
0.021572495 -0.0036763023 -0.0065308088 -0.06707422 -0.11439243 -0.025059463 -0.053654306 -0.0025752208
-0.0557684 -0.08798838 -0.010735258 0.0072288443 -0.07249733 -0.011210145 -0.068654254 -0.09830014
-0.021845533 -0.035528883 -0.019439822 -0.065808356 0.015478931 -0.009714205 0.032871813 0.020590976
-0.02687825 -0.02348063 0.016948374 -0.011770632 -0.043983158 -0.022197744 0.0008849422 -0.015410669
-0.047515284 0.014228733 -0.035443548 0.0064823353 0.07269089 0.02747243 0.019072918 -0.023192227
-0.00732635 -0.007726014 0.012280272 -0.020577822 -0.010539784 0.00598088 -0.0063424115 -0.06004244
-0.00234542 -0.04955686 -0.078439474 0.08218175 0.07550861 -0.023240166 0.045485325 0.07927985
-0.013512053 0.050660495 0.005012651 -0.013093695 0.0060496056 0.010828809 -0.0016156196 0.057604354
-0.021803502 0.0489148 -0.006866279 0.02675171 0.04867017 -0.0052071055 0.016693 -0.011928875
0.003704641 0.016269742 0.04814714 0.019006936 -0.007490339 0.014161381 0.0013809045 0.007546004
0.02870086 0.01794181 -0.030052628 0.004319108 -0.07704875 -0.08240297 -0.019960066 -0.023815958
-0.035338473 -0.05915505 -0.07629837 -0.058042914 -0.037727848 0.037881672 0.058549862 0.020171355
0.051391955 -0.0134922145 0.046217203 0.040644735 -0.020857533 0.012567756 0.006418035 0.047124807
-0.008959241 0.06806299 -0.009317463 -0.01807853 0.03333339 -0.011073989 -0.053753857 0.04782651
0.023267057 -0.032763004 0.056556616 0.008007491 -0.032854117 0.00934591 0.07747096 0.01638182
-0.018741503 -0.0072116046 -0.026472924 0.027536687 0.027725033 -0.044871215 0.03472716 0.0043111816
-0.046103988 -0.045946393 -0.05810958 -0.035550747 -0.023060737 -0.010163246 -0.05196122 -0.01881778
0.010975322 -0.0044275946 -0.017615722 -0.05841719 -0.055432424 -0.027505951 -0.023998631 -0.054330364
0.008069846 -0.044702813 -0.034054335 0.046890426 0.044087753 -0.039194066 0.0173404 0.013269903
-0.023889583 0.014472279 0.08430307 -0.020714836 0.020519122 -0.028429404 0.0035374728 -0.025984969
0.02129544 -0.021823926 0.025940584 -0.015684495 0.044507407 -0.048613492 -0.07760162 -0.030749608
-0.045801952 -0.0884838 -0.053402733 -0.053584445 -0.041314173 -0.0017127743 -0.07352144 -0.05237248
-0.06305814 -0.035418086 -0.0152376145 0.011267787 -0.048617225 -0.04987823 -0.051760443 -0.04935099
0.014015548 -0.075210944 -0.06340942 -0.070996016 -0.03253292 -0.047960483 -0.079227984 -0.0044987136
0.056494247 -0.0052161706 -0.06829449 0.06277415 0.030586783 -0.065816045 0.04554857 0.030341763
-0.027832672 0.0030276 -0.033232782 -0.032297358 0.0593497 0.024612391 -0.045069862 -0.0016994483
0.026820933 0.05337196 -0.014706392 0.002037941 -0.03394973 4.357421e-05 -0.051712964 0.006432018
0.0069855554 -0.030274346 0.021858653 -0.038547542 -0.028091548 0.0083645135 0.033752374 -0.03335595
-0.02073375 0.015837867 -0.05376296 -0.047312945 0.055888418 0.008501439 -0.031108376 0.012658565

backbone.bn1.weight f4 [32]
00000000: 853b 803f 7405 7c3f a304 833f c036 783f
00000010: fd4f 7b3f 7bf7 703f e290 863f a27d 763f
00000020: 6446 7a3f 87a1 703f 9114 763f 2260 763f
00000030: f6cd 6f3f 0851 743f 884c 843f c49d 8a3f
00000040: 40f0 833f 29a7 813f 50c7 853f 570d 823f
00000050: 46ea 763f d5dd 763f b2ef 773f 24a6 6d3f
00000060: fb80 743f 1ac5 653f d541 893f 23cf 763f
00000070: fa0a 703f 1594 6e3f 481b 783f e451 6d3f
1.0018164 0.9844582 1.023579 0.9695854 0.9816893 0.94127625 1.0512965 0.9628545
0.9776366 0.9399647 0.9612513 0.9624044 0.93673646 0.95436144 1.0335855 1.0829396
1.0307693 1.0129138 1.045145 1.0160321 0.9645122 0.9643224 0.9685012 0.92831635
0.9550931 0.8975388 1.0723215 0.96409816 0.9376675 0.93194705 0.9691663 0.9270308

backbone.bn1.bias f4 [32]
00000000: 9236 60bc a06c e8bb 44ff 733d 025c 66bd
00000010: 70fa cfbb 358c 06bd 9a8a 033e 6974 333c
00000020: 800c a23d 751e d43b 8544 503c 2b03 f9bc
00000030: 9861 c03b f329 64bd 1618 23bd 87cf de3d
00000040: 516e a03c df43 d2bb 03f4 82ba 6ea8 7c3d
00000050: 62cb 67bb c4cc 93bd 2a3f 71bd 3c3b e6bc
00000060: dced 46bd 5353 40bc 67c5 933d f116 ee3b
00000070: 4ea2 b73c 95ad 01bd 5e84 d0bc e64e 91bd
-0.013684886 -0.0070930272 0.059569612 -0.05624009 -0.006346993 -0.032848556 0.12845841 0.010953047
0.079125404 0.0064733573 0.012711649 -0.030397018 0.005871009 -0.05570407 -0.039817892 0.108794264
0.019583853 -0.0064167823 -0.0009990934 0.061684065 -0.0035369028 -0.0721679 -0.05889813 -0.028104417
-0.048566684 -0.011738616 0.07215386 0.0072659184 0.02241626 -0.03165968 -0.025453743 -0.07095127

backbone.bn1.running_mean f4 [32]
00000000: 5f4c a9c0 3ea1 d8c0 d7f4 9dc0 ad61 46bf
00000010: 921a 2f40 782f bdc0 6771 4ac0 6c48 32c1
00000020: a1cf ecc0 f4c9 ca40 7a7f 2040 4281 c1c0
00000030: 59b7 903f 4ff9 f540 88bb f73f 1cd3 72c0
00000040: 51fd e0c0 e044 dabf 58b4 343f e5ad c4c0
00000050: 3314 98c0 7262 eb3f 045f e73f 3b78 793f
00000060: 09fd 8ec0 525e 33c0 4a5e cdc0 c890 163e
00000070: 06cb de3f 8336 c240 643e d3bf 3b66 7340
-5.2905726 -6.769683 -4.9361377 -0.7749279 2.7359967 -5.9120445 -3.1631715 -11.142681
-7.4003453 6.3371525 2.5077806 -6.0470285 1.1305953 7.686683 1.9354105 -3.794135
-7.0309224 -1.7052269 0.7058768 -6.1462274 -4.7524657 1.8389418 1.8075871 0.9744908
-4.468388 -2.8026319 -6.41776 0.14703667 1.7405708 6.0691543 -1.6503415 3.8031147

backbone.bn1.running_var f4 [32]
00000000: 4d51 ef42 588e 1343 92dd a242 ce69 8d42
00000010: 21a7 6642 7bd1 b842 22ed 5842 fedf 9f43
00000020: 2759 4043 e2ba d842 a818 3f42 7df1 1c43
00000030: 25c3 df42 4ee2 3b43 8d67 7742 a96d 9042
00000040: 0248 e642 e53f 4a42 54ed 1242 d9ff d942
00000050: d52e e542 aa25 5042 8cd6 9942 a8f0 2742
00000060: ad15 cd42 8f00 b342 fb3b 0843 2fb1 3842
00000070: 58b9 3b42 413b c542 eded 7d42 8673 de42
119.65879 147.55603 81.432755 70.70665 57.66321 92.40914 54.231575 319.74994
192.34825 108.365005 47.77408 156.94331 111.88114 187.884 61.851124 72.21418
115.14064 50.562397 36.731766 108.9997 114.59147 52.03678 76.91904 41.985016
102.542336 89.50109 136.2343 46.17303 46.931 98.61573 63.48235 111.22563

backbone.conv2.weight f4 [64, 32, 3, 3]
00000000: 9416 5a3c 17f0 17bc 5744 e33b 6d1c 033c
00000010: fb3f da3c 455c a9bc 27f5 9e3c 1278 6dbd
00000020: 5671 2bbd a38b 50bd 817b f4bd 4eb1 8ebd
00000030: 43a5 7bbb 9fc3 95bd 4154 7ebd b24e a8bb
00000040: f4fa 81bc a18f bebc fb7a 23bd c51b b2bc
00000050: 68f0 7dbd a354 f33c 6e61 523d 6c12 dd3d
00000060: dcb3 8bbd b59d 68bc a857 0f3e 9a02 cebc
00000070: 29f4 e93c fe38 44bc f067 07bd 9c6b bfbc
00000080: 3039 50bd b638 64bc b581 383c 7bfc 53bd
00000090: 8f92 3e3d 32ca b83a c552 223c e5bb e33c
000000a0: b09d 303d aadf 64bc a283 e5bc 225b cc3b
000000b0: 2f20 863c ee5c ce3c 1855 9d3c 16fd f3bc
000000c0: 02f6 86bd 2b0e 1cbd 4b84 85bd 7d8b 63bc
000000d0: 1599 1dbc 1b60 81bd dd98 02bd 4434 25bd
000000e0: 074c 7c3d 85fc 1f3c 5e22 c03b e152 0ebd
000000f0: 9aa7 42b9 4861 143d 5c92 063d 1d3b 1bbd
00000100: ecc9 f0bd 8d10 8dbc ba1d 1cbd f848 a7bd
00000110: e7dc 8bbd 261a 243d 6ae8 b83c 7b45 0abb
00000120: f5dc 963b 8655 8ebc 3a1b b6bc be34 b8bb
00000130: 6f5e 283d 8bce 853b d8a7 9d3c dd12 733b
00000140: 5030 14bd 071c 593c e03e 7dbd 0ffe 55bc
00000150: 76d4 9fbc 7a36 14bc ec15 693d b8cf 35bd
00000160: b792 d03c ab62 0f3c 38ef b8bc dc72 5e3b
00000170: aea8 0fbd 7a31 2a3d c17c e5bc 806e 0bbd
00000180: ab37 553d 0082 f9ba f41d 4b3c d476 20bd
00000190: 6030 96bc ff26 e2bd 3ab3 613d 41bf b03c
000001a0: 1697 213d 7242 d4bc 613e 953c ff11 3bbd
000001b0: 5f45 82bd 4da4 84bd d7ed 26bd a1cd 8a3d
000001c0: d19c ff3c 6f44 5fbc 2323 793c ec4a 193c
000001d0: 34ee 36bd d159 7cbc 1e1b f6b9 9866 7dbd
000001e0: dc37 113d fd1a 7f3d a8fa 23bd 2a6b 21bd
000001f0: 9d10 d53b fe05 0fbc d8f7 72bd 460c 9fbb
00000200: 0b9e 683d 1e74 c43c de94 983c 2ada a43d
00000210: f199 a33a fcc3 9cbd 8c5c 35bd 3914 673d
00000220: 29a2 813c 0c79 513c 7046 4dbd 5183 43bc
00000230: 1d7c adbb b2eb 0f3d 1726 ae3d 7238 aebc
00000240: 36f9 3cbc 940c acbc d36c 9abd f75c 943c
00000250: 8321 a3bd 115f 4fbd bd5c 77bd 6caf 9abd
00000260: fdb2 8e3b 2b01 9c3c 55f0 eebc 9b1f 74bd
00000270: 88ce fa3c d5b4 cebc 674c 33bd d2a5 8abd
00000280: 4e0d 133d d454 d1bb 2ebe 3e3d 70d4 12bd
00000290: 87ed 87bd 8284 273d 7c85 0dbd bcbe e7bd
000002a0: 8714 043d f15b b5bc 1ded c23d dcbc ffbc
000002b0: e6fe 48bd dbbc b6bd d868 c1bb 30b1 7f3c
000002c0: 703b a63c 1991 d03c b829 4b3d aeab b3bc
000002d0: 8c36 7a3c 80ca c0bd dca0 46bd 1d7a efbc
000002e0: 23dd 53bd fe05 31bd cc2e 6d3d bfb7 953a
000002f0: 9e53 d1bb 9bc3 28bc b97b e63c 64f5 2fbd
00000300: b7fc 6f3d 4e78 773d 8d32 dfbc 49c3 9dbd
00000310: f6ad 33bd a4cb babb b31f 403d 56f1 81bc
00000320: 732d 0cbd 94e1 efbc 820a 223c 01b3 39bc
00000330: 2047 e33b 581d 20bd b124 2abd 358e 69bc
00000340: 42f0 b93b 7edf b63c 9468 8dbd 6189 063c
00000350: ef1a 2ebd c9a5 0ebd 67d5 c8bc 35a3 df3c
00000360: fee8 ee3c a4c8 273d 100e e03a ca01 89bd
00000370: 1397 583d 8784 5d3b df93 f5bb 53be 68bd
00000380: 5c8e 8dbd 615c 87bb 968c 093d f51f 6d3d
00000390: 3641 0e3d 9796 b7bd d44f d93c 18f0 90bd
000003a0: 67fc 0abd 6b05 32bd a364 653d e8a4 c0bd
000003b0: 9fc3 843c af0f 55bd 08f7 67bd 5940 ddbd
000003c0: 2971 813b ca89 0d3d 56be cabb d3a3 58bc
000003d0: 53d4 13bd ba4f cebd a714 3fbd 7efa 59bd
000003e0: 5093 69bd 4a23 9dbc 3df6 b53c ba94 703d
000003f0: 9002 0d3d f85a 4f3b fb3d f9bc 6b71 303c
0.013311047 -0.0092735505 0.006935637 0.008002383 0.026641836 -0.02067388 0.019404007 -0.057975836
-0.041856132 -0.050914418 -0.11937619 -0.06967412 -0.0038398064 -0.073127024 -0.06209207 -0.0051363343
-0.015866734 -0.023261847 -0.039912205 -0.021741757 -0.061996847 0.029703444 0.051362447 0.10794529
-0.06821415 -0.014197757 0.13998282 -0.025147725 0.028558807 -0.011976479 -0.033058107 -0.023366742
-0.05083579 -0.013929537 0.011261393 -0.051754456 0.046526488 0.0014098345 0.009907429 0.027799556
0.043119133 -0.013969341 -0.028016869 0.00623645 0.016372768 0.025190797 0.019205615 -0.029783767
-0.06589891 -0.03809945 -0.065193735 -0.013888237 -0.009619017 -0.06317159 -0.031884063 -0.040333048
0.061595943 0.009764795 0.005863472 -0.03474701 -0.00018563718 0.036225587 0.032854423 -0.03789817
-0.117572635 -0.017219806 -0.038114287 -0.081682146 -0.06829243 0.040064 0.022571761 -0.0021098542
0.004603977 -0.017374765 -0.02222978 -0.0056215217 0.041105684 0.0040834597 0.019245073 0.00370901
-0.036178887 0.013251311 -0.06182754 -0.013061061 -0.019510489 -0.009046191 0.056905672 -0.04438755
0.025460584 0.008751552 -0.022575006 0.0033942973 -0.035072975 0.04155109 -0.028013589 -0.034040928
0.052055042 -0.0019035935 0.012397278 -0.039175823 -0.018333614 -0.11042594 0.055102564 0.021575572
0.039450727 -0.02591059 0.018218221 -0.04567146 -0.06360888 -0.064766504 -0.040754166 0.06777502
0.031202706 -0.013627156 0.015206131 0.009356242 -0.044660762 -0.015402273 -0.0004694098 -0.06186542
0.035453662 0.062281597 -0.040033966 -0.03940884 0.0065022246 -0.008729456 -0.059318393 -0.004853758
0.056791347 0.02398115 0.018625673 0.08049424 0.0012481791 -0.076545686 -0.044277713 0.05641577
0.015824394 0.0127852075 -0.050116003 -0.011933164 -0.0052943365 0.035136886 0.08503359 -0.02126715
-0.011534026 -0.021002091 -0.07540288 0.018110735 -0.07965376 -0.05062777 -0.060391176 -0.0755299
0.004354833 0.019043526 -0.029167334 -0.059600454 0.03061606 -0.025232712 -0.043774035 -0.06769909
0.03590136 -0.006388286 0.04656809 -0.035847127 -0.066371016 0.040897854 -0.03455113 -0.113156766
0.03224614 -0.022138568 0.09517882 -0.031217985 -0.049071215 -0.0892274 -0.005902391 0.01560621
0.020292014 0.025459813 0.049600333 -0.02193245 0.015271794 -0.09413624 -0.04849325 -0.029233033
-0.051724564 -0.043218605 0.057905957 0.0011422558 -0.006388142 -0.010300542 0.028135167 -0.042958632
0.058590617 0.060417466 -0.027245784 -0.07703263 -0.043867074 -0.0057005454 0.04690523 -0.015862148
-0.03422303 -0.029282369 0.009890201 -0.011334182 0.006935969 -0.039090484 -0.041538898 -0.014255096
0.005674393 0.022323366 -0.06904712 0.008211465 -0.042506155 -0.034826074 -0.02451582 0.027299503
0.029163834 0.04096283 0.0017094035 -0.06689794 0.05287845 0.0033800916 -0.0074944342 -0.056822132
-0.069119185 -0.0041308855 0.03358134 0.057891805 0.03473016 -0.089642696 0.026527323 -0.07077044
-0.033932116 -0.0434622 0.056004178 -0.09406453 0.01620656 -0.05201691 -0.05663207 -0.10803289
0.0039502573 0.034555234 -0.0061872406 -0.0132226525 -0.03609116 -0.100738004 -0.046650555 -0.053217404
-0.057025254 -0.019181866 0.022212142 0.058735587 0.034426272 0.0031639915 -0.030425062 0.010769228

backbone.bn2.weight f4 [64]
00000000: bdeb 873f d79e 7c3f b3d4 753f 7588 633f
00000010: f682 7e3f 0dbf 7b3f b94a 7d3f 9916 7c3f
00000020: 0ce8 813f cf8c 853f 938c 783f 43a8 843f
00000030: b900 893f c08e 7e3f 59a3 6e3f 45b8 883f
00000040: 7aa0 7f3f a78a 7e3f afe4 843f 80b1 773f
00000050: b48f 873f 5b12 833f d8d0 7b3f 1489 863f
00000060: e873 6d3f b2d8 803f 0ba3 803f 292c 853f
00000070: 0a0b 893f 7375 803f 87bd 7f3f 44c4 7f3f
00000080: d156 873f 9ef7 803f 8950 7d3f d68b 893f
00000090: 42bb 7f3f 62a9 823f 3936 823f b893 703f
000000a0: 690f 873f 8375 863f ec8a 8a3f 4236 7b3f
000000b0: aedd 6f3f 7723 7e3f a176 743f 517f 8d3f
000000c0: a225 863f b376 723f ff06 803f 2213 813f
000000d0: aa99 793f 20ff 823f b1d2 7f3f 2205 833f
000000e0: 9b89 7f3f 48ae 7b3f a293 7b3f bc5e 7d3f
000000f0: 2a4e 7a3f aec1 783f 1fd8 793f efdf 7e3f
1.0618817 0.9867987 0.9602768 0.8888009 0.9941858 0.98338395 0.9894214 0.9847198
1.014894 1.0433596 0.970895 1.0363849 1.0703346 0.9943657 0.93218 1.0681235
0.9985424 0.99430317 1.0382289 0.9675522 1.059073 1.0239977 0.98365545 1.0510583
0.92754984 1.006613 1.0049757 1.0404102 1.0706494 1.0035843 0.9989857 0.9990885
1.0573369 1.0075567 0.9895101 1.07458 0.9989511 1.0207942 1.0172797 0.939754
1.0551578 1.0504612 1.0823646 0.98129666 0.9369763 0.99272865 0.95493513 1.1054479
1.0480235 0.9471237 1.0002135 1.0083964 0.975001 1.0234108 0.99930865 1.0235941
0.99819344 0.9831281 0.98272145 0.9897268 0.9777552 0.9717053 0.975954 0.99560446

backbone.bn2.bias f4 [64]
00000000: 7837 14bc e889 11bd 2961 e5bd 24c2 07be
00000010: 3958 023c 71a8 9ebc 300b 6abd 8484 17bd
00000020: 06c5 eb3c 3592 76bc 6464 44bd 4948 623d
00000030: ed01 0d3d 4190 39bd f9cc 18bd 1f7c 8abc
00000040: 3a26 193d f278 42bd 0e4a 1f3d 6743 37bd
00000050: f5cb 5abd 8df3 4cbc 2674 afbd ac43 0a3c
00000060: 8156 173b 5b5e e73b 7333 55bc 179c 9b3d
00000070: bc30 4f3d da97 1a3d 3201 abbc 0139 9a3b
00000080: 6da5 493c 2a2a 58bc 95b9 75bd cf28 043d
00000090: 73fc 97bd 30a4 c3bd 90f0 013d f3fa 69bd
000000a0: da55 60bd b374 213b 991e 683b 0473 9bbd
000000b0: b62d acbd 38ca 98bd 1670 a3bd ccd8 12bd
000000c0: 165b 33bd 9bcf 6fb9 cb1c 423d d36d 2fbd
000000d0: d212 abbd f334 00be e18e d5bd cd06 a53c
000000e0: 7cdf 17bd a102 86bd d42f 3fbd 6bf3 77bc
000000f0: 8393 8ebd e7e4 46bd 971d eebc fc1b a8bc
-0.009046428 -0.03553191 -0.112001725 -0.13257653 0.007955604 -0.019367428 -0.057139575 -0.03699161
0.028780472 -0.015049507 -0.047947302 0.055244718 0.034425665 -0.045303587 -0.037304852 -0.016904889
0.03738997 -0.047478624 0.038888983 -0.044742014 -0.053417165 -0.012509239 -0.085670754 0.008438986
0.0023092332 0.0070608086 -0.013012755 0.07598131 0.050583586 0.037742473 -0.020874593 0.0047065024
0.012307507 -0.013193646 -0.059991438 0.03226548 -0.07421198 -0.09552801 0.03172356 -0.05712409
-0.054769374 0.0024636209 0.0035418628 -0.07590297 -0.08407156 -0.07460445 -0.07980363 -0.035851285
-0.04378804 -0.00022870155 0.04739074 -0.042829346 -0.08353199 -0.12520199 -0.104276426 0.020144844
-0.037078366 -0.0654347 -0.04667647 -0.015133719 -0.069617294 -0.048558142 -0.029066844 -0.020521156

backbone.bn2.running_mean f4 [64]
00000000: d9ca f3bf eb68 69bf 98c6 aa3f 07ee c23f
00000010: a3ab 09c0 bca4 fe3d 9e26 253e c77c 43bf
00000020: 94e0 7dbf 89b8 95bf 2de3 ea3e beaa ab3f
00000030: 0612 1fc0 4054 19bf 68b0 09bf b787 0fc0
00000040: fc73 f4bf fcb4 e63f da3f 353e 9fc7 e8be
00000050: bfdf 65bf 5e6d 75bf 192f 873f fd8d bbbf
00000060: 0f34 87bf cb9e 5c3c a8a4 463f e974 5cc0
00000070: a6a8 8dc0 c294 53bf 6260 2ec0 9a69 05bf
00000080: e24c 70bf fcd0 a0be 23d6 3d3f c352 a9bf
00000090: 96dc ba3f 6584 a3bf aaed bebf b01a a33e
000000a0: a07f 36bf 877d 10bf b72e 413f 3c6d a9be
000000b0: ec97 873e f5c0 96bf 8b62 923f b006 5abf
000000c0: 25a4 f0bd bfe4 3cbf b05b fdbf 1b32 48be
000000d0: cc30 f3bf fe3d f63e c6a3 3e3f a448 ba3d
000000e0: 2088 de3f 70ac 41bf 98e7 b8be b0a1 bfbe
000000f0: e0a5 443f 83d2 603f d4fb cf3e 2b15 86bf
-1.9046279 -0.9117572 1.3341856 1.522889 -2.1511009 0.12433764 0.16128013 -0.7636227
-0.99170804 -1.1696941 0.45876446 1.3411481 -2.485475 -0.5989418 -0.537848 -2.2426584
-1.9097896 1.8023982 0.17700139 -0.454648 -0.89794534 -0.95870006 1.0561248 -1.4652706
-1.0562762 0.013465594 0.77594995 -3.4446356 -4.426837 -0.8264886 -2.7246327 -0.5211426
-0.93867314 -0.31409442 0.7415487 -1.3228382 1.4598567 -1.2774779 -1.4916279 0.31856298
-0.7128849 -0.5644154 0.75461906 -0.33091152 0.26483095 -1.1777636 1.1436323 -0.85166454
-0.11750058 -0.7378654 -1.9793606 -0.19550364 -1.8999267 0.4809417 0.7446865 0.09095886
1.7385292 -0.75653744 -0.36114192 -0.37428045 0.76815605 0.87821215 0.40621817 -1.047521

backbone.bn2.running_var f4 [64]
00000000: bbbc cb3f d3cc c73f 6ed2 0f40 d005 6a40
00000010: 7c7f 9a40 f55b f83f efb7 fd3f 438d 3b40
00000020: 7f6f 1a40 8b21 3140 69cd 3740 a029 c43f
00000030: 9f98 fb3f 49e5 cc3f 39d6 6e40 a958 a040
00000040: a84b 3c40 a5d5 5840 ea32 6640 036c 4940
00000050: 6a7c 1f40 3cb1 dc3f 9f9f 2640 5126 2240
00000060: d547 8240 a84c 2e40 8335 cd3f e87a b440
00000070: a642 c840 cb21 4240 e48c 4740 8fe6 3740
00000080: 0f13 2740 a56e 2c40 7bdb fc3f aac0 1e40
00000090: 5c93 2240 ed6c 3d40 cc65 4040 93bc ef3f
000000a0: c114 a93f 8093 6040 90ba 0040 4f34 0040
000000b0: beb1 2340 cab9 cc3f 4069 c63f 86ef f03f
000000c0: bb46 da3f cbbf 7740 a474 9140 5727 1640
000000d0: 8f71 8940 a412 1740 ad73 1540 2761 1d40
000000e0: 7ea7 0740 2e89 1740 1ca1 1540 4119 5240
000000f0: f615 c63f c7fd 5f40 d6ec 2d40 471d 5440
1.5916971 1.5609382 2.2472186 3.6566048 4.828062 1.9403063 1.9821757 2.930497
2.4130552 2.7676723 2.8719122 1.5325203 1.9655951 1.6007472 3.731825 5.010823
2.9421177 3.3880398 3.5968575 3.1472175 2.4919686 1.7241588 2.6034925 2.5335886
4.0712686 2.7234287 1.6031955 5.640003 6.258136 3.0333126 3.1179743 2.8734472
2.6105382 2.6942532 1.975448 2.4805093 2.540244 2.9597733 3.0062132 1.8729423
1.3209459 3.5090027 2.0113869 2.0031927 2.5577235 1.5994198 1.550087 1.8823097
1.7052835 3.871081 4.5454884 2.346151 4.295112 2.3605127 2.3351853 2.4590547
2.119598 2.3677478 2.3379583 3.2827914 1.5475452 3.4998643 2.7175803 3.314287

backbone.conv3.weight f4 [128, 64, 3, 3]
00000000: 5b0a 81bc 3b7b 53bc 82d6 c7bb a8d1 edbb
00000010: d028 173c 88d9 2e3d f20d 87bc 5436 8abd
00000020: a168 77bc 931a f4bc 5e30 45bd f56c 963c
00000030: 3f67 b23c c835 353c 5f2f 193d 6ad7 863c
00000040: 1932 a8bc 89a4 f43b ad9e 72bd 725b f7bc
00000050: 730d 3abb 70ad 9f3c 3ded 123c 23c2 9cbc
00000060: 11be e53b 975b 80bd aca3 04bd c86b cbbc
00000070: 0e6b 7e3d 043d 9d3c a793 563d deb8 5abc
00000080: 4d91 103d 0b78 c8bb 8b78 853a b3e9 28bd
00000090: 0ff0 d0bb 87f3 623c 7fe1 9b3d 0515 5e3d
000000a0: e104 953b 6f01 333d 6ded e63b 256e adbd
000000b0: b9ff 2d3d d13e 143d 7cbf 2c3d e44c 34bd
000000c0: f7cf 94bd 9833 52bd c53a 28bd 5c00 abbd
000000d0: 0375 8b3b 62e7 e3bc 3276 90bd 30b7 82bd
000000e0: 81e1 94bd e652 1cbd 4c20 3e3c 42ba 8e3c
000000f0: 44d6 48bd 0262 89bd e0f6 aabc aa8a 07bd
00000100: acc8 01bd 10f0 863c ba8c 143d bff1 0c3c
00000110: 50ec 8f3d fdfd 143d 85d4 0a3d 07ad 68bc
00000120: f7ce 343c 6eb1 90bd 195e 5ebd eb56 363d
00000130: 1ebd 58bb b04f 943c b428 293c edcc 5bbd
00000140: 1d68 56bd a682 79bc 88ea 693c 3cd3 3c3c
00000150: 2180 4abc 3bfb 77bc 93ff 92bc d084 383d
00000160: 54ce 40bd 9028 b83b 0335 24bc 37a9 38bd
00000170: cce6 bcbc 2491 3f3c 9ba9 d6bc 2f33 d7bd
00000180: 71a5 10bd 541d 2bbd 9d49 a9bd edcf bf3c
00000190: 519c 0f3c 1f87 c2bd e87a b8bb d4d2 8cbc
000001a0: 8b2c 73bd ae95 11bc 8366 da3c 2e16 d23a
000001b0: ee6a 74bd cea7 26bd 27c4 0ebd 322a 283c
000001c0: 4547 7dbc 4a26 7abc fc80 233d 231f 33bd
000001d0: 3a8e f0bc 3382 ebbc 5366 57bd 8534 08bc
000001e0: 8fd1 543d aa47 443d ac5d 2f3d 0233 823c
000001f0: 6bc8 1d3c 049d 9a3c 45d7 3cbc b45d a53c
00000200: 2543 b43c 047f af3c ca59 44bc 0638 b03c
00000210: bd5e 6bbd f1ab 56bd 295c 65bd aa9b efbc
00000220: 1ab2 243d 9206 633c 4b99 4e3d 0aca 3c3d
00000230: 9de3 a33d 922c 90bc a5bf 97bb 4224 e33b
00000240: 567a d039 8ef3 b73c ac99 1fbd c90b 35bd
00000250: a862 ae3c 0eb5 58bd d45d 273c 0a9b 283d
00000260: 9cbb 423c 1f29 e43c cf7d c0bc f72b 27bd
00000270: cf56 f13c 3d1d 19bb cf92 03bc 889c 873d
00000280: 489d 6d3d cba4 413d 1ec1 173c 2205 1abc
00000290: b689 c73b dfc3 45bc e251 9bbd 313e a1bd
000002a0: 0b2e 633c 4532 ccbc 4786 603c 8269 56bd
000002b0: c73f 57bd 79f0 47bc 7741 ff3c fc5e 763d
000002c0: 97d2 b23c 5463 36bc 0410 6a3c 2462 67bc
000002d0: 7d52 eebc 4e13 963c 1dd6 df3c 2542 08bc
000002e0: 6b1d 4a3d 6c8a ed3c bf6f 033d 14cf fdba
000002f0: 0882 403c b7d3 43bc cf83 32bd 4a0b 523d
00000300: 0e18 8e3a ca05 b33c c9f6 10bc 84e1 033c
00000310: a0c3 133d b07b 033d a740 e73b 08f5 9b3c
00000320: bcd3 603d 87d2 b3bc 7374 65bc 0e60 c83c
00000330: 651c 973b 6d6c 5c3d 2f9e 9f3d dddb 25bd
00000340: 6d4f 94bd 10b1 7cbd b96b 3e3b ec8c bc3c
00000350: f822 063d 8b53 48bc 999d 51bd 1feb 0bbd
00000360: a677 683c c876 9fbc 7780 5dbc 17fc eeb8
00000370: 4641 09bd e773 eebb 7360 043d 9313 ec3c
00000380: a338 063d 705a 17bd a3d2 64bd 2e45 9bbc
00000390: 9f46 52bd 3c6e 6dbd 7d4e 95bd a985 cabc
000003a0: 3557 06bc 861c ae3b 05d8 e1bd 2336 adbd
000003b0: fa45 7cbd e5d5 ddbd 2534 0abd b562 b6bc
000003c0: 42b6 82bd 6bcb 883d 5998 c5bc 7028 3abd
000003d0: 46b8 06bd 5761 14bd 745f 2dbc d3ad 093d
000003e0: 5ed2 3fbd 7073 4a3c 0ad9 35bd 58cb c1bc
000003f0: dc41 67bd ed4b 8cbc 492e 05bd edb3 34bd
-0.015752008 -0.012907798 -0.0060985694 -0.007257659 0.009226039 0.042687923 -0.016486142 -0.067486435
-0.015100629 -0.029797828 -0.04814183 0.018362502 0.021777747 0.011060186 0.037398692 0.01646014
-0.0205317 0.007465903 -0.059233356 -0.030194972 -0.0028389364 0.019491881 0.008967695 -0.01913554
0.007011183 -0.062674694 -0.032382652 -0.024831668 0.062113814 0.019194134 0.052386906 -0.01334974
0.03529482 -0.006117826 0.0010183019 -0.041238498 -0.0063762735 0.013852007 0.07611369 0.054219265
0.0045477008 0.04370254 0.0070473463 -0.08468274 0.042480204 0.03619272 0.0421748 -0.04401864
-0.07266229 -0.051318735 -0.041071672 -0.08349678 0.0042558922 -0.027820293 -0.07053794 -0.063825965
-0.07269574 -0.038164996 0.01160438 0.017422799 -0.049032465 -0.06708147 -0.020869672 -0.033091225
-0.031685516 0.016471893 0.03626702 0.008602559 0.07027495 0.036375035 0.03389408 -0.014201409
0.011035672 -0.07065092 -0.054288957 0.044516485 -0.0033071707 0.018104404 0.010324646 -0.05366223
-0.052345384 -0.015228903 0.014277108 0.011524972 -0.01235965 -0.015135582 -0.017944133 0.045048535
-0.04707177 0.00562007 -0.010022405 -0.04508325 -0.023059271 0.011692319 -0.026203921 -0.10507809
-0.035314027 -0.041776016 -0.08265994 0.023414576 0.008765296 -0.094984286 -0.005629886 -0.017190374
-0.05936865 -0.008885784 0.02666021 0.0016028339 -0.05967229 -0.040687375 -0.034855034 0.010263966
-0.0154588865 -0.015267918 0.03991793 -0.043730866 -0.029364694 -0.028748607 -0.05258782 -0.008313303
0.051957663 0.047919907 0.04281394 0.015893463 0.009630303 0.018873699 -0.011525934 0.020186283
0.022004673 0.02142287 -0.011984298 0.021511089 -0.057463396 -0.05241007 -0.055996094 -0.029249031
0.040208913 0.013856547 0.05043916 0.046091117 0.08002398 -0.017599378 -0.004631 0.0069318125
0.00039764 0.022455003 -0.038964912 -0.044200692 0.021287277 -0.052907042 0.010215241 0.04116348
0.01188555 0.02785164 -0.02349749 -0.040813413 0.029460339 -0.0023363375 -0.008030607 0.06621653
0.058011323 0.0472763 0.009262351 -0.009400638 0.0060894145 -0.012070625 -0.07583977 -0.0787319
0.013865958 -0.024926314 0.013703889 -0.052346714 -0.052551057 -0.012203329 0.031159146 0.060149178
0.021828933 -0.01113208 0.014286045 -0.01412252 -0.029092068 0.018319752 0.027323777 -0.008316551
0.04934446 0.028996669 0.03208899 -0.0019364082 0.011749752 -0.011952332 -0.043582734 0.051280297
0.0010840909 0.021853346 -0.008847901 0.008049373 0.036075234 0.03210038 0.0070572677 0.019037738
0.054889426 -0.021950973 -0.014004814 0.024459865 0.004611539 0.05381434 0.07793843 -0.04049288
-0.07241712 -0.061692297 0.0029055907 0.023016416 0.032748193 -0.012226949 -0.051175687 -0.034159776
0.014188683 -0.019465819 -0.013519398 -0.0001139568 -0.033509515 -0.007277 0.032318544 0.028817927
0.032768857 -0.036951482 -0.05586494 -0.018953886 -0.05133688 -0.057966456 -0.07290361 -0.024721937
-0.008199503 0.005313459 -0.110275306 -0.084575914 -0.061590172 -0.10831813 -0.033741135 -0.022263864
-0.06382419 0.06679424 -0.024120497 -0.04544872 -0.03289058 -0.036225643 -0.01058184 0.033613037
-0.04683148 0.012356624 -0.044396438 -0.023656532 -0.056459293 -0.017126048 -0.032514844 -0.044116903

backbone.bn3.weight f4 [128]
00000000: 3878 7b3f ab3a 823f 303c 873f 7444 803f
00000010: 9efb 7c3f fe3f 803f 0b70 783f cddd 843f
00000020: e4fe 7e3f 3b9f 813f e17f 873f 05a4 893f
00000030: f0e7 853f 30c0 863f ae83 8d3f 8329 883f
00000040: 6c5c 8b3f de59 833f c9bf 853f 6bbd 823f
00000050: a85e 833f a4e4 683f fddc 863f 77ed 863f
00000060: 1f54 7e3f fd2f 883f 3751 853f 7a5a 883f
00000070: ccf7 873f 72f0 863f fa56 713f d51c 7b3f
00000080: 592e 8b3f dea1 7f3f fcbc 853f 14e3 7a3f
00000090: 94d6 813f 9077 843f 2dd5 813f d952 7b3f
000000a0: 7e24 833f 6b6b 823f 15db 823f fe88 773f
000000b0: a3ab 7e3f d35e 803f 8e64 843f c206 793f
000000c0: 6927 7e3f 9f67 843f 5c69 833f b55e 863f
000000d0: 745c 7e3f 6308 883f 4bda 653f 3310 843f
000000e0: 0ff0 823f 916b 823f f637 823f a8b9 803f
000000f0: a7bf 853f 1688 883f d75b 7e3f eee3 7e3f
00000100: 58f3 7e3f a56c 863f 2d1a 853f 2ebe 803f
00000110: f83d 8a3f b295 7d3f 4e3e 8e3f 82ba 833f
00000120: 0fec 803f cfd6 813f d3c7 7e3f e6f3 823f
00000130: dcdb 733f 2c1e 853f 908d 863f a626 873f
00000140: 75d3 813f 5d06 853f 2b37 823f ff77 863f
00000150: 4ac2 783f 5e7e 7e3f ecc9 863f cd00 7b3f
00000160: cc83 823f 2138 7e3f c7ba 843f af06 653f
00000170: 699f 8a3f 65f0 7d3f 4bbf 873f 7f0f 733f
00000180: d83c 883f 5fc1 8d3f 9aeb 7e3f f99a 7e3f
00000190: 1c50 823f 8925 813f 83a4 683f 7f08 873f
000001a0: ac9b 6c3f 6e79 7f3f dd93 6d3f e985 843f
000001b0: 3b86 813f c015 863f fb5b 7a3f a519 803f
000001c0: 567a 813f a663 833f 6fad 8b3f b768 833f
000001d0: 1266 813f 2e6c 823f 32a0 833f 3e32 7e3f
000001e0: 6d8a 7c3f 2c11 883f 320f 813f eb15 823f
000001f0: 06d7 7d3f 850a 843f 3cee 853f 86c8 883f
0.98230314 1.0174154 1.0565243 1.002089 0.9882144 1.0019529 0.97045964 1.0380188
0.9960768 1.0126718 1.05859 1.075318 1.0461407 1.0527401 1.105581 1.0637668
1.088758 1.02618 1.0449153 1.0214056 1.0263262 0.9097388 1.053619 1.0541219
0.9934711 1.0639645 1.041541 1.0652611 1.0622497 1.0542128 0.9427334 0.9809087
1.0873519 0.99856365 1.0448298 0.98002744 1.0143609 1.0348988 1.0143181 0.9817329
1.0245512 1.0189031 1.0223109 0.9669341 0.99480647 1.0028938 1.0343187 0.97275937
0.99278885 1.0344123 1.0266528 1.0497652 0.9935982 1.062756 0.89786214 1.0317444
1.022951 1.0189077 1.0173328 1.0056658 1.0449113 1.066653 0.99358886 0.99566543
0.99590063 1.0501906 1.0398613 1.0058038 1.0800161 0.9905654 1.1112764 1.0291293
1.0072039 1.0143679 0.9952366 1.0230682 0.95257354 1.0399833 1.0511951 1.055867
1.0142657 1.0392567 1.0173086 1.050537 0.9717146 0.9941157 1.0530372 0.98048097
1.0196471 0.99304396 1.03695 0.89463323 1.0829898 0.9919494 1.0605253 0.9494552
1.0643568 1.1074637 0.9957825 0.9945522 1.0180697 1.008958 0.90876025 1.0549468
0.92425036 0.9979466 0.92803746 1.0353366 1.0119089 1.0475388 0.977966 1.0007826
1.0115459 1.0264785 1.0912303 1.0266331 1.0109274 1.0189264 1.0283263 0.99295413
0.9864872 1.063024 1.0082762 1.0162939 0.99156225 1.031571 1.0463328 1.0686195
