PointPillarUpgrades/output_20251201_141240/pointpillars_ModelNet10.pth (torch, 663206 bytes, 40 tensors)

pfn.blocks.0.fc.weight f4 [64, 8]
000000 74 e2 70 3e 5b 48 9f 3e ce ce fd bd cb b9 81 3e
       0.23523885 0.3110989 -0.123929605 0.2533706
000010 69 c9 ae bd 5f a1 70 3d 62 59 46 be 00 31 4f 3e
       -0.0853451 0.058747645 -0.19370034 0.20233536
000020 af c9 96 3e 54 cd 87 be 20 29 b0 3e 4d bb 87 bc
       0.29450747 -0.2652384 0.34406376 -0.016568804
000030 b2 88 35 3e 03 f2 46 3a dd a7 e4 3d 14 93 73 bd
       0.17727926 0.0007589163 0.1116483 -0.059466437
000040 c8 4b 91 3e 93 5b 08 3d db f0 56 be fa 02 ee 3d
       0.2837813 0.033290457 -0.20990317 0.116216615
000050 5c d6 c3 bd 19 6b cf bb e5 dc 30 be 4c 6a 57 3e
       -0.0956237 -0.0063299057 -0.17271765 0.21036643
000060 5f 80 84 be 32 ce a5 bd d9 78 1c be 3a 9b ce bd
       -0.2587919 -0.08095969 -0.15280475 -0.10088201
000070 0d 9d 16 3e 25 a9 d0 be 63 5f c1 3e ac 27 6f be
       0.14708348 -0.40754047 0.37768087 -0.23354977
000080 08 e2 4e 3e 6f d7 23 3d 37 1f de bd bf a1 8b 3e
       0.20203412 0.040000375 -0.108457975 0.2727184
000090 41 cc 7a 3d 03 cc b4 3e 26 05 b6 3c 93 97 a1 bd
       0.061229948 0.353119 0.022219252 -0.078902386
0000a0 64 bd 98 3d d7 ba 8c bd 7a 53 35 3e 57 d8 e8 3e
       0.074579984 -0.06871574 0.17707625 0.45477554
0000b0 08 9e 23 3e f1 b8 3e be 46 4d 8b 3e 7f 5c 64 3d
       0.15978253 -0.18625237 0.27207392 0.055752274
0000c0 d5 7c 1c 3e ea c2 ef bd 1e 5b cd be d2 6d 1d be
       0.15281995 -0.11707099 -0.4010858 -0.15373924
0000d0 3b 83 4d be b8 40 b1 3e 0a 70 40 3d 73 2c d1 3d
       -0.20069592 0.3461969 0.04698185 0.10213556
0000e0 06 5a 82 3d 2e 29 ac 3c 9d 40 c8 3e 9b 01 87 be
       0.06364827 0.02101573 0.39111796 -0.26368412
0000f0 b4 e6 87 3d 79 66 06 be c5 7a 4c 3e 55 39 b2 bd
       0.066358 -0.13125028 0.19968708 -0.087023415
000100 24 21 87 3d 3a 27 7f bd 9d 92 ad 3e bb ac 9a bd
       0.06598118 -0.06229327 0.3390092 -0.07552477
000110 ad e8 57 be e6 d2 3e be fe 77 bf 3e 60 34 d4 3d
       -0.21084853 -0.18635139 0.37396234 0.10361552
000120 95 cb a4 3e d4 8d 9d be 56 2d b3 be 31 75 78 be
       0.3218657 -0.3077227 -0.34995526 -0.24263455
000130 92 9c 6a be 7e 7b 37 3e a9 b3 d9 3d da ca 81 3e
       -0.2291129 0.17918202 0.106299706 0.25350076
000140 5c 71 33 be 85 45 5e be d0 d0 42 3e 26 5a 18 ba
       -0.17523712 -0.21706207 0.19024968 -0.0005811773
000150 37 75 59 3e 98 81 09 be 11 e6 70 3e 77 8f 90 be
       0.2123612 -0.13428342 0.23525263 -0.28234455
000160 4f 24 0c be 16 c4 02 3e 54 87 0f 3e 1b 8f 8a be
       -0.13685726 0.12770113 0.14016467 -0.27062306
000170 e7 eb 45 3e 4e ec 79 3e 2c dd af be 40 19 0d be
       0.19328271 0.2440655 -0.34348428 -0.13779163
000180 f3 70 92 3e 7f 67 da bd 7e 0d 3c be 14 48 56 be
       0.28601798 -0.106642716 -0.18364522 -0.20925933
000190 62 56 4a be 08 3d 89 3d 24 4d 1a bc 49 fe 96 be
       -0.19759515 0.06701094 -0.009417806 -0.2949088
0001a0 d5 7d 17 3d a3 72 7f be 3e cd 85 be e6 7a 60 be
       0.036985237 -0.24946074 -0.2613315 -0.21921882
0001b0 df 5a 35 be ab be 90 be 1a fd 91 3e f0 46 1c 3e
       -0.17710446 -0.28270468 0.28513414 0.15261436
0001c0 0c 2e 0c 3e 28 28 b9 be 4f 48 46 be 98 48 b0 bd
       0.1368944 -0.3616345 -0.19363521 -0.08607596
0001d0 df a7 9d 3d f1 18 91 be 16 0a 83 bd 18 cd 32 be
       0.076980345 -0.2833934 -0.06398408 -0.1746105
0001e0 a1 93 7e bc e7 60 25 be 94 32 9c bd b8 0f 87 be
       -0.015538127 -0.16150247 -0.076268345 -0.2637918
0001f0 d2 6e 35 be 13 3f 8a be fc f3 7c bd f9 53 42 be
       -0.17718056 -0.27001247 -0.06175612 -0.18977346
000200 99 ca 65 3e 10 d6 23 bd 72 ae ba 3e b9 13 37 3d
       0.22440566 -0.039999068 0.36461216 0.044696543
000210 dd 33 bd be 8a 26 8e 3e c1 53 26 bd 80 ca 13 be
       -0.3695363 0.27763778 -0.040607218 -0.14432716
000220 ee d5 5a be 10 5c b3 be 47 9b a4 3d cd a1 6e 3b
       -0.2137067 -0.35031176 0.08037429 0.0036412359
000230 69 5b 2b 3e 61 4b b1 be a4 d5 89 3e 4b 25 86 be
       0.16734089 -0.34627822 0.26920807 -0.26200327
000240 79 20 07 bd 79 9c 10 3d b9 9d 50 3e b3 b0 7c 3e
       -0.032989953 0.035305474 0.20372666 0.2467678
000250 c7 96 82 3e aa 82 b1 be 85 45 ff 3d 12 24 ba bd
       0.2550566 -0.3467 0.12464432 -0.09088911
000260 a0 52 3a bd 82 44 76 be 67 f4 a7 3e 7a b5 74 be
       -0.045488954 -0.24049571 0.32803652 -0.23897353
000270 25 ef 21 3d 7c 4e 36 3e fb ba 32 3e 62 65 64 be
       0.039534707 0.17803377 0.1745414 -0.223043
000280 b0 f1 ac 3e 23 81 a8 3d 85 b1 89 3d ee 36 3c be
       0.33778143 0.08227756 0.06723312 -0.18380329
000290 8b d6 9c 3d cf d6 d4 bc 9f 7d 6e be 5b 95 8f 3e
       0.07658108 -0.025981335 -0.23290108 0.28043637
0002a0 bb 9e cf 3d 96 ce 00 be 4a 56 83 be f8 96 30 3c
       0.10137697 -0.12578806 -0.2565177 0.010778181
0002b0 5a 4d 5f 3e 3d 61 df bd ef 25 8b bd 98 c6 d5 bd
       0.21806851 -0.109072186 -0.06794345 -0.104382694
0002c0 e9 5b 19 be 2c f8 ea 3d 6a 8c c0 3e a1 70 62 bd
       -0.14976467 0.11473116 0.37607127 -0.055283193
0002d0 3c a2 a3 3d 56 6b 8c 3e e6 31 4b 3e 4e 15 c7 bd
       0.07989928 0.2742564 0.19843253 -0.097208604
0002e0 82 63 29 3e 0f 4a 31 3e 8e 1f 4e 3e b4 63 c1 bd
       0.16541865 0.17313407 0.20129225 -0.09442845
0002f0 33 de ba bd c3 67 70 3d 4d 56 9b bd b0 8a a0 bd
       -0.091244124 0.058692705 -0.0758482 -0.078389525
000300 31 a4 6d 3e d3 98 94 3e 2e 0c a9 bd 04 42 0c be
       0.23207165 0.29022846 -0.08254276 -0.13697058
000310 da 52 45 bc 84 84 50 bd 5e 47 91 3d fd 6b af 3d
       -0.012043679 -0.050907627 0.0709369 0.08565519
000320 08 77 92 be ef e2 ca bd 36 bb ab 3e 7a 2e dc 3d
       -0.2860644 -0.099065654 0.33541268 0.10751052
000330 e4 f6 32 3d 32 84 7f be 4d 23 81 be 59 78 8f be
       0.043692484 -0.24952772 -0.25222245 -0.28021505
000340 64 7d 4f bd 92 27 c1 3d ce 78 ac 3e f7 5b bc 3d
       -0.05065669 0.094313756 0.33685917 0.091972284
000350 7d 58 b5 be 79 33 31 be 85 b4 34 bd 02 60 8b 3e
       -0.35419074 -0.17304792 -0.04411747 0.27221686
000360 de e8 8d 3d d4 f4 77 bc 1b 6f 75 3e 18 85 c3 3c
       0.069291815 -0.015134055 0.23968165 0.023867175
000370 b6 9a 7a be f7 63 88 3e 01 19 9c ba 3f 34 59 bd
       -0.2447308 0.26638767 -0.0011909307 -0.05302834
000380 f9 ab b1 be e7 7f 5e 3e 22 0e ab 3e a8 28 2f bc
       -0.34701517 0.21728478 0.3340922 -0.010690846
000390 6b 32 a4 be a5 9d aa be a2 ca a9 be 84 69 40 3e
       -0.32069716 -0.33323398 -0.3316241 0.18790251
0003a0 f4 06 20 3e e9 f5 8f 3e 0a 4a 55 3e 7a b8 3b 3d
       0.15627652 0.28117302 0.20829025 0.045830227
0003b0 f9 a7 ed bc 10 6d 8e be ea a5 b6 be c5 86 99 be
       -0.02901076 -0.27817583 -0.35673457 -0.29985633
0003c0 05 35 f4 3d 34 bf 10 be 09 e1 cb bd b4 7e af bd
       0.11924175 -0.14135438 -0.099550314 -0.085690886
0003d0 d6 d1 45 3c 39 10 b5 be 09 d7 f0 bd f2 5d c7 3d
       0.012073955 -0.3536394 -0.11759765 0.097347155
0003e0 8b f1 a4 bd 27 8a 65 3e b7 22 9c bd 84 49 b9 be
       -0.08053883 0.22415982 -0.07623809 -0.361889
0003f0 d8 f7 de bd e8 67 ca bd 73 20 74 be bb 4a ba be
       -0.10887116 -0.098831 -0.23840503 -0.3638514

pfn.blocks.0.bn.weight f4 [64]
000000 44 fa 71 3f 37 84 75 3f c2 c7 6e 3f 4b 18 7a 3f
       0.945225 0.9590487 0.93273556 0.9769332
000010 6a 61 7e 3f e2 72 83 3f 2e c7 7e 3f 7b 29 90 3f
       0.9936739 1.0269434 0.99522674 1.1262659
000020 a4 db 89 3f 7d da 6b 3f 37 ed 5f 3f a8 00 84 3f
       1.0770154 0.9213026 0.87471336 1.03127
000030 3a 62 7c 3f 82 e8 7b 3f 48 06 5e 3f 4b 11 6e 3f
       0.9858738 0.98401654 0.86728334 0.92995137
000040 d3 b3 88 3f 05 22 71 3f d6 b5 8b 3f 5f 08 81 3f
       1.0679878 0.94192535 1.0914867 1.008068
000050 08 53 69 3f 01 31 74 3f bd bc 82 3f 38 92 77 3f
       0.9114232 0.95387274 1.0213848 0.9670749
000060 1c de 63 3f 12 9c 73 3f f6 3f 75 3f 1f 24 88 3f
       0.89010787 0.9516002 0.9580072 1.0636023
000070 f7 29 7c 3f a0 1b 70 3f e6 52 80 3f 56 16 6f 3f
       0.98501533 0.9379215 1.0025299 0.93393457
000080 1b 01 77 3f 80 86 71 3f 20 06 85 3f 29 a9 73 3f
       0.9648606 0.94345856 1.0392494 0.9517999
000090 29 fe 6d 3f 61 d4 76 3f 2b b8 78 3f 49 a6 91 3f
       0.9296594 0.96417814 0.9715602 1.1378871
0000a0 50 10 74 3f ab 22 69 3f 19 d9 78 3f 13 ac 7c 3f
       0.9533739 0.91068524 0.97206265 0.98700064
0000b0 4b 3b 6f 3f 1b 78 82 3f 0a 52 75 3f ed f3 77 3f
       0.9344985 1.0192903 0.95828307 0.96856576
0000c0 85 1b 76 3f 7d c7 6f 3f c0 3c 7b 3f d7 6d 85 3f
       0.9613574 0.9366377 0.9813957 1.0424145
0000d0 34 1b 83 3f 2f 9c 7b 3f 8b 7b 80 3f c2 a0 5a 3f
       1.0242677 0.9828519 1.0037702 0.85401547
0000e0 c0 a5 6e 3f 7c 09 73 3f 75 3e 76 3f 62 c3 7c 3f
       0.93221664 0.94936347 0.9618905 0.9873563
0000f0 f2 56 6c 3f 3c 5d 67 3f 60 f2 5f 3f be 66 6f 3f
       0.9232017 0.9037664 0.8747921 0.9351615

pfn.blocks.0.bn.bias f4 [64]
000000 c7 2f 03 bd 80 63 c9 bd dc cd 30 3d e6 fe a9 bc
       -0.032027986 -0.09833431 0.043165073 -0.020751428
000010 85 3c 67 bc 47 3b 47 3c e1 43 d4 bc 03 0d 1f 3d
       -0.01411355 0.012160129 -0.025911273 0.03883077
000020 4c 2e 83 3c 3c a8 a2 bd 19 97 57 bd 46 af 23 3a
       0.016013287 -0.079422444 -0.052634332 0.00062440743
000030 61 6f dd 3b 40 d5 b5 3c d1 82 63 bc af 54 b5 bc
       0.006757662 0.022196412 -0.0138861695 -0.022135107
000040 99 d1 82 bc bd 16 26 bc c6 fa b2 bc 17 2f 65 bd
       -0.015969085 -0.010137257 -0.021848094 -0.05595311
000050 43 6b 66 3d 10 a9 af bd 0c bb 4d bb da be b4 bd
       0.056254636 -0.08577168 -0.0031392006 -0.088254645
000060 8d 41 8f bd b0 ca 59 bc 84 16 fa 3c 0c d3 aa bc
       -0.06994925 -0.013292953 0.030528314 -0.020852588
000070 a1 a7 7d bc 23 0a 8d bd 5b 19 f2 3a d3 b6 78 bd
       -0.01548186 -0.06886699 0.0018470691 -0.06072123
000080 ec a9 d4 3c 4f c6 67 bd 7b 43 d1 bb 6a a9 bd bd
       0.025959931 -0.056585606 -0.006386218 -0.09260829
000090 7d 18 99 bd f5 48 42 bd c9 a8 8b bd 5d 70 35 3c
       -0.07475374 -0.04743286 -0.068193026 0.011074153
0000a0 02 90 e9 bc 4b 5b b3 bc 17 d2 f4 bc ad 87 41 bc
       -0.028511051 -0.021894118 -0.029885335 -0.011812133
0000b0 c8 46 1e bd 52 01 12 bb d2 e1 e3 bc 16 e0 01 3d
       -0.03864172 -0.002227862 -0.02781764 0.031707846
0000c0 ac b0 90 3c 77 ab 23 3d 52 c4 9b bc 86 61 d5 bc
       0.017662369 0.039958443 -0.019014511 -0.02604748
0000d0 45 2e 91 3c 82 c7 d2 bc ff 20 30 3c 41 37 27 bd
       0.017722258 -0.025729898 0.010750054 -0.04082418
0000e0 e5 d7 cf bc bd 62 9e bd bd 00 6b 3c 5d b7 4f 3c
       -0.025371501 -0.077336766 0.014343438 0.012677995
0000f0 0b bd eb bd 05 0b bf bd 23 be b7 bd c0 24 df bc
       -0.115106665 -0.09328274 -0.089718126 -0.027239203

pfn.blocks.0.bn.running_mean f4 [64]
000000 35 00 5a b8 6c 04 a1 b8 08 4c 39 b8 19 7b 6b b7
       -5.1975443e-05 -7.677902e-05 -4.4178247e-05 -1.4035752e-05
000010 4c c6 78 b8 89 8c bb b8 91 70 50 b8 36 3b 8c b8
       -5.9312486e-05 -8.9430316e-05 -4.96959e-05 -6.686749e-05
000020 f8 fe f5 b8 13 82 d3 b8 9a 56 b4 37 b6 0e 04 39
       -0.00011730002 -0.00010085492 2.1498e-05 0.00012593981
000030 3d 54 3d b8 45 c3 99 b8 c0 16 df 37 a4 a2 46 38
       -4.5139564e-05 -7.33198e-05 2.6594265e-05 4.735835e-05
000040 ed 7e 0d b8 36 30 0f 38 7c 9f bb b7 0a 5a 2d 36
       -3.373523e-05 3.4138757e-05 -2.2366403e-05 2.5831418e-06
000050 b8 0d 51 b8 5e f4 14 37 cf 25 9c b7 4c f9 11 b8
       -4.984226e-05 8.878384e-06 -1.8614255e-05 -3.480287e-05
000060 55 5a ef b8 ec 05 34 39 e7 92 df 35 60 7e 4a b7
       -0.00011413234 0.00017168344 1.6657549e-06 -1.2069562e-05
000070 ad 61 1e 39 a6 b1 3f 38 3a 39 05 37 f5 1d b3 38
       0.00015104441 4.5703397e-05 7.940742e-06 8.540965e-05
000080 ad 62 8f b8 95 61 b7 b8 86 6b d8 b8 52 18 0b 39
       -6.837151e-05 -8.744296e-05 -0.000103197104 0.00013265133
000090 89 16 bc b8 c6 ac 68 38 b6 86 1f b8 2b 7c b6 37
       -8.968736e-05 5.5474018e-05 -3.8034013e-05 2.1753911e-05
0000a0 5e 86 06 39 a0 14 2d 38 d7 d3 e5 38 cc b5 b2 38
       0.00012829292 4.1265623e-05 0.00010959029 8.521564e-05
0000b0 66 7c a5 b8 8e 85 f7 37 9d ea 37 39 14 e6 52 b8
       -7.890984e-05 2.9506886e-05 0.0001753964 -5.028218e-05
0000c0 67 99 00 38 fd ef bd b8 76 cc c0 38 f8 f1 26 b7
       3.0660445e-05 -9.0569236e-05 9.193357e-05 -9.950709e-06
0000d0 dc f8 67 38 f9 62 b1 b8 74 54 0a 38 e5 4b fd 37
       5.530646e-05 -8.458453e-05 3.2980417e-05 3.0195291e-05
0000e0 66 c7 7c b8 47 ab 3d b8 33 98 eb b8 1e 18 0b b8
       -6.0267186e-05 -4.5220626e-05 -0.000112340225 -3.3162643e-05
0000f0 d9 29 a2 b8 4c 30 dc b8 56 de ce b8 fd 61 b3 b8
       -7.732557e-05 -0.000104994135 -9.864259e-05 -8.553637e-05

pfn.blocks.0.bn.running_var f4 [64]
000000 b4 27 4c 3a 56 6e 5a 3a b5 59 b4 39 de b7 66 3a
       0.00077878986 0.00083324814 0.00034399112 0.0008801202
000010 00 51 60 39 b2 eb 9a 38 a5 0e a8 39 17 1d 94 39
       0.0002139248 7.387194e-05 0.00032054368 0.00028250433
000020 6c 97 40 39 1e 27 80 3a 13 2a 01 3a 67 b0 e2 39
       0.00018366956 0.0009777283 0.0004927229 0.0004323751
000030 75 5b 11 3a 53 fc 7c 3a de 3c b6 3a c4 f4 03 3a
       0.0005544939 0.00096506363 0.0013903638 0.00050337263
000040 ba 5b 80 3a a1 81 90 3a eb ac cd 38 c4 19 68 3a
       0.0009792962 0.001102496 9.80737e-05 0.0008853937
000050 70 05 fe 39 aa c6 eb 39 af 57 80 3a c4 59 d3 39
       0.00048450707 0.0004497071 0.0009791757 0.00040311937
000060 69 62 27 3a 90 de d6 39 2a 20 c9 39 b3 60 01 3a
       0.00063852087 0.00040983083 0.00038361672 0.0004935369
000070 ea f4 57 3a 6a 5f 1f 3a 8c bb 01 3a b6 ed dc 39
       0.0008238094 0.00060795865 0.0004948906 0.00042138778
000080 b8 07 f5 39 98 52 5b 3a ee b5 94 3a 15 2e d8 39
       0.00046735792 0.00083664944 0.0011345723 0.00041233064
000090 b8 68 31 3a 03 48 bb 39 42 e7 46 3a 4c 7d e5 3a
       0.00067676185 0.00035721072 0.00075875607 0.0017508655
0000a0 fa bd af 39 d4 02 b4 39 22 77 9e 39 cd a3 49 3a
       0.00033520145 0.00034334383 0.0003022487 0.000769195
0000b0 00 86 6f 3a 58 37 12 3a a7 84 01 3a d9 d2 21 3a
       0.0009137094 0.0005577705 0.0004940726 0.00061730813
0000c0 51 ac 58 3a 30 f0 d2 39 50 5d ca 39 3e 77 33 39
       0.0008265423 0.00040233275 0.00038597966 0.00017115191
0000d0 88 ca 2c 3a e5 76 38 39 1d 04 d8 39 58 20 56 3a
       0.0006591459 0.00017591899 0.00041201795 0.0008168272
0000e0 42 a0 0f 3a 71 b2 20 3a c9 6b a3 39 9f 2e 35 3a
       0.00054788974 0.00061301055 0.0003117009 0.0006911549
0000f0 bb 39 30 3a e7 3e 73 3a 90 43 63 3a d6 46 32 3a
       0.00067224697 0.00092790875 0.00086694304 0.00068007165

pfn.blocks.0.proj.weight f4 [64, 8]
000000 2c b2 91 3d e8 82 71 be e9 e0 3f be a6 b6 d3 3c
       0.07114062 -0.23585093 -0.1873814 0.02584393
000010 60 f7 06 3e c3 01 74 be cb 0b 9d 3d 40 cb cc bc
       0.13180304 -0.23828797 0.07668265 -0.02499926
000020 57 ea 2f bd 9b 40 4e 3e 3b 29 c3 3c d0 22 49 bc
       -0.042948093 0.20141833 0.023823371 -0.012276366
000030 e5 c3 28 3d c9 62 6f be 6b ed 33 bc 76 0a af 3d
       0.041202445 -0.23377527 -0.010981898 0.08546917
000040 eb de 69 3d 7e 10 88 3c c3 37 69 3c 21 9b 33 bc
       0.057097357 0.016609427 0.014234486 -0.010962279
000050 8d 64 83 bc ce 0e 76 3e b4 4d 81 3b 76 23 46 bd
       -0.016039157 0.24029085 0.0039460305 -0.048373662
000060 74 ec 68 be 55 db 86 3d 26 0a 51 be ff 34 82 3c
       -0.2274645 0.06584803 -0.20414028 0.015894411
000070 87 81 9c ba 23 71 72 bd db 9e 42 3c fb 6f bb 3d
       -0.0011940458 -0.059189927 0.011878694 0.09152218
000080 54 19 38 3e 29 6c 8c 3c 83 fa dc 3d 0e 7d 1c 3d
       0.17978412 0.017141419 0.10789969 0.0382052
000090 8e a6 37 3d d0 51 4b bd ed fe 83 bc 28 8c ea 3d
       0.044836573 -0.04963857 -0.016112769 0.11452514
0000a0 2a 7f aa bd 89 48 16 3e 2a 57 e8 3c 01 47 74 3c
       -0.08325036 0.14676107 0.028361876 0.014909507
0000b0 4d e6 ff 3c 4c 52 06 3d e9 9f 11 3d 86 c7 7f 3e
       0.031237746 0.03279333 0.035552893 0.24978456
0000c0 4e 36 3d 3e d2 10 9e 3e dd 84 b9 3a 4a 41 05 bc
       0.18477747 0.30872208 0.0014153976 -0.008133242
0000d0 e4 bc d3 bc 90 cd 72 bd 2e b9 6d bd 72 83 05 be
       -0.025846906 -0.05927807 -0.05803793 -0.13038424
0000e0 b6 d1 86 be 16 39 82 be 18 9f 40 bd 2f c3 97 bc
       -0.26331872 -0.25434178 -0.047026724 -0.018525688
0000f0 61 8d 8d bd 4b db 44 3e 9c 8a 01 3e 26 82 78 bd
       -0.069117315 0.19224279 0.12650532 -0.060670994
000100 25 77 bd bd 67 0a 1b 3e d8 a4 50 bd 43 41 db 3c
       -0.09251241 0.15140687 -0.050938457 0.026764518
000110 39 81 51 3d 77 cf 40 be 1f bb 34 3d 46 b9 57 3e
       0.051148627 -0.18829142 0.044123765 0.2106677
000120 09 e5 97 3c 0e 49 fe 3d db 87 10 be 57 c1 25 3b
       0.01854183 0.12416278 -0.14114325 0.0025292241
000130 09 3a 42 3c 81 c8 da 3d 73 2a 48 3c c1 67 29 3e
       0.011854657 0.10682774 0.012217152 0.16543485
000140 6e 4d 31 be 0e cb 72 3d 64 2b 00 be bc 61 b7 3b
       -0.17314693 0.05927568 -0.12516552 0.0055963676
000150 83 58 7d 3c c6 15 3c be 2e d6 5f 3b 3d 07 13 3d
       0.015462997 -0.18367681 0.003415476 0.035895575
000160 5e 54 06 be eb 7d 2a 3e 54 3e 36 be a0 d8 88 bd
       -0.13118121 0.16649596 -0.17797214 -0.06681943
000170 e0 f8 9e bc 5b 07 40 be 5e 4c bc bd 3d 4a cc bb
       -0.019405782 -0.18752806 -0.091942534 -0.006234436
000180 d8 45 4e 3e 7e 4a 81 3e 6d 20 ef 3d fa 83 17 bc
       0.20143831 0.25252146 0.116761066 -0.009247774
000190 69 cf a5 bd 2e 03 2d 3e 5b 47 16 bc c4 84 fb 3a
       -0.08096201 0.16895744 -0.009172286 0.0019189348
0001a0 7a 8b 10 3d 67 a2 53 be ed 88 c6 bd 84 26 28 3c
       0.035289265 -0.2066742 -0.09694085 0.010263089
0001b0 66 ed 06 3d d4 3b 2a bd 1c 04 d3 bc ba 3d 50 bd
       0.032941245 -0.041560963 -0.025758795 -0.050840117
0001c0 b8 61 7e 3c 1a 40 b6 bd 0d 96 d7 3b a4 e8 5f 3c
       0.015526228 -0.08898945 0.0065791667 0.013666306
0001d0 1e 38 49 bd 27 7f a4 3d 3e c4 f5 3c 86 f1 12 bd
       -0.049125783 0.08032065 0.030000802 -0.035874866
0001e0 b3 dc bd 3d 5a 2c 6c 3e bd 13 d2 bd fc 48 08 bb
       0.09270611 0.23063794 -0.10257671 -0.0020795455
0001f0 6a c3 a9 bd 72 85 21 be 7a 42 ec bc fb f3 2c 3d
       -0.082892254 -0.15773562 -0.028840292 0.042224865
000200 57 32 2e 3d ff 92 74 be f9 79 b0 3e b7 02 57 3c
       0.042528477 -0.238842 0.34468058 0.013123206
000210 bd 69 5a be 5b 96 6e bd c4 b5 43 3d ce 06 81 bd
       -0.21329398 -0.05824886 0.047780767 -0.06300126
000220 28 4b 10 3c 4e 6d 93 bd 76 19 39 3e cb 84 9b 3c
       0.008806981 -0.071985826 0.18076119 0.018984219
000230 6b 1f af 3d ec 0e fe bc 81 22 f1 3c 84 a8 29 3e
       0.085509144 -0.031012975 0.029435398 0.1656819
000240 cb 72 d1 bc 87 5f 2c be 3a 03 cf bc cc 07 d9 3b
       -0.025567433 -0.16833316 -0.025270093 0.006623244
000250 7f cc d3 bd 63 f2 83 bc 2c eb 87 bd 5a d2 03 3e
       -0.10341739 -0.01610679 -0.06636652 0.12873212
000260 7c 65 b5 3d 78 08 19 3d a5 79 0c 3e 5a ee 99 3b
       0.08857247 0.037361592 0.13718279 0.004697603
000270 5e 8c 70 bc ec 7e 06 be 8f 74 78 bc 6b 28 ee 3d
       -0.014681904 -0.13134354 -0.0151645085 0.11628803
000280 4b b4 7d 3e 6b 34 dd 3d 7a b8 0d be ee 88 47 3c
       0.24775808 0.108010136 -0.13839903 0.012178643
000290 99 1b 8f bd ca ad 9b bb 56 dd 4e bd cd 23 af bd
       -0.06987686 -0.004750942 -0.05050405 -0.0855175
0002a0 35 58 1c 3e 2c 27 d6 3d 9c b1 30 be 08 26 e9 ba
       0.15268023 0.1045669 -0.17255253 -0.0017787823
0002b0 47 f0 ea bc 1c 04 68 3e 89 80 9f bc e4 fe a9 bc
       -0.028679026 0.22657818 -0.01947047 -0.020751424
0002c0 27 e8 44 be f6 dd 16 be b4 84 3f 3e 6c b8 4b 3d
       -0.19229184 -0.14733109 0.18702966 0.049736425
0002d0 4d ae 1a 3c ce 1b ab 3e fe 01 bf 3d f9 ba 1d 3e
       0.009440971 0.3341965 0.09326552 0.15403356
0002e0 86 f5 49 3e 8a dc 54 3e e5 a9 b7 bd 2b d9 62 bc
       0.19722566 0.20787254 -0.08967952 -0.013845722
0002f0 e0 f3 2f 3d 33 cd cd bd a3 7b d4 bc 92 4a 18 be
       0.042957187 -0.10048904 -0.02593786 -0.14872196
000300 91 5f 32 3d 00 5f 86 be d0 ab bb 3d 83 5c cb bc
       0.04354817 -0.26244354 0.0916363 -0.024824386
000310 5b df 90 bd d9 fc 21 3d 84 fe 1f bc ac 5d 78 3d
       -0.07073852 0.039547775 -0.009765271 0.060636207
000320 dd aa 24 3e 2a 7e 5f be 72 dd 71 3e f8 75 1d 3c
       0.16080804 -0.21825472 0.23619631 0.0096106455
000330 be 97 b4 3d 96 43 4b be 58 bb e3 bc f1 77 de bc
       0.08818005 -0.1985 -0.027799293 -0.027156802
000340 ba 78 26 bc d0 fa 0b 3e 97 b1 16 3e e1 56 18 bc
       -0.010160619 0.13669896 0.14716183 -0.009298057
000350 ca 05 e4 bc 92 89 85 3d e6 48 ef 3c 07 ef 56 be
       -0.027834792 0.0652038 0.029209565 -0.20989619
000360 4c 9a 84 be 37 f1 fe bd 9b fb 98 3e 3a 60 9a 3c
       -0.2589897 -0.12448352 0.2987946 0.018844713
000370 ed a0 34 be f3 f4 6b 3e 0f 1d bf 3d b0 73 54 3e
       -0.17639513 0.2304266 0.09331714 0.20747256
000380 c7 cd 5e be 43 c3 89 be 34 e3 15 3e 44 80 60 bc
       -0.21758185 -0.26906785 0.14637452 -0.013702456
000390 ce 6e ce 3c 34 61 db 3c 9a 84 ca 3b 4e 36 53 3e
       0.02519932 0.026779748 0.006180358 0.20626184
0003a0 53 58 26 be be 6a 18 be c0 a0 21 3e d6 14 80 bd
       -0.1624463 -0.14884469 0.15783978 -0.06253974
0003b0 7b 7d 7c bd 19 1a ee 3d 0d 81 01 bd 6d 0e 84 3d
       -0.061643105 0.116260715 -0.031617213 0.06448064
0003c0 79 3f 86 bd e3 84 04 3d 0e 43 74 3e 83 11 ac 3c
       -0.06555075 0.032353293 0.23853704 0.021004444
0003d0 6e 6d 16 3a 37 0b c9 3d a4 5d b2 3c b2 5f 3d 3e
       0.0005738352 0.09816592 0.021773167 0.18493536
0003e0 3a b5 db bd 89 b6 db bd 29 3e 68 bd 7b 85 cb bc
       -0.107279256 -0.10728175 -0.056699906 -0.024843922
0003f0 43 34 b3 bd a1 9d 1e 3e a2 fe e6 bc ff 70 50 be
       -0.087502025 0.15489818 -0.02819759 -0.20355605

backbone.conv1.weight f4 [32, 64, 3, 3]
000000 7c 31 d2 3d af 74 d7 3c 8c 1b fe 3c 62 bb f6 3b
       0.10263345 0.026300756 0.031018995 0.007529662
000010 7c 7c 9a bc 2e ab ec bc 8d 68 fd 3c f3 75 13 bd
       -0.018858187 -0.028890219 0.030933643 -0.036001157
000020 35 55 02 bc 19 8c 02 bd 79 8f 22 3b ca d7 a3 3c
       -0.007954885 -0.03187189 0.0024804755 0.020000357
000030 d0 f2 09 3d cc c1 22 bd 8e 83 86 bc b6 03 8f ba
       0.03367883 -0.0397356 -0.016420152 -0.001091114
000040 22 2b 6e bd 4e 8e aa bc b2 85 64 3d d5 6e 0c 3d
       -0.058146603 -0.02081981 0.055791564 0.034285385
000050 46 98 09 3c 63 3f 20 3c 92 bc fb bc 51 11 1b 3c
       0.008398121 0.009780738 -0.030729566 0.009464578
000060 fb 76 96 3c 7e ed 70 bd 5e d9 33 3c a5 f6 e3 bb
       0.018367281 -0.05882024 0.010977117 -0.0069568926
000070 db 52 9e bd e0 bb 0d bd b8 82 ab 3d f3 12 1d bd
       -0.07730647 -0.034603 0.08374542 -0.03834815
000080 f2 51 40 3b eb 4a a8 3c cf cc 22 bd 1e 6c 8a bd
       0.0029345718 0.020543536 -0.039746102 -0.06758903
000090 e7 48 98 bc ca a2 9c 3c ef 32 98 3c be dc 80 3d
       -0.01858945 0.019120593 0.018578975 0.06292103
0000a0 a6 ea 8f bd 8b b2 90 3b be 50 e2 bc 2f 98 36 bc
       -0.070271775 0.004415815 -0.027626392 -0.011144682
0000b0 33 d0 91 bb e9 46 bc 3d 42 69 76 3d e1 81 f1 3c
       -0.004449868 0.091932125 0.060158975 0.029480876
0000c0 82 eb f1 3a 73 63 fb 3c 7e 3b 73 bd 1f 15 e8 3c
       0.0018457028 0.03068707 -0.059382908 0.028330384
0000d0 cb 26 9b bc a4 d8 35 bd 4f 7f 2d bd 62 f8 1a 3c
       -0.018939396 -0.044396058 -0.04235774 0.009458633
0000e0 e8 e2 f7 3b e6 7e 5c bd 7f 29 d3 bd ed 7c 14 bd
       0.007564891 -0.053831957 -0.10310649 -0.03625195
0000f0 de a2 46 bd c8 6b 63 bc 04 07 e8 bc d6 d6 ca bb
       -0.048495166 -0.0138806775 -0.028323658 -0.006190161
000100 59 c8 67 bd d8 a1 a9 bd 53 bd fb 3c 6d 5d 7a 3d
       -0.05658755 -0.08282822 0.030729925 0.061124254
000110 95 fe ff bc d1 8b 72 3d 45 bc 98 3d 1a fe 02 3c
       -0.031249324 0.05921537 0.074577846 0.007995153
000120 fc 9a 2d bb 52 1d 0f 3d d3 24 81 bc 3b fa f1 3c
       -0.0026490083 0.03494007 -0.01576463 0.029538264
000130 bb dc a6 bc 71 e7 be b9 d9 ea 42 bb 7a a9 3f 3d
       -0.020368924 -0.0003641206 -0.002974203 0.046792485
000140 3d e2 10 bd 7a 4d 0b 3d 76 d8 a7 3c b8 19 16 3d
       -0.035372008 0.034009434 0.020488959 0.03664562
000150 df ac df bc cd 7a 39 bd 43 54 07 bd 91 db 83 bd
       -0.027304111 -0.045283128 -0.033039343 -0.06438363
000160 5f b4 86 bd e6 52 f2 bc 7c 3b 9f bc 46 2a 97 b9
       -0.06577372 -0.029580545 -0.019437544 -0.0002883246
000170 31 90 40 bc 1f d4 f3 3c 6d 88 0f 3d 40 92 b5 3c
       -0.011753128 0.029764233 0.035042215 0.022164464
000180 30 cf 3d bc 44 82 f6 bc 92 0f e6 bc 12 ae 05 bd
       -0.011585042 -0.030091412 -0.028083596 -0.03263671
000190 7b 1f 04 bd a6 a9 6b bd 6f cd 43 3d af 2d 32 3d
       -0.032256585 -0.057534836 0.04780334 0.0435006
0001a0 68 06 0f 3d f0 89 23 3d 7d 2c 76 bd 9e b5 8d 3d
       0.03491822 0.03992647 -0.06010102 0.06919406
0001b0 b3 1a a4 bc 6f 5b 67 bd 3e 2c 1b 3d 49 48 19 bd
       -0.020032262 -0.056483682 0.03788399 -0.037422452
0001c0 eb eb 49 bd 9a 64 d4 3c b2 6b 16 bd a4 0c 85 bd
       -0.049297255 0.025926877 -0.0367238 -0.06496552
0001d0 3f 4e a3 bd 14 48 0c ba e8 8a b0 bc f0 3c 30 bd
       -0.07973909 -0.00053513166 -0.02155061 -0.043026865
0001e0 75 3a 93 3c 5f 26 c0 bd 47 5a 23 bd 25 4a 0f bd
       0.01797221 -0.09382319 -0.039881017 -0.03498282
0001f0 21 17 71 bd 7a 0a 90 bd 75 70 27 bd 3f bb 2c bc
       -0.058859948 -0.07033248 -0.04087873 -0.01054269
000200 b9 78 fc 3a 6f ff ef 3c af cb a5 bd 1c 5e 9a bc
       0.0019262052 0.029296605 -0.0809549 -0.018843703
000210 43 0a 44 3d 1b ef 17 bd 37 10 de bd 94 6c d3 3c
       0.04786135 -0.037093263 -0.108429365 0.02580861
000220 6e e0 63 bd 50 97 b4 3b 9c c6 3d 3d 0a 94 c2 bc
       -0.055633955 0.005511202 0.046331987 -0.023752231
000230 15 b0 3c bd de 06 4c 3d 23 64 a9 bd 83 fe 93 bd
       -0.046066362 0.049811237 -0.08271053 -0.07226279
000240 9a 28 f2 bc 23 d0 de bc 0a f1 02 bd eb 89 e0 3c
       -0.029560376 -0.027198857 -0.031968154 0.027409514
000250 0b a6 fe bc dd a0 f0 bc 2a f0 88 3d 3c e8 39 3c
       -0.031085035 -0.02937358 0.06686433 0.011346873
000260 3a 52 33 ba 58 58 6b ba 09 ae 19 bc 41 1a 61 bc
       -0.0006840561 -0.0008977703 -0.009379872 -0.01373917
000270 78 33 bc 3b 28 61 5c bb c9 d8 03 bd cb 70 9d bc
       0.0057434402 -0.0033627246 -0.032189164 -0.019218823
000280 b4 65 a8 bc 46 58 76 bd 61 a8 0a bd b4 28 95 bd
       -0.020556308 -0.060142778 -0.033851985 -0.07283154
000290 34 a9 84 bc c4 2d 58 3b 68 6f a7 3b 54 96 94 3c
       -0.016193964 0.0032986263 0.005109716 0.018138088
0002a0 ee 9f 97 3d f9 57 76 bc b2 b6 ff bc 88 08 7b bd
       0.07403551 -0.015035623 -0.031215046 -0.061287433
0002b0 02 76 32 bd 9f 5b 22 bd d8 19 78 39 b0 67 16 bd
       -0.043569572 -0.039638158 0.0002366075 -0.036719978
0002c0 6a 1d 2a bd 6a c0 88 bc 99 ad 57 bd f3 9c c1 39
       -0.041531958 -0.016693313 -0.05265579 0.00036928765
0002d0 db 6f 63 3d 6f c0 92 bb 5b 8b a1 3c bc 89 60 3a
       0.055526596 -0.0044785063 0.01971977 0.0008565446
0002e0 49 d7 22 bc 2b 73 2a bc b0 c3 3e 3d 5c 83 4d bd
       -0.009939023 -0.010403435 0.04657334 -0.050174102
0002f0 4f 66 d9 bb 3c 35 e2 3c c9 c0 60 bd 6f 16 e4 3c
       -0.0066345106 0.027613275 -0.054871354 0.027842728
000300 7f 20 69 3d 35 3e 88 bd d0 41 99 bb 13 0f 56 bc
       0.056915756 -0.0665249 -0.004677035 -0.013065117
000310 96 8b db bd 86 e6 8f bd be 10 ce 3b 68 08 8d bd
       -0.10719983 -0.07026391 0.006288617 -0.06886369
000320 46 39 b6 ba 91 8c a5 3c c6 7c 98 3d 7f df 94 3d
       -0.0013902567 0.020208629 0.07445674 0.07269191
000330 13 66 9f 3d b5 36 0b 3a 8c 9e ad 3d aa b2 e1 3c
       0.07783141 0.0005310581 0.08477506 0.027551014
000340 72 d5 0d bc 52 b4 99 bc 48 b7 d6 3d 49 43 95 3b
       -0.008656846 -0.018762741 0.10484177 0.00455514
000350 d5 0b 81 bc 49 f5 ba 3d 9c 6f 9a 3c 65 e8 31 3d
       -0.015752712 0.09128816 0.018852048 0.04343452
000360 84 94 42 3d 31 5c c0 3c 6f e3 54 3c ba 32 a7 3c
       0.047504917 0.02348146 0.0129936775 0.02040993
000370 c9 76 65 3b 74 8b f2 ba 99 07 90 bc fc cf 5f bc
       0.0035013428 -0.0018504695 -0.017581748 -0.013660427
000380 5c 3c 8d bc 51 9f 8b bc 6b 12 30 bd aa aa 5e bd
       -0.017240696 -0.017043741 -0.042986315 -0.054361977
000390 58 b1 13 bd a5 6f e3 38 fb 07 2a bd 02 1b de 3c
       -0.0360578 0.00010844999 -0.041511517 0.027112488
0003a0 6c b4 89 bc 8f 98 f4 bc 77 4b 7b 3d e5 8c 2e bd
       -0.016809665 -0.029857902 0.061351266 -0.042614836
0003b0 c3 37 23 3c 3c 34 55 3d c2 53 8c 3c 84 70 fd bb
       0.009962025 0.052051768 0.017129783 -0.00773436
0003c0 c4 63 af 3d f8 a1 85 3d cf 3d 13 3d 67 84 38 3c
       0.08563951 0.06525034 0.035947617 0.011262036
0003d0 ea 8b 22 bd 43 35 9b bd 24 f6 0a 3d da 51 1c bb
       -0.039684214 -0.07578518 0.033926144 -0.0023852498
0003e0 94 4a 1c bd 9c b9 18 3d 10 e3 3c bd cc 0a ba 3c
       -0.03815706 0.037286386 -0.04611498 0.022710226
0003f0 29 5d 90 3d 3c 6a b9 3b aa ac f0 3c ce 13 f6 3b
       0.07049019 0.005658416 0.029379208 0.007509685

backbone.bn1.weight f4 [32]
000000 38 60 7f 3f 84 ce 7a 3f e3 8b 7e 3f 57 cf 77 3f
       0.99756193 0.9797137 0.994322 0.9680075
000010 7e f7 71 3f e6 f3 7b 3f 9e d3 72 3f e9 4a 67 3f
       0.9451827 0.98419034 0.9485415 0.9034868
000020 ee 04 7a 3f 24 6a 87 3f 6d bc 7f 3f 2a 46 79 3f
       0.9766377 1.0579267 0.9989689 0.97372687
000030 4a 1e 83 3f 69 5c 85 3f 3b 49 80 3f a8 e7 76 3f
       1.0243618 1.0418826 1.0022348 0.9644723
000040 fc 9a 7a 3f 2f d3 87 3f bb d8 7f 3f 05 8f 6c 3f
       0.9789274 1.0611323 0.9994008 0.9240573
000050 cb d7 7d 3f 9c d8 79 3f 6e ff 70 3f 7e 60 7d 3f
       0.991574 0.97596145 0.94139755 0.9897536
000060 52 5f 85 3f 60 44 6b 3f 35 fe 81 3f 7b d0 86 3f
       1.0419714 0.91901207 1.0155703 1.0532373
000070 39 8d 83 3f 14 e5 75 3f 4b 06 6d 3f cf 35 7d 3f
       1.0277473 0.9605267 0.9258773 0.9891023

backbone.bn1.bias f4 [32]
000000 db e4 05 3c c4 13 d7 3c 7e 69 30 3d b5 db b5 bc
       0.008172239 0.026254542 0.043069355 -0.022199491
000010 e7 e8 1b bd 27 05 b1 bd a5 e4 e6 bb 8c 0f 8e bd
       -0.03806391 -0.08643561 -0.0070462995 -0.06936559
000020 a8 13 c0 bc a3 3d 4a bd f9 49 39 3c 38 81 35 bc
       -0.023446873 -0.049375188 0.01130914 -0.011078171
000030 cb 50 9a 3d 8a 75 60 3d d7 e0 c4 3d 7a 21 03 be
       0.07534941 0.054799594 0.09613197 -0.12805739
000040 89 88 7f bd 9f b5 dc 3d cf 74 80 3d d7 7e 88 bd
       -0.06238607 0.10776829 0.062722795 -0.06664818
000050 96 63 2a 3c d9 ba aa bc 1d f8 4f 3d bc 9a 63 bd
       0.01039972 -0.020841049 0.05077373 -0.055567488
000060 54 b7 b4 3d 67 2c 10 bc 49 e0 d6 3b df e7 d9 3d
       0.088240296 -0.008799649 0.0065574986 0.10639929
000070 0b 51 01 3e f5 bd fe bc 21 c9 a3 bd 06 23 0a bd
       0.12628572 -0.031096438 -0.07997347 -0.033724807

backbone.bn1.running_mean f4 [32]
000000 df c8 dc bf fb ab 04 c1 09 76 14 c1 ee f2 5d 40
       -1.7248801 -8.291987 -9.278817 3.4679523
000010 88 1d 46 c0 31 00 38 41 a2 1f 46 40 6d 50 c0 3f
       -3.0955524 11.500047 3.0956807 1.5024544
000020 27 e8 d7 3e f3 84 fd 3f b3 b6 18 c1 6c 14 52 be
       0.42169306 1.9806198 -9.544604 -0.20515603
000030 0b 59 89 c0 0c a2 ab c0 76 ba 88 c0 ad 79 fc 3e
       -4.2921195 -5.363531 -4.2727613 0.4931158
000040 82 ee fd be f6 d1 05 c1 d0 0b 48 c0 b8 7b 42 40
       -0.4959603 -8.36376 -3.125721 3.0388012
000050 45 18 f6 c0 af d9 6c 3f 0a 55 88 40 fd 5a 2a c0
       -7.6904626 0.9251966 4.2603807 -2.6618035
000060 e6 e9 b5 c0 a0 08 59 41 d7 02 e8 3f e3 95 cd c0
       -5.684802 13.564606 1.8125867 -6.4245467
000070 e4 3e 9c c0 50 c2 08 41 cd db cf 40 c4 87 2f c0
       -4.882677 8.54744 6.495581 -2.7426615

backbone.bn1.running_var f4 [32]
000000 05 fb c9 42 25 66 18 43 69 8e 3a 43 9b 4c eb 42
       100.99027 152.399 186.55629 117.64962
000010 ad 2d 52 42 63 96 99 43 f3 6d 9f 42 a8 89 73 42
       52.544605 307.1749 79.714745 60.88443
000020 73 44 78 42 c4 eb cc 42 34 06 3d 43 b6 08 4b 42
       62.066845 102.46048 189.02423 50.758507
000030 0f a2 8c 42 13 e6 00 43 62 44 a0 42 a4 1e 6d 42
       70.31652 128.89873 80.13356 59.279922
000040 91 45 64 42 2b b5 46 43 49 72 cc 42 55 14 9a 42
       57.067936 198.70769 102.22321 77.03971
000050 f0 65 32 43 e7 ab b4 42 6d 45 df 42 16 9c 94 42
       178.3982 90.33575 111.6356 74.304855
000060 26 f7 04 43 ce c6 d2 43 6b b1 8e 42 7d a8 00 43
       132.96542 421.55316 71.34652 128.65816
000070 c2 97 a9 42 59 d1 77 43 fb 36 16 43 fc 24 a4 42
       84.7964 247.81776 150.21477 82.072235

backbone.conv2.weight f4 [64, 32, 3, 3]
000000 da 19 4e bd d1 53 66 3c ba 81 6f bd 36 b5 24 bd
       -0.050317623 0.014058069 -0.058473326 -0.04021188
000010 97 00 01 3c 4b 5d f2 3c c9 54 26 3d f2 b6 28 3c
       0.007873676 0.029585501 0.0406082 0.010297524
000020 8a 4a 01 bd 57 b6 0f bd 44 70 b1 3c 46 6c 34 3c
       -0.031565227 -0.035086002 0.021659978 0.0110121425
000030 ac a6 5d bd 3d 65 e1 3c dd 3b 7e 3b fe 80 c0 bd
       -0.05411403 0.027514094 0.0038793006 -0.09399603
000040 db 23 05 bc 31 ad 32 bd e1 fa 73 bd 27 3f 01 bd
       -0.008126224 -0.0436222 -0.05956543 -0.031554367
000050 df 73 f7 bc 75 03 fb bd 72 20 32 bd 8f 6d 0e bd
       -0.030206619 -0.12256519 -0.043487974 -0.034772452
000060 a2 e4 a9 bc 84 61 ad 3d f7 c9 b9 bc 74 27 de bd
       -0.020738903 0.08465865 -0.022679312 -0.10847369
000070 f4 26 04 bd 79 bc 00 bd 6f 8b 61 bd 07 c7 93 3d
       -0.03226371 -0.03142974 -0.055064615 0.07215696
000080 da 0a 2d 3d 79 95 de 3d b1 b2 1e 3d 2e de 37 3d
       0.042246677 0.108683534 0.038744632 0.04488962
000090 95 6d 67 bc 4f c8 39 3c 36 7c 0f bd 73 f4 2c bd
       -0.0141252475 0.011339261 -0.035030566 -0.042225312
0000a0 2a 3f ac bc 54 0c 3a 3b e9 c6 42 3d 18 ce 5f 3b
       -0.021026213 0.0028388696 0.047552977 0.003414994
0000b0 7b e0 aa bc ef 21 24 bd 48 dc ab bd 0c 12 a0 bd
       -0.020858994 -0.040071424 -0.08391625 -0.07815942
0000c0 c5 cf ec bb 73 84 9d bc cc 35 c6 3b 1c 2f 63 bd
       -0.0072269165 -0.019228196 0.0060488936 -0.05546485
0000d0 cd 17 64 bc 80 b5 bb bd ef 7e 75 3c 8e a1 47 bc
       -0.01392169 -0.09165478 0.014983877 -0.012184514
0000e0 1d e3 cf bd b4 c5 4b bd d6 e1 5b 3d 78 ce 7f 3a
       -0.1015074 -0.04974909 0.05368217 0.0009758244
0000f0 b8 7c 9c bc 94 c0 7d 3d c2 b0 cf bd d8 04 31 bb
       -0.01910244 0.061951235 -0.10141136 -0.0027010944
000100 e6 a2 25 3d 53 3f 92 bc 78 ad 99 3a 0d 07 1b 3d
       0.040438555 -0.017852461 0.0011724671 0.03784852
000110 89 d1 a5 3b 89 fe 22 bd 6b 22 46 3b 35 e8 4d bd
       0.005060379 -0.039793525 0.0030232917 -0.050270278
000120 c7 d1 0d bd 32 eb 82 3d 69 41 f5 3c b6 ab 67 bd
       -0.034623887 0.06392516 0.029938417 -0.05656024
000130 0a 7b 08 bd 4e e1 30 bd 5c 7d b5 bc c6 b2 51 3d
       -0.033320464 -0.043183617 -0.022154503 0.051195882
000140 16 07 84 3c 19 fe 91 bd 7c e6 3c bd f9 70 80 bd
       0.01611666 -0.071285434 -0.046118245 -0.06271548
000150 5b 90 ad 3c 80 02 56 3d e4 f0 7c 3c 6b b8 20 bd
       0.021186998 0.052248478 0.015438292 -0.039238375
000160 d9 db e1 3d b1 0f 89 bc 8a bb c8 bc 32 65 76 bd
       0.11028261 -0.016731115 -0.024503488 -0.0601551
000170 3f df 6f bd 66 96 53 bd fb 8a a6 bd a3 0a 86 bc
       -0.058562513 -0.051657103 -0.08131977 -0.016362494
000180 95 bc 1a bd b2 f5 6e 3d fc 42 32 3d 2a 7c 3f bd
       -0.037777502 0.058339782 0.043520913 -0.04674927
000190 57 9a bb bc 9c e6 db bd 54 a9 31 bd 1e 10 0d bc
       -0.022900743 -0.107373446 -0.043374375 -0.0086098
0001a0 33 04 08 bc 19 91 8b 3d ad 55 49 3d 31 60 6b 3d
       -0.008301782 0.068147846 0.049153972 0.057464782
0001b0 bd 66 de bd d2 4c b8 b9 1b 2c cd bd b9 72 99 bd
       -0.108594395 -0.0003515245 -0.10018178 -0.07492585
0001c0 86 87 06 3d ed 6e 00 bc c7 ca 27 3b 28 2f f9 3c
       0.03284409 -0.007838947 0.0025603042 0.030417994
0001d0 70 b3 f0 3c 63 cb 1c 3d 44 0f cd bc af d9 5b 3d
       0.029382437 0.038279902 -0.025031693 0.053674396
0001e0 8b 8b bc 3c fb 73 53 bc 39 ab e7 bc b2 ee 9b bd
       0.023015758 -0.01290607 -0.028279888 -0.07613887
0001f0 e6 93 94 bc 0d 63 35 bd f7 82 53 3b 7d 09 a7 bc
       -0.01813693 -0.044283915 0.0032274106 -0.020390267
000200 3a 51 f2 ba e4 0f 86 3c a6 2b 17 bc 10 fe 4c 3c
       -0.0018487342 0.016365 -0.009226715 0.012511745
000210 92 e6 42 bd ae 31 02 bd fc 2a 19 bd 8c 27 96 3c
       -0.04758317 -0.03178566 -0.03739451 0.018329404
000220 61 4b 65 3d 09 d5 14 bd c8 4b 84 bd 59 30 18 3d
       0.05598009 -0.03633598 -0.064597666 0.037155483
000230 ff 0a b6 bc f8 3d 09 bd 09 f8 2d bd 92 56 ab 3b
       -0.02222204 -0.033506364 -0.042472873 0.005228826
000240 0b 63 76 3d 8a 22 35 3d 98 60 07 bb 8b b0 25 3d
       0.06015305 0.044222392 -0.002065694 0.040451568
000250 79 47 bd bb 7a 28 4f bc 1f 2e 18 bd 32 cf ca bc
       -0.0057763425 -0.012643928 -0.03715336 -0.024757002
000260 41 55 8f 3b 77 c1 1c 3d dd c2 68 3c 53 a6 2a bd
       0.0043741767 0.03827044 0.014206615 -0.041662525
000270 2b 2e d1 bc 65 be 26 3d 0c 67 8e bc d5 7d 7f bd
       -0.02553471 0.040708918 -0.017383121 -0.062375862
000280 bc 74 d5 bc 2a 74 8b bd 8a 0f c9 3c 32 4c 5d bc
       -0.02605664 -0.06809266 0.024543542 -0.013506936
000290 ec 16 33 3d b6 18 46 bd b9 24 96 bd c4 93 05 bc
       0.043723032 -0.04836341 -0.07331223 -0.008152906
0002a0 d4 57 8f bc 7e b6 ef bc ff 45 38 3d 13 0a f3 3a
       -0.017497934 -0.029261824 0.04498863 0.0018542431
0002b0 64 6c 97 bb f5 1e 57 3d fa be 7c 3c c3 3d 59 3d
       -0.0046210755 0.052519757 0.015426392 0.053037416
0002c0 ea c9 51 bc 53 2a 02 bd 9a 79 02 3b bf d3 10 bd
       -0.012804488 -0.031778645 0.0019908906 -0.035358187
0002d0 85 48 f1 3b ff 68 1a 3c d7 f3 35 bd 7d d5 13 bd
       0.0073633813 0.009424447 -0.044421997 -0.03609227
0002e0 9f be ec 3d cc 2a b3 bb de 5a 9f 3c 85 85 02 3e
       0.115597956 -0.0054677483 0.019452509 0.12746246
0002f0 3b 04 16 3d 5b fc 6d bc 6e 91 0b 3c 3f f4 9b bc
       0.03662513 -0.014525498 0.00851856 -0.019037364
000300 0c cf 8d bd 62 e6 cb 3b 40 20 d1 3c c1 21 a0 ba
       -0.06924257 0.006222532 0.025528073 -0.0012217091
000310 4b b2 0f 3d 00 d3 4d bd 67 dc 78 bd 43 26 27 3d
       0.035082143 -0.050250053 -0.060757067 0.040807974
000320 80 0f 82 bd 45 b4 49 bd 77 b0 bc bb 2c a8 9d bd
       -0.06350613 -0.049244184 -0.005758341 -0.07698092
000330 a9 35 99 3d 6a e6 ac 3d 16 33 43 39 f2 fd 60 bd
       0.07480938 0.084423855 0.0001861568 -0.05492968
000340 4d 77 73 3d 10 c6 93 3c 8a 1d da 3c a6 24 eb 3c
       0.059439946 0.01803878 0.026625413 0.028703999
000350 c0 f3 d4 bc 64 99 58 3c 5a 54 74 3d d9 a9 00 3d
       -0.025995135 0.013220165 0.059650756 0.03141198
000360 79 b9 3f bc f0 24 9f bd f7 73 d3 3a f1 71 49 bc
       -0.011701935 -0.07770717 0.0016132583 -0.012295232
000370 22 30 32 bd a0 10 bb bd d6 b3 54 bd 9d 34 cd bd
       -0.043502934 -0.0913403 -0.051929317 -0.10019801
000380 88 39 41 bd bc a7 63 bd ca c5 01 3d 3e 1a 63 bd
       -0.047174007 -0.055579886 0.031682767 -0.05544495
000390 01 a9 b1 bc 9c 96 24 3d 1f 0b 9b 3c 3f 04 86 bd
       -0.021687033 0.040182695 0.018926201 -0.06543779
0003a0 51 d8 29 3a 32 a8 1e bd 57 77 f8 bb 27 bb bd 3c
       0.0006479072 -0.038734622 -0.007582586 0.02316053
0003b0 20 3c 5c bd a8 07 8e 3c 2e 5e 24 bd 57 94 c1 bc
       -0.053768277 0.017337635 -0.04012888 -0.023630304
0003c0 ab 37 87 bb a5 64 05 3d 58 61 a0 3c cd d9 5e bd
       -0.004126509 0.032566685 0.019577667 -0.05440693
0003d0 11 2e 24 bd 8a 69 84 bb a7 87 aa bd 7c f9 0a bd
       -0.040082995 -0.0040409015 -0.08326655 -0.033929333
0003e0 80 6d b7 ba 15 3c 84 bd 5d bd 6f 3d 74 d9 1a 3c
       -0.0013994426 -0.06456772 0.0585302 0.009451259
0003f0 5f 9e 9a bb 85 0e 09 bc 63 f3 a0 bd e2 d3 51 bd
       -0.0047185863 -0.008365278 -0.07858922 -0.051227458

backbone.bn2.weight f4 [64]
000000 d6 1d 80 3f 86 e9 81 3f c0 9e 75 3f c2 c1 6e 3f
       1.0009105 1.0149391 0.9594536 0.932644
000010 3f d8 8a 3f 05 de 7f 3f 2d b7 7d 3f 3b 48 6f 3f
       1.0847243 0.9994815 0.9910763 0.9346959
000020 41 65 79 3f 63 14 7c 3f f3 a5 83 3f 36 22 8b 3f
       0.97420126 0.9846861 1.0285019 1.0869815
000030 48 06 89 3f a8 27 73 3f ef 8f 78 3f 31 3d 71 3f
       1.0705042 0.94982386 0.97094625 0.94233996
000040 7c 51 67 3f b9 42 87 3f 32 1d 77 3f d9 d7 7a 3f
       0.9035871 1.0567237 0.96528924 0.9798561
000050 f1 83 81 3f fa db 72 3f f7 c9 7a 3f 00 17 7e 3f
       1.011839 0.9486691 0.97964424 0.99253845
000060 6a c8 7c 3f 24 66 83 3f 04 ce 5d 3f fe 4a 7c 3f
       0.9874331 1.0265546 0.8664248 0.9855193
000070 3e cf 8a 3f 67 01 87 3f ce d4 93 3f a4 a8 85 3f
       1.0844495 1.0547303 1.1549318 1.044209
000080 fc ec 6e 3f c6 2f 7e 3f e3 4e 81 3f 09 1d 7c 3f
       0.9333036 0.99291646 1.0102199 0.98481804
000090 0a 39 87 3f 6a 3c 66 3f b7 1a 70 3f 88 28 7b 3f
       1.0564282 0.89935935 0.93790764 0.9810872
0000a0 b7 28 7d 3f 60 91 66 3f 5e 3a 86 3f 7b 05 6f 3f
       0.9889025 0.90065575 1.0486562 0.9336774
0000b0 4d 5b 87 3f 93 f0 84 3f 63 49 66 3f 13 52 64 3f
       1.0574738 1.0385917 0.8995573 0.89187735
0000c0 2d 2f 8e 3f db 68 70 3f 82 79 81 3f eb f5 7f 3f
       1.1108147 0.93909997 1.0115206 0.99984616
0000d0 d3 35 7b 3f 21 41 89 3f 21 e7 71 3f af 61 84 3f
       0.98129004 1.0723001 0.944933 1.0342311
0000e0 f0 3f 7f 3f 46 3d 86 3f e2 5d 7c 3f 1b 68 7c 3f
       0.99706936 1.0487449 0.98580754 0.9859635
0000f0 20 cd 6e 3f 63 7d 84 3f fc 88 71 3f 47 ef 89 3f
       0.93281746 1.0350765 0.94349647 1.0776147

backbone.bn2.bias f4 [64]
000000 27 43 30 3c ca 3c ab bd 89 36 50 3d 62 f2 b0 bb
       0.010758198 -0.08361204 0.05083326 -0.005399988
000010 c5 82 10 3d 08 e5 3d bc 4a 79 1b 3d 21 74 d8 bd
       0.03528096 -0.01159025 0.037957467 -0.10569025
000020 ca e9 ad bd 37 5d 8e bd ea c6 69 3c 6b 5d 0f bd
       -0.08491857 -0.06951373 0.014268616 -0.0350012
000030 a6 c6 94 3d 3d 4d 94 bb ad 9c 0f bd 0e 02 fb 39
       0.07264452 -0.004525809 -0.035061527 0.00047875982
000040 89 b6 6f bd 28 5b fe bc cc 8e 21 bb a2 ca ff 3a
       -0.05852369 -0.031049326 -0.0024651764 0.0019515345
000050 88 f9 b2 b9 7e ef f1 bd e5 e2 75 bd ad bf 51 bc
       -0.0003413672 -0.11813258 -0.060030837 -0.012802047
000060 db 02 ad 3b 4f 0f fc 3c 0b 3c 15 be c9 e2 63 bd
       0.0052798814 0.030769018 -0.14573686 -0.0556362
000070 4b 25 bb 3d 70 58 73 bd 93 a4 15 3e d7 ce 4c 3d
       0.091379724 -0.059410512 0.14613561 0.050001945
000080 c4 3d 97 bd 40 b9 42 3d a0 d3 b6 bc f0 bf 2d 3d
       -0.07384828 0.04753995 -0.022317708 0.042419374
000090 01 09 d4 bc ca 59 0a bd f8 95 bf bc 78 dd d2 3d
       -0.0258832 -0.033777036 -0.02338694 0.10296148
0000a0 02 18 d2 bc 44 0a b3 bd 9a 71 8d 3c c1 a8 bb bd
       -0.025646213 -0.087421924 0.017266084 -0.09163047
0000b0 f1 cf ca bd 7c 79 87 bd 52 15 b3 bd 50 b8 e7 bd
       -0.09902943 -0.06614968 -0.08744301 -0.11314452
0000c0 ca 6c 11 bd 53 62 c7 bd df 22 aa bd 6c d2 19 3d
       -0.03550414 -0.09735551 -0.083074324 0.03755419
0000d0 f8 8a a2 bd e5 de bb bc eb 05 d9 3c 3e 57 25 bd
       -0.079366624 -0.022933433 0.02649208 -0.040366404
0000e0 e2 99 92 bd 0e b4 48 bd a0 5c 76 3d a5 ce 98 3d
       -0.07158257 -0.04899984 0.060146928 0.07461289
0000f0 d8 24 02 be d6 51 5c bd c3 10 a4 bd 45 aa df 3b
       -0.12709367 -0.053788982 -0.080110095 0.0068257176

backbone.bn2.running_mean f4 [64]
000000 77 ed 2d c0 46 42 0c bf 80 c9 0a c0 75 bc 70 bf
       -2.7176187 -0.54788625 -2.1685486 -0.9403756
000010 b7 c0 5d 3f c8 94 97 be 47 0d 0d c0 86 c3 bc 3f
       0.86622185 -0.296057 -2.2039354 1.4747169
000020 38 9f d0 bf c6 3b 1a bf ea 94 35 3f 35 35 8c 3e
       -1.629859 -0.6024746 0.7093035 0.27384344
000030 7e 5b 08 bf 1c a8 20 bf 4d f4 cb bf 85 c7 49 c0
       -0.53264606 -0.62756515 -1.593393 -3.1528027
000040 85 7b c2 bf 66 e1 38 c0 41 09 be bf ab 1d 34 c0
       -1.5193945 -2.8887572 -1.4846574 -2.8143108
000050 e2 e0 f5 3e 10 6f d5 3f 0e 9b 0c bf c1 53 b0 3c
       0.48023134 1.6674519 -0.54924095 0.021524312
000060 67 0b 15 bf a5 ff ac bf 56 53 80 3f 03 d5 ac be
       -0.58220524 -1.3515517 1.0025432 -0.33756265
000070 f6 cb 5a c0 a2 af 5d 3f dd b6 ea bf 26 9d 96 bf
       -3.4186988 0.8659612 -1.8337055 -1.1766708
000080 23 ee 04 3e b3 db 73 c0 b8 63 66 3f 70 17 fb bf
       0.12981467 -3.8102844 0.8999591 -1.9616528
000090 bb aa 46 3f 14 de 0a c0 19 b2 d2 bf 68 96 b1 bf
       0.77604264 -2.1698046 -1.6460601 -1.3874025
0000a0 74 5f 0e 3f 42 a1 b6 bd 32 f7 56 c0 dd 98 7a 3f
       0.556144 -0.08917476 -3.3588376 0.978895
0000b0 31 12 73 3e fb 2f a9 3f 7b 94 6f bf 5f 46 e9 bf
       0.23737408 1.3217767 -0.9358594 -1.82246
0000c0 06 bb 6d 3f 70 26 2e 3f 47 01 da be 13 bb 15 c0
       0.928635 0.680274 -0.425791 -2.339543
0000d0 13 94 a0 3f c7 70 4b 3f 7a d8 fa bf 9e 15 87 3f
       1.2545189 0.7946896 -1.9597313 1.0553472
0000e0 31 ff 80 3e b5 7c 1b 3e 9f ea 79 c0 57 92 22 bf
       0.25194696 0.1518429 -3.9049451 -0.63504547
0000f0 fa a6 a9 3f 86 27 e5 bd ca b3 0c 3f cf e5 05 3f
       1.3254082 -0.11189179 0.54961836 0.52303785

backbone.bn2.running_var f4 [64]
000000 58 ae 81 40 19 a4 11 40 3e fa e3 40 88 5b 91 40
       4.052532 2.2756407 7.124297 4.5424232
000010 d1 48 74 40 09 b3 17 40 89 11 86 40 6c 08 00 40
       3.8169444 2.3703024 4.1896405 2.000514
000020 fd d9 3d 40 44 ad 53 40 34 a6 de 3f 88 dd 16 40
       2.96643 3.3074503 1.7394471 2.3572712
000030 79 48 37 40 be 8f 17 40 95 ca 10 40 77 36 d3 40
       2.8637984 2.3681483 2.2623646 6.6003985
000040 73 6f 1f 40 13 da 5a 40 9f 59 62 40 ee d5 95 40
       2.4911773 3.4195602 3.53672 4.6823645
000050 01 5c 1e 40 38 54 27 40 73 7a 1d 40 f5 72 7c 40
       2.4743655 2.6145153 2.4605987 3.9445164
000060 85 75 d5 3f da 81 58 40 d7 97 0a 40 04 94 de 3f
       1.6676489 3.3829255 2.1655176 1.7388921
000070 3c 01 81 40 40 e2 4a 40 38 54 73 40 17 b2 31 40
       4.0314007 3.1700592 3.8020153 2.7764947
000080 3d f0 18 40 aa b2 10 41 43 4b ff 3f 3b d1 c3 40
       2.389663 9.043619 1.9944843 6.119291
000090 63 b9 26 40 30 0b 39 40 6e 5b 03 41 97 2f 5a 40
       2.605065 2.8913078 8.209822 3.4091547
0000a0 e4 7a 44 40 df 4b 42 40 64 65 de 40 24 af 07 40
       3.0700006 3.0358808 6.949877 2.1200647
0000b0 38 a1 36 40 3b 49 0f 40 c0 0a 80 40 3b 8c 5e 40
       2.85359 2.2388446 4.0013123 3.477309
0000c0 ab b5 1e 40 d1 3c 7b 40 99 8a 0b 40 44 c5 8f 40
       2.4798381 3.925587 2.1803343 4.4928303
0000d0 c0 93 45 40 39 7f f7 3f b7 69 40 40 59 40 1e 40
       3.087143 1.93357 3.0064523 2.4726775
0000e0 b4 85 5f 40 01 75 2d 40 33 61 bc 40 2a 67 d0 40
       3.4925356 2.7102664 5.886865 6.5125933
0000f0 fb 6b a2 40 46 30 32 40 ba 9c 31 40 53 e7 65 40
       5.075681 2.7841964 2.7751908 3.592244
