PointPillarUpgrades/output_20251129_174155/pointpillars_ModelNet10.pth (torch, 663206 bytes, 40 tensors)

pfn.blocks.0.fc.weight f4 [64, 8]
00000000: eaf8 8a3e e48b 8f3e 85d6 07be 9667 833e
00000010: 06e7 c6bd 935c 883d a012 4bbe 01b5 4e3e
00000020: 63f2 9e3e 5611 8dbe 4404 a43e b86d 30bd
00000030: fd81 1f3e 486d be3c f5c2 0f3e dac5 a5bd
00000040: 092b 913e 2874 843d c5b6 30be 2d59 c33d
00000050: 07b8 a2bd 3779 813c 17ef 27be 9cf0 763e
00000060: 2ca5 85be 38d2 ebbd 002d 0fbe 3b7f eebd
00000070: d7bc 0f3e 9b4b cfbe 8450 d43e 3c2f 6fbe
00000080: b5c1 8b3e 9348 313d bed3 21be 5f6e 503e
00000090: 186f 843d 7314 903e 18eb 78bb 2279 d3bd
000000a0: e2ca cf3d e419 86bd 14c1 313e f495 d43e
000000b0: ea37 333e 8340 0fbe 59cd 6c3e d7fa 843d
000000c0: f957 243e d730 28be f929 b2be 3117 28be
000000d0: 94f3 89be 56c0 b93e 2d60 433d 3475 bc3d
000000e0: 45d1 4c3d e6b8 a93b 4181 c03e a04b 82be
000000f0: 2d92 a63d 3559 15be 3851 543e 0fdb a2bd
00000100: c307 8e3d dc82 83bd ead6 b03e f4b4 17be
00000110: 85ad 19be 31db 3cbe a7bc bf3e 8e2d c83d
00000120: 182e ad3e f576 9cbe d6e7 a4be 7bc7 7cbe
00000130: f620 81be e9c9 4d3e 9f17 b73d 64f7 873e
00000140: 0121 4ebe 10ef 79be 9a52 203e 3270 abbd
00000150: 0b65 473e 2384 08be 24b2 423e 7006 88be
00000160: 57ab 28be 431f f53d 40bb 173e fc4a 4bbe
00000170: 4c79 3d3e ffba 683e 8e2a 95be d928 1cbe
00000180: 7c7d 983e 7ce0 e0bd 7979 39be dbc9 7dbe
00000190: 3291 54be 12db 6f3d 795a d2bd 12de 91be
000001a0: dca5 453c 6b14 68be 7e71 99be 5bf8 80be
000001b0: 3be9 7fbe 30f6 8bbe 3a08 903e a1b2 0d3e
000001c0: b555 d73d a125 b4be e329 5cbe 5fba febd
000001d0: 0e9e 5c3d 313c 9dbe dcae dcbd 49ad 2dbe
000001e0: e761 40bc dd08 dfbd 374a 6cbd ea95 45be
000001f0: 6070 3abe 532a 90be 2319 183c 27b1 73be
00000200: 5d8c 883e b775 f9bc 2d4a b23e 55a1 4e3d
00000210: 5874 a7be 20d3 813e c570 9ebc c17c 05be
00000220: 1916 82be 28e3 abbe d4f6 9a3d b380 57bd
00000230: 3d7d 1d3e de86 a6be 49e7 983e 1f62 8fbe
00000240: f223 2ebd db19 7a3d 1c19 573e 861c 8e3e
00000250: 61fa 913e a1cb 9fbe 731b fd3d de0e babd
00000260: fb14 b6bc 019a 7cbe d020 b13e 2b96 62be
00000270: 4458 853d 2297 073e 030c 423e 70a4 4ebe
00000280: a001 a73e 23a5 bc3d bf21 b13d 1099 90be
00000290: e2ff 003e 3d82 43bc 9fd4 79be 5f6f 8c3e
000002a0: dc63 c63d 95c4 3dbe 33e0 51be c679 883d
000002b0: e37d 6d3e 909c 98bd 414d adbd 4a4f d9bd
000002c0: 0512 35be 92d9 f93d 63f9 b53e 2967 26be
000002d0: 7145 d73d a781 7d3e d355 0c3e d917 ffbd
000002e0: fdbb 1d3e e699 323e a6a2 473e 7014 5fbd
000002f0: 6d86 eabd 2e53 8b3d 1c82 d9bd aed9 7ebd
00000300: a6c9 743e bd7d 8e3e 1d1e 8ebd 25ef e9bd
00000310: 6b7b 9fbb 5682 36bd 2fbd b03d 0678 c03d
00000320: 14cb a8be b7d6 c2bd f393 a73e 6c5d be3d
00000330: b87e 033d bc7f 77be bba8 82be e719 82be
00000340: a784 9bbd ef05 a23d e8f9 a83e a9f7 193e
00000350: 81cb a6be 32ac 24be 7ec5 1ebd 6d49 973e
00000360: c522 943d 1034 b6bc ff25 6a3e f8c3 d0bb
00000370: bec0 6ebe 9a09 853e 858b 22bc e9aa 5ebd
00000380: 04b2 afbe 578a 573e c1a5 b13e 9559 d73c
00000390: 4c84 95be 9452 a7be a1ba adbe efdb 503e
000003a0: b2f0 203e 7db9 933e 2fad 523e b012 db3c
000003b0: 716c a1bb 16ee 7bbe ea66 cfbe 73e1 a5be
000003c0: 45ee 033e fe46 febd f101 ecbd e509 02be
000003d0: f58a da3c 28a6 a6be 924e 36be ae87 033e
000003e0: 9d28 fdbd dc41 613e 723a d8bd 0607 9cbe
000003f0: 8c44 99bd 0087 f9bd 5f98 3abe 29a2 b5be
0.2714303 0.28036416 -0.13265426 0.25664967 -0.09712033 0.06658282 -0.19831324 0.20186235
0.310443 -0.2755229 0.32034504 -0.043073386 0.1557693 0.023245469 0.14039214 -0.08094378
0.28353146 0.064674675 -0.17257221 0.09538493 -0.07945257 0.01580487 -0.163998 0.24115223
-0.2610258 -0.115147054 -0.1398201 -0.11645361 0.1403688 -0.4048737 0.4146768 -0.23357862
0.27296224 0.043282103 -0.1580343 0.20354603 0.06466502 0.28140602 -0.0037981924 -0.103258386
0.10146119 -0.06547907 0.1735881 0.41520655 0.17501798 -0.13989453 0.23125209 0.064931564
0.16049184 -0.16424881 -0.34797648 -0.16415097 -0.26943648 0.36279553 0.047699142 0.09202042
0.050004262 0.0051795123 0.37598613 -0.25448322 0.081333496 -0.14584811 0.20734107 -0.07951938
0.06935074 -0.06421444 0.34538966 -0.14815122 -0.15007599 -0.1844299 0.37448618 0.09774314
0.3382423 -0.30559507 -0.32208127 -0.24685471 -0.2522046 0.20096554 0.08940052 0.26555932
-0.20129777 -0.24407601 0.1565651 -0.08371009 0.19472139 -0.13331656 0.19013268 -0.2656741
-0.16471611 0.11968853 0.14817524 -0.19852823 0.18503302 0.22727583 -0.2913403 -0.15249957
0.29783237 -0.10980317 -0.18112744 -0.24784033 -0.20758513 0.05855853 -0.102711625 -0.2848974
0.01206347 -0.22664039 -0.299694 -0.2518948 -0.24991314 -0.27336264 0.28131276 0.13837673
0.10514394 -0.3518496 -0.21500354 -0.12437891 0.05386167 -0.30709985 -0.10775539 -0.16960634
-0.011742092 -0.108903624 -0.057687964 -0.19295469 -0.1820693 -0.2815729 0.009283337 -0.23798047
0.2666959 -0.030451639 0.34822217 0.050446827 -0.3270595 0.25356388 -0.019340882 -0.13035871
-0.25407484 -0.33571744 0.0756661 -0.05261297 0.15379806 -0.3252477 0.29863957 -0.28004548
-0.04251475 0.061059814 0.21005672 0.27756137 0.28511336 -0.31210044 0.12358751 -0.09084867
-0.022226801 -0.24668123 0.34595346 -0.22127597 0.06510976 0.13241246 0.18949895 -0.20179915
0.32618427 0.09211185 0.08649015 -0.28241777 0.12597612 -0.011932907 -0.24397515 0.2742872
0.096870154 -0.18532021 -0.20495681 0.066638514 0.23192553 -0.07451737 -0.08462001 -0.10610826
-0.17682655 0.12199701 0.3554183 -0.1625029 0.10511292 0.2475649 0.13704614 -0.124557205
0.15403743 0.1744152 0.19495639 -0.05446285 -0.11451421 0.06802975 -0.106205195 -0.062219314
0.23905048 0.27830306 -0.069393374 -0.11422566 -0.0048670075 -0.04455789 0.08629834 0.09397893
-0.32967436 -0.0951361 0.32730064 0.092951626 0.03210327 -0.2416982 -0.25519356 -0.25410387
-0.07593661 0.07911288 0.33003163 0.15035881 -0.32577136 -0.16081312 -0.038762562 0.29548207
0.07233194 -0.022241622 0.22866057 -0.0063710175 -0.23315713 0.25983888 -0.009920959 -0.05436221
-0.34315503 0.21048866 0.34696773 0.026287833 -0.29202497 -0.3268019 -0.3393145 0.20396398
0.15716818 0.28852454 0.20573877 0.02674231 -0.0049262573 -0.24602541 -0.40508205 -0.32398567
0.12883861 -0.124158844 -0.11523808 -0.12699087 0.026677588 -0.32548642 -0.1780341 0.12844726
-0.12361262 0.2199778 -0.105580226 -0.30474108 -0.074837774 -0.12183952 -0.18222187 -0.3547528

pfn.blocks.0.bn.weight f4 [64]
00000000: a359 7c3f 9571 7a3f 1c2b 7a3f 66bc 813f
00000010: 7d98 7a3f c67f 7e3f ab99 7e3f 98aa 893f
00000020: 9d2c 873f 263f 7a3f 1c70 6f3f f531 803f
00000030: 0462 803f a473 7f3f cb30 6d3f bb10 733f
00000040: ec38 863f 9da9 723f 004a 863f f068 803f
00000050: a92d 713f c1c0 7c3f 51f8 833f 103b 7a3f
00000060: 25c0 703f 57d0 793f e377 803f 8894 863f
00000070: 87bd 7e3f b2f8 743f b45b 803f 7ba6 713f
00000080: f968 7a3f d64c 743f f622 853f cb6e 773f
00000090: 250a 763f fd9f 7a3f 418c 7f3f ced0 8d3f
000000a0: 1523 7c3f c0d6 733f cb8f 7c3f 9a52 7d3f
000000b0: 9456 793f 2bf0 843f 3415 7b3f 4b1e 803f
000000c0: fd53 763f 34fd 763f b5a7 7d3f 1f42 813f
000000d0: 50bd 813f 5cd2 7c3f 8301 833f 3566 653f
000000e0: a30b 7b3f 0954 753f 1c7b 743f ee9c 7d3f
000000f0: 2f53 743f b29c 723f 1064 653f dcd2 733f
0.98574275 0.9782956 0.9772203 1.013562 0.9788893 0.99413717 0.9945323 1.0755186
1.056049 0.97752607 0.9353044 1.0015246 1.0029912 0.9978583 0.9265258 0.94947404
1.0486121 0.9479006 1.0491333 1.0032024 0.94210297 0.9873162 1.0310155 0.9774637
0.9404319 0.97583526 1.0036587 1.0514078 0.99507946 0.9569198 1.0027986 0.94394654
0.97816426 0.9542974 1.0401294 0.9665343 0.9610923 0.9790037 0.99823385 1.1079347
0.9849103 0.9524956 0.9865691 0.98954165 0.9739773 1.0385793 0.9807923 1.0009245
0.96221906 0.9648011 0.99084026 1.0098304 1.0135899 0.9875848 1.0234836 0.8960908
0.9806463 0.9583135 0.9550035 0.9906758 0.9543943 0.9477035 0.8960581 0.9524362

pfn.blocks.0.bn.bias f4 [64]
00000000: 5257 0cbb 7507 97bd 7910 193d e605 08bc
00000010: 4b47 6abc 4ef4 a33c c086 6dbb 287e 283d
00000020: 4851 f23c fc97 cebc e5cd 95bc 73c5 d53b
00000030: 1fd1 953c 4dc3 d13b 48c5 3fbc 2d89 31bd
00000040: 6a22 57bb 08fe c8bc dbd1 1fbc b53d 44bd
00000050: 70b0 2c3d 44bc 76bd 4052 af3a c56c 33bd
00000060: a5f6 7ebd a5ff f3ba 5bc5 8d3c 4c8a acbb
00000070: 625f 1b3c 3dde 43bd 0109 b2bb 54a6 d5bc
00000080: 09f3 fe3b 2c79 c5bc db35 5bbc df41 9abd
00000090: 1501 aabc a71f 1fbc cf0f 03bd fd05 893c
000000a0: ac1d cb3b 86ae 8eba 275d fa3c 27c0 f0bb
000000b0: 02d7 5e3c 269f 77bc 3f1a 843a df43 383c
000000c0: abcb 1f3d dece 593d 77e3 853c 2ec5 b5bc
000000d0: 3179 9f3c c4b7 97bc 1bd3 053c da5e 5cbc
000000e0: 15c3 49bb 6711 e8bc 0ae6 62bb edeb 4fbb
000000f0: 569b 97bd 73f8 50bd 66f7 88bd 4286 133c
-0.0021414352 -0.07374469 0.037369225 -0.008302188 -0.014299224 0.020013954 -0.0036243647 0.041135937
0.029579774 -0.025218956 -0.018286655 0.006523782 0.018288193 0.0064014555 -0.01170475 -0.04334371
-0.003282691 -0.024535194 -0.009754623 -0.04791041 0.04216045 -0.060238138 0.0013375953 -0.043804903
-0.062246937 -0.0018615617 0.01730602 -0.0052655097 0.00948319 -0.047819365 -0.0054332023 -0.026080288
0.007780437 -0.02410563 -0.013379539 -0.07532095 -0.02075247 -0.009712136 -0.031997498 0.016726488
0.0061986055 -0.0010885752 0.030561997 -0.007347125 0.013601067 -0.015113628 0.0010078623 0.0112466505
0.039012592 0.0531758 0.016343815 -0.02218875 0.019466968 -0.018520243 0.008168007 -0.013450349
-0.0030786444 -0.02832861 -0.0034621977 -0.0031726316 -0.07402675 -0.05101819 -0.066878125 0.0090041775

pfn.blocks.0.bn.running_mean f4 [64]
00000000: e791 01b8 7fa9 b0b8 641f 02b8 e757 49b8
00000010: 884a 8cb8 67d0 a9b8 2959 4fb8 b176 7cb8
00000020: 1881 e8b8 cf1f c7b8 fe61 8c37 8985 f638
00000030: e892 07b8 637a a0b8 aa29 de37 dce9 1a37
00000040: cf07 38b8 ef76 3436 4698 bfb7 19d3 adb7
00000050: 44bc 7fb7 938a 2e37 96a0 8f36 af85 48b7
00000060: 3091 d2b8 93bf 2d39 0dac d937 dcfe cab6
00000070: 8eee 2d39 5c63 9038 51f3 c737 0ac4 8f38
00000080: 4ffb 9ab8 7c33 bab8 25d3 efb8 1754 0639
00000090: 1808 e7b8 0343 7438 9726 21b8 4707 0d38
000000a0: e410 1539 7515 d737 6d6d ba38 7287 5d38
000000b0: c5be 37b8 aeb6 7636 10ab 1339 7fd8 25b8
000000c0: 4d63 ab36 15c7 a5b8 f615 eb38 65f6 8fb7
000000d0: f684 9138 a915 f5b8 784d c037 bc9c 8338
000000e0: 0fb3 2eb8 2ed9 3bb8 aa2f 00b9 2f25 2cb8
000000f0: 7ae6 ceb8 2ed4 b6b8 5225 9bb8 2765 b6b8
-3.089188e-05 -8.423905e-05 -3.102365e-05 -4.8004e-05 -6.689603e-05 -8.097366e-05 -4.9435683e-05 -6.0192022e-05
-0.00011086668 -9.494984e-05 1.6734932e-05 0.00011755067 -3.2323325e-05 -7.652191e-05 2.6483864e-05 9.233565e-06
-4.387629e-05 2.6891319e-06 -2.2839882e-05 -2.0721507e-05 -1.5243018e-05 1.04034725e-05 4.2804268e-06 -1.1952055e-05
-0.000100406236 0.00016569933 2.5948533e-05 -6.0497387e-06 0.00016587434 6.884962e-05 2.3835952e-05 6.8552865e-05
-7.390102e-05 -8.878761e-05 -0.00011435737 0.00012810562 -0.00011016446 5.8236543e-05 -3.842133e-05 3.3623797e-05
0.0001421604 2.5639989e-05 8.889553e-05 5.281665e-05 -4.3808268e-05 3.676319e-06 0.00014082738 -3.9540693e-05
5.1077573e-06 -7.904895e-05 0.00011209764 -1.7161665e-05 6.938905e-05 -0.00011686545 2.2924258e-05 6.275761e-05
-4.1651594e-05 -4.478654e-05 -0.00012224787 -4.1042626e-05 -9.865775e-05 -8.717958e-05 -7.3979274e-05 -8.6972774e-05

pfn.blocks.0.bn.running_var f4 [64]
00000000: df6b 3e3a 567f 673a be42 bb39 41d3 773a
00000010: 658e 7a39 97a9 ac38 8a90 bd39 3d58 7439
00000020: f034 4139 4863 703a c80f 1c3a 4887 de39
00000030: 773d 1a3a d87c 823a 532e bb3a 675d f239
00000040: faf7 753a 9cdf 943a b433 d938 dabb 623a
00000050: 35ff 0c3a 6524 eb39 4a88 6d3a 97a0 ce39
00000060: 5c60 1e3a 1551 ef39 ab63 d739 3092 f739
00000070: 530b 5c3a c872 203a 5852 f539 9bbc f439
00000080: afcf 153a ed52 633a bdee 893a 5977 c639
00000090: c2ee 313a 2969 a639 97c6 3b3a 0fd1 ea3a
000000a0: aabf d839 b54b bc39 5f38 a939 7127 503a
000000b0: 4f25 863a f3f2 203a ae95 0b3a 61cf 243a
000000c0: f38b 483a 2d09 ce39 a586 ca39 1524 4339
000000d0: 3da0 183a faa0 4939 4e27 ed39 7f17 5e3a
000000e0: 47eb 103a b83a 213a 21fd ac39 6480 253a
000000f0: 4b51 2a3a 85f1 663a 904b 6f3a 77ea 2d3a
0.0007263999 0.0008830925 0.00035717146 0.00094537815 0.00023894904 8.233188e-05 0.0003615658 0.00023302525
0.00018425635 0.00091700675 0.00059532793 0.00042443932 0.0005883793 0.0009955419 0.0014280773 0.00046227427
0.00093829597 0.0011358145 0.00010356997 0.0008649208 0.0005378605 0.0004484981 0.0009061141 0.0003941103
0.00060415803 0.00045646043 0.00041082254 0.0004722043 0.00083940214 0.00061206194 0.00046791392 0.0004667983
0.0005714846 0.00086717197 0.001052342 0.00037854424 0.0006787592 0.00031740338 0.0007163076 0.0017915088
0.0004134153 0.0003591456 0.00032276192 0.00079404475 0.0010234507 0.0006139718 0.0005324733 0.00062870054
0.00076502486 0.00039298218 0.0003862876 0.00018610091 0.0005822217 0.00019228822 0.00045233447 0.0008472129
0.0005528223 0.00061504124 0.00032994992 0.0006313382 0.0006497099 0.0008809793 0.0009128386 0.0006634364

pfn.blocks.0.proj.weight f4 [64, 8]
00000000: cc66 bf3d 8f9c 90be 0d71 68be dc1c 30bd
00000010: d4ac 4f3e 238c 8dbe 3357 0b3e bc01 b3bc
00000020: f0e1 34bd 7cd3 553e 6065 d238 7495 61bc
00000030: c3e8 533d 928c 84be e5f2 d23c fd1e 893d
00000040: d909 cc3d 1c56 cb3c e587 d93c 795e d0bc
00000050: 5aa1 13bc 428e 8f3e 65bb bd3d b949 27bd
00000060: 510a 93be 8e5a 403d 9c88 82be 6924 953d
00000070: 46e2 33bd 515b a5bd 57e6 0f3d f173 e13d
00000080: e93b 8a3e ca3e a23c e7f4 f43d c51d 073d
00000090: fe37 173e 9118 f1bd 09c7 94bd 73df 353e
000000a0: 0670 dabd b6a3 143e 47f7 f3bc 28fd 5bbc
000000b0: 910b 763d 62e1 413d c361 7a3d 51a2 8c3e
000000c0: e09b 463e 7b2b a53e cfa1 e13c a230 a3bd
000000d0: c777 27be cc42 d2bd 460a 3bbe f0c7 41be
000000e0: 64d7 9dbe 9adc 8bbe 0c02 9fbd 4c46 abbd
000000f0: 13a2 d7bd a11f 4f3e 91b5 523e de04 61bd
00000100: 70cc edbd d49f 463e de19 81bd 8bfe 4cbc
00000110: 9fd4 273e ebc6 50be 85f7 6d3d dccb 853e
00000120: a2e4 033d f05d e93d 1867 2bbe d45a 0f3c
00000130: 9d3d 213c 58b4 f13d 0d7f 1b3d f2d4 653e
00000140: 8e76 6fbe 8674 eb3c 240a 16be 2aeb f7ba
00000150: c333 b2bc 054c 6fbe c01f 9a3d c0cb 9f3a
00000160: 6c91 25be 5193 363e 925d 5cbe 9a69 8ebd
00000170: d66b 54bd e402 78be 7b52 05be 392e 6dbc
00000180: 5fbe 7a3e 6468 973e 458a 033e 674f 27bc
00000190: c43e 04be 775d 433e 537c 14ba d9ac 8fbb
000001a0: 37d8 2c3d 45a6 60be d451 06be 1f27 313d
000001b0: e054 7fbc 7289 34bd f1a1 13be 98ac b8bd
000001c0: 3d57 14bc acc4 14be a810 8bbc b7e0 383a
000001d0: f2a0 1cbe 0162 cb3d 823c febc 5e11 98bd
000001e0: cbac 053e 7447 993e f6c7 dbbd 160b 4cbc
000001f0: b78e 1cbe 9fc4 60be 7974 6abd 65d2 10bb
00000200: 36db 663d 5b62 8bbe 03c8 b63e ff1f bd3c
00000210: 9f75 8cbe 256c cfbd f6d9 ec3d 9c73 71bd
00000220: 8b86 af3b 2d98 a4bd 6840 703e fbd1 86bc
00000230: 2207 373e a347 b43c cd9b 0b3d 0e50 763e
00000240: fda5 27bd 1068 2cbe d598 d1bc a547 e43d
00000250: c2f6 52be f7a0 b43c a141 49be 4de0 4b3e
00000260: b607 d43d 4f24 693d 7999 313e 1646 1ebb
00000270: 74ed 1d3d 5641 4cbe d075 cebb a9c9 1f3e
00000280: c9f7 9d3e 0a49 153e aeaf 31be 68ac 083d
00000290: 1ccd 9cbd 2dac 7dbc ac63 26be d530 ccbd
000002a0: c574 5c3e 87a7 983d 253a 48be 73d3 233d
000002b0: 457e 87bd 74e2 973e 3755 98bd 348c 3abd
000002c0: 24cc 74be d636 16be 1d5f 3d3e 73ed 4b3e
000002d0: 69b5 773d 28f2 c43e 2115 d73d d3e7 3e3e
000002e0: d591 5f3e 9d15 753e 7dc5 07be 5c02 353d
000002f0: 8100 eb3d c5ee edbd 7da8 a8bd 88d9 39be
00000300: 895c 6d3d 0291 92be c08d f03d 64cb 513b
00000310: 2f7c 2fbe 5e6c 863d b3bd b53b 94f5 f43d
00000320: a55a 363e a019 8cbe 784e 983e 676d 3c3d
00000330: e0d7 073e 8616 8dbe 0d3a a4bd 4440 c5bc
00000340: a31d 56bd efa8 203e 89d5 393e 2501 ab3c
00000350: 1f5f 87bd 10d2 f23d e601 733d 82df 76be
00000360: 43ca 96be 9221 0abe 15a6 a03e db3a f1bc
00000370: 9b13 79be 9a2b 783e 5d1d 4e3e 54b7 863e
00000380: 15e2 80be e8b9 8ebe 4bc3 333e 46cb bb3c
00000390: 8623 db3d 3a5c c73c 73ce ea3b 15c1 823e
000003a0: 1345 62be c83a 2ebe e5e8 313e e882 ffbd
000003b0: bc2e 04be 8b13 383e e60f 28bd 9290 b83d
000003c0: b209 bbbd a7f6 143d 2435 8e3e 3611 983c
000003d0: e3e4 233d 6f2f 003e 1809 84bd dd5c 933e
000003e0: 644a 24be 133b d5bd 289e 9bbd 94eb a9bc
000003f0: 6dbb 17be 25c9 393e afbf acbc 3993 6cbe
0.09345779 -0.28244445 -0.22699375 -0.042996272 0.20280772 -0.27645978 0.13607483 -0.021851413
-0.044160783 0.20881456 0.00010032463 -0.013768543 0.05173565 -0.25888497 0.025750587 0.06695364
0.09962816 0.024821334 0.026554057 -0.025435673 -0.009010637 0.28038222 0.09264258 -0.04084179
-0.28718808 0.04696136 -0.2549485 0.07282335 -0.043916963 -0.08074058 0.03513178 0.11008442
0.26998833 0.01980533 0.11960774 0.032987375 0.14767453 -0.11772264 -0.072645254 0.1776102
-0.10665898 0.14515576 -0.029780997 -0.013427056 0.060069624 0.047334082 0.06112839 0.27467588
0.19395399 0.32259735 0.027542977 -0.0796826 -0.16354285 -0.10266647 -0.18265638 -0.18923926
-0.30828393 -0.27316743 -0.07764062 -0.083630174 -0.1052896 0.20226909 0.20577075 -0.054936282
-0.11611259 0.19396907 -0.06303762 -0.01251186 0.16389702 -0.20388381 0.05809738 0.26132095
0.032200463 0.1139487 -0.16738546 0.008749682 0.00984135 0.11801976 0.037962962 0.22444513
-0.23385069 0.028742086 -0.14652306 -0.0018914689 -0.021753198 -0.23368843 0.07525587 0.001219146
-0.16168755 0.17829634 -0.21520069 -0.06953736 -0.051860653 -0.24219853 -0.13019745 -0.014476352
0.24486683 0.2957183 0.12845714 -0.010211802 -0.12914568 0.19078623 -0.00056642777 -0.0043846187
0.042198386 -0.21938427 -0.13117152 0.0432502 -0.015584201 -0.04407639 -0.14417244 -0.09017295
-0.009054002 -0.1452815 -0.016975716 0.0007052528 -0.15295771 0.09930802 -0.031034712 -0.074251875
0.13054197 0.29937327 -0.10731499 -0.012453815 -0.15288816 -0.21950005 -0.057239983 -0.002209806
0.0563614 -0.27223477 0.35699472 0.023086546 -0.27433488 -0.10128049 0.1156501 -0.058948144
0.005356615 -0.08036838 0.23462069 -0.016457548 0.17873815 0.022006815 0.03408413 0.24053976
-0.040929783 -0.16836572 -0.025585571 0.111464776 -0.20601943 0.02204941 -0.19653942 0.19909783
0.10353033 0.056919392 0.17343701 -0.0024150661 0.03855653 -0.19946799 -0.0063006654 0.15604271
0.30853108 0.14578643 -0.17352173 0.033367544 -0.07656309 -0.015482944 -0.1624896 -0.099702515
0.21528919 0.07453828 -0.1955343 0.039996576 -0.06615881 0.29664958 -0.074381284 -0.045543864
-0.23905998 -0.14669356 0.18493314 0.19914798 0.06047574 0.38466 0.10502077 0.18643121
0.21832974 0.23934026 -0.1325893 0.044191703 0.114747055 -0.11617807 -0.082352616 -0.18149388
0.057949577 -0.28626257 0.11745787 0.00320121 -0.17137216 0.06563638 0.0055462955 0.11960903
0.17808016 -0.273633 0.29747367 0.04600277 0.13265944 -0.27556247 -0.08018885 -0.024078496
-0.052274358 0.15689443 0.18147863 0.02087457 -0.0660994 0.118564725 0.059327982 -0.24108699
-0.29451188 -0.13489369 0.3137671 -0.02944701 -0.24323885 0.24235383 0.20128389 0.26311743
-0.25172487 -0.2787621 0.17554967 0.022924077 0.10700135 0.02433597 0.007165724 0.25537935
-0.22096662 -0.17014611 0.17373998 -0.1247614 -0.12908453 0.17976205 -0.041030787 0.090119496
-0.091327086 0.03636804 0.27774918 0.018562894 0.040013205 0.12518094 -0.06447047 0.28781787
-0.16044003 -0.10411658 -0.07598525 -0.020742215 -0.14817591 0.18143137 -0.021087496 -0.23103036

backbone.conv1.weight f4 [32, 64, 3, 3]
00000000: 2298 d83c 3afb 05bb 31fa ac3c a118 93bc
00000010: 365d acbb 69c5 f8bb 9b05 be3c 58d2 febc
00000020: ecf8 62bc d176 0ebd 271b 893c 8d80 e43c
00000030: d77b 473c de13 8dbc f437 85bc 9109 b3bb
00000040: d02c d1bc ee6c 043c 2fb4 ca3c b717 d83c
00000050: 6332 e13a 704c 37bb 0593 523b 5edc 293d
00000060: cda1 a03c 215d 12bd 876b cb3c c1a8 0dbc
00000070: b3d2 17bd 1c21 a0bc a312 ab3c 4ed5 a2bc
00000080: 57cc 41bb 94f0 24bd a1c4 2bbd 5aab 3abd
00000090: 9682 24bd ce15 083d 340d 193d fe85 9f3c
000000a0: 5062 27bd 7a96 9a3c ca17 1abd 660b 673c
000000b0: 23f2 753c eadc f03c 1d12 d73c 26fb 90bc
000000c0: 6eb2 f6ba c49a 353c e85c 3ebd cbba f73c
000000d0: 6069 c2bc d7e5 22bd 2c3e 85bd 54f3 c1bc
000000e0: 77a2 e5bb 89d4 a7bd c674 28bd 81ad a7bc
000000f0: d5fc 54bd 270b 89bc c578 d6ba b5f7 b93c
00000100: 6d67 3ebc fe5e 98bd 9d43 4b3d e489 913d
00000110: 446a 0abd ed32 4c3d 09ee 453d 1ccd 99ba
00000120: 994f 03bd d566 0e3d 56ca f3bc fe19 453d
00000130: 5a5d 6ebc df2f 623c 2355 913b acae f13c
00000140: 62d3 26bd 67b8 5f3c 9544 473c d464 de3c
00000150: 98e2 57bd 75c7 8a3b 6ef1 00bc 500b 9ebd
00000160: 5a5a 61bd 5f69 c9bb e703 abbc 757a 28bc
00000170: e56f 2dbd 1020 c2bc a115 fbbc de22 0bbd
00000180: a23c a4bd f8ad 8cbd d49e 3abd 1879 ccbc
00000190: 2b8e 533d 8eb1 ebbc da88 283d ad8b a73d
000001a0: 1db5 4b3d a596 223d c4bc 17bd 6951 713d
000001b0: db82 a4bc 6841 14bd 9258 423d 1e88 81bd
000001c0: 6d34 87bc 8edb 103d 1ace 77bd 7c27 7fbd
000001d0: 5588 38bd 15fe 03bc 0668 1d3c dc6d 13bd
000001e0: 6053 b3bc 1961 fabc 1ea1 c1bc 5a8a 61bd
000001f0: 95ac a7bb 2f82 02bc d0a9 2ebd e5f4 dc3c
00000200: 9620 003c 8818 e8bc dd16 24bd 3c4a a9bb
00000210: 97dd 523c 604d 653b 6ecf 4ebd ad2c cd3c
00000220: 15a2 8c39 30e5 a53c a59d 02bc 693f 053d
00000230: 409f 1abd 5ca5 143c e60c 83bd 5810 cebc
00000240: 8843 fabc 9a14 3f3c efae b3bb 0335 423c
00000250: 5e8e 843c 32be 873b 7060 913d 1a88 113d
00000260: 18d8 ba3c 6566 8d3b 464e ae3b e863 01bd
00000270: b45d 6abd cc7d 23bd f32c 93bd 138b b5bd
00000280: 3d6c 36bd ae2c 64bd d992 a8bc 0fd7 d5bc
00000290: 4ccd 91bc 230b ac3c a6c6 3ebb 7968 653c
000002a0: 82fd f23c 4547 58bd 29d9 31bd 5987 46bd
000002b0: 8ce5 bdbc 5d35 16bd 3424 0cbd 30e6 bdbc
000002c0: 4617 6cbd 0b03 24bd d4ec 15bd 1a6d 503c
000002d0: b9cf 4a3c c4cd 65bc f3cc ad3c b899 b73c
000002e0: fc96 f23c 1b7a 0f3d 7cac 7e3d fef3 47bd
000002f0: d81c 263b e0a3 bb3c 0a34 a5bc 437a 1b3d
00000300: 0039 04bc f7b2 a0bc 55df 2b3c 4731 4cbd
00000310: 862e 3fbd bf56 afbb b170 cc3c b9fc fb3b
00000320: da18 0b3d 12cb 653c 6910 c83d d0a8 9f3d
00000330: 470a 733d be4b 52bb a033 4f3d 7b3f 293c
00000340: b4df 0a3d b7b2 8a3c 5f31 9a3d 400c 253c
00000350: 74fc 503b b12c 483d 73b7 433c e2d8 113d
00000360: af80 13bd a662 50bb 3408 233c 9739 54bc
00000370: f970 843c 62fc 993c 7e45 22bd 944f a4bc
00000380: 3cb9 b3bc 4535 7cbc d416 1abd 31e1 84bd
00000390: ce9e 7dbd 67c9 6cbd 9d45 98bd b15c a9bc
000003a0: 30e8 9ebd b62a 17bd 55e4 563d 1e69 8cbc
000003b0: 8be0 1c3c f999 c53d 7b2f 3f3c 7e63 d8bb
000003c0: 42c9 ae3d 9912 e63c b639 8fbc 2342 c03c
000003d0: 7b6f a13c 7845 23bd 6352 ed3c 32f0 483d
000003e0: 9933 8fbb 647c 4c3d bb83 8ebc 26ec 243d
000003f0: be09 6e3d e7a5 ba3c 4ce8 063c 3aa8 0f3d
0.02643973 -0.0020443932 0.021115394 -0.01795608 -0.005260135 -0.0075918925 0.023196032 -0.03110616
-0.013853293 -0.03478128 0.01673658 0.027893329 0.012175522 -0.017221387 -0.016262032 -0.005463787
-0.025534064 0.0080826115 0.024744121 0.026378496 0.0017181154 -0.0027969144 0.0032131088 0.041469924
0.019608403 -0.035733346 0.024831546 -0.008646191 -0.037066173 -0.019547038 0.02088291 -0.019877102
-0.002957126 -0.040268496 -0.041935567 -0.04557357 -0.0401636 0.03322392 0.037366107 0.019473072
-0.040865242 0.018870581 -0.037620343 0.014101839 0.015011343 0.029402215 0.026253754 -0.017697882
-0.0018821487 0.011084262 -0.04647532 0.030240437 -0.023731887 -0.039769974 -0.06505999 -0.023675598
-0.0070078927 -0.08194835 -0.04112699 -0.020468475 -0.051998932 -0.01672895 -0.0016362896 0.022701124
-0.011621338 -0.07439993 0.049625028 0.07106379 -0.03379275 0.049853254 0.04832271 -0.0011734101
-0.032058332 0.034766037 -0.029759567 0.04812049 -0.014548624 0.013805359 0.004435198 0.029502235
-0.040728934 0.013654805 0.012162347 0.027147688 -0.05270633 0.004235203 -0.007870061 -0.077170014
-0.055017807 -0.0061465944 -0.020875884 -0.010283102 -0.04234304 -0.02369693 -0.030649962 -0.0339688
-0.08019377 -0.068691194 -0.045561627 -0.024960086 0.051649254 -0.028771188 0.041146137 0.08180938
0.04973327 0.039694447 -0.037045255 0.05891553 -0.020081928 -0.03619519 0.04744775 -0.063247904
-0.01650449 0.035365634 -0.06049929 -0.062293515 -0.04505189 -0.008056183 0.009607321 -0.035993442
-0.021890342 -0.030563878 -0.023636397 -0.055063583 -0.005117009 -0.0079656085 -0.042642415 0.026972244
0.007820269 -0.02833201 -0.040060867 -0.00516632 0.012870214 0.0034988746 -0.05049079 0.025045717
0.0002682364 0.020250887 -0.007972156 0.032531176 -0.03774953 0.009072628 -0.063989446 -0.025154278
-0.03054978 0.011662627 -0.0054835 0.011853459 0.016181167 0.004142546 0.07098472 0.035530187
0.02280812 0.004315185 0.0053193895 -0.03158942 -0.05721827 -0.03991489 -0.07186308 -0.08864417
-0.044536818 -0.055706672 -0.020577835 -0.026103524 -0.017798088 0.021001404 -0.0029110103 0.014001959
0.029661898 -0.052802343 -0.04341999 -0.04846892 -0.023180746 -0.036671985 -0.034214213 -0.023181051
-0.057639383 -0.040041965 -0.03660281 0.012721324 0.0123786265 -0.014026109 0.021215891 0.022412166
0.02961301 0.03502856 0.062176213 -0.048816673 0.0025346782 0.02290529 -0.020166416 0.037958395
-0.0080702305 -0.019616587 0.010490258 -0.049851682 -0.046675228 -0.005350917 0.02495608 0.007690039
0.033959247 0.0140254665 0.09768755 0.0779587 0.059335973 -0.0032088603 0.050586343 0.010330076
0.033904746 0.016930921 0.07528948 0.010073721 0.0031888755 0.048870746 0.011945593 0.035607226
-0.036011394 -0.003179708 0.009950686 -0.012953184 0.01616715 0.018797103 -0.039617054 -0.020057477
-0.021938913 -0.01539356 -0.037619427 -0.06488264 -0.061919026 -0.05780926 -0.07435153 -0.020674082
-0.0775913 -0.036905967 0.05246385 -0.017139968 0.00957502 0.096485086 0.011669035 -0.0066036573
0.08534481 0.02808504 -0.017483573 0.023469036 0.019706478 -0.039861172 0.02896995 0.049057193
-0.0043701646 0.049923316 -0.017396798 0.04026427 0.05811476 0.022784187 0.008234095 0.035072543

backbone.bn1.weight f4 [32]
00000000: ad03 733f 70f4 7e3f c59e 813f 89fa 7e3f
00000010: a808 7f3f 6ef9 793f 5051 743f 3a7b 703f
00000020: a2dd 793f 2ad6 813f afec 733f 5a7b 813f
00000030: e05d 763f 83ab 733f 98fa 7d3f d817 813f
00000040: d541 7c3f 56fd 7f3f fd24 833f 1645 713f
00000050: 9c9a 7f3f c69c 7c3f 2af5 803f 28fa 773f
00000060: 5254 823f e043 883f b498 7e3f 63b5 733f
00000070: bc07 793f 7361 743f 0373 7f3f 1483 813f
0.94927484 0.9959173 1.0126578 0.99601036 0.99622583 0.97646224 0.95436573 0.9393803
0.9760381 1.0143483 0.95283026 1.0115769 0.9623699 0.9518358 0.992105 1.0085402
0.9853795 0.99995935 1.0245663 0.9424604 0.9984529 0.9867672 1.0074818 0.96866083
1.0181983 1.0645714 0.99451756 0.9519865 0.97277427 0.95461196 0.9978487 1.0118127

backbone.bn1.bias f4 [32]
00000000: 403f 1bbc d810 043d d0a7 4f3d 0094 19bc
00000010: e766 c8bc ef0a e4bc 3d2f 80bc b5ac 61bd
00000020: e248 0ebd 521a f4bc df81 41bd 6a1e fd3b
00000030: a66c e23c 81ac 7dbd 60f7 283d 3c30 cf3c
00000040: 9479 3bbd 00d0 71bc f712 50bc 36a6 35bd
00000050: b112 c13b b13d 883d a25a 133d d285 62bc
00000060: 36f5 3d3d 15cc 7c3d 7e06 7f3c 0864 f13c
00000070: e53b fe3c 9a0a 703c 1592 3a3c 7887 89bc
-0.009475529 0.032242626 0.050697148 -0.009373665 -0.02446313 -0.027837245 -0.015647525 -0.055096347
-0.034737475 -0.029797707 -0.047242995 0.007724573 0.027639698 -0.06193209 0.04125154 0.025291555
-0.045770243 -0.014759064 -0.012699834 -0.044347964 0.005892121 0.06652392 0.035975106 -0.013825851
0.04637643 0.061718065 0.015565513 0.029466644 0.03103442 0.014650965 0.011387368 -0.01678823

backbone.bn1.running_mean f4 [32]
00000000: 4693 86bf 28dd bfc0 7ed3 12c1 9ae9 ea3f
00000010: 576a 1f3f 1281 b740 905b 333f 9c7a d140
00000020: 5b28 db40 2984 3240 5bf5 183f 1c34 c1bf
00000030: e125 f4bf 50e8 293e 32dc 6240 8729 ac40
00000040: 7103 383f 7096 8ac0 675a 2abf e218 183f
00000050: f234 ccc0 867e b3c0 070e 0540 1451 0540
00000060: d4bc 3bc0 763d f0c0 25c5 d93e 9a29 17c0
00000070: 0158 b1bf 22dd 9440 7ac0 9bc0 22d4 83bf
-1.0513694 -5.9957466 -9.176634 1.835254 0.62271637 5.7345057 0.7006159 6.546217
6.848676 2.7893164 0.5974938 -1.5094028 -1.907406 0.16592526 3.5446897 5.3800693
0.7188025 -4.330864 -0.66544193 0.5941297 -6.381463 -5.6091948 2.0789812 2.0830736
-2.9334002 -7.5075026 0.42533222 -2.3619142 -1.3854982 4.6519938 -4.8672457 -1.0299113

backbone.bn1.running_var f4 [32]
00000000: d685 5942 77ff cf42 093f 2b43 0d3c 2442
00000010: 657a e241 6bf6 d042 2a7c 2442 dbf3 e042
00000020: a275 f442 7b5f 9342 c7e8 4e42 b8a6 0442
00000030: ea8b 1b42 d4c5 a241 5239 4c42 0005 8e42
00000040: 8c2c cd41 5288 8542 a14c 0342 4372 e841
00000050: a5e6 e842 c5ac da42 1de4 6142 6b17 3542
00000060: 95a9 6042 ed41 0843 4e0c 6942 9d1e 3b42
00000070: c3ff 0942 44f3 c542 fcdc 9242 20a7 0242
54.3807 103.998955 171.24623 41.058643 28.309763 104.481285 41.121254 112.47628
122.22975 73.686485 51.72732 33.16281 38.886635 20.346596 51.055977 71.009766
25.646751 66.76625 32.824833 29.055792 116.45048 109.33744 56.472767 45.27287
56.165607 136.25752 58.262016 46.779896 34.499767 98.97513 73.43161 32.663208

backbone.conv2.weight f4 [64, 32, 3, 3]
00000000: 7a14 dbbc 6ca1 b2bb ec87 8dbc 27c2 68bd
00000010: efba 873c d305 653d 406f 393d 90b4 543d
00000020: 83db 4fbb e262 5fbd 6996 5a3b be0f 3c3c
00000030: eb31 8fbd 5a00 253d 703b 0e3c e1af 81bd
00000040: 6108 493c 82e2 12bd 539f 0fbc 626e 5abd
00000050: 55fa 03bc 0307 74bd 64cf 29bd 536b 3fbc
00000060: 52a6 5abc efdc d13c b947 dfbc fcb7 b3bd
00000070: b38b 80bd 6fb8 16bb b7b0 25bd 85ae 793d
00000080: bb15 593d 3480 b13d 26bb ff3c 0257 2e3d
00000090: 15db 823c 6521 56bc 8d65 9abc 691f 3b3b
000000a0: 4872 2abc cea2 67bb 01bc 533d 7fb2 353c
000000b0: d0cf 4fba 1972 573c 34b1 87bd 7120 43bd
000000c0: ecbc 573d 1fab 0bbc 8a15 c43b e79e fcbc
000000d0: a190 753c 6b1b 7abd d476 283b cc2a d4bc
000000e0: 5db8 8ebd 4a65 4cbd 58cd 003d e183 843c
000000f0: 5103 d1bc eba9 f03c a6b2 79bd 1940 a5bc
00000100: be9c 353d b1aa 83bb eae4 f93b bfeb 313d
00000110: 793b a93c b452 18bd 75f6 7f3b a3a4 37bb
00000120: da07 70bd 28cf 493d dd00 1a3c 8473 d5bd
00000130: 17dd 03bd 4e51 5fbd 3e12 b63b 088b a5ba
00000140: fee5 54bc 8860 dbbc 27e8 653c da88 acbc
00000150: 1f94 19bd e40e 0c3d e76d a63c 71cb f13b
00000160: 9bc2 af3d ee9c c63c ceab 39bb 7af4 e0bc
00000170: 83a1 4bbd 12e8 753a 0788 a6bd ea62 343c
00000180: 074c c83c 9cf3 3b3d 1759 9e3d b9d2 b63c
00000190: 180f 95bd 1883 c9bd 880f 1c3c 5dca 70bc
000001a0: cb95 1dbb 4fbf a63d d622 323d f9cd 213d
000001b0: 0422 47bd 5526 97bc b81b b1bd 0471 a6bc
000001c0: f0d7 a93c 44c6 d9bc 3153 073d 147e 2f3c
000001d0: af41 a73c 83da a33c 9fc4 87bc 3803 013d
000001e0: 3e61 6dba a2a4 013b e566 15bd 4720 1abd
000001f0: abfa ea3c 413f 7e3c 8cb8 62bc a259 a23b
00000200: 9a70 12bc 6613 cf3c 48a0 043c 18af 2e3d
00000210: 389e 10bb 0652 c0bc 263a f83c 6a5f 3ebc
00000220: 91a7 0c3d df45 56bd b4af 24bd 78e5 0b3d
00000230: e9f1 48bd edbf 0f3d 0e67 55bd b201 07bc
00000240: 46be 883d a21b 4f3d 58e3 40bc b0db 0f3d
00000250: 5294 123c 114e e739 9c68 27bd 282b 1cbd
00000260: ecf4 efbc c49b 283d de8e 69bc c263 14bd
00000270: b699 02bd 9e79 1f3d 5058 03bd 9bed 81bd
00000280: a05d 09bb 69df 82bd 58f3 2c3c 65a5 0a3b
00000290: 4bc0 303d 2f0f abba 6c0a ebbc 2cc5 ddbc
000002a0: 1322 d13b b422 47bc ba91 893d 5f7c 97bd
000002b0: a52b f8bc 345e 273d 1c54 e6bc 5382 203d
000002c0: dff1 d93b 1f4e eabb 50ca aa3c 21b0 fbbc
000002d0: 791c a2bc 6ef2 873c d961 8f3c 5f66 0bbc
000002e0: dc6f 023e 92ad b23d f002 6b3c 7af7 0c3e
000002f0: 9b2b c43d 0c69 c13c 74d8 483c c1a9 77bc
00000300: 08f1 a33c 75b6 d33c 585d 4c3c df95 f83c
00000310: 4c92 de3c 0bc3 32bd 75b6 6fbd 011f 2bbb
00000320: b6cb 59bd 2433 1abd 3c81 cbbc 03aa 63bd
00000330: 0281 943d 5672 8d3d c072 1abb bd46 8ebd
00000340: ddaa e83b d91c edbb 6165 6a3d ce3d 293d
00000350: b72a 05ba 387a 793d 033f 853d 4560 433d
00000360: 71f2 153d 0adf 9a3b 7855 583d 8b53 993c
00000370: e81d 173d 71e1 adbc e2fb 5dbd 3c3c 89bd
00000380: e48d 023d f98d 67bc fab8 5a3d 5ac3 9d3b
00000390: 17aa 41bd 26ff 273c b42a 7a3c 2be1 d8bd
000003a0: 217c 15bc eef1 45bd 1d9e 1fbd 884d 353c
000003b0: 8714 85bd ab74 b63c 4b8d 2dbd 211e 4fbc
000003c0: d12f c2ba 063b 1e3d 8be6 173d ce1b 0bbd
000003d0: e1b4 a7bc 6f7a a8bc 884b b4bc 52aa e2bc
000003e0: ee9f e3bc 479d 853c 844a 933d ccc2 e03b
000003f0: 0089 f63c 6e9a 9cbd 7e63 9ebd 5d78 5cbc
-0.026743162 -0.005451372 -0.017276727 -0.056825783 0.01656863 0.055913758 0.045272112 0.05193001
-0.0031716533 -0.05453766 0.0033353812 0.011478363 -0.06991943 0.04028354 0.008681163 -0.06332374
0.012270064 -0.035860546 -0.008766013 -0.053327926 -0.008055289 -0.059577 -0.04145755 -0.011683303
-0.013345318 0.025618045 -0.02725588 -0.087753266 -0.062766455 -0.0022998115 -0.04045173 0.06095745
0.05299924 0.08667031 0.031217169 0.042563446 0.015973607 -0.013069485 -0.018847251 0.0028552657
-0.010403223 -0.0035344842 0.051692966 0.01108992 -0.000792739 0.013149762 -0.06625596 -0.04763836
0.052670404 -0.008524685 0.005984013 -0.03083749 0.0149880955 -0.061061304 0.0025705593 -0.025899313
-0.06968758 -0.049901284 0.03144583 0.016176166 -0.025514277 0.029377898 -0.060961388 -0.020172166
0.044338934 -0.0040181507 0.0076261656 0.043437716 0.020658242 -0.037188247 0.0039056812 -0.0028021715
-0.058601238 0.049269825 0.00939962 -0.104224235 -0.03219327 -0.054520898 0.005556374 -0.0012629936
-0.012994288 -0.026779428 0.0140324 -0.02106135 -0.037494775 0.03419389 0.020316077 0.0073789884
0.0858204 0.024244752 -0.0028331163 -0.027460326 -0.049714576 0.00093805895 -0.08131414 0.011009911
0.024450315 0.04588662 0.07731836 0.022317277 -0.072782695 -0.09839457 0.009525187 -0.014696685
-0.0024045582 0.08141958 0.043490253 0.03950307 -0.048616424 -0.018450895 -0.08647865 -0.020317562
0.02073285 -0.026583798 0.033038322 0.010711212 0.020417063 0.020001655 -0.016573248 0.03149721
-0.0009055323 0.0019781967 -0.03647508 -0.03762844 0.02868398 0.015518011 -0.013837945 0.0049545327
-0.008937979 0.025277805 0.008094855 0.04264745 -0.0022066962 -0.023476612 0.030301165 -0.011619428
0.03433949 -0.052312728 -0.040206626 0.034154385 -0.04905883 0.035095144 -0.052100234 -0.00824015
0.06676917 0.050563462 -0.011772953 0.03512162 0.008946495 0.00044117917 -0.040871248 -0.038127095
-0.029291593 0.041164175 -0.014255254 -0.03622795 -0.03188487 0.038934343 -0.032066643 -0.06344148
-0.0020960346 -0.06390268 0.010556065 0.0021155712 0.043152135 -0.001305079 -0.028691493 -0.027071558
0.006382236 -0.01215427 0.06717248 -0.07396769 -0.030294249 0.040861323 -0.028116278 0.039186787
0.0066511477 -0.007150426 0.020848423 -0.030723633 -0.019788967 0.016595092 0.017502712 -0.008508294
0.12737983 0.08724512 0.014343962 0.1376628 0.095786296 0.02360966 0.012258638 -0.015116156
0.020012394 0.025843838 0.012473427 0.030344902 0.02716937 -0.04364304 -0.058523614 -0.002611101
-0.05317279 -0.037646428 -0.024841897 -0.055582058 0.07251169 0.069065735 -0.0023566931 -0.06947086
0.0071004466 -0.007236105 0.05722559 0.041318707 -0.00050799124 0.060907573 0.06506159 0.04769923
0.036608163 0.0047262954 0.052815884 0.018716594 0.036893755 -0.021225663 -0.054195292 -0.06700942
0.0318736 -0.01413297 0.053399064 0.0048145475 -0.04728135 0.010253703 0.01526897 -0.105898224
-0.009123833 -0.048326425 -0.038969148 0.011065848 -0.06498056 0.022272428 -0.042371076 -0.012641461
-0.0014815276 0.038630508 0.037085097 -0.033962063 -0.020471992 -0.020566193 -0.022008672 -0.027669106
-0.027786221 0.016310347 0.07191947 0.006859159 0.030094624 -0.076466426 -0.077338204 -0.013456431

backbone.bn2.weight f4 [64]
00000000: 2f55 7f3f 8d8d 783f 87ea 743f bd2c 763f
00000010: 2af8 893f 5458 7d3f 518c 7a3f acaa 773f
00000020: 79a6 843f f995 7a3f 758c 743f cb6c 863f
00000030: 612d 813f 011e 753f 654d 883f 2bfe 883f
00000040: 3dd1 703f 8865 813f 59fe 703f 9bd6 7c3f
00000050: 9f6d 823f 1cd9 7d3f 992e 823f b0a3 843f
00000060: 624d 863f 55aa 733f b2a7 6f3f 28f5 773f
00000070: fd9d 853f db36 813f de88 8a3f 4371 823f
00000080: 0876 743f d824 7e3f 3add 813f 3b7c 7f3f
00000090: fae8 843f b289 753f 8143 813f df8d 7d3f
000000a0: 9171 843f 3209 7f3f 0943 7b3f 8868 703f
000000b0: 4ce3 833f d85d 843f 3fd2 6b3f 5715 7b3f
000000c0: 9ef9 8d3f 7bef 773f 9cf8 893f 36c2 803f
000000d0: 9377 773f 5e32 8d3f 2404 803f a5a3 853f
000000e0: 18c5 7e3f 853b 803f 6430 813f af4e 803f
000000f0: cd08 773f e44d 7c3f d446 7e3f e1df 823f
0.99739355 0.9709099 0.9567036 0.96162015 1.0778859 0.98962903 0.97870356 0.967448
1.0363303 0.9788509 0.9552682 1.0501951 1.0091974 0.9574891 1.0648619 1.0702566
0.9406927 1.010911 0.94138104 0.9876496 1.0189704 0.9915941 1.017047 1.0362453
1.0492365 0.9518178 0.9361526 0.96858454 1.0438839 1.0094866 1.0823019 1.0190815
0.954926 0.9927497 1.0145638 0.99798936 1.0383599 0.9591323 1.0098726 0.99044603
1.0347158 0.99623406 0.9814916 0.939095 1.030374 1.0341139 0.92117685 0.98079437
1.1091802 0.96849793 1.0778995 1.0059268 0.9666683 1.1030996 1.0001264 1.0440565
0.9951949 1.0018164 1.0092893 1.0024012 0.96497804 0.9855635 0.99326825 1.0224572

backbone.bn2.bias f4 [64]
00000000: cf5f f0bc 1900 8dbc 8a99 dfba 9035 4bbc
00000010: 425a cbbc d04c 043c 5902 623b 4bbe 21bd
00000020: 9144 01bd 2fad f2bc 8ed6 81bb 8ea7 d5bc
00000030: 82b5 453d bbdc 5d3d 4a08 f0bc 662a d13c
00000040: 378f 76bd dbb2 cbbc 6380 1c3a cbd7 b1bc
00000050: ce52 8e3b 0c22 80bc d123 c93c e9e5 0f3d
00000060: 1c67 28bd 12e9 1fbd fc8e 78bd 7f4d d1bb
00000070: ad15 423d 5197 4cbd afa9 f13d c608 a23c
00000080: 3478 08bd f306 613d 9c2d d3bc ad08 52bb
00000090: 2a9b 11bc 8f5b 0c3b 514c 7abc bfa5 68bb
000000a0: e51f 6cbd 5672 debc 0118 a6bb 3f05 2bbd
000000b0: 9b80 82bd bab6 163d 1cff aebd 5309 adbc
000000c0: 15d5 2cbd 3625 8abd 5347 49bd c8f1 4a3d
000000d0: 6b0b 12bd 7ac8 ffbb 3e13 d5bb f0d4 60bb
000000e0: dd1f 9abd 41a8 0cbd 18b0 863d 9f89 0c3d
000000f0: 0adc acbd 98e7 49bd b7f3 9b3b 10c1 4abd
-0.02934256 -0.01721196 -0.0017059308 -0.012402907 -0.024823312 0.008074954 0.0034486263 -0.03948812
-0.03155953 -0.029623596 -0.0039623445 -0.026080873 0.048268802 0.054165583 -0.029300828 0.025532912
-0.060195174 -0.024865558 0.0005970059 -0.021709343 0.004343367 -0.015641235 0.024553211 0.03513137
-0.041113958 -0.039040633 -0.060683236 -0.006387412 0.047383953 -0.049948994 0.11799943 0.019779574
-0.03331776 0.054938268 -0.025778584 -0.0032048628 -0.008887092 0.0021416878 -0.015276984 -0.0035499183
-0.057647604 -0.027154129 -0.0050687795 -0.04175305 -0.06372186 0.036795355 -0.08544752 -0.02112261
-0.0421954 -0.06745379 -0.049140286 0.049546987 -0.03565542 -0.007805881 -0.006502538 -0.0034306608
-0.07525609 -0.034340147 0.06576556 0.034310933 -0.084404066 -0.04929313 0.0047592777 -0.049500525

backbone.bn2.running_mean f4 [64]
00000000: 1d7d 18bf f3f6 72be 841d a7be e50a 20bf
00000010: 46f1 333f e6eb 87bf bac5 2fc0 906f bf3f
00000020: 1b2e 7bbe e64d 82bf 203c 773f 3318 8b3e
00000030: 51ca 97bf 5940 34bf 6fa3 e43e 26b7 f7be
00000040: b577 f6bd eac7 0ac0 785a 083e c21e 18be
00000050: 1a3c 8b3e 5a23 103e a32f 00bf 142c bdbf
00000060: 11f1 7abf 09c8 06bf 0154 313e cd58 813e
00000070: 09a6 03c0 bccb 273f b167 30c0 1156 1ac0
00000080: 40df 0cbf 4fc6 0ec0 dc3c 643f eb1a 7dbf
00000090: 0dd5 0dbf 53b5 ccbf b30d 203e e033 f8bf
000000a0: 2471 113f d8ee c8bf ef45 29c0 c9cd 803d
000000b0: ce72 293e ee03 84be 0bf0 d5bd 801a 15c0
000000c0: ac57 2a3f 105c a4bd 71ab b53d c12c e3bf
000000d0: e9ec 0740 b701 253f 30f5 acbf f673 ac3d
000000e0: 2670 663f 3653 d1be cb7f 49c0 bd74 8dbe
000000f0: fb24 f83e 4893 a63e 0720 b73f 459a b0be
-0.5956591 -0.23727016 -0.32639706 -0.62516624 0.7029003 -1.0618865 -2.7464433 1.4955921
-0.24529307 -1.0180023 0.9657612 0.271669 -1.1858617 -0.70410687 0.4465594 -0.4838192
-0.12034551 -2.1684518 0.13315761 -0.14855483 0.2719429 0.14075986 -0.5007269 -1.4779077
-0.9802409 -0.5264898 0.17317201 0.25263062 -2.057009 0.6554525 -2.7563288 -2.411503
-0.5502815 -2.2308538 0.89155364 -0.988692 -0.55403215 -1.5992836 0.15630226 -1.9390831
0.56813264 -1.5697889 -2.6448934 0.062892504 0.16547701 -0.25784248 -0.10446175 -2.3297424
0.66540027 -0.08025372 0.088705905 -1.7748033 2.1238348 0.6445574 -1.3512325 0.08420555
0.90014875 -0.40883797 -3.1484249 -0.27628127 0.48465714 0.32534242 1.4306649 -0.34492698

backbone.bn2.running_var f4 [64]
00000000: a018 f83f db2e f03f 69be 4c40 93a2 1440
00000010: 0a44 1d40 3437 0f40 4d51 9240 ea18 2b40
00000020: d468 2740 c51e 2640 4fdd b03f 29e5 d53f
00000030: 0505 1240 45ca e33f 96ac bb3f 9f25 e53f
00000040: 0a58 f73f c58a 0540 3f1f 1f40 f0d6 1840
00000050: 1938 d43f 6174 b83f 922f 5840 d568 9940
00000060: 3f76 0840 c3cf e23f 7d7d 6140 d37c f03f
00000070: 1ff2 0640 d10c 2340 d833 6f40 190b 3840
00000080: c9ce 2240 3aa6 5d40 2c8f 1640 9975 5e40
00000090: 376a fc3f 2ba4 4240 506d 3740 1b5d 2840
000000a0: b21a 1d40 cfc9 b63f 6709 9c40 0d85 3f40
000000b0: 5bf5 0a40 11d5 c13f 7d7b d03f 9dbd 5540
000000c0: 47fd f73f e551 0440 b6b8 933f 290c 8c40
000000d0: 844c 8540 eddd d23f 9129 2940 a0b2 bb3f
000000e0: 1aad a33f 817c 1e40 dcc1 7640 3db7 6040
000000f0: 51ef 5340 4361 5040 3b94 af3f e97b dd3f
1.9382515 1.8764299 3.1991217 2.3224227 2.4572778 2.2377443 4.5724244 2.6733956
2.6157732 2.595628 1.3817538 1.6710559 2.2815564 1.7796103 1.4662044 1.7902106
1.9323742 2.0865948 2.486282 2.3881187 1.657962 1.4410516 3.3779035 4.794047
2.1322172 1.7719654 3.5232842 1.8788093 2.108528 2.5476573 3.7375393 2.8756773
2.5438712 3.4632707 2.3524885 3.4759276 1.9719914 3.04127 2.866047 2.6306827
2.4547544 1.4280337 4.8761477 2.9924958 2.1712253 1.5143148 1.6287686 3.339698
1.9374169 2.0674984 1.1540744 4.3764844 4.1655903 1.6473976 2.643162 1.4663887
1.2787201 2.476349 3.8555822 3.511184 3.3114817 3.2559364 1.3717111 1.7303439

backbone.conv3.weight f4 [128, 64, 3, 3]
00000000: ec62 9fbb ab4d 0ebc 9e4a 52bd 0a09 5e3d
00000010: 8299 6fbb 6c54 373d 55e6 ae3c 015e dd3c
00000020: 17d2 3f3d 3d55 c1bc 66ea 33bc 277f 77bc
00000030: c298 963d 6117 cd3c 3660 d9bc 6e14 0e3c
00000040: 4f88 293b fa4b c73c da71 8d3b 6f34 8dbd
00000050: 561c 26bb 0c03 523d c708 323c b6b8 df3c
00000060: 35c4 3d3d 7acb 193c a455 363d e13a d639
00000070: 1b3c 93bc d150 8cbc 27d7 9e3c 728b 7a3d
00000080: ab0b 493d e04a 02bd 6fe5 aabc a412 0b3d
00000090: 36cd 0cbb dada 063c be1d 473d aae9 393c
000000a0: 3300 7d3d 233b 8abc bac6 f93a 1bbe db3c
000000b0: a1a2 9d3c 2053 88bd bc88 35bd 1708 38bd
000000c0: 4516 4fbc 3b44 75bd ebe8 87bd 780b 10bc
000000d0: d292 b6bb 188d c8bc 08ec c7bb 9108 1b3d
000000e0: 35ef 40bd caaa dcbd 3abf 24bd ecec 66bd
000000f0: 3091 8dbd b64a 81bd 9e96 81bb 3dc9 d1bc
00000100: 2d49 0b3d 872e 053d 6a4e 73bc 4687 1f3d
00000110: 213e e53d ff07 97bc 89d0 90bc 131a bf3d
00000120: 4387 c9bc 85e2 983c 26ff 6cbc d73d 4abb
00000130: 08a7 fb3c 2b21 ffbc 7e13 86bc a92e 21bd
00000140: b941 70bd cb10 6d3d 5774 733d cce3 583c
00000150: f2c4 71bc 989e 823d 0b83 093d 3ca1 49bd
00000160: 0036 b9bc a1e8 1c3d 19cd d93c 7df0 cd3c
00000170: c156 093d d34f e8ba a8de 9c3c cdbc 233d
00000180: 0f06 11bd 1b8e 8fbd a7ad 233d cbbc edbc
00000190: 89e9 b2bc b0a6 4b3d e5b8 003d 6bb3 8b3a
000001a0: 0d7e e9bb 5dc1 943d f303 263d 243f 1b3d
000001b0: 3600 5d3a f4c4 3abc 985f 1eba ccbe 72bc
000001c0: 822e ab3c ecc9 0abd b89f 293c 2b61 003d
000001d0: c36a dd3b cce5 873c 1b5e 833c df3e 0cbc
000001e0: e9e0 3a3c 38b7 963c dc05 a43c 9943 53bd
000001f0: 06db 4c3d f3d9 813d e9d9 f5bb 9f43 0b3d
00000200: 51f1 f13d 99ce 8b3d 5243 d43c ed62 013e
00000210: 4120 6b3d 273f eb3c 2b33 903d 2375 6cbd
00000220: 8956 153c 4450 ff3c 1471 573d 6d18 e33c
00000230: 4fe1 52bc 7a9d d53c 0a97 363d e057 863d
00000240: 6416 aabc 6b7f 11bb aadd ca3b 131b e23c
00000250: bcbe 1abd 9737 4bbc bbec 14bd f728 b83b
00000260: efe3 d1bc b383 763c 3521 d33c e4eb b93c
00000270: 3ad7 6a3c 3091 51bc 0a76 68bc 12f7 f1bc
00000280: 122a 07bd e1d3 c0bc 0b91 15bd 42f0 0f3d
00000290: 6b5f 2f3c 39a9 26bb 9449 ddbc 3302 f3bc
000002a0: e626 e9bb 0c0b e539 7667 503c 8a1d 63bb
000002b0: 3319 a8bc 5ce8 303d 7f8b 8dbd 7842 8dbc
000002c0: fde5 7d3d f89a 603c f27d 963b bed1 653d
000002d0: 2367 393d 7a99 e6bc 7420 d93c 218b f93c
000002e0: 372b 293d 8f8d 523d 573c 4a3d a18c a03d
000002f0: 9167 ae3d cc20 cebc c79e 6c3c 5d79 793d
00000300: 271c 003b b665 73bd 7cf4 883c 0ad6 883c
00000310: 9f09 28bd 8064 3cbc 8ccb 38bc 5afc 613d
00000320: e066 98bc d297 133c 775c 95bc 7312 0a39
00000330: e3d3 9dbc 99d4 bebc adc4 063d 36e0 ac3b
00000340: 02ab 833d d1c9 523c c85a 8dbc a1ba 693d
00000350: ce93 99bd 4678 cc3c 2d07 50bc ff6d debc
00000360: 926b afbc 61aa ad3c 0d5c fbbc 01ec 89bb
00000370: 5f8f 193d 1358 67bd 4872 0e3c b609 9dbc
00000380: 4037 8abb 2be6 4fba aed9 633c 29fc fe3c
00000390: 705d 49bd f2c9 dd3b e7e9 a83c daf3 0abd
000003a0: 2258 5ebc 073c 3ebb 3c73 753c af49 f0bc
000003b0: 945a ae3c a356 d73b 5e96 833c 5da3 9c3b
000003c0: 280b 7fbc 377c 1ebc afb9 24bc eb3b 113c
000003d0: 08b6 adbc a569 3a3d 2137 d1bc d6a4 2b3d
000003e0: 1075 81bd 889f 0e3c 319f 9a3a 72fb d8bc
000003f0: 6620 a43c 9ed0 30bb a9fd 5dbd e421 473d
-0.0048640873 -0.00868551 -0.05134069 0.05420784 -0.0036560004 0.044758245 0.021350065 0.027022364
0.046831217 -0.023600215 -0.010981178 -0.015105999 0.07353355 0.025035562 -0.026535135 0.008671863
0.00258686 0.02432822 0.0043165507 -0.068947665 -0.002534648 0.051272437 0.0108663505 0.027309757
0.046329696 0.0093868915 0.044515267 0.0004086113 -0.017972996 -0.01712838 0.019389702 0.06116814
0.049083393 -0.031809688 -0.020861356 0.033953324 -0.002148462 0.008230889 0.04861235 0.011347214
0.061767768 -0.016873902 0.0019056418 0.026824048 0.019242587 -0.0665648 -0.044319853 -0.04492959
-0.012639587 -0.059879523 -0.066362225 -0.008791797 -0.0055717016 -0.024481341 -0.006101135 0.037849966
-0.047103126 -0.10774763 -0.04022143 -0.05637829 -0.06912458 -0.06313078 -0.0039547225 -0.025608653
0.034005333 0.032515075 -0.014850238 0.038947366 0.11193491 -0.01843643 -0.017677562 0.09331145
-0.02460063 0.0186627 -0.014465129 -0.0030859613 0.030719295 -0.031143745 -0.016366716 -0.03935114
-0.058656428 0.057877343 0.059437122 0.013237905 -0.014756428 0.063779056 0.033572238 -0.04922603
-0.022608757 0.03830779 0.026587056 0.025139088 0.03353 -0.0017723985 0.01914914 0.039974976
-0.03540617 -0.07009526 0.03996053 -0.029020688 -0.021839874 0.049719512 0.03142633 0.0010658329
-0.007125622 0.072634436 0.04053111 0.037902012 0.00084305124 -0.011399496 -0.0006041466 -0.014815997
0.0208962 -0.033883974 0.010353021 0.031342667 0.0067571118 0.016589068 0.016036084 -0.0085599115
0.011406162 0.018397912 0.020022325 -0.051578138 0.050013565 0.06340399 -0.0075027836 0.034000035
0.118136056 0.06826515 0.025911007 0.12635393 0.057403807 0.028716637 0.070410095 -0.057728898
0.00911487 0.031166203 0.052598074 0.027721608 -0.012871101 0.026076067 0.044577636 0.065597296
-0.02076263 -0.0022201191 0.006190975 0.0276008 -0.037779555 -0.01240339 -0.036358576 0.0056201178
-0.025621383 0.015046048 0.02577267 0.02269549 0.014333541 -0.012790963 -0.014188299 -0.029536758
-0.032999106 -0.023538532 -0.036515277 0.035141237 0.010703902 -0.0025430454 -0.027012624 -0.029664135
-0.0071152328 0.00043686514 0.0127199795 -0.0034655058 -0.020519828 0.043190345 -0.069113724 -0.017243609
0.061986912 0.013708822 0.0045926506 0.05610823 0.045264374 -0.028149355 0.026504733 0.03046185
0.04130098 0.051404532 0.04937395 0.07839323 0.085158475 -0.025162123 0.014442152 0.060906757
0.001954803 -0.05942317 0.016718142 0.016703624 -0.0410248 -0.01149857 -0.011278998 0.0551723
-0.018603742 0.009008365 -0.018232567 0.00013167578 -0.019266075 -0.023294734 0.03290241 0.0052757515
0.064291015 0.0128655 -0.017255202 0.05706275 -0.07498895 0.024959695 -0.012697023 -0.02715206
-0.021413598 0.021199407 -0.030683542 -0.004209042 0.037490245 -0.05648048 0.008694239 -0.01916967
-0.004218012 -0.0007930721 0.013906879 0.031126099 -0.049161375 0.0067684585 0.020619346 -0.03392396
-0.013570817 -0.0029027478 0.014981087 -0.02933201 0.021283425 0.006571607 0.016062912 0.0047802166
-0.015566625 -0.00967317 -0.010054036 0.008864383 -0.021204963 0.045510907 -0.025538983 0.041905247
-0.06321156 0.008705027 0.001179671 -0.026487086 0.02003498 -0.0026979814 -0.054196987 0.048616305

backbone.bn3.weight f4 [128]
00000000: 7dbd 873f e086 7f3f e5d4 843f 7712 733f
00000010: d5a5 873f d531 873f 28e3 783f a9a7 863f
00000020: e402 873f b960 823f d1b8 833f 6c5f 853f
00000030: 66af 823f 8233 833f 5478 7a3f 6441 863f
00000040: cea8 803f ee02 873f c705 893f 2e0f 843f
00000050: 6eed 7d3f dc90 873f 1165 843f edff 893f
00000060: e427 833f b1db 853f 7a37 833f b5b7 853f
00000070: 2922 883f 1623 883f 30a2 7c3f aba7 7e3f
00000080: cfa1 813f 209d 753f 114f 833f 50b1 843f
00000090: ff86 843f 9008 863f 10c1 763f dcc4 873f
000000a0: 32c3 833f 660e 843f 48b5 863f 15aa 823f
000000b0: dd24 843f e773 893f 7cb7 7e3f 32ac 7b3f
000000c0: 6d4e 833f c5cb 853f c921 843f 7645 863f
000000d0: ee16 823f a25c 833f 8d76 873f c396 813f
000000e0: 51b4 803f 3d3f 863f 1e54 743f 59c4 873f
000000f0: 5337 833f d76f 823f 8269 7c3f b3ee 7f3f
00000100: 33b3 6b3f 0cac 833f 79c3 813f 005e 853f
00000110: 5dfc 843f c7e5 843f 5001 7f3f ce06 883f
00000120: f601 6f3f 6863 803f 6ff7 7e3f 7572 7e3f
00000130: 75eb 823f ab1e 7e3f dae4 823f 34b1 893f
00000140: 3383 873f 7150 793f 76e8 803f c46d 823f
00000150: 9920 843f 8ed2 843f 9e2e 7e3f 2177 763f
00000160: 16fe 853f a3b7 893f 083f 833f 6a07 8a3f
00000170: 3d5d 7d3f 020b 843f 2566 813f 4886 823f
00000180: 7827 833f 3fa8 8d3f 8535 813f bd3f 7e3f
00000190: d6f3 793f ed02 823f f967 843f 5374 7f3f
000001a0: 1a3c 843f 1537 843f a108 833f 54ad 8a3f
000001b0: a263 823f ead3 803f 2c1f 803f 8c34 833f
000001c0: 6b20 853f 51dd 883f 3dd7 883f d368 853f
000001d0: 584f 823f 5116 7b3f 06fb 793f b1e9 863f
000001e0: 163e 863f 6334 843f afb4 813f d761 863f
000001f0: 4101 633f 9743 823f d14a 813f 5180 793f
1.0604702 0.9981518 1.037747 0.9495005 1.0597483 1.0562083 0.9722161 1.0519916
1.0547757 1.0185767 1.0290776 1.0419745 1.0209777 1.0250094 0.97839856 1.0488706
1.0051515 1.0547769 1.0704888 1.0317132 0.99190414 1.0591083 1.0343343 1.0781227
1.0246549 1.045767 1.0251305 1.0446688 1.0635425 1.0635707 0.9868498 0.9947459
1.0127505 0.9594288 1.0258504 1.0366611 1.0353698 1.0471363 0.9638834 1.0606952
1.0293944 1.0316894 1.0524073 1.0208155 1.032375 1.0738496 0.99498725 0.98309624
1.0258309 1.045281 1.032281 1.0489948 1.0163248 1.0262644 1.0583054 1.0124134
1.0055028 1.0488049 0.9544085 1.0606796 1.0251259 1.0190381 0.9859849 0.999736
0.9207031 1.028688 1.0137779 1.0419312 1.0389515 1.0382622 0.9961138 1.0627077
0.9336237 1.0030336 0.99596304 0.993934 1.0228106 0.99265546 1.022609 1.0757203
1.0586914 0.9738837 1.0070941 1.0189748 1.0322448 1.0376756 0.9928988 0.96275526
1.0468166 1.0759166 1.0253611 1.0783513 0.98970395 1.0315859 1.0109297 1.0197229
1.024642 1.106697 1.0094458 0.99316007 0.9763769 1.0157143 1.034423 0.9978687
1.0330842 1.032931 1.0237008 1.0834146 1.0186656 1.0064671 1.0009513 1.0250411
1.0400518 1.069254 1.0690686 1.0422615 1.0180464 0.9808093 0.97648656 1.0540067
1.0487697 1.0328487 1.0133265 1.0498608 0.8867379 1.0176877 1.0100957 0.9746142
